env2 DQN/log/dqn/ckpt/149000.pth (torch, 14216 bytes, 4 tensors)

linear.weight f4 [512, 2]
000000 a0 18 26 3e d0 4f 2c be 12 65 9f be 46 24 72 c0
       0.16220331 -0.16827321 -0.31131798 -3.783464
000010 93 a1 00 be 2b bf 73 c0 45 12 1a bf 94 c4 b0 c0
       -0.12561636 -3.808543 -0.6018413 -5.5239964
000020 82 5d e2 be 1d 46 a6 c0 9e 7a c8 be db 4f 87 c0
       -0.44211966 -5.1960588 -0.3915605 -4.228498
000030 d3 37 11 bf 4c bd 78 c0 46 2d be be 4c c7 35 c0
       -0.56725806 -3.8865538 -0.37143916 -2.840289
000040 a5 d8 a5 be 9c 85 7b c0 d2 4b 38 bf 0b 6f 2f c0
       -0.3239185 -3.9300299 -0.7199069 -2.7411525
000050 66 83 f3 bf c4 b4 2e c1 d0 9f f3 be 39 43 50 c0
       -1.9024475 -10.919132 -0.47582865 -3.254103
000060 e8 ac 89 bd 98 a9 3e 3e 90 08 0b bd ee b8 ca be
       -0.067224324 0.18619382 -0.033943713 -0.39594215
000070 fe 09 2c bf 0d 0c b1 c0 47 30 61 bf 9c b1 bd c0
       -0.67202747 -5.532721 -0.8796429 -5.927931
000080 2c 69 2a 3e 3a 46 ee 3e c0 ad 0e 3d 6f f4 a5 be
       0.16641682 0.46537954 0.03483367 -0.3241305
000090 82 ec f4 bd ea 09 72 c0 0e 8d 28 bf 90 35 b3 c0
       -0.11959173 -3.781855 -0.6584023 -5.6002884
0000a0 b2 5c 63 be 83 bb 27 bf 60 0b 15 3c bb 63 41 c0
       -0.22203329 -0.65520495 0.00909695 -3.021712
0000b0 5c 65 ba be c4 2e 2c 41 f2 76 33 bd 5d 9e 78 c0
       -0.36405456 10.761417 -0.043814607 -3.8846657
0000c0 02 e0 a8 be 7b 9f 6d c0 da 2e c1 3e c2 32 f3 3e
       -0.32983404 -3.712859 0.37731057 0.47499663
0000d0 30 e8 c3 bf 7e 2f a9 40 2f 9c f2 be db 48 9f c0
       -1.5305233 5.2870474 -0.47384784 -4.9776435
0000e0 14 26 13 be 06 9c d2 3e 58 4c b5 be 4f 90 62 c0
       -0.14369994 0.4113466 -0.35409808 -3.540058
0000f0 5c 1a 05 3c 4b 29 93 c0 3f 55 69 be 0e 30 24 c0
       0.00812396 -4.5987906 -0.22786425 -2.565433
000100 11 16 17 3e 1a 54 5e c0 56 2d 33 be a9 b6 98 c0
       0.14754511 -3.4738832 -0.17497763 -4.7722974
000110 f7 51 09 bf 1e 9f 9b c0 04 3d 66 bf f6 ae 81 c0
       -0.53640693 -4.8631735 -0.8993685 -4.0526075
000120 8a 54 3f bf db a2 9a c0 39 4e e8 be 30 0c 6c c0
       -0.7473837 -4.83238 -0.4537218 -3.6882439
000130 0a b7 b8 be 92 cb 8e c0 a9 c2 20 bf 17 f3 aa c0
       -0.36077148 -4.46235 -0.6279703 -5.342174
000140 f3 e4 19 3f a8 c2 b1 bd 14 0c 71 bf 5d 73 54 c1
       0.60114974 -0.08679706 -0.94159055 -13.278165
000150 e2 d7 fe bd f7 de 7c c0 30 d9 87 bd 56 83 9c 3e
       -0.1244352 -3.9511087 -0.06633222 0.3056895
000160 54 14 0b bf 68 ea 7e c0 b8 b2 8b bd 3d 3e fe be
       -0.54327893 -3.983057 -0.06821197 -0.4965686
000170 7d 42 b9 3f f4 f5 51 c0 33 d7 34 bd cb 10 20 c0
       1.4473416 -3.2806368 -0.044150542 -2.501025
000180 4b 37 1b bf c9 87 b1 c0 0c 7f 26 bf b0 aa be c0
       -0.60631245 -5.5478253 -0.6503761 -5.958336
000190 3a 4c 84 be 88 57 e9 bd b3 89 0a bf e3 17 5e c1
       -0.25839406 -0.113936484 -0.5411636 -13.880832
0001a0 0e 63 cd 3e f0 7b 65 3e 5e 0f e6 3e bb fc 07 3f
       0.40114635 0.2241056 0.449336 0.5312001
0001b0 eb d1 ca bf cb 31 15 c1 8a 36 11 40 01 20 bc c0
       -1.5845312 -9.3246565 2.2689538 -5.8789067
0001c0 1d cf 3d bf 3d cf a1 c0 20 7c 37 bf 46 89 ad c0
       -0.74144155 -5.0565476 -0.71673775 -5.423007
0001d0 ac b5 06 bf 30 26 41 c0 8e d5 de be e1 37 68 c0
       -0.5262096 -3.0179558 -0.43522304 -3.6284106
0001e0 b8 f1 95 3d 21 12 35 c0 05 55 4d bf f6 24 9e c0
       0.07321495 -2.8292315 -0.80207855 -4.942012
0001f0 0e bf ee 3e 09 c4 01 bf 55 e7 1d bf e2 14 57 c0
       0.46630138 -0.5068975 -0.6168111 -3.3606496
000200 c1 54 76 bf 91 69 af c0 ee 5f f5 be 34 9f 61 3e
       -0.96223074 -5.4816365 -0.4792475 0.22033387
000210 ff 30 31 bf 67 97 93 c0 4c 56 8c 3e a6 20 b7 3e
       -0.6921539 -4.6122317 0.2740959 0.35767096
000220 99 ce 0a be e5 5a 93 c0 2d db ac 3e e1 9e 72 c0
       -0.13555373 -4.6048455 0.33760968 -3.7909472
000230 23 bd 7d bf e0 40 a2 c0 92 77 ec 3e b6 ba a6 3e
       -0.99116725 -5.0704193 0.46184975 0.32564324
000240 09 8a fb be 9b 79 8a c0 bd b0 58 bf 98 e7 83 c0
       -0.4912875 -4.3273444 -0.8464468 -4.1220207
000250 75 c0 4e 3e 6e 2c 80 c0 a3 b2 35 c0 6b 28 19 40
       0.20190604 -4.0054235 -2.8390281 2.393092
000260 6a 14 18 c0 a8 78 02 c1 aa a7 72 be df 9d 1a bf
       -2.376246 -8.154457 -0.23696771 -0.6039714
000270 9b 24 1c bf ee 96 9c c0 46 bd 0d 3e 93 58 59 c0
       -0.60993356 -4.893424 0.13841733 -3.3960311
000280 ed 2d 6f bf 69 96 3c c0 90 bd 6d 3d c4 e1 30 bf
       -0.9342945 -2.9466803 0.05804211 -0.6909449
000290 20 63 09 3d 5e 68 e8 3e 20 b2 1c bf 76 e4 ab c0
       0.0335418 0.45392126 -0.612093 -5.3716383
0002a0 af 5f b4 be 2c bc 0e bf 52 36 42 bf 61 da a8 c0
       -0.3522925 -0.5575588 -0.75864136 -5.2766576
0002b0 de 06 ea 3e bc 8c 06 be dc 13 94 bf 40 09 2c c1
       0.45708364 -0.13139623 -1.1568561 -10.752258
0002c0 df 46 0b bf 05 35 66 c1 85 cd 92 3d 9a 3c 3d c0
       -0.54405016 -14.387944 0.07168106 -2.9568238
0002d0 a8 c5 5a bf b0 76 6c c0 cc 53 f6 bd 20 00 6f c0
       -0.8545785 -3.694744 -0.12027702 -3.7343826
0002e0 22 a0 3a bf 72 fe a2 c0 9f 6e 2b bf 4a 30 66 c0
       -0.72900593 -5.09356 -0.6696567 -3.5966973
0002f0 22 8e e1 3f 13 48 7b c0 7c c3 88 3e 19 9b 19 bf
       1.76215 -3.926274 0.26711643 -0.60002285
000300 bd b9 e8 3c 07 ed 2b 41 ab 87 1e bf 46 9e 8c c0
       0.02840888 10.745368 -0.6192576 -4.3943205
000310 60 d9 4d 3e e2 3d c4 be 68 f7 92 3e 4f 70 0a 3f
       0.20102453 -0.38328463 0.2870438 0.5407762
000320 fc b4 49 bf c5 67 ad c0 1d 4d 31 bf af 19 90 c0
       -0.78791785 -5.418917 -0.6925829 -4.503135
000330 10 15 a6 bd 62 7e e1 3e 64 80 87 3e 3c 56 69 be
       -0.08109486 0.44041735 0.26465142 -0.22786802
000340 8d 4f c1 be 02 65 96 c0 09 7f 4f bf 5d 1b ad c0
       -0.37756005 -4.69983 -0.81053215 -5.4095902
000350 dd ff b5 be f0 26 83 c0 cd 54 f9 bf 33 ec 56 c0
       -0.3554677 -4.098503 -1.9479004 -3.3581665
000360 a8 50 d5 3d 02 3b 61 be b0 2d 68 be 9b 63 3b c0
       0.104157746 -0.21995166 -0.22673678 -2.9279544
000370 bd dc b6 be da 8b 8c c0 4c e4 09 3e f2 2c 17 c0
       -0.35715285 -4.3920717 0.13465995 -2.3621182
000380 e0 37 8a bd c7 88 a3 be 9f a0 f3 be f8 c1 87 c0
       -0.067489386 -0.3194029 -0.47583482 -4.242428
000390 52 2b 77 bd 0a 9d 76 c0 e0 30 e7 3c a4 84 14 3e
       -0.060344048 -3.853335 0.028221548 0.14503723
0003a0 bc 68 3f 3e 10 dc 23 bd c2 01 4d bf b9 73 81 c0
       0.18692297 -0.04000479 -0.8008081 -4.0453763
0003b0 a7 69 03 bf d3 0d ad c0 d9 fc 99 be 80 d0 6c c1
       -0.5133309 -5.4079375 -0.3007572 -14.800903
0003c0 55 99 aa be c0 a8 8e 3e af 5b 2f bf b9 13 ba c0
       -0.33320108 0.2786312 -0.68499273 -5.8149076
0003d0 e8 43 08 3e 19 ce 49 c0 44 ff 4c 3d 50 83 05 c0
       0.13307154 -3.1532042 0.050048128 -2.0861397
0003e0 73 95 09 bf b7 ff ba c0 aa 11 75 bf b5 96 a6 c0
       -0.53743666 -5.843715 -0.9573008 -5.205897
0003f0 b9 71 59 be 9c cd 85 c0 19 4d 4f bf 41 f6 8e c0
       -0.21234788 -4.181349 -0.80977017 -4.4675603

linear.bias f4 [512]
000000 38 ee b5 bd 24 d9 4e 3e 32 03 c3 3e 96 bf a8 3e
       -0.08883327 0.2020002 0.38088375 0.32958668
000010 76 41 8f 3e 69 c9 74 3e eb 95 a6 3e 5a f2 50 3f
       0.2797963 0.23904957 0.32536253 0.816198
000020 e9 d9 57 3e 70 96 3c 3f 21 4d 80 3e a7 8f db 3e
       0.2107922 0.7366705 0.25058845 0.42883036
000030 51 1b 86 be 6f 1a 12 bf 37 89 b5 3e 1b fb f1 3e
       -0.26192716 -0.57071584 0.3545625 0.4726189
000040 21 c7 b5 be 82 21 9c be 27 36 ff 3e 74 21 b1 3e
       -0.35503486 -0.30494314 0.49846002 0.34595835
000050 69 23 08 bf 73 66 79 3e 97 2c 18 bf 9f e5 25 3f
       -0.5317903 0.24355488 -0.5944304 0.648035
000060 41 95 18 3f a1 b8 c6 be 04 de 04 3f 20 a2 8f 3e
       0.59602743 -0.38812736 0.5190127 0.2805338
000070 17 61 33 bf 3e ab 5b 3e a7 a9 2b 3f 1c 1e 57 3f
       -0.7007002 0.21452042 0.67055744 0.8403032
000080 e2 41 d2 3e 8f 55 d4 3e 0d 02 96 3e ac cf 04 3f
       0.4106589 0.41471526 0.2929844 0.5187938
000090 f3 4e d4 3e be ac 13 3f 1a b7 26 3f 71 a5 ac 3e
       0.41466483 0.5768546 0.6512314 0.33719972
0000a0 65 6c 30 bf 35 aa 98 3e 83 76 ad 3e d8 33 d6 be
       -0.68915397 0.29817358 0.3387948 -0.4183643
0000b0 0a 06 9f 3e 81 9c bd be da 84 e0 3c f1 c6 57 3f
       0.31059295 -0.37033466 0.027407099 0.84287935
0000c0 76 a7 a9 3e e9 0a b4 3e ad 17 d5 be a8 6d 8b 3e
       0.33135575 0.35164574 -0.41619626 0.272321
0000d0 72 03 db be 39 61 11 bf 82 7f 53 3e 1c 33 27 bb
       -0.42776066 -0.56788975 0.20654109 -0.0025512641
0000e0 46 10 cd 3e 85 62 be 3e 6c 1a 3f 3f 92 96 3f 3f
       0.40051478 0.3718454 0.7464969 0.7483913
0000f0 4f b2 1e 3f 19 d7 e3 3e 7b 91 b4 be 1a 98 1e 3f
       0.6199083 0.44500044 -0.35267243 0.6195084
000100 c2 57 0c 3f 68 56 2b bf 1f d7 23 3f e0 0e 14 bf
       0.5482141 -0.6692872 0.64000124 -0.578352
000110 66 46 00 3f c1 4c 3a 3f 73 02 12 3f 70 99 1f bf
       0.5010742 0.7277337 0.5703499 -0.623435
000120 96 d2 8a 3e b4 c5 fa 3e 04 20 e9 3e c5 ea ae bf
       0.2711379 0.4897896 0.45532238 -1.3665396
000130 ce f0 7b 3e de 3b a5 be e4 64 a6 3e 15 38 d1 3e
       0.24603578 -0.32272238 0.32498848 0.408631
000140 b4 81 5d 3f 90 fc 36 be 12 6a 6b be 8e bf a7 3e
       0.86526036 -0.17869782 -0.22989681 0.32763332
000150 57 03 1e bf 20 69 cd 3e 6b 9a b4 be fd 78 84 3e
       -0.61723846 0.40119267 -0.35274062 0.25873557
000160 f5 65 8d 3e eb ee 4a 3f 6b 44 50 3f 11 2e f9 3e
       0.2761685 0.7927081 0.813544 0.48667958
000170 84 a8 c9 3e 38 91 3e 3f e7 6c ae 3c c8 ac 8e be
       0.3938638 0.74440336 0.021292163 -0.27866197
000180 d8 8d ae bc 7e 4b 47 3f 03 f8 0d bf 46 e0 2e bf
       -0.02130787 0.77849567 -0.5545656 -0.68310964
000190 47 45 dc 3e ef 78 34 3f e3 59 18 bf 64 89 e9 be
       0.43021604 0.7049703 -0.59512156 -0.45612633
0001a0 b4 b0 7a 3e 03 f8 e3 3e a6 8f 1c 3f 1e 93 71 3e
       0.2448147 0.44525155 0.6115669 0.23591277
0001b0 35 91 af be 9c f6 a2 3e 00 1b 2b 3f 29 e7 cc 3e
       -0.34290472 0.31828773 0.66838074 0.4002011
0001c0 08 77 fa bd 07 ed 87 3e 0c e9 57 3f fc 3a fb be
       -0.12229735 0.26548025 0.84339976 -0.4906844
0001d0 d1 e6 10 bf 72 c4 48 3f 6a d5 99 3e 68 9f 58 3e
       -0.566022 0.7842475 0.30045635 0.21154559
0001e0 bd 02 2e bf ba 52 b9 3e de 88 b8 3e 64 88 a5 3e
       -0.6797293 0.36195928 0.3604192 0.3233062
0001f0 68 c7 a3 3e a1 d0 0d 3f 1d e3 5b 3f 94 4b ee 3e
       0.31988072 0.5539647 0.8589342 0.46542037
000200 cb 37 96 be 84 a1 a7 3c 2e eb 12 bf a6 ec 04 bf
       -0.29339442 0.020462759 -0.57390106 -0.51923597
000210 47 19 23 3f dd 66 07 3f 73 a8 09 bf 72 25 32 3f
       0.63710445 0.5289133 -0.5377266 0.69588387
000220 35 dd 8f 3e cd f5 c3 3e fc 8b 1d 3f 7e e1 b3 3e
       0.28098455 0.3827347 0.61541724 0.35132974
000230 6e 2f b1 be 65 55 2a bf 84 bf 03 bf ec 10 43 3f
       -0.34606498 -0.6653655 -0.51464105 0.76197696
000240 04 9d ba be 7b b2 f2 3e 3c 18 7d be cc 76 34 3f
       -0.36447918 0.47401795 -0.24716276 0.7049377
000250 9b 30 2d 3f 08 fd b0 3e 1d 71 85 be 6c 41 00 3f
       0.6765229 0.34568048 -0.2606286 0.50099826
000260 a2 43 15 3f 49 ec 93 be 51 a5 2e 3e 96 3d 1d 3f
       0.58306324 -0.2889121 0.1705525 0.614221
000270 79 a3 49 3f dd 3e 02 3f 27 a9 da 3e 63 e2 24 3f
       0.78765064 0.5087717 0.42707178 0.6440794
000280 94 00 30 3f 01 a5 a0 3e f6 02 4b 3f a7 c7 1f bf
       0.6875088 0.31375888 0.79301393 -0.6241402
000290 61 b5 2b bf 0c 7e c2 3e bd b5 84 3e 3f b1 10 3f
       -0.6707364 0.3798679 0.25919905 0.56520456
0002a0 9a 62 d4 3e e9 ae a2 3e 39 a9 d2 be 90 98 aa bd
       0.41481477 0.3177407 -0.41144732 -0.0832988
0002b0 62 ec b2 3e 3e 32 e5 3e 89 69 8e 3e e3 cf fe 3e
       0.3494597 0.44764894 0.27814892 0.4976798
0002c0 61 ff c9 3e 5b 49 5c 3f ce 51 82 3e c0 d5 49 3f
       0.3945265 0.8604943 0.25453037 0.7884178
0002d0 9f 7e bd 3e 86 7c 0e bf 1b 0b 5f 3e 18 24 19 3f
       0.37010667 -0.5565876 0.2178158 0.598207
0002e0 ac 5d 04 3f 40 67 22 3f d4 9e c6 3c 14 96 c9 3e
       0.5170543 0.63438797 0.024245657 0.39372313
0002f0 a4 5d b3 3e fe 99 87 be a8 c0 69 be 75 9d 5b 3f
       0.3503238 -0.26484674 -0.22827399 0.85787135
000300 9d f4 c0 be 48 bb c9 bd 15 29 52 3f 16 10 c8 be
       -0.37686625 -0.09850174 0.82093936 -0.39074773
000310 d5 3d 32 bd f3 c4 1d bf 9a 3d 5e 3f 12 b2 a2 be
       -0.043516 -0.61628646 0.86812747 -0.31776482
000320 64 ff 31 3f 78 f3 27 be 99 11 f8 3e 6e 69 ac 3e
       0.6953032 -0.1640147 0.48450926 0.33674186
000330 9f 6f 1f bf 84 73 18 bf c4 3c 06 bf 65 98 99 3e
       -0.62279695 -0.5955126 -0.5243647 0.2999908
000340 b0 ff 11 bf fd 9b 39 3f b6 9c f6 be 54 26 ed 3e
       -0.57030773 0.72503644 -0.48166436 0.46318305
000350 0a 64 83 3e a7 0b 32 3f ef 68 e4 be b5 e2 14 3f
       0.2566226 0.6954903 -0.44611308 0.5815843
000360 7d 41 cd 3e 3e dd ba be 7e 25 8a 3e c0 e0 00 3f
       0.40089026 -0.3649692 0.2698173 0.5034294
000370 ae 24 a9 3e dc a4 01 bf 84 0b 43 3f 74 b1 7d 3e
       0.33035797 -0.5064218 0.76189446 0.24774724
000380 be 2a a4 3e a4 27 4b 3f 40 15 9d 3e ea 7b 8a be
       0.3206386 0.7935736 0.30680275 -0.27047664
000390 4e 46 0a bf b9 c8 4d 3f e2 44 fe 3e 2c 55 e1 3e
       -0.54013526 0.80384403 0.49661928 0.44010293
0003a0 fa 36 bb 3e 1e d8 1b 3f 02 16 99 3e 22 e0 e8 3e
       0.3656538 0.60876644 0.29899603 0.454835
0003b0 61 b0 0d bf a0 43 2d bf 49 fc c7 3e 8a 60 01 bf
       -0.5534726 -0.6768131 0.39059666 -0.5053793
0003c0 96 ad 24 bf 70 53 95 3e e8 de 03 3f 2b 4a 17 3f
       -0.6432737 0.2916522 0.51512 0.59097546
0003d0 13 55 14 bf 37 9f b6 3e ee 00 e1 3f d4 d5 d2 3e
       -0.5794231 0.35668346 1.7578409 0.41178763
0003e0 f4 fd cf 3e 68 d7 04 3f 09 60 d7 3e 4e 02 2d bf
       0.40623438 0.51891184 0.42065457 -0.6758164
0003f0 4b 04 f7 3e 08 99 99 3e a5 73 ac 3e 49 b0 58 be
       0.48245463 0.29999566 0.3368198 -0.21160997

linear3.weight f4 [3, 512]
000000 d6 50 e4 3c 5a 9d 5d bf cc dc 04 bf bf dc 0a bf
       0.027870577 -0.86568224 -0.5189941 -0.5424308
000010 96 9b 58 bf 0c d7 2f bf 9d 8e fa be 80 da a4 be
       -0.84612405 -0.6868751 -0.4893693 -0.32197952
000020 6a f9 56 bf 7b 2a 9f be 83 af fc 3f f8 69 e8 be
       -0.83974326 -0.31087098 1.9741062 -0.45393348
000030 e3 8f 11 3d 33 3c 1d 3d 64 a7 24 bf ca c2 11 bf
       0.03553761 0.03838749 -0.6431792 -0.5693785
000040 0f c1 9a bc b0 76 c4 3b 03 34 02 bf c3 1f ff be
       -0.018890886 0.005995594 -0.50860614 -0.4982892
000050 80 24 36 3c bb e8 34 bf 0a 53 d0 40 cd ec c4 be
       0.011117101 -0.7066762 6.5101366 -0.38461915
000060 6b f8 d6 be ee 7e 34 bd db 92 dc 3f cc a2 3c bf
       -0.41986403 -0.044066362 1.7232317 -0.7368591
000070 7b 83 c5 bc bd ee 09 bf b9 7c e0 be 24 73 8a be
       -0.024110546 -0.5387991 -0.43845156 -0.2704097
000080 d7 1a 27 bf e6 a6 12 bf 7f 1b 11 bf 8c 50 f4 be
       -0.6527533 -0.57285917 -0.5668258 -0.47717702
000090 65 03 0f bf 0d f9 ca be 72 51 cf be 15 ca 0d bf
       -0.55864555 -0.39643136 -0.40491825 -0.5538648
0000a0 42 96 e4 bc 26 90 2e 40 2e 09 29 bf 73 95 1b 3d
       -0.02790368 2.7275481 -0.6602963 0.037984323
0000b0 ab 0c 09 bf 8f 0c 33 3d fc a4 98 bf 1f 70 a3 be
       -0.53534955 0.04371315 -1.1925349 -0.3192148
0000c0 ca 77 14 bf e0 5e 1d bf 49 f3 b8 bc 16 bc 4d 40
       -0.57995284 -0.6147289 -0.022576945 3.2146049
0000d0 f0 0a 6d bb de 94 06 bd 22 06 b9 3f 4f 05 cb bf
       -0.003616985 -0.032856815 1.4454997 -1.5860995
0000e0 8b 7e f4 be 64 1b 19 bf 5f 7e ac be 8d c1 a9 be
       -0.47752795 -0.5980742 -0.33690163 -0.3315548
0000f0 94 bf dc be f0 32 fc be b1 eb 21 bd e9 5d c1 be
       -0.43114913 -0.49257612 -0.039531413 -0.3776696
000100 c9 67 12 bf 84 6f 03 bc e4 3f e9 be a6 4f f3 3c
       -0.57189614 -0.008022193 -0.45556557 0.029701065
000110 34 ad 02 bf d6 f3 d3 be 66 b3 00 bf df b5 0e 3d
       -0.51045537 -0.4139697 -0.5027374 0.034841415
000120 aa d3 e5 be eb b6 fa be ae 76 28 bf 47 2a 04 41
       -0.4488805 -0.4896768 -0.6580609 8.260322
000130 91 6b d6 3f 50 68 66 3b c5 0c 11 bf 34 b9 16 bf
       1.6751577 0.003515739 -0.5666011 -0.5887635
000140 86 2f a3 be 28 26 9a 3b 33 6d 1c 3d 8d 3b 0e bf
       -0.31872195 0.0047042556 0.038190078 -0.5555962
000150 b3 29 07 3d ef e5 ee be 15 ea 30 3d 53 cc e0 3f
       0.03299875 -0.466598 0.043191988 1.7562355
000160 b8 64 6b 40 85 0d c4 be 4f 27 b7 be b9 1f ed be
       3.6780224 -0.38291565 -0.35772178 -0.46313265
000170 5d 5d 06 bf be f1 c8 be 23 86 8f bf 68 a6 68 3c
       -0.5248621 -0.39246935 -1.121281 0.014199831
000180 8a 41 a8 40 53 d8 ba be 15 53 0f 3d 8f b4 0a 3d
       5.2580004 -0.36493167 0.034991343 0.0338636
000190 b3 92 0a bf 13 24 d9 be 0f 94 24 3d 52 d3 d9 3c
       -0.54130095 -0.42410335 0.040180262 0.026590023
0001a0 44 03 67 bf 98 b5 17 bf bf 63 cf be 05 ef 65 3f
       -0.9023936 -0.59261465 -0.40505788 0.8981784
0001b0 e5 75 2e 3d 3f 7a f3 be 98 ab e9 be 77 a8 09 bf
       0.0425929 -0.47554204 -0.45638728 -0.5377268
0001c0 f1 9f 1e bd f7 64 12 bf 9d e4 c0 be 48 91 3f 3c
       -0.03872675 -0.5718531 -0.37674418 0.011692353
0001d0 8a 1c f2 bc 82 d4 c7 be 47 f3 30 bf 69 a8 98 40
       -0.029554624 -0.39029318 -0.6912121 4.770558
0001e0 87 33 06 bd ea 2e 24 bf 21 70 25 bf 4e fc 0d bf
       -0.032763984 -0.64134085 -0.6462422 -0.5546311
0001f0 26 91 36 bf 4e f1 d3 be 71 bc be be e2 dd 04 bf
       -0.7131523 -0.41395038 -0.37253144 -0.51901066
000200 8c 62 21 3c 3c 84 8f bf 50 ac 41 3b 8f 91 af 40
       0.009850156 -1.121223 0.002955217 5.4865184
000210 03 43 d5 be 71 10 f3 be 3a f1 be 3c 30 20 bb be
       -0.41652688 -0.4747348 0.023308385 -0.36547995
000220 b3 87 46 bf f7 82 06 bf 5d 90 c7 be ee 5b da be
       -0.7755081 -0.52543586 -0.38977328 -0.42648262
000230 a0 81 a5 ba 80 cc 62 ba f8 b6 fe 3b 92 df c1 be
       -0.0012627132 -0.00086516887 0.0077732764 -0.37865883
000240 98 79 a8 bb 71 da f4 be 4a 2e e8 3c 23 28 ef be
       -0.005141448 -0.47822908 0.028342385 -0.4671031
000250 5e 99 aa be 43 49 e8 be 0a d3 c7 3c 16 26 0a bf
       -0.33320135 -0.45368394 0.024392623 -0.53964365
000260 ae a3 aa be ec 0a 72 40 5e e4 c4 3f 2e 45 ff be
       -0.33328003 3.7819166 1.5382192 -0.49857467
000270 f7 85 a4 be 0a e8 e2 3e d1 cb 13 bf 0f 49 a7 be
       -0.32133457 0.44317657 -0.57732874 -0.32672927
000280 53 69 d4 be fc 55 20 bf 10 a6 d0 be c1 fe 0d 3d
       -0.41486606 -0.626312 -0.40751696 0.03466678
000290 60 f6 64 3c ac 74 1a bf f8 a1 e9 be 94 90 f1 be
       0.013974756 -0.6033428 -0.45631385 -0.47180617
0002a0 dd 98 26 bf db ff 2c bf 06 6f bd 3c 82 eb 14 bd
       -0.65077 -0.67577904 0.02312423 -0.03635741
0002b0 60 5b 41 bf cd 2d 0d bf 35 6c 04 bf 08 34 da be
       -0.7553005 -0.5514801 -0.5172761 -0.42617822
0002c0 0c f3 fd be 0f c5 be be 75 37 47 bf 3e 39 c6 be
       -0.49599493 -0.3725972 -0.77818996 -0.38715547
0002d0 c9 ca 3e bf 9c 04 2c bd 6b fa 2b bf 47 bb e0 be
       -0.74528176 -0.041996583 -0.6717898 -0.4389288
0002e0 31 35 05 bf 63 55 e1 be 56 ac 84 bf 81 e6 02 bf
       -0.5203429 -0.44010457 -1.0365093 -0.5113297
0002f0 ab 8a 29 bf 5c 7f 44 bc c8 a8 16 bc 7b 5a be be
       -0.66227216 -0.0119932555 -0.009195514 -0.37178406
000300 90 39 2d bb 1a b3 f9 bc 11 1d bf be 94 db 4e bc
       -0.0026432015 -0.03048091 -0.37326863 -0.012625594
000310 bf da 8b 40 0b 10 1e 3d 4d 5a 9b be 45 e3 02 3d
       4.3704524 0.03858952 -0.30342332 0.031955022
000320 4a ba b5 be 2e 0f c7 3c d0 3a 06 bf 07 f9 41 bf
       -0.3549369 0.02429923 -0.5243349 -0.7577061
000330 74 66 14 bd e0 3b 40 3b 14 1c 1d bc 42 83 05 bf
       -0.03623052 0.0029332563 -0.009589214 -0.5215341
000340 1f 77 0b 3d fa de d1 be fb ec 2d 3d 6a 6d 15 bf
       0.03404915 -0.4099043 0.04246233 -0.5837008
000350 ab ab 49 bf 21 e3 c3 be 03 c7 e2 bc 52 99 eb be
       -0.7877757 -0.38259223 -0.027682787 -0.46015412
000360 43 d7 2e bf 89 2e 0b 3d 15 51 4b bf 9c 25 05 bf
       -0.68297213 0.033979926 -0.79420596 -0.5201051
000370 77 d3 1e bf 31 e3 07 3d 15 3e c5 be 29 95 3b bf
       -0.6204142 0.03317565 -0.38523927 -0.73274475
000380 de 79 04 bf 20 3c a1 be 34 89 0e bf d8 fe 25 3c
       -0.51748455 -0.31491184 -0.55678105 0.01013156
000390 1e 83 10 bd 5d 27 a9 be 46 4e df be 3e 52 1d 3f
       -0.035281293 -0.33037844 -0.43614405 0.61453617
0003a0 c2 ad 1c bf b4 5f e1 be 14 49 19 bf 85 05 09 bf
       -0.61202633 -0.44018328 -0.59877133 -0.5352405
0003b0 e8 db 3e 3c bd 26 01 bd 81 87 11 bf 57 44 0d 3d
       0.011649109 -0.031531084 -0.5684739 0.034489002
0003c0 00 e1 33 bc 1a 85 0a bf ad c9 f2 3e 8b a2 df be
       -0.010978937 -0.54109347 0.4741949 -0.43678698
0003d0 42 33 82 3c 7d 42 87 bc dc e6 d1 40 ee 88 12 bf
       0.015893582 -0.016511196 6.559431 -0.5724019
0003e0 c6 6c 04 bf ec 78 04 bf cc 33 ef be 22 a0 12 bd
       -0.51728475 -0.5174701 -0.46719205 -0.035797246
0003f0 31 f4 d6 3e 4a 61 35 bf ea 30 04 bf f0 d7 80 40
       0.41983178 -0.70851576 -0.51637137 4.0263596

linear3.bias f4 [3]
000000 33 54 72 be ea 79 fb bd 77 67 62 bd
       -0.23664932 -0.12279113 -0.055274453
