env2 DQN/log/dqn/ckpt/17000.pth (torch, 14208 bytes, 4 tensors)

linear.weight f4 [512, 2]
0.16220331 -0.16827321 0.1993474 -0.032143123 0.055700652 -0.00875943 -0.30349192 -0.76715875
-0.09374151 -0.8673797 -0.10118973 -0.10898694 -0.39164266 0.4166228 -0.14573741 0.15571178
0.18361636 -0.29660797 -0.49784026 0.57017 -1.4557284 -0.8799608 -0.28201616 0.2826109
-0.067224324 0.18619382 -0.033943713 -0.39594215 -0.61742324 -0.58533204 -0.8064438 -0.82766926
0.16641682 0.46537954 0.03483367 -0.3241305 0.0750548 -0.40129656 -0.38891882 -0.62783957
-0.22203329 -0.65520495 0.21505131 0.33040676 0.13354897 0.3405363 0.13849263 -0.2173608
-0.13597164 -0.10529666 0.37731057 0.47499663 0.7343168 1.2657846 -0.4014507 -0.27438632
-0.14369994 0.4113466 -0.15802251 0.62945426 0.18411182 -0.86532927 0.00082569284 0.55641484
0.34484547 -0.07614475 0.00022137401 -0.8786627 -0.4500159 0.077184044 -0.85716575 0.45819792
-0.6965511 -0.048434615 -0.25975713 -0.049242847 -0.16933385 -0.8044823 -0.36508098 -0.6805512
0.60114974 -0.08679706 -1.1480935 -1.6558943 0.06505757 -0.42123896 -0.06633222 0.3056895
-0.5816442 -0.32324022 -0.06821197 -0.4965686 0.4760322 -0.03230045 0.1906272 0.32691225
-0.6095381 -0.52327484 -0.65841776 -0.62411016 -0.25839406 -0.113936484 -1.0745113 -1.5262638
0.40114635 0.2241056 0.449336 0.5312001 -0.9495387 -1.2224418 0.61825955 -1.2697003
-0.5295519 -0.22235589 -0.6647364 -0.39910343 -0.31808302 0.40679008 -0.24668051 0.11990668
0.28720835 0.22940132 -0.7792692 0.1627383 0.46630138 -0.5068975 -0.42217195 0.22092673
-0.8984689 -0.7972992 -0.4792475 0.22033387 -0.50292414 -0.82352936 0.2740959 0.35767096
0.043517087 -0.79789424 0.52718794 -0.26067147 -0.9111439 -0.33260292 0.46184975 0.32564324
-0.24646391 0.34532216 -0.8428302 0.3676396 0.39612383 -0.50737613 0.43221903 0.7840729
-1.4058152 -0.5361984 -0.23696771 -0.6039714 -0.61534977 -0.10214054 0.33091962 0.18018354
-0.7105679 0.3601245 0.05804211 -0.6909449 0.0335418 0.45392126 -0.5490971 -0.3263014
-0.3522925 -0.5575588 -0.56957895 -0.24956368 0.45708364 -0.13139623 -0.8613327 -1.2774223
-1.1968824 -1.9418083 0.2866849 0.16556303 -0.6427199 -0.23976344 0.06305409 -0.03522012
-0.7438906 -0.37097076 -0.47404778 0.0026854458 0.67009157 0.13705188 0.26711643 -0.60002285
0.65924215 0.61163527 -0.43245152 -0.59384316 0.20102453 -0.38328463 0.2870438 0.5407762
-0.641222 -0.689249 -0.50116026 -0.8421116 -0.08109486 0.44041735 0.26465142 -0.22786802
-0.050629564 -0.47766536 -0.7533934 -0.5183874 -0.16076885 -0.47240102 -0.68285 -0.92031205
0.104157746 -0.21995166 -0.031674802 0.5524304 -0.17369862 -0.74198824 0.34852904 0.53814185
-0.067489386 -0.3194029 -0.48580244 0.5289501 0.14282899 -0.48864758 0.028221548 0.14503723
0.18692297 -0.04000479 -0.61019474 -0.27653995 -0.38753122 -0.5575981 -1.0567915 -1.044191
-0.33320108 0.2786312 -0.6892055 -0.7975623 0.33155593 0.1911214 0.26376402 0.481745
-0.42010346 -0.8176767 -0.71192646 -0.27916643 -0.012499444 -0.83252716 -0.7851402 0.18131438
00000000: a018 263e d04f 2cbe ba21 4c3e 82a8 03bd
00000010: 5e26 643d b683 0fbc 4b63 9bbe 8464 44bf
00000020: 8cfb bfbd 990c 5ebf 903c cfbd 8b34 dfbd
00000030: 6385 c8be 954f d53e 303c 15be e972 1f3e
00000040: ed05 3c3e 00dd 97be ebe4 febe a9f6 113f
00000050: 4f55 babf 1c45 61bf 6c64 90be 60b2 903e
00000060: e8ac 89bd 98a9 3e3e 9008 0bbd eeb8 cabe
00000070: 730f 1ebf 52d8 15bf 1a73 4ebf 22e2 53bf
00000080: 2c69 2a3e 3a46 ee3e c0ad 0e3d 6ff4 a5be
00000090: 55b6 993d be76 cdbe 5e20 c7be 18ba 20bf
000000a0: b25c 63be 83bb 27bf 6936 5c3e 132b a93e
000000b0: 10c1 083e c65a ae3e 03d1 0d3e d493 5ebe
000000c0: 263c 0bbe c6a5 d7bd da2e c13e c232 f33e
000000d0: 30fc 3b3f 3b05 a23f f28a cdbe 5d7c 8cbe
000000e0: 1426 13be 069c d23e a7d0 21be ea23 213f
000000f0: cf87 3c3e 3886 5dbf 4f73 583a 3471 0e3f
00000100: 968f b03e c7f1 9bbd a220 6839 0af0 60bf
00000110: 7c68 e6be ab12 9e3d 376f 5bbf eb98 ea3e
00000120: 2c51 32bf 6063 46bd e3fe 84be deb2 49bd
00000130: da65 2dbe 8df2 4dbf e5eb babe 9a38 2ebf
00000140: f3e4 193f a8c2 b1bd baf4 92bf 58f4 d3bf
00000150: e73c 853d a2ac d7be 30d9 87bd 5683 9c3e
00000160: a2e6 14bf be7f a5be b8b2 8bbd 3d3e febe
00000170: 7eba f33e 7a4d 04bd c733 433e 0b61 a73e
00000180: b00a 1cbf 57f5 05bf 118e 28bf afc5 1fbf
00000190: 3a4c 84be 8857 e9bd 9689 89bf 9d5c c3bf
000001a0: 0e63 cd3e f07b 653e 5e0f e63e bbfc 073f
000001b0: f814 73bf f978 9cbf 4246 1e3f 8a85 a2bf
000001c0: b790 07bf 43b1 63be 2a2c 2abf 4957 ccbe
000001d0: c7db a2be ca46 d03e d199 7cbe a291 f53d
000001e0: f90c 933e 2ee8 6a3e 307e 47bf dea4 263e
000001f0: 0ebf ee3e 09c4 01bf ec26 d8be 9e3a 623e
00000200: 0f02 66bf cd1b 4cbf ee5f f5be 349f 613e
00000210: a3bf 00bf d2d2 52bf 4c56 8c3e a620 b73e
00000220: f93e 323d cc42 4cbf caf5 063f bb76 85be
00000230: ba40 69bf ee4a aabe 9277 ec3e b6ba a63e
00000240: 0961 7cbe 11ce b03e b8c3 57bf 423b bc3e
00000250: bed0 ca3e 67e3 01bf d04b dd3e 00b9 483f
00000260: c1f1 b3bf 4c44 09bf aaa7 72be df9d 1abf
00000270: 9087 1dbf 0f2f d1bd 4c6e a93e 0982 383e
00000280: c7e7 35bf 3d62 b83e 90bd 6d3d c4e1 30bf
00000290: 2063 093d 5e68 e83e a191 0cbf fa10 a7be
000002a0: af5f b4be 2cbc 0ebf edcf 11bf 9f8d 7fbe
000002b0: de06 ea3e bc8c 06be 4d80 5cbf 9382 a3bf
000002c0: 7133 99bf 2d8d f8bf 5dc8 923e 5b89 293e
000002d0: 4b89 24bf 8c84 75be 8122 813d f942 10bd
000002e0: 9d6f 3ebf e1ef bdbe 64b6 f2be 4efe 2f3b
000002f0: 1f8b 2b3f 5457 0c3e 7cc3 883e 199b 19bf
00000300: 18c4 283f 2194 1c3f 496a ddbe 1b06 18bf
00000310: 60d9 4d3e e23d c4be 68f7 923e 4f70 0a3f
00000320: 2027 24bf 9f72 30bf 0a4c 00bf a094 57bf
00000330: 1015 a6bd 627e e13e 6480 873e 3c56 69be
00000340: f260 4fbd 8e90 f4be 64de 40bf 09b5 04bf
00000350: 97a0 24be 8cde f1be 42cf 2ebf 9299 6bbf
00000360: a850 d53d 023b 61be 70bd 01bd 146c 0d3f
00000370: 0dde 31be f1f2 3dbf 6672 b23e aac3 093f
00000380: e037 8abd c788 a3be 19bb f8be 4669 073f
00000390: c341 123e 0430 fabe e030 e73c a484 143e
000003a0: bc68 3f3e 10dc 23bd b935 1cbf a596 8dbe
000003b0: 7e6a c6be c0be 0ebf f244 87bf 0da8 85bf
000003c0: 5599 aabe c0a8 8e3e c66f 30bf 0b2d 4cbf
000003d0: b3c1 a93e 54b5 433e 140c 873e 48a7 f63e
000003e0: cd17 d7be 4353 51bf d040 36bf e7ee 8ebe
000003f0: 78ca 4cbc 8020 55bf f3fe 48bf 7aaa 393e

linear.bias f4 [512]
-0.08883327 0.32761374 0.531884 0.61666775 0.35969713 0.39658743 0.46368715 0.92939574
0.3074668 0.8617187 -0.58125794 0.5710173 -0.26192716 -0.57071584 0.41368803 0.5620577
-0.35503486 -0.30494314 0.6331318 0.6262121 -0.5317903 0.34122825 -0.074287795 0.79600865
0.7395055 -0.38812736 0.28227866 0.2571553 -0.7007002 0.33426255 0.8242621 0.95326316
0.53697884 0.575781 0.3868941 0.49159798 0.44864887 0.7224652 0.80057085 0.5915575
-0.68915397 -0.40739104 0.48065284 -0.4183643 0.14764509 -0.37033466 0.033761933 0.9406478
0.30090892 0.3376342 -0.41619626 -0.38291377 -0.42776066 -0.56788975 -0.28145206 0.23345646
0.60980785 0.4415955 0.8815296 0.8991174 0.7302207 0.46158355 -0.35267243 0.7650644
0.56505 -0.6692872 0.7958288 -0.578352 0.6572597 0.8667804 0.60516584 -0.623435
0.499867 0.41173333 0.5887265 0.24928404 -0.49046195 -0.32272238 0.29584104 0.54098505
0.9936685 -0.17869782 -0.22989681 0.39795783 -0.61723846 0.61475396 -0.35274062 -0.24813013
-0.43848673 0.9094658 0.9492052 0.6347355 0.34369552 0.89101464 0.06641633 -0.27866197
0.038132846 0.93434846 -0.5545656 -0.68310964 0.57672966 0.8576123 -0.59512156 -0.45612633
0.20071124 0.49794027 0.75638366 -0.16883643 -0.34290472 0.44752648 0.8197052 0.48967332
-0.12229735 0.22200365 0.97537524 -0.4906844 -0.566022 0.9379885 0.36061904 -0.43071216
-0.6797293 0.3441362 0.47976 0.3945147 0.3315297 0.7618607 0.9947078 0.43456885
-0.29339442 -0.010358281 -0.57390106 0.19112529 0.7776787 0.6782977 -0.5377266 0.82765085
0.21839146 0.23579375 0.7734796 0.5664432 -0.34606498 -0.6653655 -0.51464105 0.9059844
-0.36447918 0.6181726 -0.24716276 0.852368 0.79682636 0.6125487 -0.2606286 0.640339
0.7317801 -0.06464355 -0.3153237 0.7597154 0.9393218 -0.06598631 0.5071962 0.7675691
0.82517046 0.4559276 0.9243369 -0.6241402 -0.6707364 0.37334138 0.32222766 0.6220988
0.5542342 0.45825982 -0.41144732 -0.0832988 0.48724157 0.45236987 0.23413545 0.7108166
0.26295877 0.9926013 0.42448884 0.9373908 0.51995903 -0.5565876 0.36782172 0.7517335
0.6395836 0.7946131 0.14684513 0.46575463 0.33000383 -0.26484674 -0.22827399 0.9943169
-0.37686625 -0.09850174 0.9512143 -0.39074773 -0.37631533 -0.61628646 0.96387947 -0.31776482
0.83545494 -0.1640147 0.41460148 0.27700233 -0.62279695 -0.5955126 -0.5243647 0.54220015
-0.57030773 0.8590836 -0.48166436 0.60550565 0.36905602 0.8385158 -0.44611308 0.6651349
0.5395014 -0.3649692 0.44602844 0.64662457 0.43143582 -0.5064218 0.9079157 0.34891206
0.094694 0.9093109 0.5233218 -0.27047664 -0.54013526 0.9410523 0.63708603 0.0035430111
0.50954115 0.7537479 0.39777812 0.42210904 -0.5534726 -0.6768131 0.37660027 -0.5053793
-0.6432737 0.36480007 -0.036842756 0.7047095 -0.5794231 -0.10181746 -0.32876033 0.38952497
0.6688235 0.72278166 0.522866 -0.6758164 -0.062280867 0.23888405 0.35576463 0.15889911
00000000: 38ee b5bd fdbc a73e 8d29 083f f0dd 1d3f
00000010: 392a b83e 820d cb3e 6768 ed3e e1ec 6d3f
00000020: 4a6c 9d3e 9999 5c3f 52cd 14bf 312e 123f
00000030: 511b 86be 6f1a 12bf ebce d33e 03e3 0f3f
00000040: 21c7 b5be 8221 9cbe ed14 223f 704f 203f
00000050: 6923 08bf 78b5 ae3e 3324 98bd 39c7 4b3f
00000060: 3c50 3d3f a1b8 c6be d486 903e dca9 833e
00000070: 1761 33bf 7624 ab3e d702 533f 0e09 743f
00000080: 7277 093f 6266 133f fc16 c63e bbb2 fb3e
00000090: 4eb5 e53e 7bf3 383f 36f2 4c3f 5070 173f
000000a0: 656c 30bf 8f95 d0be 2118 f63e d833 d6be
000000b0: 4630 173e 819c bdbe f449 0a3d 4bce 703f
000000c0: bc10 9a3e 64de ac3e ad17 d5be 460d c4be
000000d0: 7203 dbbe 3961 11bf 7c1a 90be 360f 6f3e
000000e0: 5e1c 1c3f ce18 e23e edab 613f 8f2c 663f
000000f0: beef 3a3f ae54 ec3e 7b91 b4be 43db 433f
00000100: 1ea7 103f 6856 2bbf 70bb 4b3f e00e 14bf
00000110: 2c42 283f 52e5 5d3f 26ec 1a3f 7099 1fbf
00000120: 91ee ff3e b6ce d23e c8b6 163f 5144 7f3e
00000130: d41d fbbe de3b a5be 7a78 973e ff7d 0a3f
00000140: 0f61 7e3f 90fc 36be 126a 6bbe 21c1 cb3e
00000150: 5703 1ebf 8460 1d3f 6b9a b4be d315 7ebe
00000160: 5581 e0be c0d2 683f 1dff 723f 077e 223f
00000170: dcf8 af3e 8919 643f 4905 883d c8ac 8ebe
00000180: 3031 1c3d 7631 6f3f 03f8 0dbf 46e0 2ebf
00000190: 8ea4 133f 7b8c 5b3f e359 18bf 6489 e9be
000001a0: 3f87 4d3e 07f2 fe3e 5ca2 413f 75e3 2cbe
000001b0: 3591 afbe 3122 e53e 33d8 513f 76b6 fa3e
000001c0: 0877 fabd ed54 633e 31b2 793f fc3a fbbe
000001d0: d1e6 10bf 0420 703f 0fa3 b83e 4e86 dcbe
000001e0: bd02 2ebf 9f32 b03e 1aa3 f53e d5fd c93e
000001f0: 43be a93e 4e09 433f 2ca5 7e3f cf7f de3e
00000200: cb37 96be c8b5 29bc 2eeb 12bf 59b6 433e
00000210: f415 473f eba4 2d3f 73a8 09bf ede0 533f
00000220: 03a2 5f3e eb73 713e c202 463f 6c02 113f
00000230: 6e2f b1be 6555 2abf 84bf 03bf 98ee 673f
00000240: 049d babe 8f40 1e3f 3c18 7dbe ca34 5a3f
00000250: d0fc 4b3f fecf 1c3f 1d71 85be 42ed 233f
00000260: f155 3b3f d663 84bd 1c72 a1be b57c 423f
00000270: 6577 703f d523 87bd 9cd7 013f 697f 443f
00000280: 5f3e 533f 586f e93e 58a1 6c3f a7c7 1fbf
00000290: 61b5 2bbf 9a26 bf3e 06fb a43e de41 1f3f
000002a0: 4be2 0d3f 08a1 ea3e 39a9 d2be 9098 aabd
000002b0: ba77 f93e 069d e73e 34c1 6f3e 14f8 353f
000002c0: 88a2 863e 1e1b 7e3f 9a56 d93e d8f8 6f3f
000002d0: 091c 053f 867c 0ebf 2153 bc3e 9b71 403f
000002e0: c0bb 233f c46b 4b3f 925e 163e 6477 ee3e
000002f0: 43f6 a83e fe99 87be a8c0 69be 8d8b 7e3f
00000300: 9df4 c0be 48bb c9bd c882 733f 1610 c8be
00000310: 67ac c0be f3c4 1dbf cec0 763f 12b2 a2be
00000320: 60e0 553f 78f3 27be a546 d43e 40d3 8d3e
00000330: 9f6f 1fbf 8473 18bf c43c 06bf a1cd 0a3f
00000340: b0ff 11bf e7ec 5b3f b69c f6be 6b02 1b3f
00000350: e9f4 bc3e f9a8 563f ef68 e4be 4846 2a3f
00000360: c41c 0a3f 3edd babe d75d e43e 3089 253f
00000370: 28e5 dc3e dca4 01bf 2a6d 683f 9aa4 b23e
00000380: eeee c13d 99c8 683f 6bf8 053f ea7b 8abe
00000390: 4e46 0abf cee8 703f 1218 233f dd31 683b
000003a0: 4a71 023f 9ff5 403f 93a9 cb3e ad1e d83e
000003b0: 61b0 0dbf a043 2dbf c0d1 c03e 8a60 01bf
000003c0: 96ad 24bf 13c7 ba3e 6ee8 16bd d767 343f
000003d0: 1355 14bf ac85 d0bd 4653 a8be d16f c73e
000003e0: 0438 2b3f 3808 393f 8cda 053f 4e02 2dbf
000003f0: 391a 7fbd 059e 743e c826 b63e 73b6 223e

linear3.weight f4 [3, 512]
0.027870577 -0.43241057 -0.28552455 -0.23864911 -0.34232923 -0.36958793 -0.24748324 -0.23177706
-0.3763349 -0.19698896 0.6495629 -0.26372468 0.03553761 0.03838749 -0.2158994 -0.17448956
-0.018890886 0.005995594 -0.3247462 -0.19429696 0.011117101 -0.388717 0.036453195 -0.24451002
-0.2590533 -0.044066362 0.70142055 -0.24449642 -0.024110546 -0.28804827 -0.26507157 -0.20378304
-0.4723054 -0.2667859 -0.19373487 -0.18709761 -0.2043276 -0.22366637 -0.21064125 -0.24994555
-0.02790368 0.39485285 -0.3762016 0.037984323 -0.17619027 0.04371315 0.24310546 -0.26162842
-0.11896127 -0.13930911 -0.022576945 0.4069897 -0.003616985 -0.032856815 0.14479053 0.120973974
-0.1938911 -0.19881372 -0.22679526 -0.2006085 -0.34704846 -0.14160268 -0.039531413 -0.22179472
-0.19512497 -0.008022193 -0.22463758 0.029701065 -0.26911563 -0.31014857 -0.16813885 0.034841415
-0.20616953 -0.18535082 -0.45683917 0.8970277 0.685016 0.003515739 -0.17069171 -0.4173639
-0.19628493 0.0047042556 0.038190078 -0.13273539 0.03299875 -0.1700925 0.043191988 0.1394213
0.63871604 -0.311735 -0.20078017 -0.28415135 -0.13583611 -0.24434006 0.24000308 0.014199831
0.5028297 -0.18851337 0.034991343 0.0338636 -0.19838169 -0.21731327 0.040180262 0.026590023
-0.2184294 -0.20947106 -0.22195545 0.06577124 0.0425929 -0.28718257 -0.27041367 -0.44169194
-0.03872675 -0.21009569 -0.26600045 0.011692353 -0.029554624 -0.21893603 -0.21202546 0.6476751
-0.032763984 -0.1857311 -0.46718374 -0.44783312 -0.15374193 -0.14956614 -0.24070519 -0.18843216
0.009850156 0.22281647 0.002955217 0.49144953 -0.18948781 -0.14537077 0.023308385 -0.25317824
-0.2689404 -0.160457 -0.2001623 -0.22409004 -0.0012627132 -0.00086516887 0.0077732764 -0.24740407
-0.005141448 -0.18388988 0.028342385 -0.32429484 -0.24086039 -0.2006934 0.024392623 -0.3630808
-0.18261613 0.52376866 0.58726376 -0.32750848 -0.15572375 -0.061577298 -0.16721556 -0.22192271
-0.2353497 -0.37490192 -0.26904252 0.03466678 0.013974756 -0.20481074 -0.328312 -0.1286804
-0.4100022 -0.39036155 0.02312423 -0.03635741 -0.4805527 -0.1682674 -0.1807069 -0.18266377
-0.1772376 -0.30458876 -0.39188936 -0.26514143 -0.49345165 -0.041996583 -0.3916127 -0.25043753
-0.20342442 -0.20548204 0.31608388 -0.18478106 -0.20327811 -0.0119932555 -0.009195514 -0.23142795
-0.0026432015 -0.03048091 -0.23964539 -0.012625594 0.36769876 0.03858952 -0.25269276 0.031955022
-0.2035636 0.02429923 -0.1828648 -0.19944853 -0.03623052 0.0029332563 -0.009589214 -0.2147143
0.03404915 -0.22172353 0.04246233 -0.39434677 -0.35309654 -0.2598234 -0.027682787 -0.21568741
-0.46465012 0.033979926 -0.3645074 -0.16765514 -0.20930588 0.03317565 -0.21456619 -0.4277132
-0.052033417 -0.21774174 -0.22503068 0.01013156 -0.035281293 -0.20571992 -0.26893032 -0.031024208
-0.3307647 -0.25315905 -0.24454418 -0.17945345 0.011649109 -0.031531084 -0.1684268 0.034489002
-0.010978937 -0.43570045 -0.09508424 -0.34804994 0.015893582 0.011088196 0.18304707 -0.16261725
-0.2212664 -0.22173598 -0.36589417 -0.035797246 -0.085199915 -0.20141202 -0.21810721 0.6908064
00000000: d650 e43c eb64 ddbe 4630 92be 6f60 74be
00000010: c745 afbe a13a bdbe 3f6c 7dbe f756 6dbe
00000020: f8ae c0be 79b7 49be c149 263f ec06 87be
00000030: e38f 113d 333c 1d3d bb14 5dbe 64ad 32be
00000040: 0fc1 9abc b076 c43b 2245 a6be c8f5 46be
00000050: 8024 363c ea05 c7be f24f 153d d660 7abe
00000060: a2a2 84be ee7e 34bd 4c90 333f 455d 7abe
00000070: 7b83 c5bc 107b 93be 76b7 87be 80ac 50be
00000080: 03d2 f1be 2998 88be 6f62 46be 8496 3fbe
00000090: 413b 51be cc08 65be 57b2 57be baf1 7fbe
000000a0: 4296 e4bc 272a ca3e 7f9d c0be 7395 1b3d
000000b0: 396b 34be 8f0c 333d a3f0 783e 29f4 85be
000000c0: f7a1 f3bd 0ca7 0ebe 49f3 b8bc f460 d03e
000000d0: f00a 6dbb de94 06bd f843 143e 34c1 f73d
000000e0: 638b 46be d395 4bbe 043d 68be 516c 4dbe
000000f0: 56b0 b1be 4b00 11be b1eb 21bd 281e 63be
00000100: d7ce 47be 846f 03bc 6507 66be a64f f33c
00000110: 86c9 89be cbcb 9ebe 972c 2cbe dfb5 0e3d
00000120: 1b1e 53be 9bcc 3dbe d3e6 e9be 9ba3 653f
00000130: 355d 2f3f 5068 663b cfc9 2ebe b9b0 d5be
00000140: ebfe 48be 2826 9a3b 336d 1c3d c9eb 07be
00000150: b329 073d ba2c 2ebe 15ea 303d 75c4 0e3e
00000160: e582 233f bb9b 9fbe 5199 4dbe 497c 91be
00000170: 9f18 0bbe 4834 7abe 5ec3 753e 68a6 683c
00000180: 72b9 003f a609 41be 1553 0f3d 8fb4 0a3d
00000190: 9224 4bbe 5f87 5ebe 0f94 243d 52d3 d93c
000001a0: f5ab 5fbe 957f 56be 4a48 63be 12b3 863d
000001b0: e575 2e3d 9809 93be a973 8abe 7225 e2be
000001c0: f19f 1ebd 5323 57be 3631 88be 4891 3f3c
000001d0: 8a1c f2bc c430 60be 341d 59be 09ce 253f
000001e0: 8733 06bd 4b30 3ebe b532 efbe 624a e5be
000001f0: 866e 1dbe de27 19be 6c7b 76be 5cf4 40be
00000200: 8c62 213c 002a 643e 50ac 413b 469f fb3e
00000210: 1809 42be 13dc 14be 3af1 be3c 94a0 81be
00000220: 8eb2 89be d74e 24be 59f7 4cbe dc77 65be
00000230: a081 a5ba 80cc 62ba f8b6 fe3b 7e57 7dbe
00000240: 9879 a8bb a14d 3cbe 4a2e e83c f909 a6be
00000250: 1ba4 76be 9282 4dbe 0ad3 c73c bae5 b9be
00000260: b9ff 3abe b415 063f eb56 163f 31af a7be
00000270: 0c76 1fbe 7a38 7cbd 8e3a 2bbe b53f 63be
00000280: 83ff 70be 25f3 bfbe f1bf 89be c1fe 0d3d
00000290: 60f6 643c e8b9 51be 8318 a8be cbc4 03be
000002a0: cfeb d1be 78dd c7be 066f bd3c 82eb 14bd
000002b0: 010b f6be 4a4e 2cbe 3b0b 39be 360c 3bbe
000002c0: c67d 35be 0ff3 9bbe b9a5 c8be 9ec0 87be
000002d0: b2a5 fcbe 9c04 2cbd 7681 c8be 5939 80be
000002e0: 7e4e 50be e269 52be bfd5 a13e 3f37 3dbe
000002f0: 2328 50be 5c7f 44bc c8a8 16bc 73fb 6cbe
00000300: 9039 2dbb 1ab3 f9bc 9a65 75be 94db 4ebc
00000310: 0343 bc3e 0b10 1e3d f260 81be 45e3 023d
00000320: fa72 50be 2e0f c73c e940 3bbe 3c3c 4cbe
00000330: 7466 14bd e03b 403b 141c 1dbc 11de 5bbe
00000340: 1f77 0b3d 7e0b 63be fbec 2d3d d2e7 c9be
00000350: 12c9 b4be 9307 85be 03c7 e2bc 29dd 5cbe
00000360: 9fe6 edbe 892e 0b3d b7a0 babe caad 2bbe
00000370: 4854 56be 31e3 073d 3db7 5bbe 39fd dabe
00000380: fe20 55bd b1f7 5ebe 716e 66be d8fe 253c
00000390: 1e83 10bd 3ea8 52be 3cb1 89be 7b26 febc
000003a0: fe59 a9be 109e 81be ca69 7abe a5c2 37be
000003b0: e8db 3e3c bd26 01bd 1378 2cbe 5744 0d3d
000003c0: 00e1 33bc 2114 dfbe 87bb c2bd 9a33 b2be
000003d0: 4233 823c 44ab 353c b170 3b3e 2385 26be
000003e0: a993 62be c20e 63be 7b56 bbbe 22a0 12bd
000003f0: 4b7d aebd f43e 4ebe 7f57 5fbe b0d8 303f

linear3.bias f4 [3]
-0.23125939 -0.17001899 -0.2166596
00000000: 43cf 6cbe 7519 2ebe 04dc 5dbe
