env2 DQN/log/dqn/ckpt/175000.pth (torch, 14216 bytes, 4 tensors)

linear.weight f4 [512, 2]
00000000: a018 263e d04f 2cbe 7e23 97be 116f 88c0
00000010: 2582 19be 90e9 6fc0 5935 0ebf 43a9 c1c0
00000020: 651d d1be 524f b7c0 9f5a b6be ccf1 97c0
00000030: cc3a 13bf 86ff 89c0 7ed6 c0be fc6c 35c0
00000040: 8da9 9dbe f438 8dc0 647c 39bf 6b12 2fc0
00000050: 8e45 dbbf b5e1 3cc1 cdb2 fbbe 4707 4ec0
00000060: e8ac 89bd 98a9 3e3e 9008 0bbd eeb8 cabe
00000070: 1ce9 22bf 56fa c0c0 be9c 61bf cf43 cbc0
00000080: 2c69 2a3e 3a46 ee3e c0ad 0e3d 6ff4 a5be
00000090: 4d7a 0dbe 0f52 6fc0 7925 1cbf a3f7 c3c0
000000a0: b25c 63be 83bb 27bf 8397 5cbc e3db 3dc0
000000b0: 37f4 c6be 1d39 3441 580c 86bd d455 75c0
000000c0: ac06 b2be 2000 6bc0 da2e c13e c232 f33e
000000d0: 3ffb c4bf e80c a940 6db0 dcbe 2ba1 b0c0
000000e0: 1426 13be 069c d23e fe74 a6be d183 81c0
000000f0: 7447 87bc 6240 91c0 89b6 6ebe 95c7 23c0
00000100: c3d8 023e 865f 5bc0 b619 4fbe 1d89 96c0
00000110: 5446 f9be e7da acc0 9d98 74bf 4fa7 8ac0
00000120: 8326 44bf 83f3 a6c0 d411 f1be 8a8a 69c0
00000130: 7cf8 c2be 3146 8dc0 a8d8 17bf 0ac7 bac0
00000140: f3e4 193f a8c2 b1bd f7d8 78bf 1934 5dc1
00000150: 673e 16be b970 79c0 30d9 87bd 5683 9c3e
00000160: ffa9 0bbf 2880 8dc0 b8b2 8bbd 3d3e febe
00000170: 83d1 df3f e4d9 06c0 4b01 47bd a9de 1fc0
00000180: 6316 0fbf 12b9 c2c0 b6e3 17bf da81 d0c0
00000190: 3a4c 84be 8857 e9bd b92b 49bf e6cb 5fc1
000001a0: 0e63 cd3e f07b 653e 5e0f e63e bbfc 073f
000001b0: 52d3 b2bf 807c 23c1 67f9 2240 4f50 9cc0
000001c0: 250e 3dbf a0b1 afc0 0210 30bf 5cba bcc0
000001d0: 724b 09bf 9cee 3fc0 adbe e7be deac 65c0
000001e0: cd25 7c3d 1da6 33c0 fe22 53bf 0ac3 a9c0
000001f0: 0ebf ee3e 09c4 01bf 0384 21bf 5827 55c0
00000200: 03dd 80bf 879c b9c0 ee5f f5be 349f 613e
00000210: 8577 36bf 2407 92c0 4c56 8c3e a620 b73e
00000220: c1d3 24be dd59 91c0 90c9 a13e 5967 6fc0
00000230: 26b4 85bf c1a3 abc0 9277 ec3e b6ba a63e
00000240: 0e13 e7be 5623 9bc0 cd9d 65bf d48f 8dc0
00000250: 0244 383e 14fc 7cc0 31ea 38c0 5e4b 53bf
00000260: e4f5 0dc0 63ff 0cc1 aaa7 72be df9d 1abf
00000270: dafb 14bf ef1a acc0 c93a ef3d e401 56c0
00000280: ae4c 70bf 914b 3cc0 90bd 6d3d c4e1 30bf
00000290: 2063 093d 5e68 e83e e976 0fbf de36 bdc0
000002a0: af5f b4be 2cbc 0ebf 3de9 3ebf f10e b7c0
000002b0: de06 ea3e bc8c 06be eb4e 8cbf fe78 36c1
000002c0: d0d0 0fbf b361 6cc1 dae0 753d 24d6 3bc0
000002d0: 9a70 5dbf 831e 6bc0 c5d7 11be f99a 6bc0
000002e0: cf53 39bf 3d35 b1c0 8537 2fbf 1329 64c0
000002f0: 8cf9 0340 0dc3 30c0 7cc3 883e 199b 19bf
00000300: 7ac5 3b3e 483e 3041 7675 23bf 142d 8bc0
00000310: 60d9 4d3e e23d c4be 68f7 923e 4f70 0a3f
00000320: 5554 4abf 300a bbc0 5003 36bf 4fbf 8ec0
00000330: 1015 a6bd 627e e13e 6480 873e 3c56 69be
00000340: ecbf b6be 0f56 a6c0 69df 51bf 7c68 bac0
00000350: 228f bfbe 82bf 81c0 60d8 efbf 9dfd 69c0
00000360: a850 d53d 023b 61be c7e7 78be 5dfa 38c0
00000370: 9f77 c1be 4300 8bc0 e39d ff3d 30f6 15c0
00000380: e037 8abd c788 a3be 1e63 e1be 7641 98c0
00000390: 469e 9bbd 8371 74c0 e030 e73c a484 143e
000003a0: bc68 3f3e 10dc 23bd e477 51bf ea2f 80c0
000003b0: 6689 ecbe fee4 bec0 f420 abbe 1d36 73c1
000003c0: 5599 aabe c0a8 8e3e 1956 25bf 0a44 cac0
000003d0: 2f4e ea3d d603 47c0 f762 323d 72e6 04c0
000003e0: eaa7 f8be e91a cdc0 c742 81bf 58c6 afc0
000003f0: ce7e 69be dab6 84c0 ac12 5abf 8c1d 99c0
0.16220331 -0.16827321 -0.29519266 -4.263558 -0.14991052 -3.7486305 -0.5555015 -6.051912
-0.4084274 -5.7284327 -0.35616013 -4.748266 -0.5751159 -4.312442 -0.37663645 -2.8347769
-0.3079342 -4.4132023 -0.7245543 -2.7354991 -1.7130601 -11.805104 -0.49159852 -3.2191942
-0.067224324 0.18619382 -0.033943713 -0.39594215 -0.63636947 -6.0305586 -0.88129795 -6.3520274
0.16641682 0.46537954 0.03483367 -0.3241305 -0.13816185 -3.7393835 -0.6099468 -6.123979
-0.22203329 -0.65520495 -0.013463858 -2.9665458 -0.38858196 11.263944 -0.06545323 -3.8333635
-0.34770715 -3.6718826 0.37731057 0.47499663 -1.5389174 5.2828255 -0.43103352 -5.519674
-0.14369994 0.4113466 -0.32511133 -4.047341 -0.016513564 -4.539109 -0.23311819 -2.5590565
0.12778 -3.4277053 -0.20224652 -4.7042375 -0.4868647 -5.4017215 -0.9554537 -4.3329234
-0.76621264 -5.2172256 -0.47083914 -3.6490808 -0.38080204 -4.4148183 -0.59314966 -5.8367968
0.60114974 -0.08679706 -0.9720606 -13.825219 -0.14672242 -3.897505 -0.06633222 0.3056895
-0.5455627 -4.421894 -0.06821197 -0.4965686 1.7485813 -2.107049 -0.048585217 -2.497965
-0.55893534 -6.0850916 -0.59331834 -6.515851 -0.25839406 -0.113936484 -0.7858234 -13.98728
0.40114635 0.2241056 0.449336 0.5312001 -1.397074 -10.2178955 2.5464723 -4.8848033
-0.7384971 -5.4904327 -0.68774426 -5.897749 -0.53630745 -2.9989386 -0.45262662 -3.588676
0.061559487 -2.8070138 -0.8247527 -5.3050585 0.46630138 -0.5068975 -0.6309206 -3.3305264
-1.0067447 -5.8003573 -0.4792475 0.22033387 -0.7127612 -4.5633717 0.2740959 0.35767096
-0.16096403 -4.5422196 0.31599092 -3.7406828 -1.0445602 -5.3637395 0.46184975 0.32564324
-0.45131725 -4.8480635 -0.8969391 -4.423807 0.17994693 -3.9528856 -2.889294 -0.82536876
-2.218133 -8.81235 -0.23696771 -0.6039714 -0.58196795 -5.378288 0.11681134 -3.3438654
-0.93867004 -2.9421122 0.05804211 -0.6909449 0.0335418 0.45392126 -0.5604082 -5.9129477
-0.3522925 -0.5575588 -0.74574643 -5.720574 0.45708364 -0.13139623 -1.0961584 -11.404539
-0.56178 -14.773852 0.06002889 -2.934945 -0.8649994 -3.6737373 -0.14242466 -3.6813338
-0.72393507 -5.537749 -0.6844409 -3.565007 2.0621061 -2.761905 0.26711643 -0.60002285
0.1833705 11.015205 -0.63851106 -4.3492527 0.20102453 -0.38328463 0.2870438 0.5407762
-0.7903493 -5.8449936 -0.71098804 -4.460853 -0.08109486 0.44041735 0.26465142 -0.22786802
-0.356933 -5.198005 -0.8198152 -5.8252544 -0.3741389 -4.0546274 -1.8737907 -3.6561043
0.104157746 -0.21995166 -0.24307166 -2.890281 -0.37786576 -4.343782 0.124812864 -2.343151
-0.067489386 -0.3194029 -0.44020933 -4.757991 -0.07598548 -3.8194282 0.028221548 0.14503723
0.18692297 -0.04000479 -0.81823564 -4.005849 -0.46198577 -5.965453 -0.3342358 -15.200711
-0.33320108 0.2786312 -0.645845 -6.3208055 0.114406936 -3.1096091 0.04355141 -2.0765653
-0.48565608 -6.409535 -1.0098504 -5.492962 -0.22802278 -4.1473207 -0.8518474 -4.784857

linear.bias f4 [512]
00000000: 38ee b5bd 4e2c 453e 8cf3 c73e 98d5 a13e
00000010: 6d07 853e 4aaf 623e fdcf 953e 5b2d 513f
00000020: 01d4 4c3e ebec 3c3f a298 d53e 0aa8 de3e
00000030: 511b 86be 6f1a 12bf 9cbc af3e cd2c e33e
00000040: 21c7 b5be 8221 9cbe c972 013f 6e99 ab3e
00000050: 6923 08bf 3aa1 813e 00a0 1ebf 92de 273f
00000060: 754f 1a3f a1b8 c6be 60bb 0f3f e023 863e
00000070: 1761 33bf ce6e 493e 5ef5 2d3f e74e 573f
00000080: 1585 d63e 6dc6 d93e ece2 8e3e 0aac f33e
00000090: 2d2c c43e 3054 153f e3a8 283f 0f0c a63e
000000a0: 656c 30bf 8bc0 a43e bf20 b23e d833 d6be
000000b0: e89b 913e 819c bdbe 35ef 1c3d cef6 573f
000000c0: fbae a23e c3f1 ac3e ad17 d5be 1f22 9d3e
000000d0: 7203 dbbe 3961 11bf a001 b23e 5c6a 08be
000000e0: 87e0 bf3e 0d13 b93e 6ce0 3f3f 461b 413f
000000f0: a4c6 1f3f 05e7 d43e 7b91 b4be 01d6 1f3f
00000100: 6f16 023f 6856 2bbf a6df 253f e00e 14bf
00000110: 24c8 023f 8f4a 3c3f b00d 073f 7099 1fbf
00000120: afcc 823e 545d e53e 73cb ed3e 9b62 9dbf
00000130: 4941 fb3e de3b a5be d903 a03e 96df d53e
00000140: 6ec9 5d3f 90fc 36be 126a 6bbe c8e8 a03e
00000150: 5703 1ebf 350d c33e 6b9a b4be a255 a33e
00000160: 84fc 823e 25e1 4b3f 6846 513f 9f7c fd3e
00000170: e7a3 bd3e 43de 3f3f 9f53 103d c8ac 8ebe
00000180: 77fa e7bd a911 493f 03f8 0dbf 46e0 2ebf
00000190: 2202 cd3e b037 363f e359 18bf 6489 e9be
000001a0: 6352 6e3e 50e6 d23e ad68 1e3f 922b d63e
000001b0: 3591 afbe bf82 a63e ff08 2d3f ff6a cf3e
000001c0: 0877 fabd 84e9 7f3e 134c 593f fc3a fbbe
000001d0: d1e6 10bf dc5f 4a3f 0f15 903e 5f53 323e
000001e0: bd02 2ebf 6259 b43e 2bb7 bc3e bb5c a73e
000001f0: c3c1 983e 9a5d 033f 0d3f 5d3f bf8d db3e
00000200: cb37 96be c0ed 08bd 2eeb 12bf 8fba 17bf
00000210: 6149 173f 2dea fa3e 73a8 09bf c27d 333f
00000220: 06f1 853e 0af5 b03e 5eac 1f3f c53e a13e
00000230: 6e2f b1be 6555 2abf 84bf 03bf 49b6 443f
00000240: 049d babe f54e e03e 3c18 7dbe 7fcf 363f
00000250: ce66 2e3f 9d0c aa3e 1d71 85be 3761 023f
00000260: 4cc9 163f 4e21 acbe 3fe2 d03e 5e62 1f3f
00000270: ff31 4b3f 1710 df3e 2199 d43e 35ff 253f
00000280: 7956 313f 0e1e a53e b354 4c3f a7c7 1fbf
00000290: 61b5 2bbf d86a bc3e 36fe 863e 0e9e 063f
000002a0: b239 d93e 3fb2 a73e 39a9 d2be 9098 aabd
000002b0: 79bd b73e d777 d63e 8e95 863e 702a eb3e
000002c0: 4054 b63e 4ab0 5d3f 0281 723e b806 4c3f
000002d0: 84d5 e63e 867c 0ebf 32f3 4b3e 0644 1b3f
000002e0: 4b91 f63e 0284 243f 2a39 0c3e 2645 b93e
000002f0: 31e6 ac3e fe99 87be a8c0 69be 8758 5c3f
00000300: 9df4 c0be 48bb c9bd 4a0d 533f 1610 c8be
00000310: 0f72 01bd f3c4 1dbf 58e9 5d3f 12b2 a2be
00000320: 5910 333f 78f3 27be 77dc e53e 2234 a23e
00000330: 9f6f 1fbf 8473 18bf c43c 06bf db90 913e
00000340: b0ff 11bf 579b 3a3f b69c f6be 03f1 f13e
00000350: 373e 743e 1fcf 333f ef68 e4be 9b0f 0a3f
00000360: 39ca d13e 3edd babe b6e2 813e 81f5 f13e
00000370: 8248 a23e dca4 01bf f63c 443f ba9a 833e
00000380: ad05 9d3e af4b 4b3f aa64 953e ea7b 8abe
00000390: 4e46 0abf e180 4e3f 2ec0 003f 3f3d e93e
000003a0: 24c2 bf3e f39c 1d3f e8b7 913e fa5c d63e
000003b0: 61b0 0dbf a043 2dbf 4280 c23e 8a60 01bf
000003c0: 96ad 24bf cd40 973e 1670 e93e 8e9e 183f
000003d0: 1355 14bf 6186 ab3e df2a d13f 6ad1 c93e
000003e0: 3706 c63e a9b3 f63e 1246 d93e 4e02 2dbf
000003f0: a19c ce3e 8a14 913e 392a 9b3e 5fbb 8bbe
-0.08883327 0.19255182 0.39053 0.31608272 0.25982228 0.2213718 0.29260245 0.8170983
0.20002748 0.7379901 0.41718012 0.4348758 -0.26192716 -0.57071584 0.34323585 0.44370118
-0.35503486 -0.30494314 0.50565773 0.33515495 -0.5317903 0.2531832 -0.6196289 0.6557399
0.6027749 -0.38812736 0.56145287 0.26199245 -0.7007002 0.19671175 0.67952526 0.8410477
0.4189841 0.425342 0.27907503 0.47592193 0.38314953 0.58331585 0.658827 0.32431075
-0.68915397 0.3217815 0.34790608 -0.4183643 0.2843926 -0.37033466 0.038314063 0.8436097
0.31774125 0.337782 -0.41619626 0.30690095 -0.42776066 -0.56788975 0.34766865 -0.13321823
0.37475988 0.36147347 0.74951816 0.7543224 0.62412477 0.41582504 -0.35267243 0.6243592
0.5081548 -0.6692872 0.64794385 -0.578352 0.5108664 0.7355127 0.5275526 -0.623435
0.25546786 0.44797766 0.46444282 -1.2295717 0.49073246 -0.32272238 0.31252936 0.41772145
0.8663548 -0.17869782 -0.22989681 0.31427598 -0.61723846 0.38096014 -0.35274062 0.3190127
0.2558328 0.7964042 0.81748056 0.4950914 0.3703911 0.7494852 0.035235997 -0.27866197
-0.11327069 0.7854257 -0.5545656 -0.68310964 0.4004069 0.7117872 -0.59512156 -0.45612633
0.23273616 0.4119134 0.6187847 0.41830117 -0.34290472 0.32521626 0.6759185 0.4051132
-0.12229735 0.24991423 0.84881705 -0.4906844 -0.566022 0.7905252 0.28141066 0.17414616
-0.6797293 0.35224444 0.36858496 0.32687935 0.29835328 0.513147 0.8642433 0.4288158
-0.29339442 -0.03342986 -0.57390106 -0.5926904 0.5909634 0.49006787 -0.5377266 0.70113766
0.2616045 0.3456195 0.62372386 0.31493202 -0.34606498 -0.6653655 -0.51464105 0.76840645
-0.36447918 0.4381024 -0.24716276 0.71410364 0.6812562 0.33212748 -0.2606286 0.5092959
0.58900905 -0.3361916 0.40797612 0.6225947 0.79373163 0.43566963 0.41523078 0.6484254
0.6927257 0.32249492 0.7981674 -0.6241402 -0.6707364 0.36800265 0.26365823 0.5258492
0.4242683 0.32753178 -0.41144732 -0.0832988 0.35886744 0.41888306 0.26285976 0.45930815
0.35611153 0.8659712 0.23682025 0.7969775 0.45084774 -0.5565876 0.1991699 0.6065067
0.48157725 0.6426393 0.13693681 0.3618557 0.33769372 -0.26484674 -0.22827399 0.8607258
-0.37686625 -0.09850174 0.8244215 -0.39074773 -0.031602915 -0.61628646 0.8668418 -0.31776482
0.6994682 -0.1640147 0.44894764 0.316804 -0.62279695 -0.5955126 -0.5243647 0.28430828
-0.57030773 0.7289328 -0.48166436 0.4725419 0.23851858 0.70237917 -0.44611308 0.5393006
0.40974596 -0.3649692 0.2536828 0.47257617 0.31695944 -0.5064218 0.7665552 0.25703984
0.30668393 0.7941236 0.29178363 -0.27047664 -0.54013526 0.80665404 0.5029324 0.4555454
0.37452805 0.6156761 0.28460622 0.4186781 -0.5534726 -0.6768131 0.37988478 -0.5053793
-0.6432737 0.29541627 0.45593327 0.59616935 -0.5794231 0.3350096 1.6341208 0.39417583
0.38676617 0.48183945 0.42436272 -0.6758164 0.40353873 0.28335983 0.3030565 -0.2729139

linear3.weight f4 [3, 512]
00000000: d650 e43c 34f8 6bbf ceb8 05bf 8a77 18bf
00000010: 8172 66bf a308 3ebf 6f25 09bf b1a0 a3be
00000020: da55 65bf 0d29 9dbe 916d 0040 826b e7be
00000030: e38f 113d 333c 1d3d fbc0 31bf 2b4e 1dbf
00000040: 0fc1 9abc b076 c43b a2ba 02bf a7b2 0cbf
00000050: 8024 363c 21cd 36bf 32fc f640 8cdc c5be
00000060: d4b0 d6be ee7e 34bd 505a e23f 1a59 4abf
00000070: 7b83 c5bc b815 18bf 7124 e2be 9269 89be
00000080: 10f1 28bf 0bac 13bf 19a1 1ebf be25 01bf
00000090: c838 1abf 4841 cabe ac53 cfbe 682f 1bbf
000000a0: 4296 e4bc 8a48 3340 c01b 2abf 7395 1b3d
000000b0: dc86 15bf 8f0c 333d 8559 afbf 75d5 a2be
000000c0: dfe6 21bf c59b 2abf 49f3 b8bc bbcf 5140
000000d0: f00a 6dbb de94 06bd 9bbb bd3f 552f dfbf
000000e0: 5e0a 06bf 2aac 25bf f909 abbe ede5 a8be
000000f0: 976b ddbe beaa 08bf b1eb 21bd 80eb bfbe
00000100: eee8 1bbf 846f 03bc b052 e8be a64f f33c
00000110: a985 03bf be42 d6be e7e7 08bf dfb5 0e3d
00000120: ed7b 00bf 1724 05bf 47a1 2abf a319 0341
00000130: 1bee d63f 5068 663b 381d 1ebf 6c7d 18bf
00000140: 4af5 a0be 2826 9a3b 336d 1c3d 6983 1bbf
00000150: b329 073d 5d6e 03bf 15ea 303d 7496 e93f
00000160: c451 6f40 b93b c4be 0f62 b5be 8e34 eebe
00000170: 5267 12bf df7b c7be 07d0 a5bf 68a6 683c
00000180: d224 b240 f5e7 b9be 1553 0f3d 8fb4 0a3d
00000190: 5066 16bf d71b d8be 0f94 243d 52d3 d93c
000001a0: e0e8 74bf 6141 23bf b241 cfbe 23f5 663f
000001b0: e575 2e3d 22ba f3be bf99 e9be ccaf 0abf
000001c0: f19f 1ebd 5df9 1fbf 0d25 c1be 4891 3f3c
000001d0: 8a1c f2bc c652 c6be 6e5e 3ebf 9fb2 9a40
000001e0: 8733 06bd f460 31bf 1059 27bf 39c2 0ebf
000001f0: 69ef 43bf e582 e5be 98ac bebe d915 0ebf
00000200: 8c62 213c 383c a7bf 50ac 413b 597e d440
00000210: 64fa dfbe 97b6 03bf 3af1 be3c 97fa babe
00000220: a937 54bf fa01 12bf f4a2 c7be fe3e f0be
00000230: a081 a5ba 80cc 62ba f8b6 fe3b 0bdb c1be
00000240: 9879 a8bb 6363 04bf 4a2e e83c d10e f2be
00000250: 30ce aabe 2bbb 00bf 0ad3 c73c e13e 0bbf
00000260: 4967 a9be a901 8440 d38c c33f 6f8b 00bf
00000270: 7eaf a2be 62be ef3e 51e3 1fbf b20d a7be
00000280: f128 d3be d009 21bf 8480 d0be c1fe 0d3d
00000290: 60f6 643c 1de6 26bf 2f31 ebbe 65ae 01bf
000002a0: 1e65 28bf f384 2ebf 066f bd3c 82eb 14bd
000002b0: 173b 43bf fe8a 18bf 4780 11bf a33b ecbe
000002c0: f9da 08bf 987d bfbe d462 55bf 28ec c7be
000002d0: d9a4 4fbf 9c04 2cbd 394e 3abf e22a e1be
000002e0: a8b7 0ebf 4e3c e0be e8dc 9abf f934 0ebf
000002f0: c3c7 36bf 5c7f 44bc c8a8 16bc a644 bcbe
00000300: 9039 2dbb 1ab3 f9bc 10e0 bdbe 94db 4ebc
00000310: ab13 8e40 0b10 1e3d 0804 9abe 45e3 023d
00000320: 5216 b4be 2e0f c73c 4f8d 0fbf b256 4fbf
00000330: 7466 14bd e03b 403b 141c 1dbc ab06 13bf
00000340: 1f77 0b3d f9d2 cfbe fbec 2d3d 4419 17bf
00000350: b1aa 57bf 3e87 c4be 03c7 e2bc 8d42 f7be
00000360: 4d51 30bf 892e 0b3d d260 59bf f21f 10bf
00000370: 371c 2cbf 31e3 073d 3208 c3be 0980 3dbf
00000380: 0a1e 12bf 69c8 9fbe 5611 1cbf d8fe 253c
00000390: 1e83 10bd 092b a7be 28c4 debe 3fd4 203f
000003a0: e078 1dbf 5c1e e1be 8bc5 26bf 5552 13bf
000003b0: e8db 3e3c bd26 01bd 2fcc 1dbf 5744 0d3d
000003c0: 00e1 33bc 8b35 0bbf f599 fd3e e7ce e0be
000003d0: 4233 823c 080f 84bb ecee ce40 a2ae 1ebf
000003e0: fad5 10bf 4f93 0ebf df43 efbe 22a0 12bd
000003f0: ab41 e53e a112 43bf 6370 0fbf 88fa 9040
0.027870577 -0.921756 -0.52235115 -0.595574 -0.9001847 -0.7423193 -0.53572744 -0.31958535
-0.89584124 -0.30695382 2.0066874 -0.4519921 0.03553761 0.03838749 -0.6943509 -0.614474
-0.018890886 0.005995594 -0.5106603 -0.549601 0.011117101 -0.7140675 7.7182856 -0.38644826
-0.41931784 -0.044066362 1.7683811 -0.7904221 -0.024110546 -0.5940814 -0.44168428 -0.26838356
-0.6599283 -0.5768439 -0.61964566 -0.50448215 -0.6024289 -0.3950293 -0.40493524 -0.6061921
-0.02790368 2.8013024 -0.66448593 0.037984323 -0.58408904 0.04371315 -1.3699194 -0.3180348
-0.63242906 -0.66643935 -0.022576945 3.2783039 -0.003616985 -0.032856815 1.4822878 -1.743632
-0.5235957 -0.64715827 -0.33406046 -0.3298792 -0.43246147 -0.5338553 -0.039531413 -0.3748436
-0.609023 -0.008022193 -0.45375586 0.029701065 -0.51375824 -0.41847795 -0.53478855 0.034841415
-0.50189096 -0.52008194 -0.6665234 8.193759 1.6791414 0.003515739 -0.61763334 -0.5956638
-0.3143714 0.0047042556 0.038190078 -0.6074739 0.03299875 -0.51340276 0.043191988 1.824904
3.7393656 -0.38326815 -0.35426375 -0.4652447 -0.57188904 -0.38961694 -1.295411 0.014199831
5.5669947 -0.36309782 0.034991343 0.0338636 -0.58749866 -0.4220874 0.040180262 0.026590023
-0.9566784 -0.63771635 -0.4047981 0.902178 0.0425929 -0.47602946 -0.4562511 -0.54174495
-0.03872675 -0.62489873 -0.3772358 0.011692353 -0.029554624 -0.38735026 -0.7436284 4.8343043
-0.032763984 -0.69288564 -0.65370274 -0.5576511 -0.76537186 -0.44826427 -0.37241054 -0.55502087
0.009850156 -1.3065252 0.002955217 6.6404233 -0.4374572 -0.51450485 0.023308385 -0.3651931
-0.8289743 -0.57034266 -0.3899151 -0.4692306 -0.0012627132 -0.00086516887 0.0077732764 -0.3786243
-0.005141448 -0.5171415 0.028342385 -0.4727693 -0.33360434 -0.50285596 0.024392623 -0.5439282
-0.33086613 4.1252027 1.5277351 -0.5021276 -0.31774515 0.46824938 -0.6245623 -0.32627636
-0.41242173 -0.629056 -0.4072305 0.03466678 0.013974756 -0.65194875 -0.45935962 -0.5065673
-0.6577929 -0.68171614 0.02312423 -0.03635741 -0.7626204 -0.59587085 -0.5683636 -0.4613925
-0.53459126 -0.37400508 -0.83353925 -0.3904736 -0.8111091 -0.041996583 -0.7277561 -0.4397803
-0.5574899 -0.4379601 -1.2098665 -0.5554958 -0.7139856 -0.0119932555 -0.009195514 -0.36771125
-0.0026432015 -0.03048091 -0.3708501 -0.012625594 4.439901 0.03858952 -0.300812 0.031955022
-0.3517328 0.02429923 -0.56074995 -0.8099166 -0.03623052 0.0029332563 -0.009589214 -0.5743205
0.03404915 -0.40590647 0.04246233 -0.5902293 -0.8424483 -0.38384432 -0.027682787 -0.48292962
-0.68874055 0.033979926 -0.8491336 -0.56298745 -0.6723055 0.03317565 -0.3809219 -0.7402349
-0.57077086 -0.31207588 -0.6096395 0.01013156 -0.035281293 -0.3265002 -0.4350903 0.6282386
-0.61512566 -0.43968475 -0.65145177 -0.57547504 0.011649109 -0.031531084 -0.61639684 0.034489002
-0.010978937 -0.54378575 0.49531522 -0.43907854 0.015893582 -0.004030112 6.4666653 -0.6198522
-0.565765 -0.55693525 -0.4673147 -0.035797246 0.44776663 -0.762003 -0.56030864 4.5305824

linear3.bias f4 [3]
00000000: ea51 6ebe 1e52 01be b97c 99bd
-0.23273435 -0.12628981 -0.07494492
