env2 DQN/log/dqn/ckpt/187000.pth (torch, 14216 bytes, 4 tensors)

linear.weight f4 [512, 2]
0.16220331 -0.16827321 -0.29915068 -4.4151073 -0.14049493 -3.684496 -0.53796285 -6.25031
-0.40374058 -5.8988166 -0.35267958 -4.9064302 -0.55412006 -4.524919 -0.3665423 -2.8017576
-0.31071466 -4.5684934 -0.7132649 -2.6953802 -1.6747649 -12.159578 -0.4821864 -3.1710188
-0.067224324 0.18619382 -0.033943713 -0.39594215 -0.61080885 -6.2523627 -0.85781145 -6.5809135
0.16641682 0.46537954 0.03483367 -0.3241305 -0.12887041 -3.6874619 -0.58620185 -6.3396196
-0.22203329 -0.65520495 -0.0033311772 -2.9017768 -0.4463715 11.536084 -0.05666223 -3.7783759
-0.33804002 -3.6182823 0.37731057 0.47499663 -1.5501511 5.299816 -0.42008623 -5.7002416
-0.14369994 0.4113466 -0.32103768 -4.2133613 -0.008189266 -4.481075 -0.22216453 -2.5207987
0.13786796 -3.368761 -0.19357538 -4.638642 -0.47154847 -5.59769 -0.9401287 -4.498723
-0.7446257 -5.4318757 -0.46101668 -3.595776 -0.37115857 -4.3572392 -0.5711718 -6.0441327
0.60114974 -0.08679706 -0.8845749 -14.242749 -0.13736357 -3.837944 -0.06633222 0.3056895
-0.5229421 -4.640335 -0.06821197 -0.4965686 1.7835882 -1.9301742 -0.037879564 -2.4630723
-0.5394773 -6.2953577 -0.57324713 -6.726542 -0.25839406 -0.113936484 -0.76231974 -14.311524
0.40114635 0.2241056 0.449336 0.5312001 -1.3508031 -10.585873 2.604632 -4.529546
-0.7145882 -5.7237587 -0.66074944 -6.134641 -0.5265436 -2.9587784 -0.4431778 -3.536954
0.071496904 -2.7642858 -0.80620193 -5.519233 0.46630138 -0.5068975 -0.6217052 -3.2862659
-0.991098 -5.98771 -0.4792475 0.22033387 -0.70334923 -4.505523 0.2740959 0.35767096
-0.15209977 -4.479226 0.32478538 -3.6860838 -1.0310937 -5.536334 0.46184975 0.32564324
-0.43419424 -5.0474267 -0.8818969 -4.598937 0.18984741 -3.8907127 -2.7983825 -2.0543303
-2.1945326 -9.134513 -0.23696771 -0.6039714 -0.55589324 -5.6039124 0.12721142 -3.2790828
-0.927692 -2.90417 0.05804211 -0.6909449 0.0335418 0.45392126 -0.5386433 -6.126898
-0.3522925 -0.5575588 -0.7205383 -5.954744 0.45708364 -0.13139623 -1.0926288 -11.640222
-0.65199184 -14.915057 0.0695408 -2.8945765 -0.85409963 -3.6256225 -0.13335691 -3.6236284
-0.69861424 -5.774989 -0.6753331 -3.5200484 2.1032267 -2.556854 0.26711643 -0.60002285
0.19817895 11.135574 -0.62913895 -4.294317 0.20102453 -0.38328463 0.2870438 0.5407762
-0.7677593 -6.070832 -0.70181656 -4.408792 -0.08109486 0.44041735 0.26465142 -0.22786802
-0.35906905 -5.358202 -0.7966455 -6.0428915 -0.36410397 -3.9972243 -1.8526837 -3.7904232
0.104157746 -0.21995166 -0.23247553 -2.8343463 -0.36937886 -4.291952 0.13665853 -2.2919872
-0.067489386 -0.3194029 -0.42315376 -4.96095 -0.06642591 -3.7711592 0.028221548 0.14503723
0.18692297 -0.04000479 -0.80890006 -3.954345 -0.44928867 -6.1488595 -0.34194884 -15.395712
-0.33320108 0.2786312 -0.6207313 -6.540429 0.12505537 -3.0493279 0.055316955 -2.032297
-0.47305027 -6.5946527 -0.99622667 -5.6684093 -0.21882232 -4.101053 -0.8370882 -4.9721055
00000000: a018 263e d04f 2cbe 472a 99be 8f48 8dc0
00000010: e7dd 0fbe c8ce 6bc0 efb7 09bf 8a02 c8c0
00000020: 16b7 cebe 1bc3 bcc0 6b92 b4be 7a01 9dc0
00000030: d0da 0dbf 23cc 90c0 6fab bbbe ff4f 33c0
00000040: fe15 9fbe 1931 92c0 8798 36bf 1c81 2cc0
00000050: b25e d6bf a28d 42c1 23e1 f6be f9f1 4ac0
00000060: e8ac 89bd 98a9 3e3e 9008 0bbd eeb8 cabe
00000070: f85d 1cbf 5b13 c8c0 8899 5bbf d896 d2c0
00000080: 2c69 2a3e 3a46 ee3e c0ad 0e3d 6ff4 a5be
00000090: 9bf6 03be 60ff 6bc0 5311 16bf 2ade cac0
000000a0: b25c 63be 83bb 27bf e14f 5abb b6b6 39c0
000000b0: ce8a e4be cd93 3841 a816 68bd e9d0 71c0
000000c0: 9513 adbe f091 67c0 da2e c13e c232 f33e
000000d0: 5a6b c6bf 1898 a940 8b15 d7be 6168 b6c0
000000e0: 1426 13be 069c d23e 0d5f a4be dbd3 86c0
000000f0: 452c 06bc f764 8fc0 197f 63be c454 21c0
00000100: 422d 0d3e c899 57c0 a038 46be c16f 94c0
00000110: cd6e f1be 4720 b3c0 46ac 70bf 8af5 8fc0
00000120: ca9f 3ebf edd1 adc0 610a ecbe 3221 66c0
00000130: 7f08 bebe 816e 8bc0 5138 12bf 8969 c1c0
00000140: f3e4 193f a8c2 b1bd 8073 62bf 4de2 63c1
00000150: 09a9 0cbe e0a0 75c0 30d9 87bd 5683 9c3e
00000160: 89df 05bf a07d 94c0 b8b2 8bbd 3d3e febe
00000170: 9e4c e43f f30f f7bf 9a27 1bbd faa2 1dc0
00000180: 2f1b 0abf 9273 c9c0 53c0 12bf d53f d7c0
00000190: 3a4c 84be 8857 e9bd 6327 43bf 01fc 64c1
000001a0: 0e63 cd3e f07b 653e 5e0f e63e bbfc 073f
000001b0: 1ee7 acbf bc5f 29c1 4ab2 2640 0af2 90c0
000001c0: 41ef 36bf 0829 b7c0 e026 29bf fb4e c4c0
000001d0: 90cb 06bf a05c 3dc0 33e8 e2be 745d 62c0
000001e0: f86c 923d 0fea 30c0 4063 4ebf 8f9d b0c0
000001f0: 0ebf ee3e 09c4 01bf 1228 1fbf 2e52 52c0
00000200: 99b8 7dbf 529b bfc0 ee5f f5be 349f 613e
00000210: b20e 34bf 3f2d 90c0 4c56 8c3e a620 b73e
00000220: 0bc0 1bbe d255 8fc0 454a a63e cce8 6bc0
00000230: e1fa 83bf a629 b1c0 9277 ec3e b6ba a63e
00000240: b54e debe 8584 a1c0 ffc3 61bf 7e2a 93c0
00000250: 5c67 423e 7001 79c0 b318 33c0 267a 03c0
00000260: 3973 0cc0 f726 12c1 aaa7 72be df9d 1abf
00000270: 054f 0ebf 4053 b3c0 b643 023e 7edc 51c0
00000280: 397d 6dbf ecdd 39c0 90bd 6d3d c4e1 30bf
00000290: 2063 093d 5e68 e83e 87e4 09bf 8c0f c4c0
000002a0: af5f b4be 2cbc 0ebf 3375 38bf 438d bec0
000002b0: de06 ea3e bc8c 06be 43db 8bbf 593e 3ac1
000002c0: f0e8 26bf 13a4 6ec1 686b 8e3d be40 39c0
000002d0: 46a6 5abf 330a 68c0 b78e 08be 87e9 67c0
000002e0: 62d8 32bf b6cc b8c0 a1e2 2cbf 7948 61c0
000002f0: 449b 0640 7fa3 23c0 7cc3 883e 199b 19bf
00000300: 6cef 4a3e 502b 3241 400f 21bf 0b6b 89c0
00000310: 60d9 4d3e e23d c4be 68f7 923e 4f70 0a3f
00000320: e08b 44bf 4144 c2c0 40aa 33bf d314 8dc0
00000330: 1015 a6bd 627e e13e 6480 873e 3c56 69be
00000340: e6d7 b7be 6476 abc0 f6f0 4bbf 5e5f c1c0
00000350: d66b babe 86d2 7fc0 bd24 edbf 4b96 72c0
00000360: a850 d53d 023b 61be 110e 6ebe ee65 35c0
00000370: 3a1f bdbe ac57 89c0 37f0 0b3e ebaf 12c0
00000380: e037 8abd c788 a3be 9ca7 d8be 1ac0 9ec0
00000390: 4f0a 88bd ac5a 71c0 e030 e73c a484 143e
000003a0: bc68 3f3e 10dc 23bd 1314 4fbf fd13 7dc0
000003b0: 2a09 e6be 75c3 c4c0 eb13 afbe d654 76c1
000003c0: 5599 aabe c0a8 8e3e 3fe8 1ebf 324b d1c0
000003d0: 840e 003e 3028 43c0 0894 623d 2711 02c0
000003e0: a533 f2be 6507 d3c0 b608 7fbf 9c63 b5c0
000003f0: f512 60be d43b 83c0 6a4b 56bf 7d1b 9fc0

linear.bias f4 [512]
-0.08883327 0.21007091 0.3993177 0.32471126 0.2764851 0.23844023 0.29462832 0.8201212
0.21821876 0.7424632 0.4202992 0.44090563 -0.26192716 -0.57071584 0.34984362 0.44120267
-0.35503486 -0.30494314 0.5123345 0.34115204 -0.5317903 0.2623112 -0.6123112 0.6626615
0.6096502 -0.38812736 0.5744806 0.27826235 -0.7007002 0.21245939 0.68703216 0.8448665
0.42708954 0.43436787 0.28832603 0.4893109 0.38564366 0.5901315 0.6663528 0.3309081
-0.68915397 0.34380272 0.35604814 -0.4183643 0.29165682 -0.37033466 0.008243649 0.8470205
0.32764003 0.34688532 -0.41619626 0.3257633 -0.42776066 -0.56788975 0.34802285 -0.22106688
0.37183413 0.3618862 0.7538627 0.76062715 0.62914515 0.4143545 -0.35267243 0.62951946
0.5140539 -0.6692872 0.65562767 -0.578352 0.5193929 0.74244404 0.5348418 -0.623435
0.2644459 0.45905095 0.47307372 -1.1705531 0.47369736 -0.32272238 0.3195891 0.4267961
0.87043595 -0.17869782 -0.22989681 0.32119492 -0.61723846 0.37768283 -0.35274062 0.34838644
0.32328627 0.8008496 0.8234647 0.5026645 0.371077 0.7547757 -0.05666992 -0.27866197
-0.19018807 0.7923995 -0.5545656 -0.68310964 0.39780447 0.71839094 -0.59512156 -0.45612633
0.24975055 0.4140704 0.62633103 0.4549726 -0.34290472 0.3327221 0.6824344 0.41205257
-0.12229735 0.2603165 0.8546324 -0.4906844 -0.566022 0.79698676 0.2960928 0.24671967
-0.6797293 0.36121637 0.37698588 0.33263338 0.31384736 0.5184301 0.86966574 0.43430135
-0.29339442 -0.13113092 -0.57390106 -0.58937085 0.59654385 0.495369 -0.5377266 0.7073081
0.27821833 0.35352793 0.6312574 0.32061297 -0.34606498 -0.6653655 -0.51464105 0.77476555
-0.36447918 0.4461262 -0.24716276 0.722097 0.68769765 0.33217198 -0.2606286 0.5166831
0.59606344 -0.37290424 0.40222743 0.6296959 0.8015382 0.52236176 0.41317847 0.6544593
0.6989417 0.33040178 0.8036396 -0.6241402 -0.6707364 0.36769938 0.27101797 0.5309871
0.43290567 0.33669734 -0.41144732 -0.0832988 0.3672755 0.42173716 0.26936764 0.46379504
0.3704754 0.87114316 0.25453067 0.80484444 0.5552846 -0.5565876 0.21676248 0.61387384
0.48445538 0.65046805 0.6235704 0.36555675 0.3460541 -0.26484674 -0.22827399 0.8651759
-0.37686625 -0.09850174 0.8291661 -0.39074773 0.009266398 -0.61628646 0.86900145 -0.31776482
0.7050525 -0.1640147 0.45400915 0.33170515 -0.62279695 -0.5955126 -0.5243647 0.29707128
-0.57030773 0.73456144 -0.48166436 0.48097527 0.2559291 0.70879674 -0.44611308 0.54712254
0.4175169 -0.3649692 0.27104574 0.470721 0.32379812 -0.5064218 0.77252233 0.26591942
0.31548837 0.79678744 0.30311814 -0.27047664 -0.54013526 0.81160337 0.509462 0.52183783
0.38242665 0.62240547 0.29291552 0.4274776 -0.5534726 -0.6768131 0.37939706 -0.5053793
-0.6432737 0.3013298 0.5298912 0.60217667 -0.5794231 0.3223124 1.5024563 0.39389828
0.38545486 0.48485988 0.42953104 -0.6758164 0.49879545 0.29919004 0.30840212 -0.30279475
00000000: 38ee b5bd d41c 573e 5f73 cc3e 8e40 a63e
00000010: 748f 8d3e ad29 743e 86d9 963e 77f3 513f
00000020: bd74 5f3e 1112 3e3f 7531 d73e 62be e13e
00000030: 511b 86be 6f1a 12bf b41e b33e 51e5 e13e
00000040: 21c7 b5be 8221 9cbe 5b28 033f 7bab ae3e
00000050: 6923 08bf a74d 863e 6dc0 1cbf 2fa4 293f
00000060: 0912 1c3f a1b8 c6be 2911 133f 6778 8e3e
00000070: 1761 33bf f48e 593e 57e1 2f3f 2c49 583f
00000080: 7bab da3e 7765 de3e 789f 933e f586 fa3e
00000090: 1673 c53e dc12 173f 1996 2a3f c96c a93e
000000a0: 656c 30bf e906 b03e f14b b63e d833 d6be
000000b0: 0b54 953e 819c bdbe 5f10 073c 56d6 583f
000000c0: 6fc0 a73e f49a b13e ad17 d5be 72ca a63e
000000d0: 7203 dbbe 3961 11bf 0d30 b23e 5b5f 62be
000000e0: 0b61 be3e 2649 b93e 25fd 403f 76b8 423f
000000f0: a80f 213f 4626 d43e 7b91 b4be 3028 213f
00000100: 0999 033f 6856 2bbf 37d7 273f e00e 14bf
00000110: eff6 043f d010 3e3f 64eb 083f 7099 1fbf
00000120: 7465 873e ba08 eb3e b836 f23e afd4 95bf
00000130: 7688 f23e de3b a5be 2fa1 a33e 0585 da3e
00000140: e4d4 5e3f 90fc 36be 126a 6bbe a973 a43e
00000150: 5703 1ebf a55f c13e 6b9a b4be b55f b23e
00000160: c785 a53e 7b04 4d3f 95ce 523f 9fae 003f
00000170: cefd bd3e fb38 413f b81e 68bd c8ac 8ebe
00000180: a9c0 42be b2da 4a3f 03f8 0dbf 46e0 2ebf
00000190: 07ad cb3e 78e8 373f e359 18bf 6489 e9be
000001a0: 9cbe 7f3e 0901 d43e 3b57 203f 2bf2 e83e
000001b0: 3591 afbe 8d5a aa3e 05b4 2e3f 8ef8 d23e
000001c0: 0877 fabd 3448 853e 30c9 5a3f fc3a fbbe
000001d0: d1e6 10bf 5307 4c3f 7a99 973e 15a4 7c3e
000001e0: bd02 2ebf 5af1 b83e 4b04 c13e ec4e aa3e
000001f0: 9ab0 a03e d6b7 043f 6aa2 5e3f bf5c de3e
00000200: cb37 96be 2f47 06be 2eeb 12bf 02e1 16bf
00000210: 19b7 183f 01a1 fd3e 73a8 09bf 2512 353f
00000220: a272 8e3e 9d01 b53e 169a 213f 6227 a43e
00000230: 6e2f b1be 6555 2abf 84bf 03bf 0957 463f
00000240: 049d babe a76a e43e 3c18 7dbe 59db 383f
00000250: f40c 303f 7212 aa3e 1d71 85be 5845 043f
00000260: 9d97 183f 4eed bebe c1f0 cd3e c033 213f
00000270: 9c31 4d3f 80b9 053f 218c d33e a58a 273f
00000280: d8ed 323f 6c2a a93e 53bb 4d3f a7c7 1fbf
00000290: 61b5 2bbf 1843 bc3e dec2 8a3e c5ee 073f
000002a0: d0a5 dd3e 9863 ac3e 39a9 d2be 9098 aabd
000002b0: 890b bc3e efed d73e 8eea 893e 8b76 ed3e
000002c0: f4ae bd3e 3d03 5f3f d851 823e 490a 4e3f
000002d0: 2227 0e3f 867c 0ebf fcf6 5d3e d626 1d3f
000002e0: 890a f83e 1385 263f 4fa2 1f3f 412a bb3e
000002f0: 012e b13e fe99 87be a8c0 69be 2b7c 5d3f
00000300: 9df4 c0be 48bb c9bd 3b44 543f 1610 c8be
00000310: 17d2 173c f3c4 1dbf e176 5e3f 12b2 a2be
00000320: 527e 343f 78f3 27be e373 e83e 42d5 a93e
00000330: 9f6f 1fbf 8473 18bf c43c 06bf ba19 983e
00000340: b0ff 11bf 380c 3c3f b69c f6be 6442 f63e
00000350: 2409 833e b473 353f ef68 e4be 3910 0c3f
00000360: c6c4 d53e 3edd babe 82c6 8a3e 5802 f13e
00000370: dec8 a53e dca4 01bf 06c4 453f 9726 883e
00000380: b187 a13e 43fa 4b3f 4d32 9b3e ea7b 8abe
00000390: 4e46 0abf 3dc5 4f3f 1a6c 023f 2a97 053f
000003a0: 6dcd c33e f755 1f3f 06f9 953e 58de da3e
000003b0: 61b0 0dbf a043 2dbf 5540 c23e 8a60 01bf
000003c0: 96ad 24bf e647 9a3e f3a6 073f 4028 1a3f
000003d0: 1355 14bf 2206 a53e 7d50 c03f 09ad c93e
000003e0: 575a c53e 8e3f f83e 7eeb db3e 4e02 2dbf
000003f0: 1e62 ff3e 702f 993e e2e6 9d3e ea07 9bbe

linear3.weight f4 [3, 512]
0.027870577 -0.9381696 -0.5218564 -0.61381835 -0.91601396 -0.7593719 -0.55258477 -0.31510726
-0.9123763 -0.30266353 2.0251281 -0.44951668 0.03553761 0.03838749 -0.7123909 -0.630913
-0.018890886 0.005995594 -0.5089282 -0.56766886 0.011117101 -0.7154682 8.253444 -0.38388968
-0.41651735 -0.044066362 1.7798488 -0.80757886 -0.024110546 -0.6122926 -0.43987268 -0.26361567
-0.65989614 -0.5770644 -0.6378621 -0.5160926 -0.61847115 -0.3921934 -0.40253198 -0.6243593
-0.02790368 2.8254 -0.66479903 0.037984323 -0.60170406 0.04371315 -1.345447 -0.31321523
-0.6507031 -0.68460923 -0.022576945 3.3020422 -0.003616985 -0.032856815 1.5023574 -1.7897687
-0.5402764 -0.6647419 -0.32993102 -0.32626772 -0.42897698 -0.5494028 -0.039531413 -0.37142137
-0.6235524 -0.008022193 -0.45121688 0.029701065 -0.51298916 -0.41617137 -0.547914 0.034841415
-0.52021146 -0.53276515 -0.6670672 8.079363 1.6844513 0.003515739 -0.63571054 -0.5954531
-0.30994287 0.0047042556 0.038190078 -0.6256277 0.03299875 -0.5302468 0.043191988 1.8507257
3.7597246 -0.3791242 -0.35043582 -0.46354502 -0.5888715 -0.385927 -1.2843344 0.014199831
5.6637263 -0.35990396 0.034991343 0.0338636 -0.60414356 -0.41919973 0.040180262 0.026590023
-0.97225004 -0.65408957 -0.40227652 0.9016838 0.0425929 -0.47456017 -0.45368344 -0.53961754
-0.03872675 -0.6433438 -0.37367743 0.011692353 -0.029554624 -0.3838328 -0.7603101 4.842299
-0.032763984 -0.7110784 -0.65386266 -0.55553657 -0.78164965 -0.46208805 -0.36896786 -0.56928456
0.009850156 -1.3366631 0.002955217 7.268419 -0.44689628 -0.5296905 0.023308385 -0.36167747
-0.84589416 -0.5868308 -0.38756663 -0.48505053 -0.0012627132 -0.00086516887 0.0077732764 -0.37533408
-0.005141448 -0.53209615 0.028342385 -0.47134534 -0.32997444 -0.52035844 0.024392623 -0.54274064
-0.32759103 4.3390317 1.5304329 -0.5004579 -0.31403285 0.46766517 -0.64162624 -0.32269222
-0.40918928 -0.62878656 -0.40389422 0.03466678 0.013974756 -0.66934806 -0.4577836 -0.5205013
-0.6583445 -0.68264943 0.02312423 -0.03635741 -0.7637758 -0.6121576 -0.58657324 -0.4754485
-0.5492665 -0.37006274 -0.84994054 -0.3879317 -0.8809991 -0.041996583 -0.74505454 -0.43761995
-0.5720485 -0.43537098 -1.3165982 -0.57170916 -0.73219186 -0.0119932555 -0.009195514 -0.36353698
-0.0026432015 -0.03048091 -0.36696947 -0.012625594 4.4229326 0.03858952 -0.2955784 0.031955022
-0.34806293 0.02429923 -0.5751549 -0.82697374 -0.03623052 0.0029332563 -0.009589214 -0.5922578
0.03404915 -0.4022952 0.04246233 -0.5899764 -0.8585882 -0.38083753 -0.027682787 -0.49303743
-0.688702 0.033979926 -0.86501265 -0.5787823 -0.690423 0.03317565 -0.37708375 -0.7416427
-0.5890774 -0.30764216 -0.62753606 0.01013156 -0.035281293 -0.3222811 -0.43244427 0.62648535
-0.61499846 -0.4371357 -0.6697546 -0.59069836 0.011649109 -0.031531084 -0.6336856 0.034489002
-0.010978937 -0.541736 0.49378756 -0.43599936 0.015893582 0.0059577147 6.371461 -0.63699037
-0.58300656 -0.5720652 -0.4642528 -0.035797246 0.44792214 -0.7797599 -0.5765174 4.7523894
00000000: d650 e43c e22b 70bf 6298 05bf 3323 1dbf
00000010: e47f 6abf 3266 42bf 3276 0dbf bd55 a1be
00000020: 7e91 69bf b7f6 9abe b39b 0140 0d27 e6be
00000030: e38f 113d 333c 1d3d 405f 36bf 8483 21bf
00000040: 0fc1 9abc b076 c43b 1e49 02bf bf52 11bf
00000050: 8024 363c ed28 37bf 1b0e 0441 308d c4be
00000060: c341 d5be ee7e 34bd 16d2 e33f 7dbd 4ebf
00000070: 7b83 c5bc 35bf 1cbf fe36 e1be a2f8 86be
00000080: f4ee 28bf 7eba 13bf ee4a 23bf a51e 04bf
00000090: 2054 1ebf 93cd c8be ac18 cebe 03d6 1fbf
000000a0: 4296 e4bc 5bd3 3440 4530 2abf 7395 1b3d
000000b0: 4709 1abf 8f0c 333d 9b37 acbf bf5d a0be
000000c0: 7a94 26bf 8d42 2fbf 49f3 b8bc a954 5340
000000d0: f00a 6dbb de94 06bd 3f4d c03f 2417 e5bf
000000e0: 8e4f 0abf 862c 2abf b8ec a8be 900c a7be
000000f0: dfa2 dbbe a9a5 0cbf b1eb 21bd f12a bebe
00000100: 21a1 1fbf 846f 03bc e605 e7be a64f f33c
00000110: 4253 03bf 6a14 d5be 1844 0cbf dfb5 0e3d
00000120: 942c 05bf 4c63 08bf ebc4 2abf 1245 0141
00000130: 1a9c d73f 5068 663b edbd 22bf 9d6f 18bf
00000140: d5b0 9ebe 2826 9a3b 336d 1c3d 2329 20bf
00000150: b329 073d 41be 07bf 15ea 303d 94e4 ec3f
00000160: 549f 7040 911c c2be 536c b3be c655 edbe
00000170: 48c0 16bf 3998 c5be 1265 a4bf 68a6 683c
00000180: 3f3d b540 5545 b8be 1553 0f3d 8fb4 0a3d
00000190: 27a9 1abf 59a1 d6be 0f94 243d 52d3 d93c
000001a0: 61e5 78bf 6a72 27bf 30f7 cdbe c0d4 663f
000001b0: e575 2e3d 8df9 f2be 3249 e8be 6024 0abf
000001c0: f19f 1ebd 2eb2 24bf a652 bfbe 4891 3f3c
000001d0: 8a1c f2bc bc85 c4be afa3 42bf 1df4 9a40
000001e0: 8733 06bd 3c09 36bf 8b63 27bf a537 0ebf
000001f0: 311a 48bf ce96 ecbe 5be9 bcbe a2bc 11bf
00000200: 8c62 213c c717 abbf 50ac 413b e396 e840
00000210: 97cf e4be cc99 07bf 3af1 be3c ca2d b9be
00000220: 858c 58bf 8b3a 16bf 226f c6be 8b58 f8be
00000230: a081 a5ba 80cc 62ba f8b6 fe3b ca2b c0be
00000240: 9879 a8bb 7437 08bf 4a2e e83c 2d54 f1be
00000250: 69f2 a8be 3636 05bf 0ad3 c73c 0df1 0abf
00000260: 03ba a7be 59d9 8a40 3ae5 c33f 021e 00bf
00000270: eac8 a0be cf71 ef3e 9e41 24bf ea37 a5be
00000280: 4281 d1be 28f8 20bf 39cb cebe c1fe 0d3d
00000290: 60f6 643c 655a 2bbf 9d62 eabe 933f 05bf
000002a0: 4489 28bf 1dc2 2ebf 066f bd3c 82eb 14bd
000002b0: d086 43bf 5cb6 1cbf aa29 16bf fc6d f3be
000002c0: bb9c 0cbf dd78 bdbe b495 59bf fc9e c6be
000002d0: 2889 61bf 9c04 2cbd e5bb 3ebf b90f e0be
000002e0: c571 12bf f2e8 debe 4a86 a8bf 885b 12bf
000002f0: ed70 3bbf 5c7f 44bc c8a8 16bc 8521 babe
00000300: 9039 2dbb 1ab3 f9bc 6ce3 bbbe 94db 4ebc
00000310: aa88 8d40 0b10 1e3d 0d56 97be 45e3 023d
00000320: 4e35 b2be 2e0f c73c 5a3d 13bf 8db4 53bf
00000330: 7466 14bd e03b 403b 141c 1dbc 359e 17bf
00000340: 1f77 0b3d a3f9 cdbe fbec 2d3d b108 17bf
00000350: 70cc 5bbf 23fd c2be 03c7 e2bc 676f fcbe
00000360: c64e 30bf 892e 0b3d 7871 5dbf 142b 14bf
00000370: 90bf 30bf 31e3 073d 1f11 c1be 4cdc 3dbf
00000380: c7cd 16bf 4683 9dbe 34a6 20bf d8fe 253c
00000390: 1e83 10bd 0702 a5be 5669 ddbe 5861 203f
000003a0: 8a70 1dbf 40d0 dfbe 0a75 2bbf 0238 17bf
000003b0: e8db 3e3c bd26 01bd 3839 22bf 5744 0d3d
000003c0: 00e1 33bc 36af 0abf b9d1 fc3e 4f3b dfbe
000003d0: 4233 823c ef38 c33b 02e3 cb40 cd11 23bf
000003e0: eb3f 15bf dd72 12bf 8bb2 edbe 22a0 12bd
000003f0: 0d56 e53e 589e 47bf a596 13bf 9313 9840

linear3.bias f4 [3]
-0.22556263 -0.13903749 -0.08832347
00000000: e4f9 66be d85f 0ebe efe2 b4bd
