env2 DQN/log/dqn/ckpt/190000.pth (torch, 14216 bytes, 4 tensors)

linear.weight f4 [512, 2]
00000000: a018 263e d04f 2cbe 8170 95be aaab 8fc0
00000010: 4021 10be 71b6 6dc0 6883 07bf 7e72 cac0
00000020: a6c4 cabe 710f bfc0 150b b1be 3457 9fc0
00000030: 2c54 0cbf dd6e 93c0 0f04 bbbe f3c6 35c0
00000040: d040 9bbe afa0 94c0 2d3e 36bf 01ff 2ec0
00000050: 90d0 d3bf 9031 44c1 41b1 f6be 4a16 4dc0
00000060: e8ac 89bd 98a9 3e3e 9008 0bbd eeb8 cabe
00000070: 289c 1abf a492 cac0 3018 5abf f351 d5c0
00000080: 2c69 2a3e 3a46 ee3e c0ad 0e3d 6ff4 a5be
00000090: 4abc 03be b11b 6ec0 c635 14bf e944 cdc0
000000a0: b25c 63be 83bb 27bf 1b3c 5abb 06bf 3bc0
000000b0: 7659 febe 7c4e 3941 006d 68bd 64cb 73c0
000000c0: 7ff2 acbe 99ad 69c0 da2e c13e c232 f33e
000000d0: 1cc7 c8bf 0dbb a940 911a d3be 97e1 b8c0
000000e0: 1426 13be 069c d23e 12c2 a0be d14a 89c0
000000f0: 3a21 0cbc 6053 90c0 1113 62be 39d7 23c0
00000100: 6e70 0d3e 64c0 59c0 e5d0 46be 0851 95c0
00000110: 2e41 edbe 9297 b5c0 5377 6ebf 59b8 91c0
00000120: ea9d 3dbf 397d b0c0 c5e2 ebbe 933f 68c0
00000130: d3fe bdbe b172 8cc0 5973 10bf cdc4 c3c0
00000140: f3e4 193f a8c2 b1bd dc05 5dbf 5a00 65c1
00000150: 73bc 0cbe f99e 77c0 30d9 87bd 5683 9c3e
00000160: e16c 04bf 714d 97c0 b8b2 8bbd 3d3e febe
00000170: b5c5 e53f 496f fabf c912 15bd 9a31 20c0
00000180: 1ed7 07bf f605 ccc0 ea89 10bf 8ec7 d9c0
00000190: 3a4c 84be 8857 e9bd 4d46 3dbf c926 66c1
000001a0: 0e63 cd3e f07b 653e 5e0f e63e bbfc 073f
000001b0: ae5f aabf 7df1 2ac1 cfb7 2840 8855 8ec0
000001c0: bd26 35bf 85da b9c0 6832 27bf c9fa c6c0
000001d0: a395 06bf 32aa 3fc0 59ca e2be 4272 64c0
000001e0: ca39 943d 4f49 33c0 5e77 4dbf 962f b3c0
000001f0: 0ebf ee3e 09c4 01bf 1c0b 1fbf 887a 54c0
00000200: 2644 7dbf 4bfb c1c0 ee5f f5be 349f 613e
00000210: 8611 34bf 752a 91c0 4c56 8c3e a620 b73e
00000220: 5429 1cbe a141 90c0 f048 a63e 4df3 6dc0
00000230: 1270 83bf 432f b3c0 9277 ec3e b6ba a63e
00000240: e539 dabe effc a3c0 1750 60bf 6127 95c0
00000250: 4a75 423e d812 7bc0 9ab9 30c0 19b6 17c0
00000260: 6277 0bc0 df68 13c1 aaa7 72be df9d 1abf
00000270: ee9f 0cbf dee9 b5c0 6e61 023e 8cf2 53c0
00000280: 2725 6dbf ee57 3cc0 90bd 6d3d c4e1 30bf
00000290: 2063 093d 5e68 e83e 46c5 07bf 868d c6c0
000002a0: af5f b4be 2cbc 0ebf 08b3 36bf ac3f c1c0
000002b0: de06 ea3e bc8c 06be 030d 8cbf 8be3 3ac1
000002c0: 3470 25bf d163 6fc1 2215 903d 0b98 3bc0
000002d0: 9d6b 5abf 4c60 6ac0 0bab 08be 90e1 69c0
000002e0: d719 31bf 2c9a bbc0 c0c9 2cbf 316c 63c0
000002f0: b8d8 0740 b769 21c0 7cc3 883e 199b 19bf
00000300: 19b3 473e b772 3341 6b0b 21bf ae6c 8ac0
00000310: 60d9 4d3e e23d c4be 68f7 923e 4f70 0a3f
00000320: 44cd 42bf 04e7 c4c0 d5a2 33bf c119 8ec0
00000330: 1015 a6bd 627e e13e 6480 873e 3c56 69be
00000340: 7f0c b4be abcc adc0 5cd5 4abf 0e18 c4c0
00000350: d94e babe 26f5 80c0 75ff eabf 05de 70c0
00000360: a850 d53d 023b 61be 038b 6dbe d29b 37c0
00000370: f92a bdbe 2953 8ac0 123f 0d3e 3c36 15c0
00000380: e037 8abd c788 a3be fe9a d4be f547 a1c0
00000390: 8611 87bd ed8f 73c0 e030 e73c a484 143e
000003a0: bc68 3f3e 10dc 23bd 3b08 4fbf 8123 7fc0
000003b0: 3a01 e2be 2e19 c7c0 31df aabe 7ee7 76c1
000003c0: 5599 aabe c0a8 8e3e 3435 1dbf d0cf d3c0
000003d0: 2379 003e d55d 45c0 7be6 683d ebab 04c0
000003e0: 17f6 edbe 576b d5c0 d215 7ebf 2479 b7c0
000003f0: 3ba7 5fbe 9f51 84c0 5cd5 55bf ac7d a1c0
0.16220331 -0.16827321 -0.29187396 -4.489705 -0.14075184 -3.7142603 -0.52934885 -6.326476
-0.39603156 -5.970635 -0.34578767 -4.979395 -0.54815936 -4.607283 -0.36526534 -2.840268
-0.30322886 -4.6446147 -0.7118862 -2.7343142 -1.6548023 -12.2621 -0.4818211 -3.2044854
-0.067224324 0.18619382 -0.033943713 -0.39594215 -0.60394526 -6.3304005 -0.8519316 -6.6662536
0.16641682 0.46537954 0.03483367 -0.3241305 -0.12864795 -3.7204401 -0.5789455 -6.414662
-0.22203329 -0.65520495 -0.0033299986 -2.9335341 -0.49677628 11.581661 -0.056744576 -3.809289
-0.3377876 -3.6512206 0.37731057 0.47499663 -1.5685763 5.3040833 -0.41231206 -5.777538
-0.14369994 0.4113466 -0.31398064 -4.290383 -0.008552844 -4.5101776 -0.22077586 -2.5600111
0.1381242 -3.4023676 -0.19415624 -4.6661415 -0.4633879 -5.674752 -0.93150824 -4.5537534
-0.7406908 -5.515286 -0.4607145 -3.6288803 -0.37108478 -4.3890004 -0.56426007 -6.1177735
0.60114974 -0.08679706 -0.86337066 -14.312586 -0.13743763 -3.869078 -0.06633222 0.3056895
-0.51728636 -4.7282033 -0.06821197 -0.4965686 1.795096 -1.9565212 -0.036394868 -2.5030274
-0.5306262 -6.3757277 -0.5646044 -6.8056097 -0.25839406 -0.113936484 -0.73935395 -14.384469
0.40114635 0.2241056 0.449336 0.5312001 -1.3310449 -10.683957 2.6362188 -4.447941
-0.70762235 -5.8079247 -0.6531129 -6.2181134 -0.5257208 -2.994763 -0.44295004 -3.5694737
0.07237585 -2.8013494 -0.80260265 -5.599559 0.46630138 -0.5068975 -0.62126327 -3.3199787
-0.9893211 -6.0619254 -0.4792475 0.22033387 -0.7033924 -4.5364327 0.2740959 0.35767096
-0.1525014 -4.5080113 0.32477522 -3.717975 -1.0268576 -5.5995193 0.46184975 0.32564324
-0.42622295 -5.1246257 -0.8762221 -4.661057 0.18990055 -3.9230251 -2.7613282 -2.3704894
-2.1791615 -9.213103 -0.23696771 -0.6039714 -0.54931533 -5.6847982 0.12732479 -3.311679
-0.92634815 -2.9428668 0.05804211 -0.6909449 0.0335418 0.45392126 -0.5303539 -6.204776
-0.3522925 -0.5575588 -0.7136693 -6.0390224 0.45708364 -0.13139623 -1.0941471 -11.6805525
-0.64624333 -14.961869 0.07035281 -2.931155 -0.85320455 -3.6621275 -0.13346498 -3.6543922
-0.69180053 -5.86257 -0.67495346 -3.5534785 2.1226025 -2.5220773 0.26711643 -0.60002285
0.19501914 11.215507 -0.6290805 -4.3257666 0.20102453 -0.38328463 0.2870438 0.5407762
-0.7609446 -6.1532 -0.70170337 -4.440644 -0.08109486 0.44041735 0.26465142 -0.22786802
-0.35165784 -5.431234 -0.7923181 -6.1279364 -0.3638828 -4.0299253 -1.8359209 -3.763551
0.104157746 -0.21995166 -0.2319756 -2.8688855 -0.36946848 -4.3226514 0.1379359 -2.3314352
-0.067489386 -0.3194029 -0.415245 -5.040034 -0.06595139 -3.8056595 0.028221548 0.14503723
0.18692297 -0.04000479 -0.80871934 -3.986542 -0.4414156 -6.2218237 -0.33373407 -15.431517
-0.33320108 0.2786312 -0.61409307 -6.6191177 0.1254621 -3.083852 0.05686043 -2.072993
-0.46476814 -6.669353 -0.99252045 -5.7335377 -0.21841137 -4.1349635 -0.83528686 -5.046591

linear.bias f4 [512]
00000000: 38ee b5bd e7ee 553e e7ee c93e 8737 a53e
00000010: 13ae 8d3e 9a4a 733e 5ff0 923e e413 503f
00000020: e1ce 5d3e 3d40 3c3f c4e9 cd3e 16ae de3e
00000030: 511b 86be 6f1a 12bf 0d9b b03e caa6 dc3e
00000040: 21c7 b5be 8221 9cbe 56ac 013f 3cf6 ac3e
00000050: 6923 08bf 45a8 833e 3033 21bf 5f40 283f
00000060: 3199 1a3f a1b8 c6be ba5d 0f3f fa28 8d3e
00000070: 1761 33bf 8cf5 563e 5797 2e3f 106c 563f
00000080: a5c7 d73e 9916 dc3e f01d 923e 35e3 fc3e
00000090: 23b2 bf3e bb97 153f f830 293f 9f05 a83e
000000a0: 656c 30bf 6c11 af3e 869c b33e d833 d6be
000000b0: 124f 903e 819c bdbe ab76 97bd 7cec 563f
000000c0: 46d9 a53e 49b5 af3e ad17 d5be 71e8 a63e
000000d0: 7203 dbbe 3961 11bf f4f0 a93e af25 77be
000000e0: b34e ba3e 09bf b53e 3f47 3f3f 6c3d 413f
000000f0: b555 1f3f 2aad ce3e 7b91 b4be a393 1f3f
00000100: a601 013f 6856 2bbf 4f7d 263f e00e 14bf
00000110: 0abc 033f e4a1 3c3f ba08 083f 7099 1fbf
00000120: 8dfc 853e b58a ea3e 4679 ef3e 81ee 96bf
00000130: fd17 ed3e de3b a5be 0e7d a03e 48cd d73e
00000140: ac00 5d3f 90fc 36be 126a 6bbe c2c1 a23e
00000150: 5703 1ebf edf0 bc3e 6b9a b4be c1a5 ae3e
00000160: ec9c a93e df48 4b3f 6227 513f 2ea8 fe3e
00000170: 2c48 b93e 5da9 3f3f 284b ecbd c8ac 8ebe
00000180: e015 4fbe 0a73 493f 03f8 0dbf 46e0 2ebf
00000190: 14ef c73e 4d78 363f e359 18bf 6489 e9be
000001a0: 06b2 7e3e 8efd cd3e 93e8 1e3f 7957 fc3e
000001b0: 3591 afbe 5256 a73e e14e 2d3f 5d87 cf3e
000001c0: 0877 fabd b983 833e 6033 593f fc3a fbbe
000001d0: d1e6 10bf 1f92 4a3f 2f5a 973e c0d2 8b3e
000001e0: bd02 2ebf bb2f b63e 9f15 be3e fea6 a63e
000001f0: 600a a03e f96b 033f ff0d 5d3f c74a d93e
00000200: cb37 96be d8f5 2fbe 2eeb 12bf 5963 1abf
00000210: c650 1a3f 0c65 f83e 73a8 09bf ae7a 333f
00000220: 9759 8d3e ac28 af3e 624a 203f f8c6 9f3e
00000230: 6e2f b1be 6555 2abf 84bf 03bf 3edb 443f
00000240: 049d babe f830 df3e 3c18 7dbe dc8b 373f
00000250: ea68 2e3f 4485 a63e 1d71 85be 59de 023f
00000260: 511b 173f 00c8 b1be 6c01 cf3e d0d4 1f3f
00000270: 32bf 4b3f d44a 0b3f 4695 ce3e c6e2 253f
00000280: 1458 313f 936e a63e ac1f 4c3f a7c7 1fbf
00000290: 61b5 2bbf 1cd4 b73e 5247 873e 75c3 063f
000002a0: abff da3e 88cf a93e 39a9 d2be 9098 aabd
000002b0: 185e b93e 2ae0 d03e c19d 863e 39c7 e83e
000002c0: c276 b83e 196d 5d3f c60a 823e 3bb6 4c3f
000002d0: ead6 0d3f 867c 0ebf fb56 5c3e dcd0 1b3f
000002e0: e7d1 f23e c435 253f ff01 363f cdec b43e
000002f0: daf7 ae3e fe99 87be a8c0 69be 02c3 5b3f
00000300: 9df4 c0be 48bb c9bd 1d90 523f 1610 c8be
00000310: 633a 163b f3c4 1dbf 7673 5c3f 12b2 a2be
00000320: 7ddc 323f 78f3 27be dba1 e33e f2c6 a83e
00000330: 9f6f 1fbf 8473 18bf c43c 06bf 63c8 963e
00000340: b0ff 11bf 925f 3a3f b69c f6be 939e f33e
00000350: 0e93 823e fbfd 333f ef68 e4be 5aac 0d3f
00000360: 1905 d33e 3edd babe 9bf6 8a3e ef35 eb3e
00000370: 872d a43e dca4 01bf c62d 443f 926d 853e
00000380: 527b a03e c617 4a3f d870 9a3e ea7b 8abe
00000390: 4e46 0abf b90e 4e3f 70e8 003f 5431 0d3f
000003a0: 5b19 c13e cfdf 1d3f d341 943e 8a5c d53e
000003b0: 61b0 0dbf a043 2dbf a865 bd3e 8a60 01bf
000003c0: 96ad 24bf 84a8 963e ae35 0e3f 027f 183f
000003d0: 1355 14bf d5c0 a33e 3dcf bc3f 6c0e c53e
000003e0: d1b6 c13e 81ce f23e 4a61 d83e 4e02 2dbf
000003f0: fbb1 043f 15b5 973e e8d4 983e 2889 96be
-0.08883327 0.20891915 0.3944008 0.32268927 0.2767187 0.23758927 0.28699014 0.8128035
0.2166095 0.7353552 0.40217412 0.43492192 -0.26192716 -0.57071584 0.34493294 0.43096
-0.35503486 -0.30494314 0.5065359 0.33781612 -0.5317903 0.25714317 -0.6296873 0.6572322
0.6039 -0.38812736 0.5600239 0.27570325 -0.7007002 0.20992106 0.68199676 0.8375864
0.42144504 0.4298599 0.28538465 0.49392095 0.37440595 0.5843465 0.66090345 0.3281679
-0.68915397 0.3419298 0.35080355 -0.4183643 0.28185326 -0.37033466 -0.07395681 0.83954597
0.3239233 0.34317997 -0.41619626 0.32599214 -0.42776066 -0.56788975 0.33191645 -0.24135469
0.36388168 0.3549731 0.7471809 0.7548435 0.62240154 0.4036649 -0.35267243 0.6233465
0.5039314 -0.6692872 0.65034956 -0.578352 0.514588 0.73684525 0.53138316 -0.623435
0.26169243 0.4580895 0.46772212 -1.1791536 0.46307364 -0.32272238 0.3134541 0.42148805
0.8632915 -0.17869782 -0.22989681 0.3178845 -0.61723846 0.36902562 -0.35274062 0.34110835
0.33127534 0.7940807 0.8170072 0.49737686 0.36187875 0.748678 -0.115377724 -0.27866197
-0.20223188 0.7869116 -0.5545656 -0.68310964 0.3904959 0.71277314 -0.59512156 -0.45612633
0.24872598 0.4023251 0.6207363 0.49285486 -0.34290472 0.32683045 0.67698485 0.4053296
-0.12229735 0.25686434 0.8484402 -0.4906844 -0.566022 0.79129213 0.29560992 0.27309227
-0.6797293 0.3558329 0.3712587 0.3254928 0.31257915 0.5133663 0.8634948 0.42439863
-0.29339442 -0.17183626 -0.57390106 -0.6030784 0.602795 0.48514593 -0.5377266 0.7010907
0.27607414 0.34210718 0.626135 0.3120649 -0.34606498 -0.6653655 -0.51464105 0.7689704
-0.36447918 0.43592048 -0.24716276 0.71697783 0.68128836 0.3252355 -0.2606286 0.51120526
0.59026057 -0.347229 0.40430772 0.624341 0.79588616 0.54411054 0.40348262 0.64799154
0.6927502 0.32506236 0.7973583 -0.6241402 -0.6707364 0.35904014 0.264216 0.52641994
0.42773184 0.33166146 -0.41144732 -0.0832988 0.362046 0.40796024 0.26292232 0.45464495
0.36028105 0.86494595 0.25398844 0.7996556 0.5540606 -0.5565876 0.21517555 0.6086557
0.47425768 0.64535165 0.71096796 0.35336915 0.3417347 -0.26484674 -0.22827399 0.85844433
-0.37686625 -0.09850174 0.8225115 -0.39074773 0.0022922985 -0.61628646 0.8611368 -0.31776482
0.6986769 -0.1640147 0.44459423 0.32964283 -0.62279695 -0.5955126 -0.5243647 0.29449758
-0.57030773 0.7280208 -0.48166436 0.4758192 0.2550282 0.7030942 -0.44611308 0.5534111
0.41214827 -0.3649692 0.2714127 0.45939586 0.32065985 -0.5064218 0.76632345 0.26060158
0.31344086 0.78942525 0.30164218 -0.27047664 -0.54013526 0.80491215 0.5035467 0.55153394
0.37714657 0.6166963 0.2895647 0.41672164 -0.5534726 -0.6768131 0.3699162 -0.5053793
-0.6432737 0.29425442 0.5555066 0.595688 -0.5794231 0.31983057 1.4750744 0.38487566
0.3783479 0.47423175 0.42261726 -0.6758164 0.51834077 0.29630342 0.29849935 -0.29401517

linear3.weight f4 [3, 512]
00000000: d650 e43c a00d 73bf 6c1e 06bf b9c5 1fbf
00000010: 7846 6dbf 123f 45bf 27c4 0fbf e36f 9fbe
00000020: bb74 6cbf 2d53 99be 3ed5 0140 ebf2 e5be
00000030: e38f 113d 333c 1d3d 43eb 38bf 28b6 23bf
00000040: 0fc1 9abc b076 c43b a357 02bf 75e3 13bf
00000050: 8024 363c 2357 38bf 3172 0541 d4e9 c3be
00000060: 78a3 d4be ee7e 34bd 6d06 e53f 7a85 51bf
00000070: 7b83 c5bc b592 1fbf 7b16 e1be 53c3 84be
00000080: a36f 29bf ff87 14bf b0f3 25bf 444b 05bf
00000090: 8b78 20bf 8a38 c8be 65c3 cdbe 4969 22bf
000000a0: 4296 e4bc cc3d 3540 d10b 2bbf 7395 1b3d
000000b0: 547a 1cbf 8f0c 333d c14d adbf 0a04 9ebe
000000c0: 8039 29bf b5e1 31bf 49f3 b8bc c0c2 5340
000000d0: f00a 6dbb de94 06bd 1bd7 c03f 4639 ebbf
000000e0: ff90 0cbf d798 2cbf a45a a7be a3cf a5be
000000f0: 9b37 dabe 7db0 0ebf b1eb 21bd 8633 bdbe
00000100: 0867 21bf 846f 03bc 6ab4 e6be a64f f33c
00000110: 97ba 03bf 8026 d4be efbf 0dbf dfb5 0e3d
00000120: 5ad9 07bf 16c7 09bf 336f 2bbf e51d 0141
00000130: dd71 d73f 5068 663b 854e 25bf 47dc 18bf
00000140: eef4 9cbe 2826 9a3b 336d 1c3d 66c4 22bf
00000150: b329 073d b005 0abf 15ea 303d b4a6 ed3f
00000160: c709 7140 532e c0be 4c20 b2be f072 edbe
00000170: a011 19bf b563 c4be be0b a7bf 68a6 683c
00000180: a978 b840 ce64 b7be 1553 0f3d 8fb4 0a3d
00000190: 91e6 1cbf f809 d6be 0f94 243d 52d3 d93c
000001a0: 98ad 7bbf 25a5 29bf 968d cdbe d301 663f
000001b0: e575 2e3d 8175 f3be 7fd6 e7be f0dc 09bf
000001c0: f19f 1ebd 0d65 27bf 42eb bdbe 4891 3f3c
000001d0: 8a1c f2bc de73 c3be 4763 45bf ad0f 9b40
000001e0: 8733 06bd df9d 38bf aef6 27bf 9e12 0ebf
000001f0: 08d3 4abf 5ccf efbe 4eb0 bbbe 8c78 13bf
00000200: 8c62 213c a1e3 afbf 50ac 413b 06ba eb40
00000210: aa8c e6be 9487 09bf 3af1 be3c aae8 b7be
00000220: 3756 5bbf 4574 18bf 8e23 c6be 6790 fcbe
00000230: a081 a5ba 80cc 62ba f8b6 fe3b c311 bfbe
00000240: 9879 a8bb 121c 0abf 4a2e e83c e11f f1be
00000250: 857c a7be b29f 07bf 0ad3 c73c a81d 0bbf
00000260: 72d4 a6be 66e4 8d40 459b c33f 011b 00bf
00000270: ed92 9fbe b846 f03e 5392 26bf 21e8 a3be
00000280: f0a7 d0be 5aa3 21bf 9bb0 cdbe c1fe 0d3d
00000290: 60f6 643c 3fbc 2dbf 728e eabe 09df 06bf
000002a0: 4156 29bf 2ccb 2fbf 066f bd3c 82eb 14bd
000002b0: 8299 44bf 28e6 1ebf f7c0 18bf f5cc f6be
000002c0: dc78 0ebf 4785 bbbe 516d 5cbf d1bc c5be
000002d0: 55c5 65bf 9c04 2cbd d299 41bf 33e0 dfbe
000002e0: c53a 14bf 4d91 debe 1d4c b0bf 6189 14bf
000002f0: 7f0c 3ebf 5c7f 44bc c8a8 16bc e597 b8be
00000300: 9039 2dbb 1ab3 f9bc b97d babe 94db 4ebc
00000310: a404 8d40 0b10 1e3d 8cc9 94be 45e3 023d
00000320: 020b b1be 2e0f c73c 55fc 14bf 026e 56bf
00000330: 7466 14bd e03b 403b 141c 1dbc e453 1abf
00000340: 1f77 0b3d 1ee8 ccbe fbec 2d3d 167b 17bf
00000350: 899d 5ebf 3402 c2be 03c7 e2bc 3f56 febe
00000360: b7ed 30bf 892e 0b3d 7640 60bf 8c3f 16bf
00000370: d258 33bf 31e3 073d 1dd1 bfbe 2d0b 3fbf
00000380: 9373 19bf f8b1 9bbe de57 23bf d8fe 253c
00000390: 1e83 10bd a66a a3be ebfb dcbe 8ce2 1f3f
000003a0: bb26 1ebf 5869 dfbe 0214 2ebf 5c2e 19bf
000003b0: e8db 3e3c bd26 01bd 9e96 24bf 5744 0d3d
000003c0: 00e1 33bc 9699 0abf c3ba fc3e af07 debe
000003d0: 4233 823c 0820 8e3c b069 cb40 5567 25bf
000003e0: ab97 17bf 455e 14bf 91dc ecbe 22a0 12bd
000003f0: 11d4 e63e b25d 4abf 82c6 15bf 07c4 9b40
0.027870577 -0.94942665 -0.5239017 -0.62411076 -0.9268565 -0.7704936 -0.5615868 -0.3114005
-0.92365617 -0.2994627 2.0286403 -0.44911894 0.03553761 0.03838749 -0.7223398 -0.63949823
-0.018890886 0.005995594 -0.50914973 -0.57768947 0.011117101 -0.7200796 8.340379 -0.38264334
-0.41530967 -0.044066362 1.7892586 -0.81844294 -0.024110546 -0.6233323 -0.43962464 -0.2593027
-0.6618597 -0.58020014 -0.6482496 -0.5206797 -0.62683934 -0.39105636 -0.40188137 -0.634419
-0.02790368 2.8318968 -0.66814905 0.037984323 -0.6112416 0.04371315 -1.3539354 -0.30862457
-0.66103363 -0.69485027 -0.022576945 3.3087616 -0.003616985 -0.032856815 1.5065645 -1.8376853
-0.54908746 -0.67420715 -0.3268634 -0.32384977 -0.4262055 -0.5573805 -0.039531413 -0.36953372
-0.6304784 -0.008022193 -0.4505952 0.029701065 -0.5145659 -0.41435623 -0.5537099 0.034841415
-0.5306603 -0.53819406 -0.6696655 8.069798 1.6831623 0.003515739 -0.64572936 -0.59711117
-0.30655617 0.0047042556 0.038190078 -0.6358093 0.03299875 -0.5391493 0.043191988 1.8566499
3.7662218 -0.37535343 -0.34790266 -0.46376753 -0.5979252 -0.3835732 -1.3050458 0.014199831
5.764729 -0.35819095 0.034991343 0.0338636 -0.61289316 -0.4180448 0.040180262 0.026590023
-0.9831176 -0.66267616 -0.40147084 0.89846534 0.0425929 -0.47550586 -0.45280835 -0.5385275
-0.03872675 -0.65388566 -0.3709355 0.011692353 -0.029554624 -0.38174337 -0.7710461 4.8456635
-0.032763984 -0.7211589 -0.6561078 -0.5549716 -0.7922826 -0.4683789 -0.36657947 -0.57605815
0.009850156 -1.3741342 0.002955217 7.366458 -0.45029193 -0.537225 0.023308385 -0.35919696
-0.8567843 -0.59552413 -0.38699 -0.4932892 -0.0012627132 -0.00086516887 0.0077732764 -0.3731824
-0.005141448 -0.5394908 0.028342385 -0.47094634 -0.32712188 -0.5297805 0.024392623 -0.54342127
-0.32583958 4.4341307 1.528176 -0.50041205 -0.31166783 0.46928954 -0.65067023 -0.32013038
-0.40753126 -0.6313988 -0.40173802 0.03466678 0.013974756 -0.67865366 -0.45811802 -0.52684075
-0.6614724 -0.6866939 0.02312423 -0.03635741 -0.76796734 -0.6206994 -0.5966944 -0.48203245
-0.55653167 -0.3662512 -0.86104304 -0.38620618 -0.8975423 -0.041996583 -0.75625336 -0.43725738
-0.57902175 -0.4347023 -1.3773228 -0.58022124 -0.7423782 -0.0119932555 -0.009195514 -0.36053386
-0.0026432015 -0.03048091 -0.36424044 -0.012625594 4.4068165 0.03858952 -0.29060018 0.031955022
-0.3457871 0.02429923 -0.5819753 -0.8376161 -0.03623052 0.0029332563 -0.009589214 -0.60284257
0.03404915 -0.4002084 0.04246233 -0.5917219 -0.8695913 -0.37892306 -0.027682787 -0.49675176
-0.69112724 0.033979926 -0.8759836 -0.58690715 -0.70057404 0.03317565 -0.37464228 -0.7462643
-0.5994198 -0.30409217 -0.6380595 0.01013156 -0.035281293 -0.31917304 -0.43160948 0.6245506
-0.6177785 -0.43635058 -0.6799928 -0.59836364 0.011649109 -0.031531084 -0.64292324 0.034489002
-0.010978937 -0.54140604 0.49361238 -0.43365237 0.015893582 0.017349258 6.3566513 -0.646108
-0.592158 -0.57956344 -0.4626203 -0.035797246 0.4508367 -0.7904922 -0.58506024 4.867679

linear3.bias f4 [3]
00000000: fc5f 5ebe 5a0f 0bbe 423f b9bd
-0.21716303 -0.13580075 -0.090452686
