env2 DQN/log/dqn/ckpt/197000.pth (torch, 14216 bytes, 4 tensors)

linear.weight f4 [512, 2]
000000 a0 18 26 3e d0 4f 2c be 3f 25 95 be 8a f5 91 c0
       0.16220331 -0.16827321 -0.2912998 -4.561223
000010 5f 6a 16 be 2e 53 6a c0 04 98 06 bf b7 35 cc c0
       -0.14689015 -3.661327 -0.5257571 -6.381557
000020 04 69 c9 be 1b ae c1 c0 de 33 b0 be 39 8e a1 c0
       -0.39337933 -6.052503 -0.34414572 -5.048611
000030 56 b8 07 bf 6f ef 94 c0 81 f4 ba be a5 10 34 c0
       -0.5301565 -4.6542277 -0.36514667 -2.813516
000040 9a 34 9b be e0 ea 96 c0 85 44 36 bf 0c 0c 2d c0
       -0.3031357 -4.7161713 -0.711983 -2.7038603
000050 98 56 cf bf d0 50 48 c1 ce 7b f8 be 10 6c 4a c0
       -1.6198301 -12.51973 -0.48531955 -3.1628456
000060 e8 ac 89 bd 98 a9 3e 3e 90 08 0b bd ee b8 ca be
       -0.067224324 0.18619382 -0.033943713 -0.39594215
000070 7b 21 18 bf bc 24 cc c0 c4 e3 52 bf fc b1 d6 c0
       -0.5942609 -6.379484 -0.8237879 -6.7092266
000080 2c 69 2a 3e 3a 46 ee 3e c0 ad 0e 3d 6f f4 a5 be
       0.16641682 0.46537954 0.03483367 -0.3241305
000090 b3 de 07 be b8 52 6b c0 13 36 12 bf c5 ef ce c0
       -0.13268547 -3.6769238 -0.5711376 -6.4667687
0000a0 b2 5c 63 be 83 bb 27 bf 61 53 0c bc 6e 88 38 c0
       -0.22203329 -0.65520495 -0.008564801 -2.883327
0000b0 d4 7b 0c bf 62 67 39 41 d8 f0 7d bd 36 bb 70 c0
       -0.54876447 11.58774 -0.061997265 -3.7614264
0000c0 78 14 af be ad cc 66 c0 da 2e c1 3e c2 32 f3 3e
       -0.34195304 -3.6062424 0.37731057 0.47499663
0000d0 d8 3e cc bf d3 3b a7 40 bf e1 d1 be c2 21 bb c0
       -1.5956678 5.2260528 -0.40992543 -5.847871
0000e0 14 26 13 be 06 9c d2 3e 2f d1 9f be 46 5a 8b c0
       -0.14369994 0.4113466 -0.31214282 -4.3547697
0000f0 99 82 72 bc d4 af 8e c0 f2 06 62 be 2a 00 22 c0
       -0.014801645 -4.4589634 -0.22072962 -2.53126
000100 54 2b 09 3e 7d d9 56 c0 fb 37 4e be 97 84 93 c0
       0.13395435 -3.3570244 -0.20138542 -4.6099353
000110 d9 78 eb be d5 6b b7 c0 71 9f 6e bf 39 bb 92 c0
       -0.45990637 -5.731913 -0.9321204 -4.5853543
000120 62 55 37 bf 33 dc b1 c0 41 f2 ed be 6f 62 65 c0
       -0.7161466 -5.55813 -0.46473888 -3.584133
000130 35 83 c0 be c4 e7 8a c0 a2 85 0e bf 24 5b c5 c0
       -0.37600103 -4.3407917 -0.5567266 -6.1673756
000140 f3 e4 19 3f a8 c2 b1 bd a7 39 73 bf c3 ab 65 c1
       0.60114974 -0.08679706 -0.95009845 -14.354434
000150 09 27 12 be 01 7a 74 c0 30 d9 87 bd 56 83 9c 3e
       -0.14272703 -3.8199465 -0.06633222 0.3056895
000160 9f 60 00 bf d3 f6 98 c0 b8 b2 8b bd 3d 3e fe be
       -0.5014743 -4.78013 -0.06821197 -0.4965686
000170 59 06 e9 3f 9f 16 f1 bf 31 47 12 bd 78 96 1e c0
       1.8205062 -1.8835028 -0.035712425 -2.477934
000180 65 e7 06 bf 52 d2 cd c0 5c 21 0f bf e5 a6 db c0
       -0.5269683 -6.431924 -0.5591028 -6.864123
000190 3a 4c 84 be 88 57 e9 bd ff 9a 46 bf e2 9a 68 c1
       -0.25839406 -0.113936484 -0.77580255 -14.537813
0001a0 0e 63 cd 3e f0 7b 65 3e 5e 0f e6 3e bb fc 07 3f
       0.40114635 0.2241056 0.449336 0.5312001
0001b0 8c 02 a6 bf 26 15 2f c1 f1 68 2a 40 13 70 8a c0
       -1.2969527 -10.942663 2.662655 -4.326181
0001c0 0e 1a 2f bf 3c 55 bb c0 26 c8 22 bf dd c6 c8 c0
       -0.6839913 -5.8541546 -0.6358665 -6.2742753
0001d0 f7 09 07 bf 3b 71 3d c0 23 fb e4 be ac 8e 61 c0
       -0.5274958 -2.960036 -0.44722852 -3.524333
0001e0 e5 26 91 3d 7c 28 31 c0 a7 82 47 bf ba 5d b4 c0
       0.07087497 -2.768096 -0.77933735 -5.636441
0001f0 0e bf ee 3e 09 c4 01 bf f0 d9 1f bf 76 ee 51 c0
       0.46630138 -0.5068975 -0.6244192 -3.2801795
000200 32 62 78 bf ae 0e c3 c0 ee 5f f5 be 34 9f 61 3e
       -0.97024834 -6.095542 -0.4792475 0.22033387
000210 85 6f 35 bf 2f 93 8f c0 4c 56 8c 3e a6 20 b7 3e
       -0.7087329 -4.4867167 0.2740959 0.35767096
000220 3d e3 22 be 89 89 8e c0 c7 c6 a3 3e a3 02 6b c0
       -0.15906997 -4.454289 0.31987593 -3.672036
000230 b5 57 82 bf f4 ef b3 c0 92 77 ec 3e b6 ba a6 3e
       -1.0183016 -5.623041 0.46184975 0.32564324
000240 54 0b d9 be d1 b1 a5 c0 36 08 5f bf 7a 03 96 c0
       -0.42391455 -5.177956 -0.87121904 -4.6879244
000250 41 62 3d 3e e1 f9 77 c0 18 f8 27 c0 85 8c 40 c0
       0.18494512 -3.8746264 -2.6245174 -3.0085766
000260 40 be 09 c0 0a 7c 16 c1 aa a7 72 be df 9d 1a bf
       -2.152237 -9.405283 -0.23696771 -0.6039714
000270 c8 28 0a bf f1 8a b7 c0 63 ae fa 3d 85 cc 50 c0
       -0.5396848 -5.7357106 0.12240293 -3.262483
000280 fb 2a 6d bf 65 6f 3a c0 90 bd 6d 3d c4 e1 30 bf
       -0.9264371 -2.913049 0.05804211 -0.6909449
000290 20 63 09 3d 5e 68 e8 3e df 47 06 bf da 49 c8 c0
       0.0335418 0.45392126 -0.52453417 -6.259015
0002a0 af 5f b4 be 2c bc 0e bf e9 7b 30 bf 11 ee c2 c0
       -0.3522925 -0.5575588 -0.6893907 -6.091561
0002b0 de 06 ea 3e bc 8c 06 be b0 cd 8d bf 33 e1 3d c1
       0.45708364 -0.13139623 -1.1078396 -11.86748
0002c0 7c 49 33 bf ee db 71 c1 74 b1 8c 3d 61 79 39 c0
       -0.70034003 -15.116194 0.06869784 -2.8980334
0002d0 0f ef 5a bf 1c f0 67 c0 5b 36 0e be 32 bc 66 c0
       -0.85521024 -3.62403 -0.13887922 -3.6052365
0002e0 65 38 2b bf 80 3f bd c0 e0 a8 2d bf e5 d1 60 c0
       -0.66882926 -5.9140015 -0.6783581 -3.512811
0002f0 bc bf 09 40 34 e6 19 c0 7c c3 88 3e 19 9b 19 bf
       2.1523275 -2.4046755 0.26711643 -0.60002285
000300 d9 fb 77 3e 39 48 35 41 a2 4f 22 bf e0 e3 88 c0
       0.24217166 11.3301325 -0.6340276 -4.277817
000310 60 d9 4d 3e e2 3d c4 be 68 f7 92 3e 4f 70 0a 3f
       0.20102453 -0.38328463 0.2870438 0.5407762
000320 53 92 3c bf 46 4d c6 c0 6a ce 34 bf 95 a1 8c c0
       -0.73660773 -6.196933 -0.7062746 -4.3947244
000330 10 15 a6 bd 62 7e e1 3e 64 80 87 3e 3c 56 69 be
       -0.08109486 0.44041735 0.26465142 -0.22786802
000340 7b a2 b3 be f4 50 b0 c0 6f 40 44 bf 55 8a c5 c0
       -0.350849 -5.509882 -0.7666082 -6.173136
000350 43 96 bc be 2a e9 7e c0 65 c7 e9 bf 0e 90 77 c0
       -0.3683339 -3.9829812 -1.8263975 -3.8681674
000360 a8 50 d5 3d 02 3b 61 be 46 02 71 be bc d6 34 c0
       0.104157746 -0.21995166 -0.23536023 -2.8256063
000370 d6 cc bf be dc d2 88 c0 cb 95 0c 3e 94 1a 13 c0
       -0.37460965 -4.2757397 0.13729016 -2.2984972
000380 e0 37 8a bd c7 88 a3 be 5c fd d3 be 08 f7 a2 c0
       -0.067489386 -0.3194029 -0.41404235 -5.092655
000390 0b 99 8d bd c8 fc 70 c0 e0 30 e7 3c a4 84 14 3e
       -0.06913956 -3.7654285 0.028221548 0.14503723
0003a0 bc 68 3f 3e 10 dc 23 bd 5c 29 50 bf d3 38 7c c0
       0.18692297 -0.04000479 -0.8131311 -3.9409683
0003b0 d7 dd e0 be 1d 6e c9 c0 d5 97 c1 be 3e b5 79 c1
       -0.4391925 -6.2946916 -0.3781115 -15.606749
0003c0 55 99 aa be c0 a8 8e 3e 47 14 1b bf d1 67 d5 c0
       -0.33320108 0.2786312 -0.60577816 -6.668923
0003d0 ce 44 f9 3d 77 84 42 c0 85 55 6b 3d 0c ec 02 c0
       0.121713266 -3.039335 0.057454605 -2.0456572
0003e0 c3 f5 ec be 5a d1 d7 c0 2a 7a 7b bf a5 4f b8 c0
       -0.4628125 -6.7443056 -0.9823328 -5.759722
0003f0 ea 06 63 be 27 09 83 c0 ad 74 51 bf 8e a4 a2 c0
       -0.22170606 -4.094867 -0.8181866 -5.0825872

linear.bias f4 [512]
000000 38 ee b5 bd aa 68 46 3e c7 b7 c7 3e 32 77 a3 3e
       -0.08883327 0.19375864 0.39007398 0.31926876
000010 7e af 83 3e 7e 78 65 3e 5e 09 9b 3e 0a 61 4e 3f
       0.25719827 0.22409245 0.30280584 0.8061682
000020 2e f2 4d 3e 9b 9c 3a 3f 03 bf e7 3e 92 08 dc 3e
       0.20111915 0.7289521 0.45262918 0.4297529
000030 51 1b 86 be 6f 1a 12 bf 3e ea b3 3e 7a e0 eb 3e
       -0.26192716 -0.57071584 0.3513965 0.460697
000040 21 c7 b5 be 82 21 9c be ac 5d 00 3f 2b 25 ae 3e
       -0.35503486 -0.30494314 0.5014293 0.34012732
000050 69 23 08 bf 66 50 81 3e 13 c1 36 bf 62 01 27 3f
       -0.5317903 0.25256652 -0.7138836 0.65236485
000060 26 4c 19 3f a1 b8 c6 be d7 4d 0c 3f db ad 86 3e
       0.5988182 -0.38812736 0.54806274 0.26304516
000070 17 61 33 bf 4a ad 4c 3e 70 73 2d 3f fe ae 54 3f
       -0.7007002 0.1998798 0.6775427 0.83079517
000080 6c 33 d5 3e d4 18 da 3e 25 d6 8f 3e c1 cd fc 3e
       0.41640794 0.42597067 0.28093067 0.49375728
000090 ab bf cc 3e 5f 49 14 3f 84 f4 27 3f 71 a4 a9 3e
       0.3998998 0.57924455 0.65607476 0.3313327
0000a0 65 6c 30 bf 9c 4e b6 3e 7d 47 b1 3e d8 33 d6 be
       -0.68915397 0.3560685 0.34624854 -0.4183643
0000b0 26 78 96 3e 81 9c bd be 32 3f c0 3c 0d 27 55 3f
       0.2938854 -0.37033466 0.023467634 0.8326271
0000c0 29 4f a4 3e 78 55 ae 3e ad 17 d5 be 88 e1 97 3e
       0.32091644 0.34049582 -0.41619626 0.29664254
0000d0 72 03 db be 39 61 11 bf ee 4c c0 3e 0e 62 1c be
       -0.42776066 -0.56788975 0.37558693 -0.1527178
0000e0 7c 0e c6 3e 5b 57 bb 3e 3c c1 3d 3f 0a eb 3f 3f
       0.38682926 0.36590084 0.7412298 0.74968016
0000f0 dc c5 1d 3f 7f 4e dc 3e 7b 91 b4 be 55 33 1e 3f
       0.61630034 0.43028638 -0.35267243 0.61797076
000100 d6 d6 06 3f 68 56 2b bf b1 52 25 3f e0 0e 14 bf
       0.52671564 -0.6692872 0.645793 -0.578352
000110 09 a9 02 3f ef 54 3b 3f cc 6e 0b 3f 70 99 1f bf
       0.5103918 0.73176473 0.5446594 -0.623435
000120 62 32 84 3e 94 99 ee 3e 54 07 ed 3e c2 70 9e bf
       0.2581969 0.46601546 0.46294653 -1.2378161
000130 87 c4 0a 3f de 3b a5 be f5 74 a3 3e cc 59 d5 3e
       0.54206127 -0.32272238 0.3192517 0.41670072
000140 af 5e 5b 3f 90 fc 36 be 12 6a 6b be bb 9a a2 3e
       0.8569135 -0.17869782 -0.22989681 0.31758675
000150 57 03 1e bf 05 5d c7 3e 6b 9a b4 be e6 cc b2 3e
       -0.61723846 0.38938156 -0.35274062 0.3492195
000160 64 69 8d 3e e4 b5 49 3f 1f af 4f 3f ca 44 fc 3e
       0.2761947 0.7879317 0.8112659 0.49271232
000170 dc b4 c3 3e f1 4d 3e 3f 3c b7 18 bb c8 ac 8e be
       0.38223922 0.7433768 -0.0023302576 -0.27866197
000180 04 fc d6 bd e3 36 48 3f 03 f8 0d bf 46 e0 2e bf
       -0.10497287 0.7820875 -0.5545656 -0.68310964
000190 3c 9b d4 3e a1 39 35 3f e3 59 18 bf 64 89 e9 be
       0.41524684 0.7079106 -0.59512156 -0.45612633
0001a0 22 7e 6b 3e 32 2f db 3e 5e a2 1d 3f 6d 8a 0e 3f
       0.22997335 0.42809445 0.6157588 0.5567997
0001b0 35 91 af be 9a a9 a4 3e 89 19 2c 3f 3e 62 cc 3e
       -0.34290472 0.32160646 0.67226464 0.39918703
0001c0 08 77 fa bd 6c b2 81 3e 62 c4 57 3f fc 3a fb be
       -0.12229735 0.25331438 0.8428403 -0.4906844
0001d0 d1 e6 10 bf cb 4d 49 3f e0 d6 8f 3e f1 ad 2f 3e
       -0.566022 0.7863433 0.28093624 0.17156197
0001e0 bd 02 2e bf 5c af b8 3e 4b 72 bb 3e 76 56 a3 3e
       -0.6797293 0.3607129 0.36610636 0.31901902
0001f0 9e e0 97 3e 83 1c 07 3f a2 a3 5b 3f 8b 48 e3 3e
       0.29663557 0.5277788 0.8579656 0.44391283
000200 cb 37 96 be 0c 15 76 bd 2e eb 12 bf e4 bc 2e bf
       -0.29339442 -0.060078666 -0.57390106 -0.68256974
000210 01 67 1b 3f d6 95 01 3f 73 a8 09 bf 99 09 32 3f
       0.60704046 0.50619256 -0.5377266 0.69545895
000220 45 a5 86 3e 4b 3f ba 3e 78 23 1f 3f 6d 47 ab 3e
       0.26297966 0.36376414 0.62163496 0.3345293
000230 6e 2f b1 be 65 55 2a bf 84 bf 03 bf b6 87 43 3f
       -0.34606498 -0.6653655 -0.51464105 0.76378953
000240 04 9d ba be 2b e2 e8 3e 3c 18 7d be e5 5e 36 3f
       -0.36447918 0.45485052 -0.24716276 0.7123855
000250 b7 e3 2c 3f a9 42 ac 3e 1d 71 85 be 3f a1 01 3f
       0.67534965 0.33644608 -0.2606286 0.50636667
000260 f0 c7 15 3f 3a 10 c1 be 79 5e f6 3e b5 9f 1e 3f
       0.58508205 -0.37707692 0.48118952 0.61962444
000270 8d 74 4a 3f ea f1 0a 3f 07 d1 d8 3e 1e 5d 24 3f
       0.7908409 0.5427538 0.42346975 0.64204586
000280 91 f3 2f 3f 22 10 a4 3e f4 b0 4a 3f a7 c7 1f bf
       0.6873103 0.32043558 0.7917626 -0.6241402
000290 61 b5 2b bf d3 78 bf 3e 49 0d 84 3e c8 52 0a 3f
       -0.6707364 0.3739687 0.25791386 0.54032564
0002a0 1b a8 d8 3e 45 8a a7 3e 39 a9 d2 be 90 98 aa bd
       0.42315754 0.3272268 -0.41144732 -0.0832988
0002b0 00 07 b7 3e 40 6e de 3e bb 2a 89 3e 49 b1 f2 3e
       0.35747528 0.4344349 0.26790413 0.47400883
0002c0 91 96 c1 3e 4c fc 5b 3f 43 d7 71 3e 4f 81 4b 3f
       0.37810186 0.8593185 0.23617272 0.79494184
0002d0 e5 1c 14 3f 86 7c 0e bf be e9 4f 3e 5d a5 1a 3f
       0.5785659 -0.5565876 0.2030401 0.60408574
0002e0 61 39 fe 3e ba 15 24 3f a3 39 49 3f ee 03 c1 3e
       0.49653152 0.6409565 0.7860357 0.3769831
0002f0 f0 c6 af 3e fe 99 87 be a8 c0 69 be 58 40 5a 3f
       0.34331465 -0.26484674 -0.22827399 0.8525443
000300 9d f4 c0 be 48 bb c9 bd d0 0c 51 3f 16 10 c8 be
       -0.37686625 -0.09850174 0.81660175 -0.39074773
000310 45 b2 09 bd f3 c4 1d bf 66 98 5a 3f 12 b2 a2 be
       -0.033617277 -0.61628646 0.8538879 -0.31776482
000320 43 6b 31 3f 78 f3 27 be 52 1d ed 3e 9b 4a a1 3e
       0.69304293 -0.1640147 0.46311432 0.31502232
000330 9f 6f 1f bf 84 73 18 bf c4 3c 06 bf b7 e5 91 3e
       -0.62279695 -0.5955126 -0.5243647 0.2849557
000340 b0 ff 11 bf 33 e9 38 3f b6 9c f6 be ab 46 f1 3e
       -0.57030773 0.72230834 -0.48166436 0.47124228
000350 0a 7d 72 3e 3b ae 32 3f ef 68 e4 be f9 9b 0d 3f
       0.23680511 0.69797105 -0.44611308 0.5531612
000360 b3 9e d0 3e 3e dd ba be 24 dd 80 3e 3a 2a fb 3e
       0.40746078 -0.3649692 0.25168717 0.49055654
000370 de e0 a3 3e dc a4 01 bf 27 cc 42 3f b5 04 83 3e
       0.32007498 -0.5064218 0.7609276 0.2558953
000380 ce 01 9f 3e 37 64 48 3f c6 8d 95 3e ea 7b 8a be
       0.31056064 0.78277916 0.29209727 -0.27047664
000390 4e 46 0a bf 96 88 4c 3f 60 28 ff 3e 4d cc 10 3f
       -0.54013526 0.79895914 0.4983549 0.5656174
0003a0 a4 c1 be 3e 29 98 1c 3f 47 03 95 3e 79 88 df 3e
       0.3725711 0.6116968 0.29104063 0.43658808
0003b0 61 b0 0d bf a0 43 2d bf a8 dc c5 3e 8a 60 01 bf
       -0.5534726 -0.6768131 0.3864491 -0.5053793
0003c0 96 ad 24 bf 1f 5f 93 3e c5 35 12 3f 32 fc 16 3f
       -0.6432737 0.2878351 0.57113296 0.5897857
0003d0 13 55 14 bf 38 58 a2 3e 35 d5 b9 3f 04 f9 ce 3e
       -0.5794231 0.3170793 1.4518191 0.4042436
0003e0 7e 27 ca 3e 98 a2 fe 3e 49 34 d5 3e 4e 02 2d bf
       0.39483255 0.49733424 0.41641453 -0.6758164
0003f0 a8 ef 03 3f 13 4b 92 3e 38 05 a3 3e 98 fc a7 be
       0.5153756 0.28572902 0.3183992 -0.328099

linear3.weight f4 [3, 512]
000000 d6 50 e4 3c 65 2e 74 bf ca 6e 05 bf 0d b1 20 bf
       0.027870577 -0.9538329 -0.52122176 -0.6277016
000010 d6 2a 6e bf f7 6a 46 bf 8e 80 10 bf b1 93 9c be
       -0.9303411 -0.77506965 -0.5644616 -0.3058143
000020 8c 9a 6d bf 72 42 96 be 2c 5f 03 40 aa 86 e3 be
       -0.92813945 -0.2934757 2.0526838 -0.44438678
000030 e3 8f 11 3d 33 3c 1d 3d a0 c0 39 bf 92 25 24 bf
       0.03553761 0.03838749 -0.7255955 -0.6411983
000040 0f c1 9a bc b0 76 c4 3b 35 7b 01 bf a8 ab 14 bf
       -0.018890886 0.005995594 -0.50578624 -0.58074427
000050 80 24 36 3c 55 21 38 bf ec 55 0b 41 9a 0c c2 be
       0.011117101 -0.7192586 8.708477 -0.3790024
000060 42 4f d2 be ee 7e 34 bd cb b2 e7 3f a5 7a 52 bf
       -0.41076094 -0.044066362 1.8101438 -0.8221839
000070 7b 83 c5 bc e9 d1 20 bf 14 92 df be 62 f2 81 be
       -0.024110546 -0.628203 -0.43666136 -0.25380236
000080 f5 36 29 bf 83 f3 13 bf e6 cf 26 bf 6e 82 05 bf
       -0.6609948 -0.57793444 -0.6516098 -0.52152145
000090 27 01 21 bf 2e c4 c5 be fd 94 cb be 3d 4d 23 bf
       -0.62892383 -0.38626236 -0.39762107 -0.6378973
0000a0 42 96 e4 bc f9 4f 37 40 45 81 2a bf 73 95 1b 3d
       -0.02790368 2.8642561 -0.666035 0.037984323
0000b0 08 5c 1d bf 8f 0c 33 3d ef 53 af bf a1 6b 9b be
       -0.61468554 0.04371315 -1.369749 -0.30355552
0000c0 1b 19 2a bf f0 a7 32 bf 49 f3 b8 bc 7a cd 55 40
       -0.6644456 -0.697875 -0.022576945 3.3406663
0000d0 f0 0a 6d bb de 94 06 bd 84 24 c4 3f 4d 7a ec bf
       -0.003616985 -0.032856815 1.5323644 -1.8474823
0000e0 dd 24 0d bf 5c 41 2d bf 5b 76 a4 be 11 2b a3 be
       -0.55134374 -0.67677855 -0.32121548 -0.31868795
0000f0 36 4a d8 be 7c 34 0f bf b1 eb 21 bd f5 73 ba be
       -0.42244118 -0.5593946 -0.039531413 -0.36416593
000100 95 db 21 bf 84 6f 03 bc 8b 43 e4 be a6 4f f3 3c
       -0.6322568 -0.008022193 -0.4458278 0.029701065
000110 38 05 03 bf 21 21 d3 be fb 1b 0e bf df b5 0e 3d
       -0.5117984 -0.41236213 -0.55511445 0.034841415
000120 d1 d4 08 bf da 1f 0a bf 21 60 2b bf c4 15 00 41
       -0.5344973 -0.5395485 -0.66943556 8.005314
000130 9c 6d d9 3f 50 68 66 3b f6 31 26 bf d0 94 18 bf
       1.6986575 0.003515739 -0.64919984 -0.5960207
000140 16 ce 99 be 28 26 9a 3b 33 6d 1c 3d 9f 9f 23 bf
       -0.30040044 0.0047042556 0.038190078 -0.6391544
000150 b3 29 07 3d 89 8c 0a bf 15 ea 30 3d 39 99 f1 3f
       0.03299875 -0.5412069 0.043191988 1.8874885
000160 92 15 73 40 e5 fc bd be 6e 35 af be cb b6 eb be
       3.7981915 -0.37107006 -0.3422045 -0.46037897
000170 78 b5 19 bf b7 92 c1 be 32 0d a9 bf 68 a6 68 3c
       -0.60042524 -0.37807247 -1.3207152 0.014199831
000180 f2 00 bf 40 52 cd b4 be 15 53 0f 3d 8f b4 0a 3d
       5.9688654 -0.35312897 0.034991343 0.0338636
000190 af 77 1d bf 60 7f d3 be 0f 94 24 3d 52 d3 d9 3c
       -0.6151075 -0.41308117 0.040180262 0.026590023
0001a0 64 91 7c bf 02 28 2a bf f4 4f cb be 45 ed 6a 3f
       -0.9865935 -0.664673 -0.39709437 0.91768295
0001b0 e5 75 2e 3d 24 8b f1 be 8c 9b e5 be ff 4c 09 bf
       0.0425929 -0.47176468 -0.44845235 -0.5363311
0001c0 f1 9f 1e bd b1 68 28 bf 5b b8 bb be 48 91 3f 3c
       -0.03872675 -0.65784746 -0.3666409 0.011692353
0001d0 8a 1c f2 bc 81 a8 c0 be bf 46 46 bf 97 4c 9c 40
       -0.029554624 -0.37628558 -0.774517 4.8843493
0001e0 87 33 06 bd 93 72 39 bf d0 c7 27 bf 00 64 0d bf
       -0.032763984 -0.7244045 -0.65539265 -0.5523071
0001f0 cf a3 4b bf b2 b1 f0 be 82 5b b9 be 07 ed 13 bf
       -0.7954683 -0.4701057 -0.36202627 -0.5778355
000200 8c 62 21 3c 17 fa b1 bf 50 ac 41 3b 5b 22 f8 40
       0.009850156 -1.3904446 0.002955217 7.754194
000210 8d 54 e6 be a5 14 0a bf 3a f1 be 3c 97 8a b5 be
       -0.44986382 -0.5393775 0.023308385 -0.35457298
000220 58 4c 5c bf f2 22 19 bf 2c fa c3 be 33 f2 fd be
       -0.8605399 -0.5981895 -0.38276803 -0.49598846
000230 a0 81 a5 ba 80 cc 62 ba f8 b6 fe 3b c5 c2 bc be
       -0.0012627132 -0.00086516887 0.0077732764 -0.36867347
000240 98 79 a8 bb 3f ab 0a bf 4a 2e e8 3c b2 50 f0 be
       -0.005141448 -0.5416755 0.028342385 -0.46936566
000250 64 47 a5 be 6f 4e 08 bf 0a d3 c7 3c 18 81 0a bf
       -0.3228103 -0.5324468 0.024392623 -0.5410323
000260 ea 26 a4 be 85 4c 93 40 8e 9f c5 3f 38 ca fe be
       -0.3206094 4.603091 1.5439317 -0.49763656
000270 a2 a8 9c be 37 f2 f9 3e 17 15 27 bf 42 82 a1 be
       -0.30597407 0.48817608 -0.65266556 -0.3154469
000280 5d fe cd be c2 f0 20 bf 61 57 cb be c1 fe 0d 3d
       -0.40233126 -0.6286737 -0.39715102 0.03466678
000290 60 f6 64 3c 32 5f 2e bf 7f 2e e9 be 06 54 07 bf
       0.013974756 -0.68114007 -0.45543286 -0.52862585
0002a0 34 12 29 bf e8 6d 2f bf 06 6f bd 3c 82 eb 14 bd
       -0.660434 -0.6852708 0.02312423 -0.03635741
0002b0 ab 63 44 bf 0c 56 1f bf 25 bb 19 bf e7 a9 f7 be
       -0.7671458 -0.6224067 -0.60051185 -0.48371813
0002c0 af 0c 0f bf d1 a4 b9 be 9f 83 5d bf 79 44 c4 be
       -0.5587873 -0.36258557 -0.8652896 -0.3833349
0002d0 76 8b 6d bf 9c 04 2c bd 9c d9 42 bf 10 dc dd be
       -0.92790926 -0.041996583 -0.76113296 -0.43331957
0002e0 f7 ae 14 bf d8 13 dc be bd d1 bf bf c5 14 15 bf
       -0.58079475 -0.4298389 -1.4985882 -0.58234817
0002f0 22 dc 3e bf 5c 7f 44 bc c8 a8 16 bc 7e 87 b5 be
       -0.74554646 -0.0119932555 -0.009195514 -0.35454935
000300 90 39 2d bb 1a b3 f9 bc 14 b4 b7 be 94 db 4e bc
       -0.0026432015 -0.03048091 -0.35879576 -0.012625594
000310 e7 5d 90 40 0b 10 1e 3d 3d d3 91 be 45 e3 02 3d
       4.5114627 0.03858952 -0.28481475 0.031955022
000320 ac 31 ae be 2e 0f c7 3c f4 76 15 bf ed 43 57 bf
       -0.34022272 0.02429923 -0.58384633 -0.8408802
000330 74 66 14 bd e0 3b 40 3b 14 1c 1d bc 4b 2d 1b bf
       -0.03623052 0.0029332563 -0.009589214 -0.60615987
000340 1f 77 0b 3d e3 fd c9 be fb ec 2d 3d 82 25 17 bf
       0.03404915 -0.39451513 0.04246233 -0.5904161
000350 e9 9e 5f bf 6a 00 c0 be 03 c7 e2 bc 3b 55 fe be
       -0.8735185 -0.37500316 -0.027682787 -0.496744
000360 47 83 30 bf 89 2e 0b 3d 1b 39 61 bf 74 bb 16 bf
       -0.68950313 0.033979926 -0.8797776 -0.5887978
000370 13 32 34 bf 31 e3 07 3d 6b ce bc be 7b da 3e bf
       -0.7038891 0.03317565 -0.36876234 -0.74552125
000380 fc 65 1a bf bb c3 98 be 1b 2e 24 bf d8 fe 25 3c
       -0.60311866 -0.2983683 -0.6413285 0.01013156
000390 1e 83 10 bd 02 5d a0 be 8b 9e da be 96 9e 24 3f
       -0.035281293 -0.3132096 -0.42699084 0.6430448
0003a0 43 7e 1d bf de 22 dd be 51 08 2f bf e2 ca 19 bf
       -0.61520785 -0.43190664 -0.68372065 -0.600752
0003b0 e8 db 3e 3c bd 26 01 bd ed 2d 25 bf 57 44 0d 3d
       0.011649109 -0.031531084 -0.645232 0.034489002
0003c0 00 e1 33 bc 95 df 09 bf c4 33 03 3f 10 5e dc be
       -0.010978937 -0.53856784 0.51250863 -0.43040514
0003d0 42 33 82 3c 60 9a e3 3c 82 65 ca 40 0f 01 26 bf
       0.015893582 0.027783573 6.324891 -0.64845365
0003e0 78 39 18 bf fe e3 14 bf 1f ae ea be 22 a0 12 bd
       -0.5946269 -0.5816039 -0.4583597 -0.035797246
0003f0 bf 9e f0 3e 31 51 4b bf 41 71 16 bf 0f 28 a2 40
       0.46996114 -0.79420763 -0.5876656 5.06739

linear3.bias f4 [3]
000000 c3 ac 57 be 0e 29 07 be 78 85 bd bd
       -0.21061997 -0.13199255 -0.09253973
