env2 DQN/log/dqn/ckpt/20000.pth (torch, 14208 bytes, 4 tensors)

linear.weight f4 [512, 2]
0	0x3e2618a0	0.16220331
1	0xbe2c4fd0	-0.16827321
2	0x3e4cf4d0	0.20015264
3	0xbb2c4252	-0.0026284647
4	0x3d67df92	0.056609698
5	0xbc680671	-0.014161692
6	0xbe9aecc4	-0.30258763
7	0xbf43fb15	-0.76554996
8	0xbdbe22a8	-0.09283954
9	0xbf5f746e	-0.8728703
10	0xbdcd971c	-0.100385875
11	0xbd94d9fb	-0.07268139
12	0xbec814f3	-0.39078483
13	0x3ee05fc2	0.43823057
14	0xbe146576	-0.1449183
15	0x3e46f1e0	0.19428205
16	0x3e3cca63	0.1843658
17	0xbe80c949	-0.25153568
18	0xbefe711a	-0.49695665
19	0x3f14ca30	0.58121014
20	0xbfba7254	-1.456614
21	0xbf5d84a9	-0.8653055
22	0xbe8ff1ca	-0.28114158
23	0x3e980d24	0.29697526
24	0xbd89ace8	-0.067224324
25	0x3e3ea998	0.18619382
26	0xbd0b0890	-0.033943713
27	0xbecab8ee	-0.39594215
28	0xbf1dcfec	-0.6164539
29	0xbf1bff29	-0.6093622
30	0xbf4e3094	-0.80542874
31	0xbf5d5632	-0.8645965
32	0x3e2a692c	0.16641682
33	0x3eee463a	0.46537954
34	0x3d0eadc0	0.03483367
35	0xbea5f46f	-0.3241305
36	0x3d9b5ef7	0.075864725
37	0xbebb4580	-0.36576462
38	0xbec6a30b	-0.38796267
39	0xbf24e455	-0.6441091
40	0xbe635cb2	-0.22203329
41	0xbf27bb83	-0.65520495
42	0x3e5d0a21	0.21585895
43	0x3eb6e843	0.35724077
44	0x3e08c110	0.13354897
45	0x3eae5ac6	0.3405363
46	0x3e0ebc7a	0.13939086
47	0xbe594ea7	-0.2122141
48	0xbe0a542e	-0.13508675
49	0xbdc81df7	-0.0977134
50	0x3ec12eda	0.37731057
51	0x3ef332c2	0.47499663
52	0x3f3bfc30	0.7343168
53	0x3fa2053b	1.2657846
54	0xbecd0eda	-0.40050393
55	0xbe95ac0f	-0.29232833
56	0xbe132614	-0.14369994
57	0x3ed29c06	0.4113466
58	0xbe20f4e3	-0.15718417
59	0x3f25d3ac	0.6477611
60	0x3e3d7227	0.18500577
61	0xbf5bfe6e	-0.85935104
62	0x3addc03c	0.0016918252
63	0x3f13150e	0.57454
64	0x3eb0f906	0.3456499
65	0xbd43575f	-0.047690745
66	0x3a951db5	0.0011376651
67	0xbf62508a	-0.8840414
68	0xbee5e83a	-0.44903737
69	0x3d506bde	0.05088412
70	0xbf5b3006	-0.8562015
71	0x3edf32e1	0.43593505
72	0xbf321214	-0.69558835
73	0xbd88a132	-0.066713706
74	0xbe848903	-0.25885782
75	0xbd3804d4	-0.04492648
76	0xbe2c7e12	-0.16844967
77	0xbf4b57c3	-0.7943079
78	0xbeba7919	-0.36420515
79	0xbf2a5f99	-0.6655212
80	0x3f19e4f3	0.60114974
81	0xbdb1c2a8	-0.08679706
82	0xbf9312d1	-1.1490117
83	0xbfd0464d	-1.6271454
84	0x3d86eb72	0.065878764
85	0xbec9d8ae	-0.39423126
86	0xbd87d930	-0.06633222
87	0x3e9c8356	0.3056895
88	0xbf14b7fa	-0.58093226
89	0xbe809af5	-0.25118223
90	0xbd8bb2b8	-0.06821197
91	0xbefe3e3d	-0.4965686
92	0x3ef3ba7e	0.4760322
93	0xbd044d7a	-0.03230045
94	0x3e440440	0.19142246
95	0x3ebd2caa	0.36948138
96	0xbf1bc70e	-0.6085061
97	0xbf119650	-0.56869984
98	0xbf2846e7	-0.6573319
99	0xbf306594	-0.68904996
100	0xbe844c3a	-0.25839406
101	0xbde95788	-0.113936484
102	0xbf89a675	-1.0753924
103	0xbfc19855	-1.5124613
104	0x3ecd630e	0.40114635
105	0x3e657bf0	0.2241056
106	0x3ee60f5e	0.449336
107	0x3f07fcbb	0.5312001
108	0xbf7356ce	-0.9505433
109	0xbf916280	-1.1358185
110	0x3f1e4642	0.61825955
111	0xbfa2858a	-1.2697003
112	0xbf075287	-0.528603
113	0xbe7385b0	-0.23781466
114	0xbf29eb1e	-0.66374385
115	0xbedcc420	-0.43118382
116	0xbea26737	-0.31719372
117	0x3ed5c1fb	0.41749558
118	0xbe7ba27c	-0.24573702
119	0x3de0bfee	0.10974108
120	0x3e93742b	0.28799567
121	0x3e8b7946	0.27240962
122	0xbf47388c	-0.7782066
123	0x3ddca6c0	0.107739925
124	0x3eeebf0e	0.46630138
125	0xbf01c409	-0.5068975
126	0xbed7b090	-0.42126894
127	0x3e68e906	0.22745141
128	0xbf65c36a	-0.89751303
129	0xbf50c74b	-0.81554097
130	0xbef55fee	-0.4792475
131	0x3e619f34	0.22033387
132	0xbf00834c	-0.50200343
133	0xbf53ae66	-0.82687986
134	0x3e8c564c	0.2740959
135	0x3eb720a6	0.35767096
136	0x3d35f02e	0.044418506
137	0xbf4c27db	-0.79748315
138	0x3f072dca	0.52804244
139	0xbe798387	-0.2436658
140	0xbf690004	-0.9101565
141	0xbeb8ca30	-0.36091757
142	0x3eec7792	0.46184975
143	0x3ea6bab6	0.32564324
144	0xbe7b7194	-0.24555045
145	0x3eaf46d9	0.3423374
146	0xbf578536	-0.8418764
147	0x3eb28eb6	0.34874505
148	0x3ecb3bac	0.39693964
149	0xbef7ad03	-0.48374185
150	0x3edd2f2e	0.43200058
151	0x3f1a3bf4	0.6024773
152	0xbfb40ee4	-1.4067044
153	0xbf05a637	-0.5220675
154	0xbe72a7aa	-0.23696771
155	0xbf1a9ddf	-0.6039714
156	0xbf1d488c	-0.6143882
157	0xbdf3f3da	-0.11911745
158	0x3ea9de51	0.33177426
159	0x3e4099fe	0.18808743
160	0xbf35ae1c	-0.70968795
161	0x3ec0043f	0.3750324
162	0x3d6dbd90	0.05804211
163	0xbf30e1c4	-0.6909449
164	0x3d096320	0.0335418
165	0x3ee8685e	0.45392126
166	0xbf0c4eb1	-0.54807574
167	0xbeb95b32	-0.3620239
168	0xbeb45faf	-0.3522925
169	0xbf0ebc2c	-0.5575588
170	0xbf118ef9	-0.56858784
171	0xbe8d5b09	-0.27608517
172	0x3eea06de	0.45708364
173	0xbe068cbc	-0.13139623
174	0xbf5cc09e	-0.8623141
175	0xbf999780	-1.1999359
176	0xbf995014	-1.1977563
177	0xbff77ac4	-1.933434
178	0x3e933293	0.28749523
179	0x3e4ebbd5	0.2018884
180	0xbf244fea	-0.6418444
181	0xbe681d7f	-0.22667502
182	0x3d82f756	0.06394832
183	0xbd02a6f8	-0.031897515
184	0xbf3e2ff3	-0.74291915
185	0xbec71dde	-0.38889974
186	0xbef24054	-0.47314703
187	0x3c053bb1	0.008131907
188	0x3f2b8b1f	0.67009157
189	0x3e0c5754	0.13705188
190	0x3e88c37c	0.26711643
191	0xbf199b19	-0.60002285
192	0x3f28c418	0.65924215
193	0x3f1c9421	0.61163527
194	0xbedcef09	-0.4315112
195	0xbf1a1871	-0.60193545
196	0x3e4dd960	0.20102453
197	0xbec43de2	-0.38328463
198	0x3e92f768	0.2870438
199	0x3f0a704f	0.5407762
200	0xbf23eb45	-0.6403087
201	0xbf2f9b45	-0.685963
202	0xbf001183	-0.5002672
203	0xbf54ecc3	-0.8317377
204	0xbda61510	-0.08109486
205	0x3ee17e62	0.44041735
206	0x3e878064	0.26465142
207	0xbe69563c	-0.22786802
208	0xbd4bb4ec	-0.049733087
209	0xbef4ce8b	-0.4781383
210	0xbf409f13	-0.7524273
211	0xbf09986f	-0.5374822
212	0xbe23b973	-0.15988712
213	0xbeed7af1	-0.4638286
214	0xbf2f126a	-0.6838747
215	0xbf4f84a2	-0.81061757
216	0x3dd550a8	0.104157746
217	0xbe613b02	-0.21995166
218	0xbcfc6fd5	-0.030815044
219	0x3f1095cf	0.5647859
220	0xbe30f71e	-0.17281768
221	0xbf3ae71b	-0.7300889
222	0x3eb2d4d5	0.34928003
223	0x3f158143	0.5840036
224	0xbd8a37e0	-0.067489386
225	0xbea388c7	-0.3194029
226	0xbef83c88	-0.48483682
227	0x3f00c725	0.5030387
228	0x3e131d20	0.14366579
229	0xbeec4e3b	-0.46153435
230	0x3ce730e0	0.028221548
231	0x3e1484a4	0.14503723
232	0x3e3f68bc	0.18692297
233	0xbd23dc10	-0.04000479
234	0xbf1bf871	-0.60925967
235	0xbe91c2c9	-0.28468922
236	0xbec5eb01	-0.38655856
237	0xbf14bb6e	-0.58098495
238	0xbf87618a	-1.0576642
239	0xbf84866b	-1.0353521
240	0xbeaa9955	-0.33320108
241	0x3e8ea8c0	0.2786312
242	0xbf302ebe	-0.6882132
243	0xbf54451b	-0.82917947
244	0x3eaa2aba	0.33235723
245	0x3e603c3c	0.21897978
246	0x3e8767fc	0.2644652
247	0x3f0c935c	0.5491235
248	0xbed68e57	-0.41905472
249	0xbf5dcbe7	-0.86639255
250	0xbf35fe9f	-0.71091646
251	0xbea1e9c9	-0.31623676
252	0xbc3f2f92	-0.0116690565
253	0xbf4c93f6	-0.7991327
254	0xbf48bf68	-0.7841706
255	0x3e2323db	0.15931647

linear.bias f4 [512]
0	0xbdb5ee38	-0.08883327
1	0x3ea81583	0.32828912
2	0x3f0855e5	0.53256065
3	0x3f1e09bf	0.6173362
4	0x3eb883d9	0.36038092
5	0x3ecb6571	0.3972583
6	0x3eedbf2b	0.46434912
7	0x3f6e177e	0.93004596
8	0x3e9dc21c	0.30812156
9	0x3f5cc48a	0.86237395
10	0xbf14fd09	-0.581986
11	0x3f1259f2	0.57168496
12	0xbe861b51	-0.26192716
13	0xbf121a6f	-0.57071584
14	0x3ed42732	0.41436154
15	0x3f100e7f	0.5627212
16	0xbeb5c721	-0.35503486
17	0xbe9c2182	-0.30494314
18	0x3f22408e	0.6337975
19	0x3f207b41	0.6268807
20	0xbf082369	-0.5317903
21	0x3eaf0d81	0.3418999
22	0xbd982433	-0.074287795
23	0x3f4bf305	0.79667693
24	0x3f3d7c2f	0.74017614
25	0xbec6b8a1	-0.38812736
26	0x3e9086d4	0.28227866
27	0x3e840295	0.2578322
28	0xbf336117	-0.7007002
29	0x3eab7bb9	0.3349283
30	0x3f532ed3	0.82493323
31	0x3f7433ec	0.95391726
32	0x3f09a3da	0.5376564
33	0x3f1392b1	0.5764571
34	0x3ec66eef	0.3875651
35	0x3efc0a5c	0.49226654
36	0x3ee60cc3	0.4493161
37	0x3f391f01	0.72312933
38	0x3f4d1d57	0.80122894
39	0x3f179be1	0.5922223
40	0xbf306c65	-0.68915397
41	0xbed0f72b	-0.40813574
42	0x3ef6707d	0.48132697
43	0xbed633d8	-0.4183643
44	0x3e17ce50	0.14824796
45	0xbebd9c81	-0.37033466
46	0x3d0a49f4	0.033761933
47	0x3f70f916	0.94130075
48	0x3e9a6650	0.30156183
49	0x3ead355c	0.33829772
50	0xbed517ad	-0.41619626
51	0xbec46ecc	-0.3836578
52	0xbedb0372	-0.42776066
53	0xbf116139	-0.56788975
54	0xbe907c3b	-0.2821978
55	0x3e6f0f36	0.23345646
56	0x3f1c47fd	0.61047345
57	0x3ee2710e	0.4422688
58	0x3f61d764	0.88219285
59	0x3f66580c	0.899781
60	0x3f3b1b42	0.7308847
61	0x3eecab5c	0.46224487
62	0xbeb4917b	-0.35267243
63	0x3f4406a7	0.7657265
64	0x3f10d2ea	0.5657183
65	0xbf2b5668	-0.6692872
66	0x3f4be747	0.79649776
67	0xbf140ee0	-0.578352
68	0x3f286e75	0.65793544
69	0x3f5e1163	0.8674528
70	0x3f1b17ad	0.60583
71	0xbf1f9970	-0.623435
72	0x3f0022be	0.5005301
73	0x3ed32611	0.4123998
74	0x3f16e34b	0.5894057
75	0x3e7e28d3	0.2482026
76	0xbefb7d69	-0.49119118
77	0xbea53bde	-0.32272238
78	0x3e97ceec	0.29650056
79	0x3f0aaaaf	0.5416669
80	0x3f7e8be4	0.99432206
81	0xbe36fc90	-0.17869782
82	0xbe6b6a12	-0.22989681
83	0x3ecc16b8	0.39861083
84	0xbf1e0357	-0.61723846
85	0x3f1d8bd3	0.6154148
86	0xbeb49a6b	-0.35274062
87	0xbe7edc03	-0.24888615
88	0xbee0e14e	-0.43921894
89	0x3f68fe62	0.9101316
90	0x3f732a14	0.9498608
91	0x3f22aa4f	0.6354112
92	0x3eb04dd7	0.34434387
93	0x3f644548	0.89168215
94	0x3d880549	0.06641633
95	0xbe8eacc8	-0.27866197
96	0x3d1c3130	0.038132846
97	0x3f6f5cdb	0.9350106
98	0xbf0df803	-0.5545656
99	0xbf2ee046	-0.68310964
100	0x3f13cfa7	0.5773873
101	0x3f5bb7c7	0.85827297
102	0xbf1859e3	-0.59512156
103	0xbee98964	-0.45612633
104	0x3e4e3556	0.20137534
105	0x3eff494c	0.4986061
106	0x3f41cddf	0.7570476
107	0xbe2daa41	-0.16959478
108	0xbeaf9135	-0.34290472
109	0x3ee57a22	0.44819742
110	0x3f5203fb	0.82037324
111	0x3efb0d48	0.4903357
112	0xbdfa7708	-0.12229735
113	0x3e6405d4	0.22267848
114	0x3f79dda3	0.97603816
115	0xbefb3afc	-0.4906844
116	0xbf10e6d1	-0.566022
117	0x3f704bfa	0.9386593
118	0x3eb8fb25	0.36129108
119	0xbedce59c	-0.43143928
120	0xbf2e02bd	-0.6797293
121	0x3eb08a56	0.34480542
122	0x3ef5fb96	0.48043507
123	0x3eca5368	0.3951676
124	0x3eaa1579	0.33219507
125	0x3f4334ca	0.76252425
126	0x3f7ecffe	0.9953612
127	0x3eded73d	0.4352359
128	0xbe9637cb	-0.29339442
129	0xbc29b5c8	-0.010358281
130	0xbf12eb2e	-0.57390106
131	0x3e4332ab	0.19062297
132	0x3f474108	0.77833605
133	0x3f2dd010	0.67895603
134	0xbf09a873	-0.5377266
135	0x3f540c87	0.82831615
136	0x3e60551c	0.21907467
137	0x3e7218a9	0.2364222
138	0x3f462e52	0.7741443
139	0x3f112d3d	0.56709653
140	0xbeb12f6e	-0.34606498
141	0xbf2a5565	-0.6653655
142	0xbf03bf84	-0.51464105
143	0x3f681a5e	0.90665233
144	0xbeba9d04	-0.36447918
145	0x3f1e6c45	0.61883956
146	0xbe7d183c	-0.24716276
147	0x3f5a612c	0.8530452
148	0x3f4c2828	0.79748774
149	0x3f1cfbd7	0.6132178
150	0xbe85711d	-0.2606286
151	0x3f241988	0.6410146
152	0x3f3b8171	0.73244387
153	0xbd8463d6	-0.06464355
154	0xbea1d24d	-0.3160576
155	0x3f42a8e2	0.76038945
156	0x3f70a2e5	0.9399856
157	0xbd8730a0	-0.06601071
158	0x3f02035e	0.5078639
159	0x3f44aa8d	0.7682274
160	0x3f536994	0.82582974
161	0x3ee9c85d	0.45660678
162	0x3f6ccc51	0.9249926
163	0xbf1fc7a7	-0.6241402
164	0xbf2bb561	-0.6707364
165	0x3ebf7e7c	0.37401187
166	0x3ea54f51	0.32287076
167	0x3f1f6d1e	0.62275875
168	0x3f0e0e95	0.55491
169	0x3eeaf9f5	0.45893827
170	0xbed2a939	-0.41144732
171	0xbdaa9890	-0.0832988
172	0x3ef9d0ce	0.48792118
173	0x3ee7f4e0	0.45304012
174	0x3e706df2	0.23479441
175	0x3f362351	0.7114764
176	0x3e86f5d4	0.26359427
177	0x3f7e470d	0.99327165
178	0x3ed9af5f	0.4251661
179	0x3f702511	0.9380656
180	0x3f0548c5	0.5206416
181	0xbf0e7c86	-0.5565876
182	0x3ebcab55	0.36849466
183	0x3f409d8a	0.75240386
184	0x3f23e713	0.64024466
185	0x3f4b979a	0.795282
186	0x3e165e92	0.14684513
187	0x3eeecea1	0.4664202
188	0x3ea94ebc	0.33067882
189	0xbe8799fe	-0.26484674
190	0xbe69c0a8	-0.22827399
191	0x3f7eb6dc	0.9949777
192	0xbec0f49d	-0.37686625
193	0xbdc9bb48	-0.09850174
194	0x3f73adb4	0.95186925
195	0xbec81016	-0.39074773
196	0xbec10e28	-0.37706113
197	0xbf1dc4f3	-0.61628646
198	0x3f76ebb9	0.96453434
199	0xbea2b212	-0.31776482
200	0x3f560b80	0.836113
201	0xbe27f378	-0.1640147
202	0x3ed49eea	0.41527492
203	0x3e8e2b55	0.27767435
204	0xbf1f6f9f	-0.62279695
205	0xbf187384	-0.5955126
206	0xbf063cc4	-0.5243647
207	0x3f0af95d	0.5428675
208	0xbf11ffb0	-0.57030773
209	0x3f5c17ba	0.85973704
210	0xbef69cb6	-0.48166436
211	0x3f1b2f17	0.6061873
212	0x3ebd4db0	0.36973333
213	0x3f56d4cf	0.8391847
214	0xbee468ef	-0.44611308
215	0x3f2a71cf	0.6657991
216	0x3f0a4983	0.5401842
217	0xbebadd3e	-0.3649692
218	0x3ee4b786	0.44671267
219	0x3f25b4a4	0.6472876
220	0x3edd3d63	0.43210897
221	0xbf01a4dc	-0.5064218
222	0x3f6898ca	0.9085814
223	0x3eb2fc8a	0.34958297
224	0x3dc2e3f2	0.09516133
225	0x3f68f30c	0.9099586
226	0x3f062403	0.523987
227	0xbe8a7bea	-0.27047664
228	0xbf0a464e	-0.54013526
229	0x3f71143c	0.941715
230	0x3f23440c	0.63775706
231	0x3b703fc4	0.00366591
232	0x3f029d1d	0.51020986
233	0x3f412119	0.7544113
234	0x3ecc00f3	0.39844474
235	0x3ed87637	0.4227769
236	0xbf0db061	-0.5534726
237	0xbf2d43a0	-0.6768131
238	0x3ec12993	0.3772703
239	0xbf01608a	-0.5053793
240	0xbf24ad96	-0.6432737
241	0x3ebb1d6f	0.36545894
242	0xbd16429a	-0.03668461
243	0x3f34939f	0.7053775
244	0xbf145513	-0.5794231
245	0xbdd1dc1e	-0.10247062
246	0xbea8b696	-0.32951802
247	0x3ec7c714	0.39019072
248	0x3f2b6339	0.66948277
249	0x3f3933f1	0.7234488
250	0x3f060640	0.52353287
251	0xbf2d024e	-0.6758164
252	0xbd7f239d	-0.062289823
253	0x3e754b93	0.2395461
254	0x3eb67d95	0.35642686
255	0x3e22b673	0.15889911

linear3.weight f4 [3, 512]
0	0x3ce450d6	0.027870577
1	0xbeddd21f	-0.43324372
2	0xbe927c04	-0.2861024
3	0xbe746dce	-0.23870012
4	0xbeaf1e43	-0.34202775
5	0xbebd6cd0	-0.3699708
6	0xbe7dfd07	-0.24803554
7	0xbe6de904	-0.2323342
8	0xbec0e20a	-0.37672454
9	0xbe4a4c47	-0.1975566
10	0x3f274cd6	0.6535162
11	0xbe874e07	-0.26426718
12	0x3d118fe3	0.03553761
13	0x3d1d3c33	0.03838749
14	0xbe5d06e4	-0.2158466
15	0xbe329d81	-0.17442895
16	0xbc9ac10f	-0.018890886
17	0x3bc476b0	0.005995594
18	0xbea6749c	-0.3251084
19	0xbe47107a	-0.19439879
20	0x3c362480	0.011117101
21	0xbec7c003	-0.3901368
22	0x3d154ff2	0.036453195
23	0xbe7ae7b3	-0.24502449
24	0xbe84dc84	-0.2594949
25	0xbd347eee	-0.044066362
26	0x3f33904c	0.70142055
27	0xbe7a5ed0	-0.2445023
28	0xbcc5837b	-0.024110546
29	0xbe93f681	-0.28899005
30	0xbe87d486	-0.2652933
31	0xbe51746a	-0.20454565
32	0xbef24070	-0.47314787
33	0xbe889860	-0.26678753
34	0xbe46b469	-0.19404759
35	0xbe3ff980	-0.1874752
36	0xbe517079	-0.20453061
37	0xbe6575f5	-0.22408278
38	0xbe57dc15	-0.21080048
39	0xbe8001a3	-0.2500125
40	0xbce49642	-0.02790368
41	0x3ecc7845	0.39935508
42	0xbec0c0d6	-0.37647122
43	0x3d1b9573	0.037984323
44	0xbe343fa9	-0.1760241
45	0x3d330c8f	0.04371315
46	0x3e78f0a3	0.24310546
47	0xbe865abd	-0.26241103
48	0xbdf35d1d	-0.11882994
49	0xbe0e7f02	-0.13915637
50	0xbcb8f349	-0.022576945
51	0x3ed2afc6	0.4114973
52	0xbb6d0af0	-0.003616985
53	0xbd0694de	-0.032856815
54	0x3e174589	0.1477262
55	0x3df7c134	0.120973974
56	0xbe46c8fb	-0.19412605
57	0xbe4ba25a	-0.19886151
58	0xbe68d425	-0.22737177
59	0xbe4defab	-0.20110957
60	0xbeb2245d	-0.34793368
61	0xbe114705	-0.14187248
62	0xbd21ebb1	-0.039531413
63	0xbe639962	-0.2222648
64	0xbe47c1ca	-0.19507518
65	0xbc036f84	-0.008022193
66	0xbe6620d3	-0.22473459
67	0x3cf34fa6	0.029701065
68	0xbe89da0d	-0.26924172
69	0xbe9f2ba2	-0.31087977
70	0xbe2c4ceb	-0.16826217
71	0x3d0eb5df	0.034841415
72	0xbe53b9c3	-0.20676331
73	0xbe3e22de	-0.18567988
74	0xbeea2453	-0.45730838
75	0x3f607f15	0.8769391
76	0x3f2ff081	0.68726355
77	0x3b666850	0.003515739
78	0xbe2ee68e	-0.17080137
79	0xbed63b9a	-0.41842347
80	0xbe49759d	-0.19673772
81	0x3b9a2628	0.0047042556
82	0x3d1c6d33	0.038190078
83	0xbe07fe3d	-0.13280578
84	0x3d0729b3	0.03299875
85	0xbe2e64e6	-0.17030677
86	0x3d30ea15	0.043191988
87	0x3e11f17e	0.14252278
88	0x3f24dcfe	0.6439971
89	0xbea0018b	-0.31251177
90	0xbe4de826	-0.20108089
91	0xbe91c656	-0.2847163
92	0xbe0b14c9	-0.13582148
93	0xbe7a9c34	-0.2447365
94	0x3e75c35e	0.24000308
95	0x3c68a668	0.014199831
96	0x3f00b972	0.5028297
97	0xbe4145df	-0.1887431
98	0x3d0f5315	0.034991343
99	0x3d0ab48f	0.0338636
100	0xbe4b296d	-0.19840021
101	0xbe5ea643	-0.21743111
102	0x3d24940f	0.040180262
103	0x3cd9d352	0.026590023
104	0xbe5f5c4c	-0.21812552
105	0xbe568597	-0.20949398
106	0xbe6391a2	-0.22223523
107	0x3d8b849a	0.06812401
108	0x3d2e75e5	0.0425929
109	0xbe938572	-0.28812748
110	0xbe8a8c9e	-0.27060407
111	0xbee2f95b	-0.44330868
112	0xbd1e9ff1	-0.03872675
113	0xbe57b229	-0.21064056
114	0xbe886891	-0.26642278
115	0x3c3f9148	0.011692353
116	0xbcf21c8a	-0.029554624
117	0xbe607d19	-0.21922721
118	0xbe590a8a	-0.21195427
119	0x3f272e54	0.65305066
120	0xbd063387	-0.032763984
121	0xbe3df4eb	-0.1855046
122	0xbeefcdf2	-0.4683681
123	0xbee6206a	-0.44946605
124	0xbe1d2514	-0.15346175
125	0xbe1962bf	-0.14979075
126	0xbe76be71	-0.24096085
127	0xbe413bfe	-0.18870541
128	0x3c21628c	0.009850156
129	0x3e642a00	0.22281647
130	0x3b41ac50	0.002955217
131	0x3ef5b236	0.47987527
132	0xbe42597b	-0.18979447
133	0xbe14e528	-0.14540541
134	0x3cbef13a	0.023308385
135	0xbe81ef5e	-0.25377935
136	0xbe89b057	-0.2689235
137	0xbe2434db	-0.16035788
138	0xbe4d454b	-0.20045964
139	0xbe65ffa2	-0.22460797
140	0xbaa581a0	-0.0012627132
141	0xba62cc80	-0.00086516887
142	0x3bfeb6f8	0.0077732764
143	0xbe7dc501	-0.24782182
144	0xbba87998	-0.005141448
145	0xbe3c8ce1	-0.18413116
146	0x3ce82e4a	0.028342385
147	0xbea63cc4	-0.32468235
148	0xbe7770d1	-0.2416413
149	0xbe4de370	-0.20106292
150	0x3cc7d30a	0.024392623
151	0xbeba24d0	-0.3635621
152	0xbe3b9b75	-0.18321021
153	0x3f0615b4	0.52376866
154	0x3f16d31b	0.5891587
155	0xbea7d32e	-0.32778305
156	0xbe1fd7a9	-0.15609612
157	0xbd7c96c4	-0.06166722
158	0xbe2b29ef	-0.16715215
159	0xbe63f9c5	-0.22263248
160	0xbe713be8	-0.23558009
161	0xbec04650	-0.37553644
162	0xbe89e140	-0.26929665
163	0x3d0dfec1	0.03466678
164	0x3c64f660	0.013974756
165	0xbe51c07a	-0.2048358
166	0xbea91bb7	-0.33028957
167	0xbe03e896	-0.12881693
168	0xbed21131	-0.4102874
169	0xbec81dfa	-0.3908537
170	0x3cbd6f06	0.02312423
171	0xbd14eb82	-0.03635741
172	0xbef63591	-0.48087743
173	0xbe2c60f0	-0.16833854
174	0xbe399005	-0.18121345
175	0xbe3b5a7f	-0.1829624
176	0xbe35a7df	-0.17739819
177	0xbe9c60a4	-0.3054248
178	0xbec8b148	-0.39197755
179	0xbe87ff76	-0.2656209
180	0xbefcbb11	-0.4936147
181	0xbd2c049c	-0.041996583
182	0xbec8e445	-0.39236656
183	0xbe805ea2	-0.250722
184	0xbe506a8b	-0.20353143
185	0xbe528d2f	-0.2056167
186	0x3ea1d5bf	0.31608388
187	0xbe3d878c	-0.18508738
188	0xbe4ff7dc	-0.20309395
189	0xbc447f5c	-0.0119932555
190	0xbc16a8c8	-0.009195514
191	0xbe6d5c92	-0.23179844
192	0xbb2d3990	-0.0026432015
193	0xbcf9b31a	-0.03048091
194	0xbe75bc7b	-0.23997681
195	0xbc4edb94	-0.012625594
196	0x3ebee588	0.37284493
197	0x3d1e100b	0.03858952
198	0xbe81c9aa	-0.2534917
199	0x3d02e345	0.031955022
200	0xbe50e09d	-0.20398183
201	0x3cc70f2e	0.02429923
202	0xbe3b7ba7	-0.18308888
203	0xbe4bc686	-0.1989995
204	0xbd146674	-0.03623052
205	0x3b403be0	0.0029332563
206	0xbc1d1c14	-0.009589214
207	0xbe5c1414	-0.21492034
208	0x3d0b771f	0.03404915
209	0xbe63488f	-0.22195648
210	0x3d2decfb	0.04246233
211	0xbeca3585	-0.39493957
212	0xbeb4cb0d	-0.35311165
213	0xbe855049	-0.26037815
214	0xbce2c703	-0.027682787
215	0xbe5d3ff0	-0.21606421
216	0xbeee29fe	-0.46516412
217	0x3d0b2e89	0.033979926
218	0xbeba911e	-0.3643884
219	0xbe2ba592	-0.16762379
220	0xbe5660c0	-0.20935345
221	0x3d07e331	0.03317565
222	0xbe5c155b	-0.21492521
223	0xbedbaa10	-0.42903185
224	0xbd5381ba	-0.05163739
225	0xbe5f83f1	-0.21827675
226	0xbe668ba7	-0.2251421
227	0x3c25fed8	0.01013156
228	0xbd10831e	-0.035281293
229	0xbe532969	-0.20621265
230	0xbe89f9d9	-0.2694843
231	0xbcfa8eff	-0.030585764
232	0xbea96d9c	-0.33091438
233	0xbe81bdd9	-0.25340155
234	0xbe7aa521	-0.24477054
235	0xbe37f039	-0.17962731
236	0x3c3edbe8	0.011649109
237	0xbd0126bd	-0.031531084
238	0xbe2c7b8e	-0.16844007
239	0x3d0d4457	0.034489002
240	0xbc33e100	-0.010978937
241	0xbee00ff2	-0.43762165
242	0xbdc2fc79	-0.095208116
243	0xbeb2b33d	-0.34902373
244	0x3c823342	0.015893582
245	0x3c4bc582	0.012437226
246	0x3e428e4b	0.18999593
247	0xbe266996	-0.16251215
248	0xbe629b2b	-0.22129504
249	0xbe6325af	-0.22182344
250	0xbebbe91b	-0.36701283
251	0xbd12a022	-0.035797246
252	0xbdae86dc	-0.08521816
253	0xbe4dee65	-0.20110472
254	0xbe5fe2f7	-0.21863924
255	0x3f30d8b0	0.6908064

linear3.bias f4 [3]
0	0xbe6d6209	-0.23181929
1	0xbe2ea6a1	-0.17055751
2	0xbe5e7cdf	-0.21727322
