env2 DQN/log/dqn/ckpt/215000.pth (torch, 14216 bytes, 4 tensors)

linear.weight f4 [512, 2]
00000000: a018 263e d04f 2cbe cbe9 91be 3366 9cc0
00000010: 51ca 1cbe b1ab 61c0 025c 05bf e3b3 d6c0
00000020: dea9 bfbe fce4 ccc0 f47e aebe fba4 abc0
00000030: 6061 08bf e7b6 9ec0 fc7d b9be a9a7 2fc0
00000040: 0f7a 98be 8250 a1c0 59bc 35bf 0bbd 27c0
00000050: f623 cfbf cb98 4cc1 cf70 f9be 8ecf 43c0
00000060: e8ac 89bd 98a9 3e3e 9008 0bbd eeb8 cabe
00000070: 4118 1abf fab8 d5c0 a72e 54bf 4462 e0c0
00000080: 2c69 2a3e 3a46 ee3e c0ad 0e3d 6ff4 a5be
00000090: f983 0abe e866 64c0 3ab6 11bf 9a1f d9c0
000000a0: b25c 63be 83bb 27bf e780 58bc b644 30c0
000000b0: 0211 26bf 6289 3a41 b621 89bd dcf6 68c0
000000c0: 70d2 b0be 0669 5fc0 da2e c13e c232 f33e
000000d0: 85ef ccbf 94ab ab40 9491 cbbe 06ee c5c0
000000e0: 1426 13be 069c d23e ceb0 9fbe 5e39 95c0
000000f0: 2177 adbc 2591 8ac0 49e8 5fbe fde3 1cc0
00000100: a001 063e cc63 4fc0 5e37 56be 48fc 8ec0
00000110: d1e3 e5be 793f c2c0 3a7c 74bf 042b 9ac0
00000120: d212 39bf c554 bbc0 eb96 efbe b204 5ec0
00000130: dcdd c2be 6dee 86c0 6a0f 0fbf 3636 cfc0
00000140: f3e4 193f a8c2 b1bd b50b 8cbf 538d 65c1
00000150: f6a9 16be ef9e 6cc0 30d9 87bd 5683 9c3e
00000160: 7d7a 02bf 5cc8 a2c0 b8b2 8bbd 3d3e febe
00000170: 5644 e03f c612 cebf f14d 04bd e144 1ac0
00000180: 03b5 05bf 7790 d8c0 bf24 0cbf a3cf e6c0
00000190: 3a4c 84be 8857 e9bd 431f 4abf cf15 6bc1
000001a0: 0e63 cd3e f07b 653e 5e0f e63e bbfc 073f
000001b0: 44d7 a5bf 7244 33c1 8452 2840 1f84 74c0
000001c0: 67ac 2fbf 5943 c5c0 f3f4 23bf ff69 d2c0
000001d0: ec09 07bf 08b7 37c0 7f04 e7be 530c 5ac0
000001e0: bfe3 923d 5cc4 2bc0 9f82 4abf 84a0 bdc0
000001f0: 0ebf ee3e 09c4 01bf 8349 20bf 438a 4bc0
00000200: 412f 7ebf 3484 cbc0 ee5f f5be 349f 613e
00000210: e6cd 36bf 437d 8bc0 4c56 8c3e a620 b73e
00000220: 22ed 29be ba2e 8ac0 437b a13e bc80 63c0
00000230: cfaa 85bf 9d46 bbc0 9277 ec3e b6ba a63e
00000240: 56b5 d6be 681e b0c0 b1b7 64bf 6cd0 9dc0
00000250: 3ddc 383e f9f9 6fc0 affa 17c0 ee0c a4c0
00000260: df70 0ac0 2f80 1ac1 aaa7 72be df9d 1abf
00000270: 32bc 0cbf 6d01 c1c0 c4fa f03d b87a 48c0
00000280: caa1 6cbf a747 35c0 90bd 6d3d c4e1 30bf
00000290: 2063 093d 5e68 e83e 2091 04bf 520c d3c0
000002a0: af5f b4be 2cbc 0ebf f295 30bf bedb ccc0
000002b0: de06 ea3e bc8c 06be e04f 8ebf 873b 42c1
000002c0: 477a 3cbf c2ee 73c1 cd70 8d3d e60f 34c0
000002d0: ce1c 5bbf b467 61c0 885a 13be 49c9 5ec0
000002e0: 8e74 2cbf 5f49 c7c0 503d 2ebf 5d3c 5ac0
000002f0: 66b8 0740 634c f4bf 7cc3 883e 199b 19bf
00000300: 415a 7a3e 1f81 3341 fe90 23bf 30ed 84c0
00000310: 60d9 4d3e e23d c4be 68f7 923e 4f70 0a3f
00000320: 1d53 3dbf 3a16 d0c0 59d1 35bf f3e8 88c0
00000330: 1015 a6bd 627e e13e 6480 873e 3c56 69be
00000340: 1f9b acbe 3f37 bbc0 8b61 45bf 3329 cfc0
00000350: d99f bebe d318 77c0 5027 f0bf 0de7 7cc0
00000360: a850 d53d 023b 61be e8d0 72be 76bf 2dc0
00000370: 5422 c2be ef15 85c0 dc99 0e3e f071 0dc0
00000380: e037 8abd c788 a3be 1a5e d2be dd70 adc0
00000390: aec5 91bd 2a57 6ac0 e030 e73c a484 143e
000003a0: bc68 3f3e 10dc 23bd 0f34 51bf c2b5 74c0
000003b0: ffa3 d8be a761 d4c0 9929 d6be 0cfe 7ac1
000003c0: 5599 aabe c0a8 8e3e e905 1cbf fe74 dfc0
000003d0: 300c f43d 4a15 3bc0 5230 7d3d 93ec fcbf
000003e0: fdef e3be 58dc e2c0 d9e2 80bf 30a1 bfc0
000003f0: e50e 65be 0091 7fc0 ac25 56bf 932b abc0
0.16220331 -0.16827321 -0.28498682 -4.8874755 -0.15311553 -3.5261042 -0.5209352 -6.709459
-0.37434286 -6.402952 -0.34081233 -5.363889 -0.5327358 -4.959827 -0.3622893 -2.7446082
-0.29780623 -5.0410776 -0.7099052 -2.6209133 -1.618285 -12.787303 -0.4871888 -3.0595431
-0.067224324 0.18619382 -0.033943713 -0.39594215 -0.6019326 -6.67883 -0.82883686 -7.0119953
0.16641682 0.46537954 0.03483367 -0.3241305 -0.13526906 -3.568781 -0.5691868 -6.7851076
-0.22203329 -0.65520495 -0.013214326 -2.7541938 -0.648697 11.658541 -0.06695883 -3.640067
-0.3453555 -3.4907851 0.37731057 0.47499663 -1.6010596 5.3646946 -0.39759505 -6.1853056
-0.14369994 0.4113466 -0.3118958 -4.663253 -0.02117497 -4.330218 -0.21865954 -2.4514153
0.13086557 -3.240466 -0.20919558 -4.468296 -0.44900373 -6.070248 -0.95502055 -4.817751
-0.7229434 -5.854098 -0.4679483 -3.4690366 -0.3805989 -4.2166047 -0.55882895 -6.4753675
0.60114974 -0.08679706 -1.0941073 -14.347003 -0.14713272 -3.6972005 -0.06633222 0.3056895
-0.5096815 -5.086958 -0.06821197 -0.4965686 1.7520854 -1.6099479 -0.032300893 -2.410454
-0.52229327 -6.767635 -0.5474357 -7.2128463 -0.25839406 -0.113936484 -0.7895395 -14.692824
0.40114635 0.2241056 0.449336 0.5312001 -1.2956319 -11.20421 2.6300364 -3.820564
-0.6862244 -6.164471 -0.6404564 -6.575439 -0.52749515 -2.8705463 -0.45120618 -3.4070022
0.07172345 -2.6838598 -0.7910556 -5.925844 0.46630138 -0.5068975 -0.6261217 -3.1803138
-0.99290854 -6.359888 -0.4792475 0.22033387 -0.71407926 -4.3590407 0.2740959 0.35767096
-0.16594365 -4.318204 0.31539354 -3.5547323 -1.0442752 -5.85237 0.46184975 0.32564324
-0.41935223 -5.5037117 -0.8934279 -4.931692 0.18052764 -3.7496321 -2.3746755 -5.1265783
-2.163139 -9.656295 -0.23696771 -0.6039714 -0.54974663 -6.031424 0.1176658 -3.1324902
-0.9243437 -2.8324983 0.05804211 -0.6909449 0.0335418 0.45392126 -0.51783943 -6.595254
-0.3522925 -0.5575588 -0.689788 -6.401824 0.45708364 -0.13139623 -1.1118126 -12.139533
-0.7362408 -15.2457905 0.06906281 -2.8134704 -0.8559083 -3.5219545 -0.14390004 -3.4810355
-0.6736535 -6.2277064 -0.68062305 -3.4099343 2.1206298 -1.9085811 0.26711643 -0.60002285
0.24448492 11.219024 -0.63893116 -4.1539536 0.20102453 -0.38328463 0.2870438 0.5407762
-0.73954946 -6.502713 -0.71022564 -4.278436 -0.08109486 0.44041735 0.26465142 -0.22786802
-0.33712098 -5.850494 -0.77101964 -6.473779 -0.3723133 -3.8608902 -1.8761997 -3.9516022
0.104157746 -0.21995166 -0.23712504 -2.7148108 -0.37916815 -4.1589274 0.1392588 -2.2100792
-0.067489386 -0.3194029 -0.4108742 -5.4200273 -0.071177825 -3.66157 0.028221548 0.14503723
0.18692297 -0.04000479 -0.8172006 -3.8235936 -0.4231262 -6.6369205 -0.41828611 -15.687023
-0.33320108 0.2786312 -0.6094652 -6.9830313 0.11916387 -2.9231744 0.06181366 -1.9759697
-0.44519034 -7.0893974 -1.0069228 -5.988426 -0.22368963 -3.993225 -0.8365123 -5.349069

linear.bias f4 [512]
00000000: 38ee b5bd 7030 4b3e 747d c63e 36b5 9e3e
00000010: cdbf 843e 0c35 673e 5ae1 963e c14d 4b3f
00000020: bdf8 523e aa0e 383f 766c e13e 578a d83e
00000030: 511b 86be 6f1a 12bf a3ba af3e 59f2 e53e
00000040: 21c7 b5be 8221 9cbe 2b99 fd3e 8fa3 a93e
00000050: 6923 08bf 11ba 7f3e 9959 4bbf 87c4 253f
00000060: f6e8 173f a1b8 c6be 06fc 0e3f 6c9e 853e
00000070: 1761 33bf e813 503e 4386 2c3f 5fe5 513f
00000080: 5fd5 d23e ba5f d93e 7ec1 8b3e 5340 f93e
00000090: 1cdf c73e 92e0 123f 38dd 263f ba4b a53e
000000a0: 656c 30bf 6690 b23e 7f50 af3e d833 d6be
000000b0: acad 913e 819c bdbe 8949 c63e 8a14 523f
000000c0: 6d1b 9f3e 05df a73e ad17 d5be 6378 9f3e
000000d0: 7203 dbbe 3961 11bf e279 b93e 6cc6 53be
000000e0: 51c4 c03e cbee b73e db5e 3b3f c278 3e3f
000000f0: 285d 1b3f 4ba3 d53e 7b91 b4be 483c 1c3f
00000100: 528c 023f 6856 2bbf 6264 243f e00e 14bf
00000110: 2f0f 023f 48fb 393f 5f04 093f 7099 1fbf
00000120: fc01 813e c103 ea3e dc37 eb3e 1f69 93bf
00000130: 430b 053f de3b a5be 8719 a03e 94dd d33e
00000140: 16b9 583f 90fc 36be 126a 6bbe 98d1 9c3e
00000150: 5703 1ebf e074 c23e 6b9a b4be 2b66 a63e
00000160: cd02 983e 9c37 473f dbd0 4d3f bc28 fa3e
00000170: 57cb bd3e c96f 3c3f 98a5 763e c8ac 8ebe
00000180: e388 2ebe f60d 473f 03f8 0dbf 46e0 2ebf
00000190: a552 cf3e 98de 333f e359 18bf 6489 e9be
000001a0: 20f9 703e bc63 d63e f07a 1c3f abbc f93e
000001b0: 3591 afbe c4d0 a13e 81c4 2a3f e762 c83e
000001c0: 0877 fabd 0218 7d3e 46ea 553f fc3a fbbe
000001d0: d1e6 10bf 9ff0 473f 4f5b 8e3e fd2d 683e
000001e0: bd02 2ebf fe4f b33e a81e b93e 3332 9e3e
000001f0: 3ff5 963e 1d12 053f a6b3 593f 8c25 dd3e
00000200: cb37 96be deaf 3bbd 2eeb 12bf e2b6 3cbf
00000210: eb33 163f 3d8d fb3e 73a8 09bf cf44 303f
00000220: 8bfb 853e 6569 b43e 8139 1e3f d564 a63e
00000230: 6e2f b1be 6555 2abf 84bf 03bf 5107 423f
00000240: 049d babe fe30 e23e 3c18 7dbe fd80 353f
00000250: 0116 2b3f b910 a93e 1d71 85be 9e64 003f
00000260: 857c 143f e06d b5be 43e4 e23e 7a69 1d3f
00000270: 9080 493f d30f f03e 1f96 d33e be6d 223f
00000280: 3035 2e3f 0aed a13e 3eb0 483f a7c7 1fbf
00000290: 61b5 2bbf 489c bb3e 9113 803e 268f 083f
000002a0: 0f04 d73e 9849 a63e 39a9 d2be 9098 aabd
000002b0: 0a2e b53e 3385 d93e 0a5b 863e 848a eb3e
000002c0: d1d5 bb3e 0dfe 593f 8284 753e 54a3 4a3f
000002d0: 8673 033f 867c 0ebf d5f5 523e 6c9e 193f
000002e0: 462e f63e 8549 233f 1ab7 6f3f 8ef5 bc3e
000002f0: e64e aa3e fe99 87be a8c0 69be 74e1 573f
00000300: 9df4 c0be 48bb c9bd 4cbc 4e3f 1610 c8be
00000310: 58d3 0dbd f3c4 1dbf 900b 573f 12b2 a2be
00000320: 4f7a 2f3f 78f3 27be 1bec e63e cd3a a03e
00000330: 9f6f 1fbf 8473 18bf c43c 06bf 1568 8f3e
00000340: b0ff 11bf 15e0 363f b69c f6be 559d ef3e
00000350: 07dc 753e 1134 313f ef68 e4be f3cb 093f
00000360: 2b61 ce3e 3edd babe f34e 823e ac45 f33e
00000370: ea3c 9e3e dca4 01bf 6314 413f 2848 813e
00000380: 8e6c 9a3e fd35 453f 9a86 923e ea7b 8abe
00000390: 4e46 0abf 2555 4a3f 21ff fb3e 7b4f f73e
000003a0: d9a8 bc3e 272c 1b3f 4a73 913e 4b3d d93e
000003b0: 61b0 0dbf a043 2dbf fe58 c13e 8a60 01bf
000003c0: 96ad 24bf 645f 8e3e fd64 fa3e 38f1 143f
000003d0: 1355 14bf ab6b 9b3e 20cd a73f 6717 c93e
000003e0: c4f1 c53e fcce f63e 1331 d03e 4e02 2dbf
000003f0: f5f1 e43e bc86 903e 2862 9e3e d75b 9bbe
-0.08883327 0.19842696 0.38767588 0.30997628 0.25927582 0.2257883 0.29468805 0.7941552
0.20602699 0.71897376 0.44028062 0.42293045 -0.26192716 -0.57071584 0.3432208 0.4491146
-0.35503486 -0.30494314 0.4953092 0.33132598 -0.5317903 0.24973322 -0.7943359 0.64753
0.59339845 -0.38812736 0.5585331 0.2609743 -0.7007002 0.20320094 0.6739237 0.8199062
0.41178414 0.42455846 0.2729606 0.48681888 0.39037406 0.5737392 0.65181303 0.32284337
-0.68915397 0.34875792 0.342411 -0.4183643 0.28452814 -0.37033466 0.38727978 0.8206259
0.31075612 0.32787338 -0.41619626 0.31146535 -0.42776066 -0.56788975 0.36225802 -0.2068116
0.37649778 0.35924372 0.7319161 0.7440301 0.6068902 0.41726145 -0.35267243 0.6102948
0.5099536 -0.6692872 0.6421567 -0.578352 0.5080442 0.7264905 0.53522295 -0.623435
0.25196826 0.4570599 0.45941055 -1.1516455 0.5197031 -0.32272238 0.31269476 0.41379988
0.8465742 -0.17869782 -0.22989681 0.30628657 -0.61723846 0.37979794 -0.35274062 0.32499823
0.29689637 0.7781923 0.80396813 0.48859203 0.37069198 0.7360807 0.24086607 -0.27866197
-0.17044406 0.7775568 -0.5545656 -0.68310964 0.4049274 0.70261526 -0.59512156 -0.45612633
0.23532534 0.41872966 0.6112509 0.48776755 -0.34290472 0.31604588 0.6670609 0.39137957
-0.12229735 0.2471619 0.835606 -0.4906844 -0.566022 0.78101534 0.27804038 0.22673793
-0.6797293 0.35021967 0.361562 0.30897674 0.29483983 0.51980764 0.85039747 0.43192708
-0.29339442 -0.045822017 -0.57390106 -0.7371656 0.5867297 0.49131194 -0.5377266 0.68854994
0.26168475 0.3523666 0.61806494 0.32498804 -0.34606498 -0.6653655 -0.51464105 0.75792414
-0.36447918 0.44178003 -0.24716276 0.70899945 0.6683045 0.3302057 -0.2606286 0.5015353
0.580025 -0.3543539 0.44314775 0.6148907 0.78711796 0.46887073 0.4132547 0.63448703
0.6804991 0.3162616 0.78393924 -0.6241402 -0.6707364 0.3664267 0.25014928 0.5334343
0.41995284 0.32478023 -0.41144732 -0.0832988 0.35386688 0.42484435 0.26241332 0.46004117
0.36686566 0.85153276 0.23976329 0.7915547 0.5134815 -0.5565876 0.2060159 0.6000736
0.4808218 0.63784057 0.93638766 0.36906093 0.3326332 -0.26484674 -0.22827399 0.8432839
-0.37686625 -0.09850174 0.8075607 -0.39074773 -0.03462538 -0.61628646 0.8400202 -0.31776482
0.68546003 -0.1640147 0.4510201 0.3129486 -0.62279695 -0.5955126 -0.5243647 0.28009096
-0.57030773 0.7143567 -0.48166436 0.46799722 0.24009715 0.6922007 -0.44611308 0.53826827
0.40308508 -0.3649692 0.25450858 0.47514093 0.3090585 -0.5064218 0.7542173 0.25250363
0.30160946 0.77035505 0.28618318 -0.27047664 -0.54013526 0.7903617 0.49218085 0.48302826
0.3684757 0.60614246 0.2840827 0.42429575 -0.5534726 -0.6768131 0.37763208 -0.5053793
-0.6432737 0.27807152 0.48905173 0.5818057 -0.5794231 0.30355582 1.3109474 0.39275667
0.38661015 0.48204792 0.4066244 -0.6758164 0.4471585 0.28227794 0.30934262 -0.30343506

linear3.weight f4 [3, 512]
00000000: d650 e43c d09f 80bf bd62 03bf 2606 2dbf
00000010: 66a3 7abf 215e 53bf fb18 1bbf a753 93be
00000020: c2b1 7abf d94b 8dbe 1f8e 0340 8e1c ddbe
00000030: e38f 113d 333c 1d3d 089f 45bf 8dfb 2dbf
00000040: 0fc1 9abc b076 c43b 2259 fdbe 70bc 20bf
00000050: 8024 363c 1343 37bf 512f 1241 ce2c bbbe
00000060: 5e43 cbbe ee7e 34bd b259 ed3f df35 5fbf
00000070: 7b83 c5bc 54da 2dbf 07a7 d9be 3b77 70be
00000080: ef5c 27bf 9e69 12bf 6331 33bf 502c 0bbf
00000090: 4c82 2abf 63ba bebe f311 c5be ad51 2fbf
000000a0: 4296 e4bc adb8 3740 6c14 29bf 7395 1b3d
000000b0: 7fa5 28bf 8f0c 333d 5e5d abbf 6aa3 91be
000000c0: 4a74 36bf 2de9 3ebf 49f3 b8bc 3884 5540
000000d0: f00a 6dbb de94 06bd 7bbb c43f 7c8d ebbf
000000e0: 1c66 17bf aba2 38bf d2ad 9bbe bc01 9bbe
000000f0: 6e41 d0be 1c1d 18bf b1eb 21bd 71b0 b2be
00000100: f08a 29bf 846f 03bc ffad ddbe a64f f33c
00000110: 5ecd 00bf ba48 ccbe 6da9 14bf dfb5 0e3d
00000120: 0f4c 15bf 5086 10bf 64d7 29bf 99e8 fc40
00000130: 1b1c d93f 5068 663b 9e13 32bf 758b 16bf
00000140: 14a9 90be 2826 9a3b 336d 1c3d 01e2 2fbf
00000150: b329 073d 100f 15bf 15ea 303d d683 f23f
00000160: d685 7240 7f0b b5be 69dd a6be bd09 e6be
00000170: 8e42 24bf 8d67 b9be 30e6 a1bf 68a6 683c
00000180: a47f bd40 9e40 adbe 1553 0f3d 8fb4 0a3d
00000190: 2c91 27bf de70 ccbe 0f94 243d 52d3 d93c
000001a0: 8684 84bf f7f0 33bf e3a3 c4be c743 6b3f
000001b0: e575 2e3d d162 ecbe 56e4 debe 1126 06bf
000001c0: f19f 1ebd a6f4 34bf dd8e b3be 4891 3f3c
000001d0: 8a1c f2bc 74b7 b8be 6dd2 52bf 9d24 9b40
000001e0: 8733 06bd 3d6b 45bf 6a0c 26bf e66a 0abf
000001f0: 751e 58bf bbc8 febe 406a b1be 6a8a 1bbf
00000200: 8c62 213c 3ba9 aebf 50ac 413b 4a4b 0441
00000210: 5cd4 eebe 5b71 12bf 3af1 be3c 5f79 adbe
00000220: dd09 69bf 3d26 23bf 9481 bdbe 2863 08bf
00000230: a081 a5ba 80cc 62ba f8b6 fe3b 07fc b4be
00000240: 9879 a8bb ceeb 12bf 4a2e e83c 1ea0 eabe
00000250: a300 9dbe 76a9 13bf 0ad3 c73c a2f9 07bf
00000260: c480 9cbe 03d9 9540 2b40 c53f 6816 f9be
00000270: cf6e 94be 1689 013f 6cc2 31bf 775c 99be
00000280: e979 c6be db23 1fbf f292 c3be c1fe 0d3d
00000290: 60f6 643c 5e74 39bf 05df e3be 3c6a 0ebf
000002a0: bba7 27bf 1f53 2ebf 066f bd3c 82eb 14bd
000002b0: 1e6d 43bf 860a 29bf 27bf 25bf d133 03bf
000002c0: 6d57 17bf 2ed6 b0be 445c 6abf d738 bdbe
000002d0: 3a4b 84bf 9c04 2cbd d7f0 4fbf 8ba0 d7be
000002e0: 3264 1cbf 4f6e d5be aae5 dcbf 5cd2 1ebf
000002f0: 0f09 4bbf 5c7f 44bc c8a8 16bc 2abd acbe
00000300: 9039 2dbb 1ab3 f9bc 9343 afbe 94db 4ebc
00000310: 0a87 8d40 0b10 1e3d 5d87 87be 45e3 023d
00000320: 3314 a6be 2e0f c73c 0f23 1dbf e2bf 63bf
00000330: 7466 14bd e03b 403b 141c 1dbc 0cb1 27bf
00000340: 1f77 0b3d 2708 c2be fbec 2d3d 2023 15bf
00000350: fa52 6cbf 8d8b b8be 03c7 e2bc edd7 03bf
00000360: 55c1 2ebf 892e 0b3d 56ce 6dbf 76c6 1fbf
00000370: 236e 40bf 31e3 073d 547f b4be 9804 3ebf
00000380: acbd 26bf 4b9a 8fbe 389b 30bf d8fe 253c
00000390: 1e83 10bd 597a 97be 22db d3be dc7e 263f
000003a0: a9cc 1bbf 197a d6be 383f 3bbf d764 22bf
000003b0: e8db 3e3c bd26 01bd 6924 30bf 5744 0d3d
000003c0: 00e1 33bc 12f5 06bf 5db1 063f 58c9 d4be
000003d0: 4233 823c 8c2f 773d c14c c740 f1b3 30bf
000003e0: ba0d 23bf 1d2a 1dbf 8963 e3be 22a0 12bd
000003f0: 5287 fb3e 12ff 57bf 5352 20bf ec19 a540
0.027870577 -1.0048771 -0.5132254 -0.67587507 -0.97905576 -0.82565504 -0.6058499 -0.2877476
-0.97927487 -0.2759693 2.0555494 -0.43185848 0.03553761 0.03838749 -0.7719579 -0.6796196
-0.018890886 0.005995594 -0.49482065 -0.6278753 0.011117101 -0.7158672 9.136552 -0.3655762
-0.39699835 -0.044066362 1.8542998 -0.87191576 -0.024110546 -0.6791127 -0.42510244 -0.23482983
-0.6537618 -0.5719241 -0.69997233 -0.5436449 -0.6660507 -0.37251577 -0.38490257 -0.68484
-0.02790368 2.8706467 -0.66046786 0.037984323 -0.65877527 0.04371315 -1.3387868 -0.28444988
-0.71271193 -0.7457455 -0.022576945 3.336195 -0.003616985 -0.032856815 1.5369714 -1.8402553
-0.5914018 -0.7212321 -0.30406052 -0.3027476 -0.4067492 -0.5941942 -0.039531413 -0.3490024
-0.66227627 -0.008022193 -0.4329681 0.029701065 -0.50313365 -0.39899236 -0.58071023 0.034841415
-0.5831918 -0.56454945 -0.66344285 7.9033933 1.6961702 0.003515739 -0.69561183 -0.58806545
-0.28253996 0.0047042556 0.038190078 -0.6870423 0.03299875 -0.5822611 0.043191988 1.8946483
3.7894187 -0.35360333 -0.32590798 -0.44929305 -0.64164054 -0.36211815 -1.2648373 0.014199831
5.921831 -0.33838362 0.034991343 0.0338636 -0.6545589 -0.3992986 0.040180262 0.026590023
-1.0352943 -0.7028956 -0.38406286 0.91900295 0.0425929 -0.4616914 -0.43533581 -0.52401835
-0.03872675 -0.70685804 -0.35069934 0.011692353 -0.029554624 -0.36077464 -0.82352334 4.8482194
-0.032763984 -0.7711676 -0.6486269 -0.54069364 -0.84421474 -0.4976252 -0.34651375 -0.6075808
0.009850156 -1.3645395 0.002955217 8.268381 -0.46646392 -0.57204217 0.023308385 -0.3388166
-0.91030675 -0.6373022 -0.37012923 -0.532763 -0.0012627132 -0.00086516887 0.0077732764 -0.35348532
-0.005141448 -0.5739106 0.028342385 -0.45825285 -0.30664548 -0.5768045 0.024392623 -0.53115284
-0.3056699 4.6827407 1.5410208 -0.48649907 -0.2899079 0.505998 -0.6943729 -0.29953358
-0.38764885 -0.62164086 -0.38198048 0.03466678 0.013974756 -0.7244319 -0.44506088 -0.5563085
-0.6549031 -0.6809558 0.02312423 -0.03635741 -0.76338375 -0.6603168 -0.647448 -0.5125094
-0.59117776 -0.34538406 -0.91547036 -0.36957428 -1.0335457 -0.041996583 -0.8122687 -0.42114672
-0.61090386 -0.4168572 -1.7257588 -0.6203973 -0.793107 -0.0119932555 -0.009195514 -0.3373807
-0.0026432015 -0.03048091 -0.34231243 -0.012625594 4.4227343 0.03858952 -0.2647046 0.031955022
-0.32437286 0.02429923 -0.6138162 -0.88964665 -0.03623052 0.0029332563 -0.009589214 -0.6550453
0.03404915 -0.37896845 0.04246233 -0.5825672 -0.9231411 -0.3604397 -0.027682787 -0.5150135
-0.6826375 0.033979926 -0.9289297 -0.624122 -0.75168055 0.03317565 -0.35253394 -0.7422576
-0.65133166 -0.28047404 -0.68986845 0.01013156 -0.035281293 -0.2958553 -0.41378123 0.6503732
-0.6085916 -0.41890028 -0.7314334 -0.6343512 0.011649109 -0.031531084 -0.6880556 0.034489002
-0.010978937 -0.527177 0.52614385 -0.41559863 0.015893582 0.06034808 6.2281194 -0.6902457
-0.6369282 -0.61392385 -0.44411877 -0.035797246 0.4912668 -0.8437358 -0.62625617 5.1594143

linear3.bias f4 [3]
00000000: dd87 3dbe 9de9 0ebe cdd8 dcbd
-0.18508859 -0.13956304 -0.10783539
