env2 DQN/log/dqn/ckpt/238000.pth (torch, 14216 bytes, 4 tensors)

linear.weight f4 [512, 2]
000000 a0 18 26 3e d0 4f 2c be 23 42 81 be 07 0b ab c0
       0.16220331 -0.16827321 -0.2524577 -5.345096
000010 3e b3 08 be f5 ce 55 c0 09 df 00 bf 8a 26 e3 c0
       -0.13349625 -3.3407567 -0.50340325 -7.0984545
000020 47 15 a9 be a4 98 dc c0 08 e1 9c be b5 e3 b9 c0
       -0.33024046 -6.893633 -0.30640435 -5.8090463
000030 96 1f 05 bf fe 3f ab c0 65 d6 aa be 82 06 28 c0
       -0.5200132 -5.3515615 -0.33366695 -2.6253972
000040 21 f7 86 be 1e 1d b0 c0 af b5 2e bf e4 e4 1e c0
       -0.2636042 -5.5035543 -0.6824598 -2.4827204
000050 0e a1 cb bf d9 89 56 c1 79 56 ed be 69 d6 39 c0
       -1.5908525 -13.408654 -0.46355036 -2.9037116
000060 e8 ac 89 bd 98 a9 3e 3e 90 08 0b bd ee b8 ca be
       -0.067224324 0.18619382 -0.033943713 -0.39594215
000070 db 8a 16 bf ac 33 e2 c0 c2 1e 50 bf 10 a6 ed c0
       -0.58805627 -7.0688076 -0.8129693 -7.4265213
000080 2c 69 2a 3e 3a 46 ee 3e c0 ad 0e 3d 6f f4 a5 be
       0.16641682 0.46537954 0.03483367 -0.3241305
000090 5f 86 e4 bd ac 88 5a c0 a3 de 0d bf 80 83 e5 c0
       -0.11158442 -3.4145918 -0.5541784 -7.1723022
0000a0 b2 5c 63 be 83 bb 27 bf b0 da 12 3c 6c 4f 25 c0
       -0.22203329 -0.65520495 0.008963272 -2.5829725
0000b0 93 d7 45 bf b7 c7 39 41 bf db 3d bd 91 e1 5d c0
       -0.77282065 11.6112585 -0.046352144 -3.4668925
0000c0 80 81 a5 be b9 a0 54 c0 da 2e c1 3e c2 32 f3 3e
       -0.32325363 -3.3223097 0.37731057 0.47499663
0000d0 a1 be cb bf c9 24 ad 40 f2 f6 b6 be 05 cf d4 c0
       -1.591755 5.4107404 -0.3573528 -6.650271
0000e0 14 26 13 be 06 9c d2 3e aa 16 9a be 5c e4 a1 c0
       -0.14369994 0.4113466 -0.30095416 -5.059126
0000f0 11 14 0a bb 44 c4 84 c0 89 6a 43 be 24 8c 14 c0
       -0.002106909 -4.148958 -0.19083609 -2.3210535
000100 72 76 1e 3e 9e 56 45 c0 67 35 44 be 0a c0 88 c0
       0.15474871 -3.0834117 -0.19160996 -4.2734423
000110 9c d0 d9 be 8e 6f cf c0 9f f1 75 bf 40 10 a3 c0
       -0.4254197 -6.4823675 -0.9607181 -5.0957336
000120 8a 48 36 bf 1d f2 c7 c0 77 41 e4 be f9 2a 53 c0
       -0.71204436 -6.248305 -0.44581196 -3.2994978
000130 3d 33 b8 be 66 3e 81 c0 60 35 0c bf f1 26 db c0
       -0.35976592 -4.038867 -0.54768944 -6.8485036
000140 f3 e4 19 3f a8 c2 b1 bd 64 6a 8b bf ea fe 6e c1
       0.60114974 -0.08679706 -1.0891843 -14.937235
000150 a6 2a 00 be b6 d6 61 c0 30 d9 87 bd 56 83 9c 3e
       -0.12516269 -3.52873 -0.06633222 0.3056895
000160 e5 90 00 bf 4f cc ae c0 b8 b2 8b bd 3d 3e fe be
       -0.5022109 -5.46244 -0.06821197 -0.4965686
000170 4c 3d 03 40 a5 0d e4 bf 6d 2e 26 bb a0 21 13 c0
       2.0506163 -1.7816664 -0.0025357262 -2.2989273
000180 f2 7d 00 bf 21 8d e5 c0 21 aa 04 bf 1d 77 f4 c0
       -0.5019218 -7.1734776 -0.51822096 -7.63954
000190 3a 4c 84 be 88 57 e9 bd bc 17 5e bf 79 a9 72 c1
       -0.25839406 -0.113936484 -0.86754966 -15.166375
0001a0 0e 63 cd 3e f0 7b 65 3e 5e 0f e6 3e bb fc 07 3f
       0.40114635 0.2241056 0.449336 0.5312001
0001b0 37 51 a4 bf 94 55 3c c1 19 1d 32 40 36 71 62 c0
       -1.2837285 -11.770893 2.783026 -3.5381598
0001c0 77 fc 2a bf fa a2 d2 c0 36 51 20 bf ed 1b df c0
       -0.6679148 -6.5823946 -0.6262392 -6.972159
0001d0 bc 9a 00 bf 6a 63 2e c0 32 61 dc be 5b c3 4e c0
       -0.50236106 -2.7248178 -0.43042904 -3.2306736
0001e0 bb 5f cb 3d 71 b9 23 c0 c1 3c 48 bf 31 c9 c9 c0
       0.099303685 -2.5581934 -0.78217703 -6.3058095
0001f0 0e bf ee 3e 09 c4 01 bf c4 58 1a bf df 7a 41 c0
       0.46630138 -0.5068975 -0.60291696 -3.0231245
000200 3b a1 7d bf 40 33 d6 c0 ee 5f f5 be 34 9f 61 3e
       -0.99074143 -6.693756 -0.4792475 0.22033387
000210 81 d3 31 bf cc 88 85 c0 4c 56 8c 3e a6 20 b7 3e
       -0.69463354 -4.172949 0.2740959 0.35767096
000220 b8 d5 16 be c7 26 84 c0 bb a9 ac 3e 9e 0c 59 c0
       -0.14729965 -4.1297336 0.33723244 -3.391395
000230 ff d4 86 bf b7 c3 c4 c0 92 77 ec 3e b6 ba a6 3e
       -1.0533751 -6.148891 0.46184975 0.32564324
000240 83 a9 cf be 33 81 bc c0 af 90 65 bf 40 8f a7 c0
       -0.40559015 -5.8907714 -0.89673895 -5.2362366
000250 1b cb 4f 3e 9f 47 65 c0 a9 6b 05 c0 6e 60 de c0
       0.20292322 -3.5824964 -2.084696 -6.949271
000260 71 74 07 c0 d0 13 26 c1 aa a7 72 be df 9d 1a bf
       -2.116482 -10.379837 -0.23696771 -0.6039714
000270 55 b1 09 bf 77 62 cd c0 b5 f1 0e 3e 9e 69 3d c0
       -0.5378621 -6.4182696 0.13959391 -2.9595714
000280 67 aa 65 bf 1d 70 2c c0 90 bd 6d 3d c4 e1 30 bf
       -0.8971314 -2.6943429 0.05804211 -0.6909449
000290 20 63 09 3d 5e 68 e8 3e 27 64 ff be bd ba df c0
       0.0335418 0.45392126 -0.49881098 -6.991545
0002a0 af 5f b4 be 2c bc 0e bf bd e4 2b bf b4 f0 d9 c0
       -0.3522925 -0.5575588 -0.671459 -6.8106327
0002b0 de 06 ea 3e bc 8c 06 be 1e 7b 8d bf 97 33 4b c1
       0.45708364 -0.13139623 -1.1053197 -12.700095
0002c0 74 78 56 bf 96 df 7a c1 90 f3 c3 3d 9e b8 2b c0
       -0.83777547 -15.679586 0.0956794 -2.6831431
0002d0 26 d5 54 bf d3 45 57 c0 79 4e fc bd 64 97 53 c0
       -0.8313774 -3.3636367 -0.12319655 -3.3061152
0002e0 df 26 28 bf c5 8c d4 c0 88 7c 28 bf a1 e4 4f c0
       -0.6568431 -6.642184 -0.6581502 -3.2483294
0002f0 0b 5c 13 40 81 fa f8 bf 7c c3 88 3e 19 9b 19 bf
       2.3024929 -1.9451448 0.26711643 -0.60002285
000300 69 49 c3 3e 8f 35 34 41 22 85 1e bf db 19 7e c0
       0.38141945 11.263076 -0.61921895 -3.970328
000310 60 d9 4d 3e e2 3d c4 be 68 f7 92 3e 4f 70 0a 3f
       0.20102453 -0.38328463 0.2870438 0.5407762
000320 20 fb 38 bf 53 61 dd c0 23 76 30 bf 75 57 83 c0
       -0.72258186 -6.9181304 -0.6893026 -4.104426
000330 10 15 a6 bd 62 7e e1 3e 64 80 87 3e 3c 56 69 be
       -0.08109486 0.44041735 0.26465142 -0.22786802
000340 f3 27 99 be 04 b4 ca c0 f3 00 42 bf 9e 25 dc c0
       -0.2991329 -6.3344746 -0.757827 -6.879592
000350 8d 91 b3 be 71 eb 6b c0 a8 22 eb bf d6 c4 8a c0
       -0.35071984 -3.6862452 -1.8369951 -4.336528
000360 a8 50 d5 3d 02 3b 61 be a0 6a 59 be 9e d3 23 c0
       0.104157746 -0.21995166 -0.2123208 -2.559791
000370 32 a6 b7 be f8 27 7f c0 b0 cd 2c 3e 56 c9 05 c0
       -0.35868984 -3.9868145 0.16875339 -2.0904136
000380 e0 37 8a bd c7 88 a3 be 8a ea cc be f8 ae b9 c0
       -0.067489386 -0.3194029 -0.4002269 -5.8026085
000390 d0 be 41 bd 22 88 60 c0 e0 30 e7 3c a4 84 14 3e
       -0.047301114 -3.508309 0.028221548 0.14503723
0003a0 bc 68 3f 3e 10 dc 23 bd e7 fa 4b bf 5c 49 69 c0
       0.18692297 -0.04000479 -0.7967972 -3.6451025
0003b0 e1 d2 bd be 69 19 e4 c0 bd f1 1f bf b2 85 7e c1
       -0.3707495 -7.128102 -0.6247824 -15.90764
0003c0 55 99 aa be c0 a8 8e 3e 2e 96 18 bf 0f dd eb c0
       -0.33320108 0.2786312 -0.59604156 -7.3707347
0003d0 e1 43 13 3e d7 37 31 c0 17 94 c0 3d 1a 7e f0 bf
       0.14381362 -2.7690332 0.09403246 -1.8788483
0003e0 47 db c5 be e9 23 f3 c0 18 a5 81 bf e5 b0 c9 c0
       -0.38643858 -7.5981336 -1.0128508 -6.3028436
0003f0 38 d3 4c be 04 c9 75 c0 a0 c5 55 bf 6c 16 b6 c0
       -0.20002449 -3.840394 -0.83504677 -5.690237

linear.bias f4 [512]
000000 38 ee b5 bd 2d 88 51 3e e3 d0 cc 3e 0c ba a5 3e
       -0.08883327 0.20462103 0.40003118 0.32368505
000010 43 0b 86 3e 31 64 6d 3e 95 83 99 3e 01 45 4c 3f
       0.26180467 0.23182751 0.29983202 0.7979279
000020 4d 20 58 3e 8b 99 39 3f 92 9a e4 3e 00 27 dd 3e
       0.21106072 0.7249991 0.44649178 0.43193817
000030 51 1b 86 be 6f 1a 12 bf 60 5f b4 3e 95 37 e3 3e
       -0.26192716 -0.57071584 0.35229015 0.44378343
000040 21 c7 b5 be 82 21 9c be 98 0d 01 3f fc 34 af 3e
       -0.35503486 -0.30494314 0.5041137 0.3422011
000050 69 23 08 bf db 85 85 3e 06 6d 67 bf ab 71 28 3f
       -0.5317903 0.26078686 -0.9040073 0.65798444
000060 7b 7f 1a 3f a1 b8 c6 be 43 df 1b 3f a7 89 87 3e
       0.6035077 -0.38812736 0.60887545 0.26472208
000070 17 61 33 bf 33 6d 59 3e 21 81 2f 3f 0e 09 53 3f
       -0.7007002 0.21233062 0.6855641 0.8243569
000080 9d a2 d7 3e f2 56 e0 3e a3 83 90 3e 90 57 01 3f
       0.42116252 0.43816334 0.2822543 0.50524235
000090 98 dd c7 3e da 7b 15 3f 99 b5 29 3f 99 05 ac 3e
       0.3903625 0.5839211 0.6629272 0.3359802
0000a0 65 6c 30 bf 95 d1 b9 3e 42 d3 b4 3e d8 33 d6 be
       -0.68915397 0.3629271 0.35317427 -0.4183643
0000b0 4b 1c 98 3e 81 9c bd be e5 6f fc 3e 1c cc 52 3f
       0.29709086 -0.37033466 0.4930412 0.82342696
0000c0 d7 9c a4 3e 65 ce ab 3e ad 17 d5 be 5c c3 a4 3e
       0.3215091 0.33555904 -0.41619626 0.32180297
0000d0 72 03 db be 39 61 11 bf ef 29 c0 3e cf 34 47 be
       -0.42776066 -0.56788975 0.37531993 -0.19453739
0000e0 df d8 bf 3e 02 59 ba 3e d1 2b 3d 3f cd 28 41 3f
       0.37470147 0.36396033 0.73894984 0.7545288
0000f0 8d b2 1c 3f c3 6b d6 3e 7b 91 b4 be 45 7b 1e 3f
       0.61209947 0.4187909 -0.35267243 0.61906844
000100 dd 3f 05 3f 68 56 2b bf 54 8d 27 3f e0 0e 14 bf
       0.5205057 -0.6692872 0.65450025 -0.578352
000110 4b 4f 05 3f 36 69 3c 3f 7d 10 0b 3f 70 99 1f bf
       0.52074116 0.7359804 0.54322034 -0.623435
000120 29 72 87 3e e6 88 f1 3e 6f 9a f0 3e 38 b6 96 bf
       0.26454285 0.47174758 0.46992823 -1.1774359
000130 41 90 fd 3e de 3b a5 be c3 66 a5 3e 93 81 d9 3e
       0.4952412 -0.32272238 0.32304963 0.4248167
000140 1b 49 5a 3f 90 fc 36 be 12 6a 6b be 64 3d a3 3e
       0.852678 -0.17869782 -0.22989681 0.31882775
000150 57 03 1e bf 6d db c2 3e 6b 9a b4 be ef ed b0 3e
       -0.61723846 0.38058034 -0.35274062 0.3455653
000160 13 4e a2 3e 5b 9d 48 3f a1 0a 50 3f 3b cb ff 3e
       0.3170019 0.78365105 0.8126622 0.4995974
000170 d0 90 be 3e 3e d0 3e 3f 6c e9 08 3f c8 ac 8e be
       0.37219858 0.745365 0.53481174 -0.27866197
000180 f0 21 24 be d9 07 4a 3f 03 f8 0d bf 46 e0 2e bf
       -0.16028571 0.78918225 -0.5545656 -0.68310964
000190 ec 92 cd 3e 69 a7 36 3f e3 59 18 bf 64 89 e9 be
       0.40151155 0.713492 -0.59512156 -0.45612633
0001a0 2e 42 75 3e ec 8b d4 3e 58 3b 1f 3f cb 36 0e 3f
       0.23951027 0.41513002 0.62199926 0.5555236
0001b0 35 91 af be a5 5b a6 3e 8f 83 2d 3f f2 ee ca 3e
       -0.34290472 0.32491794 0.6777887 0.39635426
0001c0 08 77 fa bd a8 9b 85 3e a2 fa 57 3f fc 3a fb be
       -0.12229735 0.2609532 0.8436681 -0.4906844
0001d0 d1 e6 10 bf 59 ce 4a 3f 83 5f 8f 3e d1 cf 80 3e
       -0.566022 0.7922111 0.28002557 0.2515855
0001e0 bd 02 2e bf 4f e9 b8 3e 7e bf bd 3e 3f 75 9f 3e
       -0.6797293 0.361155 0.3706016 0.3114414
0001f0 92 75 97 3e bf 5c 06 3f 61 c2 5b 3f 16 5c e1 3e
       0.29581887 0.5248527 0.85843474 0.44015568
000200 cb 37 96 be af 72 d0 3d 2e eb 12 bf c6 78 62 bf
       -0.29339442 0.10178124 -0.57390106 -0.88465536
000210 8a 8b 1b 3f 76 2d fc 3e 73 a8 09 bf 92 65 32 3f
       0.60759795 0.49253434 -0.5377266 0.69686234
000220 10 c6 87 3e ae c3 b5 3e 43 53 21 3f da 72 a8 3e
       0.26518297 0.35500854 0.6301767 0.32900125
000230 6e 2f b1 be 65 55 2a bf 84 bf 03 bf 9f 88 44 3f
       -0.34606498 -0.6653655 -0.51464105 0.7677097
000240 04 9d ba be c8 3e e3 3e 3c 18 7d be ec 6b 38 3f
       -0.36447918 0.44383836 -0.24716276 0.72039676
000250 b0 fa 2c 3f 05 23 ac 3e 1d 71 85 be 8d ef 02 3f
       0.6757002 0.33620468 -0.2606286 0.51146775
000260 b4 42 17 3f 8d 92 c0 be c3 79 db 3e 42 13 20 3f
       0.59086156 -0.3761181 0.42866334 0.62529385
000270 dd ac 4c 3f 81 37 22 3f f9 49 d4 3e 33 48 24 3f
       0.7995127 0.6336594 0.41462687 0.6417267
000280 06 83 30 3f 27 5e a7 3e c6 a6 4a 3f a7 c7 1f bf
       0.68949926 0.3268902 0.79160726 -0.6241402
000290 61 b5 2b bf 2f c7 bd 3e cd e1 81 3e 33 94 09 3f
       -0.6707364 0.37066028 0.25367585 0.5374176
0002a0 ed ae dc 3e ec 4c ac 3e 39 a9 d2 be 90 98 aa bd
       0.43102208 0.33652437 -0.41144732 -0.0832988
0002b0 bf ac ba 3e 6e 9d d6 3e 2d 44 8d 3e fd 7e f0 3e
       0.3645992 0.41916984 0.27591076 0.46971884
0002c0 7d 58 bf 3e b9 f4 5b 3f 8a e4 77 3e 39 9c 4d 3f
       0.373722 0.8592029 0.24208274 0.803165
0002d0 80 5f b6 3e 86 7c 0e bf 3b f3 5a 3e bb 92 1c 3f
       0.35619736 -0.5565876 0.21381848 0.6116139
0002e0 1f 06 fc 3e a4 9f 26 3f 41 23 7a 3f 63 5d bb 3e
       0.4922342 0.6508734 0.97710043 0.36594686
0002f0 08 1e b1 3e fe 99 87 be a8 c0 69 be 81 c7 59 3f
       0.34593225 -0.26484674 -0.22827399 0.85070044
000300 9d f4 c0 be 48 bb c9 bd 63 84 50 3f 16 10 c8 be
       -0.37686625 -0.09850174 0.81452006 -0.39074773
000310 45 9f 05 bd f3 c4 1d bf f8 69 57 3f 12 b2 a2 be
       -0.032622594 -0.61628646 0.8414607 -0.31776482
000320 29 af 31 3f 78 f3 27 be 14 8c ea 3e 86 7b a0 3e
       0.694079 -0.1640147 0.45809996 0.3134424
000330 9f 6f 1f bf 84 73 18 bf c4 3c 06 bf a4 6e 92 3e
       -0.62279695 -0.5955126 -0.5243647 0.28600037
000340 b0 ff 11 bf 24 f9 38 3f b6 9c f6 be ce 5e f5 3e
       -0.57030773 0.7225516 -0.48166436 0.47923893
000350 a0 33 79 3e 56 aa 33 3f ef 68 e4 be 95 48 0f 3f
       0.243361 0.70181787 -0.44611308 0.55970126
000360 bd a5 d3 3e 3e dd ba be a4 9e 83 3e 95 e3 f3 3e
       0.41337386 -0.3649692 0.2570697 0.4763457
000370 c4 91 a4 3e dc a4 01 bf 88 9e 43 3f 36 9f 86 3e
       0.3214246 -0.5064218 0.76413774 0.26293343
000380 86 d8 a2 3e 30 23 46 3f ad f7 95 3e ea 7b 8a be
       0.3180582 0.7739744 0.29290524 -0.27047664
000390 4e 46 0a bf 37 5a 4c 3f 58 65 00 3f 5b ae 14 3f
       -0.54013526 0.79825157 0.5015464 0.58078545
0003a0 4a 20 c2 3e aa be 1d 3f 46 8d 99 3e dd ea d9 3e
       0.3791526 0.61619055 0.29990596 0.42562
0003b0 61 b0 0d bf a0 43 2d bf d9 e8 c2 3e 8a 60 01 bf
       -0.5534726 -0.6768131 0.38068274 -0.5053793
0003c0 96 ad 24 bf ad c5 8f 3e 72 c1 1a 3f 04 90 16 3f
       -0.6432737 0.28080502 0.60451424 0.588135
0003d0 13 55 14 bf 4b a4 8d 3e bc e4 9a 3f 63 6d ca 3e
       -0.5794231 0.27664408 1.2101054 0.3953658
0003e0 19 21 c8 3e c5 8f f8 3e 06 7a d2 3e 4e 02 2d bf
       0.39087752 0.48547187 0.41108721 -0.6758164
0003f0 0f 34 1b 3f 0e 43 94 3e c1 0b a0 3e 41 b7 9d be
       0.6062631 0.2895741 0.31258968 -0.30803874

linear3.weight f4 [3, 512]
000000 d6 50 e4 3c c3 17 87 bf d7 0f 01 bf d1 40 3b bf
       0.027870577 -1.0554127 -0.50414795 -0.73145777
000010 28 70 83 bf 8d 04 61 bf 16 2d 29 bf 12 c7 8b be
       -1.0268602 -0.8789757 -0.6608442 -0.27300316
000020 a9 dc 83 bf 84 96 82 be 38 b0 06 40 01 fc d2 be
       -1.0301715 -0.2550546 2.1045055 -0.4120789
000030 e3 8f 11 3d 33 3c 1d 3d 7c e8 53 bf dd 10 3b bf
       0.03553761 0.03838749 -0.8277662 -0.73072606
000040 0f c1 9a bc b0 76 c4 3b cf fe f8 be 74 08 2f bf
       -0.018890886 0.005995594 -0.48631904 -0.68372273
000050 80 24 36 3c a0 fd 36 bf 12 73 17 41 84 c3 b7 be
       0.011117101 -0.7148075 9.465593 -0.35891354
000060 b6 dd c3 be ee 7e 34 bd 8a 2f f4 3f a4 69 6c bf
       -0.3825509 -0.044066362 1.9077008 -0.92348695
000070 7b 83 c5 bc 87 39 3c bf 7a 63 d7 be d0 0b 64 be
       -0.024110546 -0.7352528 -0.42068082 -0.22270131
000080 ff b6 28 bf bd f9 0f bf 1a 3a 41 bf 93 c1 13 bf
       -0.6590423 -0.56240445 -0.7547928 -0.57717246
000090 ec 74 37 bf 06 e7 b5 be 40 ec bd be cf cc 3d bf
       -0.71662784 -0.3552782 -0.37094307 -0.7414064
0000a0 42 96 e4 bc ee 47 3c 40 bd f0 26 bf 73 95 1b 3d
       -0.02790368 2.9418902 -0.6521109 0.037984323
0000b0 dd 2b 37 bf 8f 0c 33 3d 4e 07 b5 bf 25 8f 8d be
       -0.71551305 0.04371315 -1.4142854 -0.27648273
0000c0 d2 7b 44 bf 6a b3 4c bf 49 f3 b8 bc 1b 5d 5a 40
       -0.76751435 -0.79961264 -0.022576945 3.4119327
0000d0 f0 0a 6d bb de 94 06 bd 01 9a cb 3f ba 41 f4 bf
       -0.003616985 -0.032856815 1.5906373 -1.9082558
0000e0 c9 00 25 bf 72 b7 46 bf b8 87 92 be 17 e5 92 be
       -0.64454323 -0.77623665 -0.2861917 -0.28690407
0000f0 7e a8 ce be 4a 60 24 bf b1 eb 21 bd 2e 67 a8 be
       -0.40362924 -0.64209425 -0.039531413 -0.3289122
000100 14 6d 34 bf 84 6f 03 bc f5 a2 d3 be a6 4f f3 3c
       -0.7047894 -0.008022193 -0.41335264 0.029701065
000110 1c 54 fd be 85 e1 ce be d3 36 1e bf df b5 0e 3d
       -0.49478233 -0.40406433 -0.61802405 0.034841415
000120 8a ae 23 bf 27 fd 19 bf 1f ca 2b bf a2 c9 fb 40
       -0.639382 -0.60151905 -0.6710529 7.8683634
000130 f3 25 dc 3f 50 68 66 3b 69 7f 40 bf 3f 97 17 bf
       1.7199081 0.003515739 -0.7519441 -0.5921516
000140 04 5b 85 be 28 26 9a 3b 33 6d 1c 3d 49 04 3e bf
       -0.26046002 0.0047042556 0.038190078 -0.7422529
000150 b3 29 07 3d 12 c9 22 bf 15 ea 30 3d d9 d5 fa 3f
       0.03299875 -0.6358806 0.043191988 1.9596511
000160 39 59 77 40 b4 af b2 be 51 1c 9c be d5 73 e1 be
       3.8648207 -0.34899676 -0.30490354 -0.44033685
000170 5b 15 32 bf 4d 69 af be b3 3c a6 bf 68 a6 68 3c
       -0.69563836 -0.34260026 -1.2987274 0.014199831
000180 db b0 c2 40 3c 22 a4 be 15 53 0f 3d 8f b4 0a 3d
       6.084089 -0.3205737 0.034991343 0.0338636
000190 42 06 35 bf fd 9a c2 be 0f 94 24 3d 52 d3 d9 3c
       -0.70712674 -0.38008872 0.040180262 0.026590023
0001a0 b7 8e 8a bf 46 14 41 bf 21 40 bd be 77 98 6e 3f
       -1.0824803 -0.7542156 -0.3696299 0.9320139
0001b0 e5 75 2e 3d 5d e9 e4 be 96 bd d7 be 41 2a 07 bf
       0.0425929 -0.44709292 -0.4213683 -0.5279885
0001c0 f1 9f 1e bd b8 60 43 bf b7 c0 af be 48 91 3f 3c
       -0.03872675 -0.76319456 -0.34326717 0.011692353
0001d0 8a 1c f2 bc 4d 3f ae be 69 98 5f bf e5 b8 9c 40
       -0.029554624 -0.3403267 -0.87341934 4.89757
0001e0 87 33 06 bd 03 ba 53 bf 20 89 27 bf 81 a6 0a bf
       -0.032763984 -0.82705706 -0.6544361 -0.54160315
0001f0 9a 81 64 bf da 87 09 bf 2c 0e ac be 0a 78 26 bf
       -0.89260256 -0.5372292 -0.33604562 -0.65026915
000200 8c 62 21 3c fb 12 b0 bf 50 ac 41 3b 95 33 0b 41
       0.009850156 -1.3755792 0.002955217 8.700093
000210 08 98 fc be 52 04 1e bf 3a f1 be 3c ca 02 a8 be
       -0.4933474 -0.6172534 0.023308385 -0.32814628
000220 11 1e 76 bf cb bc 30 bf 84 63 b6 be f6 87 15 bf
       -0.9613963 -0.69038075 -0.356228 -0.58410585
000230 a0 81 a5 ba 80 cc 62 ba f8 b6 fe 3b 04 68 af be
       -0.0012627132 -0.00086516887 0.0077732764 -0.34259045
000240 98 79 a8 bb 34 75 1e bf 4a 2e e8 3c f1 17 ed be
       -0.005141448 -0.6189759 0.028342385 -0.46307328
000250 89 5a 99 be 01 d3 21 bf 0a d3 c7 3c 6f 63 07 bf
       -0.29951885 -0.6321259 0.024392623 -0.528861
000260 e4 a0 92 be 55 64 9e 40 4a b8 c7 3f 5e 5a f7 be
       -0.28638375 4.9497476 1.5603116 -0.48311132
000270 76 30 89 be b8 55 06 3f 1b 82 3f bf c9 d4 93 be
       -0.26794785 0.52474546 -0.748079 -0.2887328
000280 7e 8a bc be 1e 3e 1c bf ce ba bd be c1 fe 0d 3d
       -0.3682441 -0.61032283 -0.37056583 0.03466678
000290 60 f6 64 3c 22 7d 47 bf 06 18 e3 be 11 96 18 bf
       0.013974756 -0.7792531 -0.44354266 -0.59603983
0002a0 9b ef 27 bf 90 20 2d bf 06 6f bd 3c 82 eb 14 bd
       -0.65599984 -0.6762781 0.02312423 -0.03635741
0002b0 1b 6e 43 bf b9 0c 36 bf 13 77 34 bf ae ce 0d bf
       -0.7633988 -0.71113163 -0.7049419 -0.55393493
0002c0 28 33 23 bf 44 61 b0 be fa 2c 77 bf 59 fd bc be
       -0.63749933 -0.34449208 -0.96553004 -0.3691204
0002d0 20 ad 94 bf 9c 04 2c bd 63 e7 5d bf cf 7f d1 be
       -1.1615334 -0.041996583 -0.86681193 -0.40917823
0002e0 72 4e 27 bf 81 e7 ca be 84 16 eb bf 59 0e 2c bf
       -0.65354073 -0.39629748 -1.8366246 -0.6720939
0002f0 0b 56 59 bf 5c 7f 44 bc c8 a8 16 bc e6 79 a1 be
       -0.84896916 -0.0119932555 -0.009195514 -0.31538314
000300 90 39 2d bb 1a b3 f9 bc 4c 6d a6 be 94 db 4e bc
       -0.0026432015 -0.03048091 -0.32505262 -0.012625594
000310 29 28 92 40 0b 10 1e 3d e2 3c 81 be 45 e3 02 3d
       4.5674024 0.03858952 -0.25241762 0.031955022
000320 8d 89 9b be 2e 0f c7 3c 20 13 28 bf cb ca 70 bf
       -0.3037838 0.02429923 -0.6565418 -0.9405944
000330 74 66 14 bd e0 3b 40 3b 14 1c 1d bc 00 6e 35 bf
       -0.03623052 0.0029332563 -0.009589214 -0.7087097
000340 1f 77 0b 3d 15 25 b6 be fb ec 2d 3d b1 c4 15 bf
       0.03404915 -0.35575166 0.04246233 -0.5850325
000350 b9 d2 78 bf 6a 03 b5 be 03 c7 e2 bc 64 42 0b bf
       -0.9719654 -0.35354167 -0.027682787 -0.5439818
000360 b1 76 2e bf 89 2e 0b 3d fc 2a 7a bf 33 13 2c bf
       -0.6814986 0.033979926 -0.9772184 -0.67216796
000370 91 92 4e bf 31 e3 07 3d c8 59 a8 be cd f2 3d bf
       -0.8069239 0.03317565 -0.32880998 -0.7419861
000380 b2 25 35 bf 83 1e 87 be 02 64 3e bf d8 fe 25 3c
       -0.70760643 -0.26390466 -0.7437135 0.01013156
000390 1e 83 10 bd 07 9e 8c be 0a 69 cb be 1f 98 29 3f
       -0.035281293 -0.27464315 -0.39728576 0.66247743
0003a0 3f 14 19 bf 27 bd ce be 05 da 49 bf 73 60 2e bf
       -0.5979652 -0.40378687 -0.78848296 -0.6811592
0003b0 e8 db 3e 3c bd 26 01 bd ef 17 3e bf 57 44 0d 3d
       0.011649109 -0.031531084 -0.7425527 0.034489002
0003c0 00 e1 33 bc 25 c6 06 bf de 10 0a 3f 96 64 d4 be
       -0.010978937 -0.52646095 0.5393199 -0.4148299
0003d0 42 33 82 3c ac 81 bf 3d d2 9d c4 40 e5 8d 3e bf
       0.015893582 0.09350905 6.144265 -0.74435264
0003e0 02 fd 30 bf 97 a6 28 bf 41 98 de be 22 a0 12 bd
       -0.6913606 -0.65879196 -0.43475536 -0.035797246
0003f0 ec da 03 3f 45 c0 65 bf 28 ea 2d bf 05 c9 ae 40
       0.51505923 -0.89746505 -0.6793542 5.4620385

linear3.bias f4 [3]
000000 95 0c 33 be 0b 2a 14 be bf 38 0c be
       -0.17485268 -0.14469163 -0.13693522
