env2 DQN/log/dqn/ckpt/258000.pth (torch, 14216 bytes, 4 tensors)

linear.weight f4 [512, 2]
0.16220331 -0.16827321 -0.26261178 -5.6689773 -0.120154105 -3.1582363 -0.46513462 -7.490657
-0.3370596 -7.220278 -0.30576184 -6.136078 -0.49407196 -5.698389 -0.3150993 -2.4969287
-0.2707323 -5.832336 -0.66578305 -2.3278682 -1.6166682 -13.801436 -0.44738376 -2.745099
-0.067224324 0.18619382 -0.033943713 -0.39594215 -0.5513744 -7.4425983 -0.7872763 -7.7527437
0.16641682 0.46537954 0.03483367 -0.3241305 -0.09512132 -3.2652469 -0.51227444 -7.5613422
-0.22203329 -0.65520495 0.02395191 -2.4199421 -0.7261115 11.151301 -0.032306943 -3.2943618
-0.30873087 -3.1500452 0.37731057 0.47499663 -1.6097765 5.511177 -0.35319066 -6.984558
-0.14369994 0.4113466 -0.28492808 -5.4162474 0.011226434 -3.9701722 -0.17401743 -2.1777134
0.17080298 -2.934718 -0.17924981 -4.081628 -0.39627466 -6.8569508 -0.9971106 -5.240905
-0.6949035 -6.564527 -0.431361 -3.124401 -0.34605572 -3.8581114 -0.51286626 -7.2215986
0.60114974 -0.08679706 -1.1378345 -15.319756 -0.10972473 -3.3674536 -0.06633222 0.3056895
-0.4697569 -5.840863 -0.06821197 -0.4965686 2.2939868 -1.0808105 0.01616842 -2.1814764
-0.46235535 -7.5715575 -0.48307088 -8.023814 -0.25839406 -0.113936484 -0.91740346 -15.574378
0.40114635 0.2241056 0.449336 0.5312001 -1.3156774 -12.169408 2.8291845 -3.308045
-0.6420734 -6.920843 -0.5921376 -7.3340187 -0.48614115 -2.5676355 -0.41720977 -3.044653
0.11769932 -2.4362037 -0.7696986 -6.6021852 0.46630138 -0.5068975 -0.5874229 -2.8573425
-1.0026655 -6.906936 -0.4792475 0.22033387 -0.68201274 -3.9799957 0.2740959 0.35767096
-0.1344151 -3.9435246 0.35215068 -3.2337255 -1.0782347 -6.308532 0.46184975 0.32564324
-0.37147462 -6.27979 -0.9267239 -5.3990383 0.21798998 -3.4233449 -1.9962333 -7.8958135
-2.082684 -10.989375 -0.23696771 -0.6039714 -0.5011816 -6.7989626 0.15378688 -2.7918408
-0.8804778 -2.5379436 0.05804211 -0.6909449 0.0335418 0.45392126 -0.45915538 -7.3876443
-0.3522925 -0.5575588 -0.6447929 -7.150529 0.45708364 -0.13139623 -1.1701522 -13.034727
-0.8596481 -16.157526 0.113297 -2.5523703 -0.8163695 -3.1921532 -0.10900863 -3.1329713
-0.6279386 -6.9946814 -0.64334196 -3.076953 2.5402834 -1.2477925 0.26711643 -0.60002285
0.34115037 11.486046 -0.6065848 -3.77774 0.20102453 -0.38328463 0.2870438 0.5407762
-0.69845873 -7.2436 -0.67541295 -3.9236712 -0.08109486 0.44041735 0.26465142 -0.22786802
-0.30509531 -6.668169 -0.7342342 -7.205066 -0.33674967 -3.507985 -1.8533239 -4.756299
0.104157746 -0.21995166 -0.19575465 -2.4080615 -0.34455404 -3.8123958 0.18737994 -1.9787722
-0.067489386 -0.3194029 -0.36551964 -6.197237 -0.031617176 -3.3532012 0.028221548 0.14503723
0.18692297 -0.04000479 -0.7837678 -3.4555624 -0.37400484 -7.4478507 -0.58387315 -16.515162
-0.33320108 0.2786312 -0.5574518 -7.7532396 0.16006547 -2.6237807 0.11513282 -1.7942424
-0.3937566 -7.9111323 -1.0339093 -6.4757857 -0.18414389 -3.6851158 -0.8451866 -5.9110928
00000000: a018 263e d04f 2cbe 0d75 86be 4368 b5c0
00000010: 5b13 f6bd 8b20 4ac0 2026 eebe 76b3 efc0
00000020: 1393 acbe 840c e7c0 d18c 9cbe c05a c4c0
00000030: 00f7 fcbe 3459 b6c0 b254 a1be aecd 1fc0
00000040: 6d9d 8abe 7fa2 bac0 c270 2abf cbfb 14c0
00000050: fcee cebf afd2 5cc1 7c0f e5be b4af 2fc0
00000060: e8ac 89bd 98a9 3e3e 9008 0bbd eeb8 cabe
00000070: df26 0dbf c429 eec0 f18a 49bf 7a16 f8c0
00000080: 2c69 2a3e 3a46 ee3e c0ad 0e3d 6ff4 a5be
00000090: f7ce c2bd cef9 50c0 6b24 03bf 84f6 f1c0
000000a0: b25c 63be 83bb 27bf cc36 c43c 55e0 1ac0
000000b0: 71e2 39bf bb6b 3241 4954 04bd d3d6 52c0
000000c0: f911 9ebe 579a 49c0 da2e c13e c232 f33e
000000d0: 280d cebf 905b b040 68d5 b4be 8081 dfc0
000000e0: 1426 13be 069c d23e 18e2 91be e651 adc0
000000f0: 14ef 373c 4d17 7ec0 a031 32be a85f 0bc0
00000100: fae6 2e3e 6bd2 3bc0 438d 37be b29c 82c0
00000110: 83e4 cabe 246c dbc0 a442 7fbf 7eb5 a7c0
00000120: 32e5 31bf 9b10 d2c0 59db dcbe 30f6 47c0
00000130: 372e b1be 4ceb 76c0 344b 03bf 5617 e7c0
00000140: f3e4 193f a8c2 b1bd 90a4 91bf b81d 75c1
00000150: 5cb7 e0bd 5c84 57c0 30d9 87bd 5683 9c3e
00000160: fa83 f0be 5ae8 bac0 b8b2 8bbd 3d3e febe
00000170: aed0 1240 0058 8abf a273 843c 4f9d 0bc0
00000180: d7b9 ecbe 334a f2c0 1155 f7be 8b61 00c1
00000190: 3a4c 84be 8857 e9bd f4da 6abf a730 79c1
000001a0: 0e63 cd3e f07b 653e 5e0f e63e bbfc 073f
000001b0: 1e68 a8bf e5b5 42c1 5c11 3540 02b7 53c0
000001c0: ec5e 24bf 8c77 ddc0 5496 17bf 48b0 eac0
000001d0: 7ee7 f8be 2454 24c0 859c d5be 98db 42c0
000001e0: 570c f13d c3ea 1bc0 f80a 45bf 1a45 d3c0
000001f0: 0ebf ee3e 09c4 01bf 5961 16bf b3de 36c0
00000200: 5857 80bf 9f05 ddc0 ee5f f5be 349f 613e
00000210: 6398 2ebf 40b8 7ec0 4c56 8c3e a620 b73e
00000220: 1da4 09be b562 7cc0 184d b43e 5cf5 4ec0
00000230: 9803 8abf 7fdf c9c0 9277 ec3e b6ba a63e
00000240: ec31 bebe 0af4 c8c0 c73d 6dbf ecc4 acc0
00000250: c438 5f3e 1518 5bc0 9384 ffbf 81aa fcc0
00000260: b24a 05c0 7bd4 2fc1 aaa7 72be df9d 1abf
00000270: 704d 00bf 1a91 d9c0 4f7a 1d3e 85ad 32c0
00000280: fe66 61bf ab6d 22c0 90bd 6d3d c4e1 30bf
00000290: 2063 093d 5e68 e83e 6a16 ebbe 9567 ecc0
000002a0: af5f b4be 2cbc 0ebf 2611 25bf 22d1 e4c0
000002b0: de06 ea3e bc8c 06be 8cc7 95bf 3e8e 50c1
000002c0: e611 5cbf 9d42 81c1 4208 e83d 095a 23c0
000002d0: 97fd 50bf 3d4c 4cc0 eb3f dfbd 9a82 48c0
000002e0: 96c0 20bf 6ed4 dfc0 0fb2 24bf ccec 44c0
000002f0: 0194 2240 aab7 9fbf 7cc3 883e 199b 19bf
00000300: 43ab ae3e d8c6 3741 2449 1bbf 7ec6 71c0
00000310: 60d9 4d3e e23d c4be 68f7 923e 4f70 0a3f
00000320: 31ce 32bf 92cb e7c0 dde7 2cbf 6e1d 7bc0
00000330: 1015 a6bd 627e e13e 6480 873e 3c56 69be
00000340: 7435 9cbe a461 d5c0 c6f6 3bbf e78f e6c0
00000350: 746a acbe d482 60c0 b839 edbf 9a33 98c0
00000360: a850 d53d 023b 61be e873 48be ae1d 1ac0
00000370: 6369 b0be 4bfe 73c0 87e0 3f3e 6848 fdbf
00000380: e037 8abd c788 a3be 6425 bbbe c44f c6c0
00000390: 0381 01bd d99a 56c0 e030 e73c a484 143e
000003a0: bc68 3f3e 10dc 23bd 02a5 48bf ef27 5dc0
000003b0: 907d bfbe cb54 eec0 b678 15bf 0d1f 84c1
000003c0: 5599 aabe c0a8 8e3e 29b5 0ebf 8a1a f8c0
000003d0: 34e8 233e 06ec 27c0 c2ca eb3d bca9 e5bf
000003e0: 779a c9be ff27 fdc0 2457 84bf a339 cfc0
000003f0: 3790 3cbe f0d8 6bc0 265e 58bf ac27 bdc0

linear.bias f4 [512]
-0.08883327 0.21992645 0.41120157 0.32626644 0.2755791 0.24391204 0.30530253 0.80232424
0.22673492 0.73183274 0.50167656 0.44085088 -0.26192716 -0.57071584 0.35782617 0.45441598
-0.35503486 -0.30494314 0.51196766 0.34596255 -0.5317903 0.26986885 -1.1427078 0.6679388
0.6133311 -0.38812736 0.5925204 0.2772816 -0.7007002 0.22204037 0.69655704 0.82934237
0.4287241 0.45072767 0.28845719 0.504891 0.396107 0.59398586 0.67359275 0.33934298
-0.68915397 0.39741227 0.3625034 -0.4183643 0.29979748 -0.37033466 0.40723503 0.82618773
0.32635745 0.34227386 -0.41619626 0.33877152 -0.42776066 -0.56788975 0.41291448 -0.19795899
0.38246542 0.37183136 0.746793 0.76546824 0.61643136 0.42587674 -0.35267243 0.6284746
0.5291122 -0.6692872 0.66681725 -0.578352 0.53250223 0.74442184 0.5523413 -0.623435
0.2683336 0.47448444 0.4786164 -1.1200665 0.5437039 -0.32272238 0.32738385 0.43403134
0.8599053 -0.17869782 -0.22989681 0.32196516 -0.61723846 0.38749316 -0.35274062 0.37906754
0.31848586 0.78881973 0.8217584 0.5098328 0.37966365 0.7553744 0.45796186 -0.27866197
-0.1351502 0.8011063 -0.5545656 -0.68310964 0.41170198 0.72459185 -0.59512156 -0.45612633
0.25069356 0.42431763 0.632233 0.535638 -0.34290472 0.33249062 0.6884925 0.3991551
-0.12229735 0.26501465 0.8513932 -0.4906844 -0.566022 0.8040093 0.2925745 0.22408561
-0.6797293 0.36610135 0.37756118 0.3115311 0.30962446 0.5341316 0.8663935 0.44861367
-0.29339442 0.3301368 -0.57390106 -0.9958242 0.6115683 0.5042019 -0.5377266 0.7048448
0.27804 0.36027524 0.6420908 0.3326275 -0.34606498 -0.6653655 -0.51464105 0.7773939
-0.36447918 0.45421684 -0.24716276 0.7306511 0.6823131 0.34285375 -0.2606286 0.52024144
0.60190195 -0.41846985 0.47389117 0.63488364 0.8123314 0.56219816 0.42221388 0.64847326
0.6985295 0.3362971 0.79906183 -0.6241402 -0.6707364 0.3799365 0.2542009 0.54679376
0.44041133 0.34652764 -0.41144732 -0.0832988 0.3736526 0.42826656 0.27643946 0.4788772
0.37799487 0.8666355 0.2566114 0.8139646 0.29056945 -0.5565876 0.22581363 0.62278754
0.5007805 0.6640156 0.9896973 0.37357116 0.3489195 -0.26484674 -0.22827399 0.85910296
-0.37686625 -0.09850174 0.8218736 -0.39074773 -0.0064899814 -0.61628646 0.84359276 -0.31776482
0.7032235 -0.1640147 0.46674344 0.32650998 -0.62279695 -0.5955126 -0.5243647 0.29465884
-0.57030773 0.7311292 -0.48166436 0.48903373 0.2575226 0.7110673 -0.44611308 0.5634176
0.42231354 -0.3649692 0.27121902 0.48445618 0.32450575 -0.5064218 0.77483004 0.2713302
0.31956655 0.77846295 0.30055538 -0.27047664 -0.54013526 0.80707747 0.51062375 0.5644
0.38856432 0.6259501 0.30032706 0.4335549 -0.5534726 -0.6768131 0.39004597 -0.5053793
-0.6432737 0.28113103 0.5882951 0.59327835 -0.5794231 0.2511944 1.2555748 0.40282497
0.39911732 0.49708366 0.4144265 -0.6758164 0.537021 0.29853246 0.31696162 -0.34441185
00000000: 38ee b5bd 6634 613e 0389 d23e 650c a73e
00000010: b418 8d3e 14c4 793e 9d50 9c3e 1f65 4d3f
00000020: 332d 683e 6459 3b3f e06d 003f 35b7 e13e
00000030: 511b 86be 6f1a 12bf fe34 b73e 36a9 e83e
00000040: 21c7 b5be 8221 9cbe 5010 033f 0122 b13e
00000050: 6923 08bf 402c 8a3e 4044 92bf 0afe 2a3f
00000060: 4403 1d3f a1b8 c6be 6baf 173f dbf7 8d3e
00000070: 1761 33bf 8d5e 633e 9051 323f c84f 543f
00000080: ba81 db3e c7c5 e63e a9b0 933e 8940 013f
00000090: 89ce ca3e 750f 183f 9370 2c3f 5dbe ad3e
000000a0: 656c 30bf 9f79 cb3e 0c9a b93e d833 d6be
000000b0: 0e7f 993e 819c bdbe 1c81 d03e 0a81 533f
000000c0: 5318 a73e 853e af3e ad17 d5be 7673 ad3e
000000d0: 7203 dbbe 3961 11bf 8769 d33e c3b5 4abe
000000e0: 82d2 c33e ae60 be3e d32d 3f3f baf5 433f
000000f0: 72ce 1d3f 840c da3e 7b91 b4be b6e3 203f
00000100: e673 073f 6856 2bbf 89b4 2a3f e00e 14bf
00000110: 1152 083f 6e92 3e3f 3d66 0d3f 7099 1fbf
00000120: 0663 893e a0ef f23e 350d f53e 575e 8fbf
00000130: 2e30 0b3f de3b a5be db9e a73e 5b39 de3e
00000140: c122 5c3f 90fc 36be 126a 6bbe 9ed8 a43e
00000150: 5703 1ebf 8165 c63e 6b9a b4be 2415 c23e
00000160: 9410 a33e 17f0 493f c25e 523f 6784 023f
00000170: 4663 c23e 3760 413f fa79 ea3e c8ac 8ebe
00000180: d064 0abe 4d15 4d3f 03f8 0dbf 46e0 2ebf
00000190: 9aca d23e da7e 393f e359 18bf 6489 e9be
000001a0: e85a 803e 2940 d93e 06da 213f 921f 093f
000001b0: 3591 afbe 363c aa3e 0b41 303f 0f5e cc3e
000001c0: 0877 fabd 00b0 873e e8f4 593f fc3a fbbe
000001d0: d1e6 10bf 8ed3 4d3f 53cc 953e b376 653e
000001e0: bd02 2ebf a371 bb3e b34f c13e 0181 9f3e
000001f0: 1987 9e3e d9bc 083f f7cb 5d3f b1b0 e53e
00000200: cb37 96be b107 a93e 2eeb 12bf 56ee 7ebf
00000210: bd8f 1c3f 6013 013f 73a8 09bf b570 343f
00000220: 425b 8e3e ff75 b83e 1060 243f 274e aa3e
00000230: 6e2f b1be 6555 2abf 84bf 03bf 4903 473f
00000240: 049d babe 1c8f e83e 3c18 7dbe f30b 3b3f
00000250: 12ac 2e3f 878a af3e 1d71 85be 8b2e 053f
00000260: 3f16 1a3f ae41 d6be dda1 f23e bc87 223f
00000270: f3f4 4f3f 38ec 0f3f 6b2c d83e 5802 263f
00000280: d4d2 323f 222f ac3e 518f 4c3f a7c7 1fbf
00000290: 61b5 2bbf 0987 c23e 9f26 823e adfa 0b3f
000002a0: 987d e13e 126c b13e 39a9 d2be 9098 aabd
000002b0: 654f bf3e c145 db3e 7989 8d3e 642f f53e
000002c0: 8b88 c13e d3db 5d3f 9262 833e fc5f 503f
000002d0: 85c5 943e 867c 0ebf b03b 673e 016f 1f3f
000002e0: 2733 003f edfc 293f cd5c 7d3f b844 bf3e
000002f0: 94a5 b23e fe99 87be a8c0 69be 2cee 5b3f
00000300: 9df4 c0be 48bb c9bd 4f66 523f 1610 c8be
00000310: e9a9 d4bb f3c4 1dbf b2f5 573f 12b2 a2be
00000320: 7506 343f 78f3 27be fff8 ee3e 512c a73e
00000330: 9f6f 1fbf 8473 18bf c43c 06bf 86dd 963e
00000340: b0ff 11bf 492b 3b3f b69c f6be a162 fa3e
00000350: 01da 833e 8208 363f ef68 e4be 233c 103f
00000360: 7b39 d83e 3edd babe 38dd 8a3e a40a f83e
00000370: 9e25 a63e dca4 01bf 435b 463f cbeb 8a3e
00000380: 3a9e a33e 5949 473f 65e2 993e ea7b 8abe
00000390: 4e46 0abf a19c 4e3f 3db8 023f 857c 103f
000003a0: e7f1 c63e 443e 203f 78c4 993e e8fa dd3e
000003b0: 61b0 0dbf a043 2dbf 1bb4 c73e 8a60 01bf
000003c0: 96ad 24bf 68f0 8f3e 829a 163f 17e1 173f
000003d0: 1355 14bf 8d9c 803e adb6 a03f 133f ce3e
000003e0: 1b59 cc3e c081 fe3e b62f d43e 4e02 2dbf
000003f0: 357a 093f 3fd9 983e cb48 a23e c056 b0be

linear3.weight f4 [3, 512]
0.027870577 -1.1195079 -0.50058216 -0.78599393 -1.0876638 -0.94197065 -0.7084747 -0.26195273
-1.0942632 -0.23848991 2.1530201 -0.39775 0.03553761 0.03838749 -0.8780123 -0.7722093
-0.018890886 0.005995594 -0.48270652 -0.73581916 0.011117101 -0.7198229 9.061986 -0.35595867
-0.3727506 -0.044066362 1.9528321 -0.98472166 -0.024110546 -0.7978167 -0.42012933 -0.21360934
-0.66811776 -0.55888176 -0.8116817 -0.6016749 -0.7577643 -0.3429434 -0.3618062 -0.7931419
-0.02790368 3.0037787 -0.6500329 0.037984323 -0.766134 0.04371315 -1.4493678 -0.2709501
-0.82231015 -0.85439783 -0.022576945 3.485167 -0.003616985 -0.032856815 1.6407077 -1.9428879
-0.6887261 -0.824023 -0.27250186 -0.27524036 -0.40324605 -0.6803595 -0.039531413 -0.31365174
-0.73712474 -0.008022193 -0.39896172 0.029701065 -0.49166015 -0.41046494 -0.6453169 0.034841415
-0.696173 -0.62899035 -0.6822087 7.8961973 1.755487 0.003515739 -0.8031867 -0.5997427
-0.24272199 0.0047042556 0.038190078 -0.7964741 0.03299875 -0.68059975 0.043191988 2.0148087
3.9424891 -0.34667757 -0.2884853 -0.43611237 -0.74118215 -0.32765204 -1.333712 0.014199831
6.483656 -0.3074088 0.034991343 0.0338636 -0.7502646 -0.36590332 0.040180262 0.026590023
-1.1427026 -0.79602885 -0.35999697 0.9542249 0.0425929 -0.43824342 -0.41215116 -0.53474087
-0.03872675 -0.8204129 -0.33898696 0.011692353 -0.029554624 -0.3245714 -0.93384993 4.994539
-0.032763984 -0.8782189 -0.6641741 -0.54689527 -0.95269 -0.566722 -0.32932025 -0.6833347
0.009850156 -1.3922774 0.002955217 8.263438 -0.51174957 -0.65242594 0.023308385 -0.32117376
-1.0226243 -0.73503566 -0.34712136 -0.6271112 -0.0012627132 -0.00086516887 0.0077732764 -0.33552495
-0.005141448 -0.6543849 0.028342385 -0.4700241 -0.29545814 -0.6805336 0.024392623 -0.5307989
-0.27183798 5.266566 1.5930841 -0.48366153 -0.25061733 0.5497885 -0.79270154 -0.28165048
-0.3537065 -0.6051653 -0.3631482 0.03466678 0.013974756 -0.8260398 -0.44721708 -0.6254271
-0.66208684 -0.67772466 0.02312423 -0.03635741 -0.76923966 -0.7524384 -0.7581976 -0.58576745
-0.6752842 -0.34504035 -1.0281277 -0.37101984 -1.1786721 -0.041996583 -0.93058753 -0.40195748
-0.6862132 -0.38097838 -1.8801848 -0.71470606 -0.90188193 -0.0119932555 -0.009195514 -0.29787263
-0.0026432015 -0.03048091 -0.31208146 -0.012625594 4.8495817 0.03858952 -0.24296217 0.031955022
-0.28787777 0.02429923 -0.68927133 -0.99934363 -0.03623052 0.0029332563 -0.009589214 -0.76666576
0.03404915 -0.3374609 0.04246233 -0.59138197 -1.0337871 -0.35008228 -0.027682787 -0.5642349
-0.6853952 0.033979926 -1.0384591 -0.71028215 -0.86093366 0.03317565 -0.30986086 -0.7478458
-0.7622286 -0.25128266 -0.80099565 0.01013156 -0.035281293 -0.25780386 -0.38581303 0.6806779
-0.5935324 -0.39358938 -0.84160566 -0.71836704 0.011649109 -0.031531084 -0.7887163 0.034489002
-0.010978937 -0.5305671 0.56063384 -0.41655818 0.015893582 0.12472879 6.1058946 -0.78978634
-0.73716056 -0.6937112 -0.42982122 -0.035797246 0.5426765 -0.95639515 -0.7244372 5.799235
00000000: d650 e43c 094c 8fbf 2726 00bf e636 49bf
00000010: 9138 8bbf fd24 71bf 995e 35bf ab1e 86be
00000020: d110 8cbf b336 74be 15cb 0940 e3a5 cbbe
00000030: e38f 113d 333c 1d3d 6ac5 60bf 82af 45bf
00000040: 0fc1 9abc b076 c43b 4f25 f7be a55e 3cbf
00000050: 8024 363c 5046 38bf e5fd 1041 3740 b6be
00000060: 2bd9 bebe ee7e 34bd 67f6 f93f b816 7cbf
00000070: 7b83 c5bc b73d 4cbf 311b d7be 68bc 5abe
00000080: c409 2bbf e012 0fbf 5fca 4fbf 5e07 1abf
00000090: d7fc 41bf 4796 afbe aa3e b9be 590b 4bbf
000000a0: 4296 e4bc e93d 4040 8e68 26bf 7395 1b3d
000000b0: 5c21 44bf 8f0c 333d e284 b9bf f9b9 8abe
000000c0: eb82 52bf d1b9 5abf 49f3 b8bc fa0c 5f40
000000d0: f00a 6dbb de94 06bd b602 d23f 8db0 f8bf
000000e0: 5b50 30bf 2cf3 52bf 5d85 8bbe 4eec 8cbe
000000f0: 4476 cebe 0a2c 2ebf b1eb 21bd f696 a0be
00000100: 35b4 3cbf 846f 03bc b644 ccbe a64f f33c
00000110: e1ba fbbe 7628 d2be 7d33 25bf dfb5 0e3d
00000120: 6538 32bf 8305 21bf 3ba5 2ebf a6ad fc40
00000130: ccb3 e03f 5068 663b a59d 4dbf bd88 19bf
00000140: 1d8c 78be 2826 9a3b 336d 1c3d bae5 4bbf
00000150: b329 073d c93b 2ebf 15ea 303d a0f2 0040
00000160: be51 7c40 b97f b1be 58b4 93be 1f4a dfbe
00000170: 1dbe 3dbf 02c2 a7be 13b7 aabf 68a6 683c
00000180: 1c7a cf40 b064 9dbe 1553 0f3d 8fb4 0a3d
00000190: 5711 40bf ae57 bbbe 0f94 243d 52d3 d93c
000001a0: 1444 92bf 8cc8 4bbf 8651 b8be 1548 743f
000001b0: e575 2e3d 7161 e0be 7a05 d3be c7e4 08bf
000001c0: f19f 1ebd 9406 52bf b38f adbe 4891 3f3c
000001d0: 8a1c f2bc 392e a6be ca10 6fbf 43d3 9f40
000001e0: 8733 06bd f4d2 60bf 5007 2abf 5401 0cbf
000001f0: 7ee3 73bf b114 11bf aa9c a8be 06ef 2ebf
00000200: 8c62 213c 2536 b2bf 50ac 413b 0b37 0441
00000210: 0502 03bf 6305 27bf 3af1 be3c e370 a4be
00000220: 5ae5 82bf 4c2b 3cbf e4b9 b1be 5c8a 20bf
00000230: a081 a5ba 80cc 62ba f8b6 fe3b edc9 abbe
00000240: 9879 a8bb c585 27bf 4a2e e83c 00a7 f0be
00000250: 4a46 97be 7337 2ebf 0ad3 c73c 70e2 07bf
00000260: 592e 8bbe b587 a840 2eea cb3f 7ca2 f7be
00000270: ea50 80be f0be 0c3f 7dee 4abf 7e34 90be
00000280: 0519 b5be 1dec 1abf 90ee b9be c1fe 0d3d
00000290: 60f6 643c 5877 53bf a3f9 e4be fe1b 20bf
000002a0: 867e 29bf 5d7f 2dbf 066f bd3c 82eb 14bd
000002b0: e4ec 44bf ce9f 40bf 3d19 42bf dbf4 15bf
000002c0: 6ddf 2cbf 21a9 b0be b099 83bf 50f6 bdbe
000002d0: bade 96bf 9c04 2cbd fc3a 6ebf 5fcd cdbe
000002e0: abab 2fbf 990f c3be e5a9 f0bf faf6 36bf
000002f0: bce1 66bf 5c7f 44bc c8a8 16bc c382 98be
00000300: 9039 2dbb 1ab3 f9bc 24c9 9fbe 94db 4ebc
00000310: c62f 9b40 0b10 1e3d 13cb 78be 45e3 023d
00000320: b764 93be 2e0f c73c 1674 30bf fcd4 7fbf
00000330: 7466 14bd e03b 403b 141c 1dbc 3544 44bf
00000340: 1f77 0b3d adc7 acbe fbec 2d3d cf64 17bf
00000350: 2353 84bf fc3d b3be 03c7 e2bc b371 10bf
00000360: 0f76 2fbf 892e 0b3d 3aec 84bf 0dd5 35bf
00000370: 2666 5cbf 31e3 073d 15a6 9ebe d372 3fbf
00000380: 6a21 43bf 1fa8 80be 0d0e 4dbf d8fe 253c
00000390: 1e83 10bd defe 83be 4989 c5be e840 2e3f
000003a0: bdf1 17bf 8c84 c9be 7873 57bf e7e6 37bf
000003b0: e8db 3e3c bd26 01bd 50e9 49bf 5744 0d3d
000003c0: 00e1 33bc 3fd3 07bf b385 0f3f 1d47 d5be
000003d0: 4233 823c cf71 ff3d 7d63 c340 702f 4abf
000003e0: 8eb6 3cbf 0f97 31bf 8711 dcbe 22a0 12bd
000003f0: d9ec 0a3f 50d6 74bf b774 39bf 5593 b940

linear3.bias f4 [3]
-0.1650221 -0.147739 -0.16565526
00000000: 8efb 28be e448 17be 88a1 29be
