env2 DQN/log/dqn/ckpt/260000.pth (torch, 14216 bytes, 4 tensors)

linear.weight f4 [512, 2]
000000 a0 18 26 3e d0 4f 2c be ff 46 84 be c5 e7 b5 c0
       0.16220331 -0.16827321 -0.25835416 -5.684542
000010 11 3e fb bd 98 3b 48 c0 2b d8 ec be 30 89 f0 c0
       -0.122676976 -3.1286373 -0.46258673 -7.5167465
000020 40 f3 a9 be 00 a1 e7 c0 c8 27 9a be 3e fb c4 c0
       -0.33193398 -7.2384033 -0.30108476 -6.155669
000030 22 de fe be 5c b2 b6 c0 14 a6 a2 be 26 46 1e c0
       -0.4977885 -5.7092724 -0.31767333 -2.4730315
000040 5a 55 88 be b2 21 bb c0 1a 16 2b bf 6b 35 13 c0
       -0.26627618 -5.847863 -0.668306 -2.3001354
000050 96 49 ce bf 6c ae 5d c1 a5 53 e6 be da f5 2d c0
       -1.6116207 -13.855083 -0.4498569 -2.7181306
000060 e8 ac 89 bd 98 a9 3e 3e 90 08 0b bd ee b8 ca be
       -0.067224324 0.18619382 -0.033943713 -0.39594215
000070 f0 51 0d bf 65 c6 ee c0 16 e3 4a bf 4f 74 f8 c0
       -0.5520315 -7.461718 -0.79252756 -7.764198
000080 2c 69 2a 3e 3a 46 ee 3e c0 ad 0e 3d 6f f4 a5 be
       0.16641682 0.46537954 0.03483367 -0.3241305
000090 fe 19 c8 bd b0 5b 4f c0 43 3f 02 bf 7e e6 f2 c0
       -0.097705826 -3.2399712 -0.5087778 -7.5906363
0000a0 b2 5c 63 be 83 bb 27 bf 73 59 ae 3c 20 29 19 c0
       -0.22203329 -0.65520495 0.021282887 -2.393135
0000b0 71 e2 39 bf bb 6b 32 41 9f 8e 0e bd 9d 03 51 c0
       -0.7261115 11.151301 -0.034803983 -3.2658455
0000c0 35 5a 9f be 60 c1 47 c0 da 2e c1 3e c2 32 f3 3e
       -0.3112351 -3.1211777 0.37731057 0.47499663
0000d0 76 b1 cd bf a0 4e af 40 58 72 b2 be c2 23 e0 c0
       -1.6069782 5.478348 -0.34852862 -7.004365
0000e0 14 26 13 be 06 9c d2 3e 05 96 8f be 28 08 ae c0
       -0.14369994 0.4113466 -0.28044143 -5.4384956
0000f0 8c 71 0f 3c eb 3a 7c c0 67 dd 34 be 85 b3 09 c0
       0.008755099 -3.941096 -0.17662583 -2.151582
000100 b7 1e 2c 3e ba 37 3a c0 17 0e 3a be af a1 81 c0
       0.16808592 -2.9096513 -0.18169437 -4.050987
000110 1e 6e c9 be c1 20 dc c0 15 40 80 bf ac 91 a7 c0
       -0.39341825 -6.8789983 -1.0019556 -5.236532
000120 77 0f 33 bf df 61 d2 c0 81 1f de be 42 15 46 c0
       -0.6994547 -6.574447 -0.4338341 -3.0950475
000130 23 73 b2 be 3d 02 75 c0 db be 02 bf 35 e4 e7 c0
       -0.34853467 -3.8282616 -0.5107247 -7.2466073
000140 f3 e4 19 3f a8 c2 b1 bd 7a 5f 92 bf f2 91 75 c1
       0.60114974 -0.08679706 -1.1435387 -15.348131
000150 8d 02 e6 bd 26 d1 55 c0 30 d9 87 bd 56 83 9c 3e
       -0.11230955 -3.3408904 -0.06633222 0.3056895
000160 27 fa f1 be f0 32 bb c0 b8 b2 8b bd 3d 3e fe be
       -0.47261164 -5.849968 -0.06821197 -0.4965686
000170 00 99 14 40 b1 ea 77 bf 53 8f 5c 3c 09 2e 0a c0
       2.3218384 -0.96842486 0.0134619055 -2.1590598
000180 9f b1 ea be f2 23 f3 c0 3e 83 f5 be 62 c5 00 c1
       -0.4583864 -7.598138 -0.47951692 -8.048189
000190 3a 4c 84 be 88 57 e9 bd f9 6b 6b bf e2 fe 79 c1
       -0.25839406 -0.113936484 -0.9196163 -15.624727
0001a0 0e 63 cd 3e f0 7b 65 3e 5e 0f e6 3e bb fc 07 3f
       0.40114635 0.2241056 0.449336 0.5312001
0001b0 17 0d a8 bf c2 68 43 c1 6e 64 36 40 6e 95 54 c0
       -1.3128995 -12.213076 2.8498797 -3.3216205
0001c0 cb 88 25 bf b1 dd dd c0 fe 72 18 bf 49 17 eb c0
       -0.64661855 -6.933312 -0.59550464 -7.3465924
0001d0 a5 2b fa be 24 90 22 c0 1a d7 d6 be 4d df 40 c0
       -0.48861423 -2.5400476 -0.41960984 -3.0136292
0001e0 7b 80 eb 3d 2c 80 1a c0 24 6f 46 bf 7d 99 d3 c0
       0.11499115 -2.414073 -0.7751334 -6.6124864
0001f0 0e bf ee 3e 09 c4 01 bf f8 fe 16 bf d0 0e 35 c0
       0.46630138 -0.5068975 -0.589828 -2.829029
000200 09 e9 80 bf ac 0e dd c0 ee 5f f5 be 34 9f 61 3e
       -1.0071117 -6.908041 -0.4792475 0.22033387
000210 cc 35 2f bf 68 b2 7c c0 4c 56 8c 3e a6 20 b7 3e
       -0.6844146 -3.948389 0.2740959 0.35767096
000220 db 2c 0c be 54 76 7a c0 a1 f3 b2 3e 5a 45 4d c0
       -0.13688986 -3.9134722 0.349515 -3.207358
000230 c9 72 8a bf c1 bd c9 c0 92 77 ec 3e b6 ba a6 3e
       -1.081628 -6.3044133 0.46184975 0.32564324
000240 3b 5a bc be e7 ba c9 c0 2b 1c 6e bf 03 a3 ac c0
       -0.3678759 -6.304065 -0.9301173 -5.394899
000250 fc 75 5c 3e e7 67 59 c0 10 b3 ff bf e9 20 ff c0
       0.21529382 -3.3969667 -1.997652 -7.9727674
000260 22 59 04 c0 90 58 31 c1 aa a7 72 be df 9d 1a bf
       -2.0679402 -11.084122 -0.23696771 -0.6039714
000270 8b 78 00 bf d9 24 da c0 76 b8 1a 3e 7d e8 30 c0
       -0.50183934 -6.816998 0.15109429 -2.76419
000280 ad 0a 62 bf 50 a2 20 c0 90 bd 6d 3d c4 e1 30 bf
       -0.8829754 -2.5099068 0.05804211 -0.6909449
000290 20 63 09 3d 5e 68 e8 3e 71 da e9 be c5 3d ed c0
       0.0335418 0.45392126 -0.4567447 -7.41379
0002a0 af 5f b4 be 2c bc 0e bf 69 28 26 bf 52 38 e5 c0
       -0.3522925 -0.5575588 -0.6490541 -7.163125
0002b0 de 06 ea 3e bc 8c 06 be 15 58 95 bf 0e 47 51 c1
       0.45708364 -0.13139623 -1.1667506 -13.079847
0002c0 91 18 5c bf e1 b2 81 c1 4e 95 e2 3d c6 d8 21 c0
       -0.85974985 -16.212343 0.11063634 -2.5288558
0002d0 78 a1 51 bf f6 68 4a c0 b4 64 e4 bd 87 af 46 c0
       -0.81887007 -3.1626563 -0.1115202 -3.1044633
0002e0 1f e6 21 bf c9 2f e0 c0 ae 4f 25 bf c2 0f 43 c0
       -0.6324176 -7.005833 -0.64574707 -3.0478368
0002f0 c6 52 24 40 28 06 91 bf 7c c3 88 3e 19 9b 19 bf
       2.567552 -1.1330004 0.26711643 -0.60002285
000300 38 b2 aa 3e 5c 28 38 41 95 e4 1b bf 64 be 6f c0
       0.33339095 11.509853 -0.60895663 -3.7459955
000310 60 d9 4d 3e e2 3d c4 be 68 f7 92 3e 4f 70 0a 3f
       0.20102453 -0.38328463 0.2870438 0.5407762
000320 70 11 34 bf 0e 1a e8 c0 53 85 2d bf 19 31 79 c0
       -0.7033911 -7.2531805 -0.6778156 -3.8936217
000330 10 15 a6 bd 62 7e e1 3e 64 80 87 3e 3c 56 69 be
       -0.08109486 0.44041735 0.26465142 -0.22786802
000340 cc b7 98 be 7a 0a d6 c0 a2 3f 3d bf e9 ec e6 c0
       -0.29827726 -6.688779 -0.7392522 -7.2164197
000350 48 b3 ad be a9 9d 5e c0 04 9f eb bf 6b 87 9a c0
       -0.33925843 -3.4783728 -1.8407903 -4.8290305
000360 a8 50 d5 3d 02 3b 61 be b6 21 4b be 23 77 18 c0
       0.104157746 -0.21995166 -0.19837078 -2.3822715
000370 ba a6 b1 be c0 25 72 c0 71 f8 3c 3e dc a3 fa bf
       -0.34697515 -3.783554 0.18454148 -1.9581256
000380 e0 37 8a bd c7 88 a3 be bb 2d b9 be bf 15 c7 c0
       -0.067489386 -0.3194029 -0.36167702 -6.2214046
000390 b3 1a 0c bd 46 e6 54 c0 e0 30 e7 3c a4 84 14 3e
       -0.03420515 -3.3265548 0.028221548 0.14503723
0003a0 bc 68 3f 3e 10 dc 23 bd 2f 40 49 bf cf 23 5b c0
       0.18692297 -0.04000479 -0.7861356 -3.4240606
0003b0 60 1c bd be f8 ed ee c0 3b 03 13 bf ba af 84 c1
       -0.3693571 -7.466549 -0.57426804 -16.585804
0003c0 55 99 aa be c0 a8 8e 3e 16 58 0e bf e0 ce f8 c0
       -0.33320108 0.2786312 -0.5560316 -7.7752533
0003d0 cf 16 21 3e 86 58 26 c0 10 fd e5 3d 5c 7f e3 bf
       0.15731357 -2.599153 0.112299085 -1.7773242
0003e0 b8 15 c7 be a5 db fd c0 e9 f3 84 bf ef 47 cf c0
       -0.38883758 -7.933062 -1.0386935 -6.477531
0003f0 ca 26 3f be d0 24 6a c0 46 95 59 bf af 33 bd c0
       -0.1866714 -3.6584969 -0.849934 -5.912559

linear.bias f4 [512]
000000 38 ee b5 bd 3e a6 66 3e 40 aa d3 3e 3d 4c a5 3e
       -0.08883327 0.22524354 0.41340828 0.32284728
000010 93 cd 8f 3e 9d b9 7c 3e 4d fa 9a 3e a1 ae 4d 3f
       0.28086528 0.24680181 0.3026909 0.8034459
000020 34 a1 6d 3e da d8 3b 3f 97 00 04 3f 49 8c e2 3e
       0.23206025 0.73377764 0.515634 0.44247654
000030 51 1b 86 be 6f 1a 12 bf 20 7b b5 3e f5 76 e6 3e
       -0.26192716 -0.57071584 0.354455 0.45012632
000040 21 c7 b5 be 82 21 9c be dd 6b 03 3f a0 e2 ae 3e
       -0.35503486 -0.30494314 0.5133646 0.34157276
000050 69 23 08 bf fa 24 8b 3e 40 44 92 bf 38 78 2b 3f
       -0.5317903 0.27176648 -1.1427078 0.66980314
000060 9c 87 1d 3f a1 b8 c6 be 9e d0 17 3f 77 78 8f 3e
       0.6153505 -0.38812736 0.593027 0.28021595
000070 17 61 33 bf c0 ba 63 3e 61 d1 32 3f 08 bb 54 3f
       -0.7007002 0.22239208 0.69850737 0.8309789
000080 70 51 dc 3e bd f4 e7 3e 5f 65 93 3e 6e a0 01 3f
       0.43030882 0.45303908 0.28788278 0.5063542
000090 02 4e c9 3e e4 98 18 3f 55 00 2d 3f 80 eb ab 3e
       0.39317328 0.5960829 0.6757863 0.3357811
0000a0 65 6c 30 bf df 2f d4 3e 8d 76 ba 3e d8 33 d6 be
       -0.68915397 0.41442773 0.36418572 -0.4183643
0000b0 75 f2 98 3e 81 9c bd be 86 fe d0 3e af c5 53 3f
       0.2987248 -0.37033466 0.40819186 0.82723516
0000c0 4d c7 a5 3e a4 96 ae 3e ad 17 d5 be 90 5a b0 3e
       0.32378617 0.34099305 -0.41619626 0.34444094
0000d0 72 03 db be 39 61 11 bf ae f2 db 3e 79 0a 54 be
       -0.42776066 -0.56788975 0.42958587 -0.2070712
0000e0 07 bf c1 3e c9 f2 bc 3e 82 9d 3f 3f b6 8c 44 3f
       0.37841055 0.3690398 0.7484971 0.7677721
0000f0 3a 0d 1e 3f a8 f3 d7 3e 7b 91 b4 be 87 58 21 3f
       0.6173893 0.42178082 -0.35267243 0.63025707
000100 88 8b 07 3f 68 56 2b bf 9d 57 2b 3f e0 0e 14 bf
       0.5294728 -0.6692872 0.6693056 -0.578352
000110 d4 e2 08 3f 4f f9 3e 3f 77 3b 0e 3f 70 99 1f bf
       0.5347111 0.74599165 0.55559486 -0.623435
000120 43 93 88 3e ad a0 f4 3e 04 f9 f5 3e ed ed 8b bf
       0.26674852 0.47778836 0.48041546 -1.0931984
000130 bd c4 0c 3f de 3b a5 be 92 0f a6 3e 9b 4c df 3e
       0.549877 -0.32272238 0.32433754 0.43613133
000140 c0 a1 5c 3f 90 fc 36 be 12 6a 6b be 0c fe a2 3e
       0.8618431 -0.17869782 -0.22989681 0.31834447
000150 57 03 1e bf 33 81 c4 3e 6b 9a b4 be 3a d2 cb 3e
       -0.61723846 0.3837982 -0.35274062 0.39808828
000160 e6 ea a5 3e 1f 38 4a 3f d2 f1 52 3f 9b 02 03 3f
       0.32405776 0.78991884 0.8240024 0.5117585
000170 f0 9b c0 3e ea de 41 3f 26 b4 eb 3e c8 ac 8e be
       0.3761897 0.75730765 0.4603588 -0.27866197
000180 b8 b8 13 be fe b5 4d 3f 03 f8 0d bf 46 e0 2e bf
       -0.14425933 0.80355823 -0.5545656 -0.68310964
000190 36 2e d1 3e 27 0b 3a 3f e3 59 18 bf 64 89 e9 be
       0.4085557 0.7267327 -0.59512156 -0.45612633
0001a0 a3 32 83 3e f0 2d d7 3e fc 6a 22 3f d2 43 0b 3f
       0.2562457 0.42027235 0.63444495 0.5440036
0001b0 35 91 af be b7 14 ab 3e 6a bc 30 3f e1 f1 cc 3e
       -0.34290472 0.33414242 0.690375 0.4002829
0001c0 08 77 fa bd 63 e3 86 3e 67 5f 5a 3f fc 3a fb be
       -0.12229735 0.26345357 0.8530182 -0.4906844
0001d0 d1 e6 10 bf f5 70 4e 3f 75 e5 97 3e bf b8 68 3e
       -0.566022 0.8064111 0.2966725 0.22726725
0001e0 bd 02 2e bf 95 03 ba 3e cd 22 c2 3e 66 bc 9f 3e
       -0.6797293 0.36330858 0.37917176 0.31198424
0001f0 17 d6 9f 3e df a6 08 3f 01 31 5e 3f 0a 9c e5 3e
       0.31218025 0.53379625 0.86793524 0.4484561
000200 cb 37 96 be 47 f0 ad 3e 2e eb 12 bf 1b 31 82 bf
       -0.29339442 0.3397238 -0.57390106 -1.0171236
000210 89 6b 1d 3f 4d 05 00 3f 73 a8 09 bf 97 e8 34 3f
       0.6149221 0.5000809 -0.5377266 0.70667404
000220 2b f7 8f 3e 15 da b7 3e 66 f6 24 3f a8 5b a9 3e
       0.28118262 0.3590857 0.64438474 0.3307774
000230 6e 2f b1 be 65 55 2a bf 84 bf 03 bf bf 82 47 3f
       -0.34606498 -0.6653655 -0.51464105 0.7793388
000240 04 9d ba be a1 70 e6 3e 3c 18 7d be d5 8a 3b 3f
       -0.36447918 0.45007804 -0.24716276 0.73258716
000250 ce 22 2f 3f a6 fb ad 3e 1d 71 85 be 8c 96 05 3f
       0.6841248 0.33981055 -0.2606286 0.5218284
000260 d1 bb 1a 3f 35 5b dd be cc c6 f4 3e 38 f4 22 3f
       0.60442835 -0.43233648 0.4780792 0.636539
000270 23 c2 50 3f 34 24 14 3f 61 af d6 3e d6 75 26 3f
       0.8154623 0.5786774 0.41930678 0.65023553
000280 49 54 33 3f e0 0f ad 3e de ef 4c 3f a7 c7 1f bf
       0.70050484 0.33801174 0.8005351 -0.6241402
000290 61 b5 2b bf 59 ac c0 3e e2 9e 82 3e 61 d1 0b 3f
       -0.6707364 0.3763149 0.25511843 0.5461636
0002a0 67 6e e2 3e 5f 78 b2 3e 39 a9 d2 be 90 98 aa bd
       0.44224855 0.3485746 -0.41144732 -0.0832988
0002b0 40 2b c0 3e ee 46 d9 3e 8e ad 8c 3e 5f c6 f4 3e
       0.37532997 0.42436928 0.27476162 0.47807595
0002c0 87 d1 bf 3e 35 37 5e 3f 99 a6 86 3e 8d ef 50 3f
       0.37464544 0.8680299 0.2629898 0.81615525
0002d0 db ce 8b 3e 86 7c 0e bf b5 6e 69 3e 88 f7 1f 3f
       0.27306256 -0.5565876 0.22796138 0.6248708
0002e0 32 f7 ff 3e 0c aa 2a 3f 90 4c 80 3f bc e5 bd 3e
       0.49993283 0.6666572 1.0023365 0.37089336
0002f0 0d 35 b1 3e fe 99 87 be a8 c0 69 be 5f 67 5c 3f
       0.34610787 -0.26484674 -0.22827399 0.8609523
000300 9d f4 c0 be 48 bb c9 bd 80 cf 52 3f 16 10 c8 be
       -0.37686625 -0.09850174 0.8234787 -0.39074773
000310 8b e2 73 b6 f3 c4 1d bf 68 38 58 3f 12 b2 a2 be
       -3.6341687e-06 -0.61628646 0.8446107 -0.31776482
000320 e6 8c 34 3f 78 f3 27 be d9 04 ef 3e 7c 60 a8 3e
       0.70527494 -0.1640147 0.46683386 0.32886112
000330 9f 6f 1f bf 84 73 18 bf c4 3c 06 bf 63 75 97 3e
       -0.62279695 -0.5955126 -0.5243647 0.29581746
000340 b0 ff 11 bf 14 ad 3b 3f b6 9c f6 be 61 5c fb 3e
       -0.57030773 0.7331097 -0.48166436 0.49093917
000350 9b d4 86 3e 35 7c 36 3f ef 68 e4 be 2e 56 10 3f
       0.2633408 0.71283275 -0.44611308 0.563815
000360 61 0a d9 3e 3e dd ba be cd c1 8d 3e a4 ef f5 3e
       0.4239073 -0.3649692 0.2768692 0.48034394
000370 88 5f a4 3e dc a4 01 bf 92 f6 46 3f de d0 8b 3e
       0.32104135 -0.5064218 0.77719986 0.2730779
000380 97 b4 a1 3e 54 90 47 3f ef 19 9a 3e ea 7b 8a be
       0.31583092 0.779546 0.3009791 -0.27047664
000390 4e 46 0a bf b2 28 4f 3f 69 2f 03 3f f0 d4 15 3f
       -0.54013526 0.8092147 0.5124422 0.5852804
0003a0 b1 cb c7 3e 4d ba 20 3f 71 25 98 3e 11 47 dc 3e
       0.39022592 0.6278427 0.29716066 0.4302297
0003b0 61 b0 0d bf a0 43 2d bf 7d ed c5 3e 8a 60 01 bf
       -0.5534726 -0.6768131 0.38657752 -0.5053793
0003c0 96 ad 24 bf f1 31 90 3e 6b a4 1b 3f b2 30 18 3f
       -0.6432737 0.28163102 0.60797757 0.59449303
0003d0 13 55 14 bf 81 5c 7e 3e 2b 2a a1 3f 34 a2 cc 3e
       -0.5794231 0.24839975 1.2590994 0.399675
0003e0 2d 41 ca 3e 12 64 fc 3e 7d a1 d4 3e 4e 02 2d bf
       0.3950285 0.49295098 0.41529456 -0.6758164
0003f0 0a e9 0c 3f fa c8 99 3e 0c c0 a1 3e 8b 5a b8 be
       0.5504309 0.30036145 0.31591833 -0.3600658

linear3.weight f4 [3, 512]
000000 d6 50 e4 3c 94 8a 8f bf 2f 79 ff be f2 a3 49 bf
       0.027870577 -1.1214166 -0.49897143 -0.78765786
000010 c3 5e 8b bf 0e 9e 71 bf 9b d2 35 bf be 08 85 be
       -1.0888294 -0.943818 -0.71024483 -0.25983232
000020 6b 51 8c bf 22 fd 72 be 66 ec 09 40 3e 49 cb be
       -1.0962347 -0.23729375 2.1550536 -0.39704317
000030 e3 8f 11 3d 33 3c 1d 3d ce 2f 61 bf b9 18 46 bf
       0.03553761 0.03838749 -0.8796357 -0.77381474
000040 0f c1 9a bc b0 76 c4 3b 2f 1b f6 be 5f cc 3c bf
       -0.018890886 0.005995594 -0.48067614 -0.73749346
000050 80 24 36 3c 0a b3 37 bf e5 fd 10 41 40 ec b4 be
       0.011117101 -0.71757567 9.061986 -0.35336494
000060 9d 08 be be ee 7e 34 bd c3 fc f9 3f 21 84 7c bf
       -0.37115946 -0.044066362 1.9530262 -0.9863911
000070 7b 83 c5 bc 08 c7 4c bf df c5 d5 be 27 0e 58 be
       -0.024110546 -0.799912 -0.41752526 -0.21099149
000080 a1 28 2a bf 1f c4 0e bf 0d 3d 50 bf 24 67 1a bf
       -0.66468245 -0.5576801 -0.81343156 -0.6031363
000090 49 67 42 bf c0 f8 ae be 0c 7d b8 be 54 77 4b bf
       -0.7593885 -0.34174156 -0.36032903 -0.79478955
0000a0 42 96 e4 bc bf 92 40 40 13 10 26 bf 73 95 1b 3d
       -0.02790368 3.0089567 -0.6486828 0.037984323
0000b0 e6 9c 44 bf 8f 0c 33 3d 34 df bb bf 75 15 89 be
       -0.7680191 0.04371315 -1.4677491 -0.26774183
0000c0 65 f0 52 bf 55 23 5b bf 49 f3 b8 bc c7 8d 5f 40
       -0.8239806 -0.8560079 -0.022576945 3.4930284
0000d0 f0 0a 6d bb de 94 06 bd d4 4e d2 3f 12 70 fc bf
       -0.003616985 -0.032856815 1.6430306 -1.9721701
0000e0 e4 b7 30 bf 43 5e 53 bf 10 b7 8a be 26 10 8c be
       -0.69030595 -0.82565707 -0.2709279 -0.2735607
0000f0 e8 b3 cc be 71 93 2e bf b1 eb 21 bd ce 14 a0 be
       -0.39981008 -0.6819373 -0.039531413 -0.31265873
000100 d1 1e 3d bf 84 6f 03 bc 6a e8 cb be a6 4f f3 3c
       -0.7387515 -0.008022193 -0.39825755 0.029701065
000110 62 da fa be a5 08 d0 be a4 98 25 bf df b5 0e 3d
       -0.48994738 -0.40631595 -0.64686036 0.034841415
000120 f2 ae 32 bf 7b 6a 21 bf d6 be 2d bf b8 1f fc 40
       -0.69798195 -0.630531 -0.6786932 7.878872
000130 e7 a3 e0 3f 50 68 66 3b 9e 0d 4e bf 18 aa 18 bf
       1.7550019 0.003515739 -0.8048953 -0.5963454
000140 c0 76 77 be 28 26 9a 3b 33 6d 1c 3d 73 52 4c bf
       -0.24166393 0.0047042556 0.038190078 -0.7981331
000150 b3 29 07 3d 4e a1 2e bf 15 ea 30 3d 05 28 01 40
       0.03299875 -0.6821488 0.043191988 2.0180676
000160 42 e4 7c 40 6c bd af be 70 33 93 be aa 42 de be
       3.9514318 -0.34324205 -0.2875018 -0.43410236
000170 d8 28 3e bf 72 29 a7 be 24 04 ad bf 68 a6 68 3c
       -0.7428107 -0.32648808 -1.3516889 0.014199831
000180 bd cd d1 40 6a c5 9c be 15 53 0f 3d 8f b4 0a 3d
       6.5563645 -0.30619365 0.034991343 0.0338636
000190 7a 7d 40 bf 48 e4 ba be 0f 94 24 3d 52 d3 d9 3c
       -0.7519146 -0.3650229 0.040180262 0.026590023
0001a0 0d 5e 92 bf 3e 34 4c bf 6d 90 b7 be ab 10 74 3f
       -1.1434952 -0.79767215 -0.35852376 0.95337933
0001b0 e5 75 2e 3d 37 c6 df be 22 3d d2 be f2 da 07 bf
       0.0425929 -0.43705913 -0.41062266 -0.5306846
0001c0 f1 9f 1e bd e9 80 52 bf b4 20 ac be 48 91 3f 3c
       -0.03872675 -0.8222795 -0.336187 0.011692353
0001d0 8a 1c f2 bc a5 b0 a5 be d6 72 6f bf a3 49 a0 40
       -0.029554624 -0.32361332 -0.935346 5.008989
0001e0 87 33 06 bd ca 3d 61 bf 05 22 29 bf 98 13 0b bf
       -0.032763984 -0.8798491 -0.66067535 -0.5432677
0001f0 51 3d 74 bf 37 7a 11 bf 32 6d a7 be d6 5a 2f bf
       -0.9540606 -0.5682711 -0.32700497 -0.6849798
000200 8c 62 21 3c d8 10 b5 bf 50 ac 41 3b e0 74 03 41
       0.009850156 -1.4145765 0.002955217 8.216034
000210 61 52 03 bf 9a 6e 27 bf 3a f1 be 3c 3f 39 a3 be
       -0.51297575 -0.6540314 0.023308385 -0.31879613
000220 31 1b 83 bf 08 9f 3c bf 35 f6 b0 be 86 fc 20 bf
       -1.0242673 -0.7368016 -0.3456284 -0.6288532
000230 a0 81 a5 ba 80 cc 62 ba f8 b6 fe 3b 4a a4 aa be
       -0.0012627132 -0.00086516887 0.0077732764 -0.33328468
000240 98 79 a8 bb 2e ef 27 bf 4a 2e e8 3c d0 b7 ee be
       -0.005141448 -0.65599334 0.028342385 -0.46624613
000250 fe c5 95 be 9c a5 2e bf 0a d3 c7 3c b8 2f 07 bf
       -0.2925262 -0.6822145 0.024392623 -0.5280719
000260 36 9e 8a be 0f b2 a9 40 12 d2 cb 3f 2f 40 f6 be
       -0.2707383 5.3029857 1.5923483 -0.48095843
000270 6f c7 7f be e6 7b 0c 3f 73 52 4b bf c8 f9 8e be
       -0.24978422 0.54876554 -0.7942268 -0.27924943
000280 38 97 b4 be d4 9d 1a bf fd d4 b8 be c1 fe 0d 3d
       -0.3527162 -0.60397077 -0.36099997 0.03466678
000290 60 f6 64 3c 23 e2 53 bf 95 54 e3 be fe 80 20 bf
       0.013974756 -0.8276693 -0.44400468 -0.62696826
0002a0 95 d4 28 bf 84 0e 2d bf 06 6f bd 3c 82 eb 14 bd
       -0.65949374 -0.67600274 0.02312423 -0.03635741
0002b0 46 5a 44 bf 90 08 41 bf cc 8c 42 bf 8c 5e 16 bf
       -0.76700246 -0.7540369 -0.7599609 -0.5873802
0002c0 a8 4d 2d bf 43 ac ae be b6 d0 83 bf b0 33 bc be
       -0.6769662 -0.341158 -1.0298069 -0.36758184
0002d0 27 38 99 bf 9c 04 2c bd 6d c0 6e bf 29 ef cc be
       -1.1970261 -0.041996583 -0.9326237 -0.40026215
0002e0 3d 17 30 bf 41 c2 c2 be a5 2a f2 bf fd 64 37 bf
       -0.6878546 -0.3803883 -1.8919264 -0.7163847
0002f0 7b 50 67 bf 5c 7f 44 bc c8 a8 16 bc fd 03 98 be
       -0.9035718 -0.0119932555 -0.009195514 -0.29690543
000300 90 39 2d bb 1a b3 f9 bc 19 00 9f be 94 db 4e bc
       -0.0026432015 -0.03048091 -0.31054762 -0.012625594
000310 af df 9c 40 0b 10 1e 3d 86 f7 75 be 45 e3 02 3d
       4.902305 0.03858952 -0.24020204 0.031955022
000320 1c e1 92 be 2e 0f c7 3c 0a de 30 bf 2f 20 80 bf
       -0.2868737 0.02429923 -0.69088805 -1.0009822
000330 74 66 14 bd e0 3b 40 3b 14 1c 1d bc 5c b7 44 bf
       -0.03623052 0.0029332563 -0.009589214 -0.76842284
000340 1f 77 0b 3d 1c 7e ac be fb ec 2d 3d b5 99 16 bf
       0.03404915 -0.33689964 0.04246233 -0.5882829
000350 8f 80 84 bf 45 da b1 be 03 c7 e2 bc 06 c7 10 bf
       -1.0351733 -0.3473684 -0.027682787 -0.56553686
000360 c7 d1 2e bf 89 2e 0b 3d 00 16 85 bf 8d 3c 36 bf
       -0.68288845 0.033979926 -1.0397339 -0.71186143
000370 78 d1 5c bf 31 e3 07 3d a6 57 9e be c5 da 3e bf
       -0.86257124 0.03317565 -0.30926245 -0.74552566
000380 bd 91 43 bf 90 6c 7f be 65 7c 4d bf d8 fe 25 3c
       -0.76394254 -0.24943757 -0.80267936 0.01013156
000390 1e 83 10 bd c9 6b 83 be 2a e4 c4 be c5 f0 2d 3f
       -0.035281293 -0.2566817 -0.38455325 0.6794551
0003a0 d0 a5 17 bf c7 d0 c8 be 4d e4 57 bf e4 4f 38 bf
       -0.59237385 -0.39221784 -0.84332734 -0.71996903
0003b0 e8 db 3e 3c bd 26 01 bd 9c 51 4a bf 57 44 0d 3d
       0.011649109 -0.031531084 -0.79030776 0.034489002
0003c0 00 e1 33 bc b4 f2 06 bf fe 31 0f 3f 30 6a d3 be
       -0.010978937 -0.52714086 0.5593566 -0.41291952
0003d0 42 33 82 3c 8c f0 00 3e a4 2b c3 40 cc 96 4a bf
       0.015893582 0.12591761 6.099077 -0.7913635
0003e0 64 20 3d bf e5 00 32 bf 49 cd da be 22 a0 12 bd
       -0.7387755 -0.69532615 -0.42734745 -0.035797246
0003f0 19 b9 0a 3f 34 4d 75 bf 89 ea 39 bf 59 ff ba 40
       0.54188687 -0.9582093 -0.726235 5.8436704

linear3.bias f4 [3]
000000 5d 42 25 be e4 54 1b be 7f 88 2f be
       -0.16138597 -0.15169102 -0.17141913
