env2 DQN/log/dqn/ckpt/29000.pth (torch, 14208 bytes, 4 tensors)

linear.weight f4 [512, 2]
0.16220331 -0.16827321 0.24656987 -0.088116616 0.10909112 -0.23282452 -0.24960418 -0.9232627
-0.04081608 -1.1034105 -0.05314395 -0.077792525 -0.34158894 0.38016698 -0.097279355 0.2054146
0.22481348 -0.3290009 -0.44794726 0.43919685 -1.3352227 -2.66584 -0.22946055 0.22597124
-0.067224324 0.18619382 -0.033943713 -0.39594215 -0.56027305 -0.8708754 -0.745832 -1.1376615
0.16641682 0.46537954 0.03483367 -0.3241305 0.12403858 -0.3747511 -0.33268365 -0.88594407
-0.22203329 -0.65520495 0.26086646 0.23789388 0.13354897 0.3405363 0.1932607 -0.33824414
-0.08358437 -0.23667613 0.37731057 0.47499663 0.34717137 2.927044 -0.3462714 -0.5465685
-0.14369994 0.4113466 -0.112062216 0.5026317 0.2394154 -0.97560793 0.05068794 0.46351337
0.39197662 -0.13892078 0.055228844 -1.0868223 -0.39308512 -0.22702228 -0.8026724 0.16209516
-0.63979155 -0.27896962 -0.20706214 -0.19875695 -0.11775989 -0.9410019 -0.31183404 -0.7288922
0.60114974 -0.08679706 -1.0753247 -3.0853534 0.11392062 -0.46379316 -0.06633222 0.3056895
-0.55156016 -0.19067392 -0.06821197 -0.4965686 0.29837134 0.0106718475 0.23687238 0.3619031
-0.55224264 -0.9499621 -0.595806 -1.1186999 -0.25839406 -0.113936484 -0.9983013 -3.0368822
0.40114635 0.2241056 0.449336 0.5312001 -0.9671028 -1.6681772 1.285441 -2.8917837
-0.4751955 -0.49424925 -0.6065977 -0.7272808 -0.2650036 0.32452306 -0.19063297 -0.08766706
0.3343116 0.2822621 -0.71794987 -0.2629695 0.46630138 -0.5068975 -0.3674871 0.14311543
-0.8432202 -1.0684283 -0.4792475 0.22033387 -0.4486306 -1.0080465 0.2740959 0.35767096
0.09763382 -0.97387123 0.5799377 -0.33440453 -0.8544368 -0.65241927 0.46184975 0.32564324
-0.1945286 0.13380119 -0.78912044 0.08919442 0.44390368 -0.6028845 0.29317856 1.8900889
-1.4244255 -1.6566061 -0.23696771 -0.6039714 -0.5600803 -0.3405261 0.3799385 -0.007878915
-0.6602845 0.26636153 0.05804211 -0.6909449 0.0335418 0.45392126 -0.49059075 -0.67960006
-0.3522925 -0.5575588 -0.5110656 -0.5312002 0.45708364 -0.13139623 -0.8730744 -1.7266233
-1.0806105 -3.5915236 0.33589807 0.20158954 -0.5933511 -0.3684274 0.11701483 -0.17846772
-0.6900492 -0.64008063 -0.41926438 -0.08504451 0.99270856 -0.37019372 0.26711643 -0.60002285
0.4108183 0.724635 -0.376733 -0.7943493 0.20102453 -0.38328463 0.2870438 0.5407762
-0.5864515 -0.79671466 -0.44739178 -0.92194366 -0.08109486 0.44041735 0.26465142 -0.22786802
0.00042695823 -0.71720344 -0.6949256 -0.7167653 -0.11003618 -0.62932354 -0.71733016 -0.7900898
0.104157746 -0.21995166 0.01725406 0.41197595 -0.1191115 -0.7944167 0.3899142 0.5242324
-0.067489386 -0.3194029 -0.43131575 0.21618514 0.19296993 -0.5154956 0.028221548 0.14503723
0.18692297 -0.04000479 -0.55419314 -0.45852706 -0.32951194 -0.8311413 -0.9100641 -2.9304695
-0.33320108 0.2786312 -0.6309874 -1.1074252 0.37724972 0.10525499 0.30232248 0.58386797
-0.35880792 -1.2414398 -0.6549035 -0.67678756 0.037877217 -0.8040362 -0.7291463 -0.0875523
00000000: a018 263e d04f 2cbe d07c 7c3e 7c76 b4bd
00000010: 2a6b df3d 8d69 6ebe 3d98 7fbe f25a 6cbf
00000020: c32e 27bd 8e3c 8dbf 78ad 59bd b051 9fbd
00000030: bfe4 aebe 3fa5 c23e 663a c7bd 3458 523e
00000040: 8135 663e ce72 a8be 5859 e5be 69de e03e
00000050: 94e8 aabf 1f9d 2ac0 b5f7 6abe 0165 673e
00000060: e8ac 89bd 98a9 3e3e 9008 0bbd eeb8 cabe
00000070: 0e6e 0fbf b1f1 5ebf d9ee 3ebf e49e 91bf
00000080: 2c69 2a3e 3a46 ee3e c0ad 0e3d 6ff4 a5be
00000090: f007 fe3d 60df bfbe 8355 aabe 3bcd 62bf
000000a0: b25c 63be 83bb 27bf 4a90 853e 749a 733e
000000b0: 10c1 083e c65a ae3e 22e6 453e 562e adbe
000000c0: 482e abbd 3a5b 72be da2e c13e c232 f33e
000000d0: 72c0 b13e b054 3b40 7c4a b1be eaeb 0bbf
000000e0: 1426 13be 069c d23e e080 e5bd 79ac 003f
000000f0: 5029 753e 71c1 79bf 289e 4f3d a051 ed3e
00000100: 29b1 c83e 4041 0ebe a437 623d fe1c 8bbf
00000110: 7442 c9be 8778 68be f07b 4dbf 46fc 253e
00000120: 61c9 23bf 1bd5 8ebe 1908 54be f186 4bbe
00000130: 192c f1bd 80e5 70bf b6a8 9fbe ae98 3abf
00000140: f3e4 193f a8c2 b1bd 3da4 89bf 6e76 45c0
00000150: 374f e93d 4c76 edbe 30d9 87bd 5683 9c3e
00000160: 0c33 0dbf 0640 43be b8b2 8bbd 3d3e febe
00000170: 21c4 983e f9d8 2e3c ac8e 723e 5d4b b93e
00000180: c65f 0dbf b730 73bf be86 18bf 8f31 8fbf
00000190: 3a4c 84be 8857 e9bd ad90 7fbf 475c 42c0
000001a0: 0e63 cd3e f07b 653e 5e0f e63e bbfc 073f
000001b0: 0d94 77bf d586 d5bf 5589 a43f fc12 39c0
000001c0: d34c f3be 3d0e fdbe fd49 1bbf 132f 3abf
000001d0: 8dae 87be e327 a63e 4a35 43be ca8a b3bd
000001e0: e42a ab3e a884 903e 90cb 37bf f0a3 86be
000001f0: 0ebf ee3e 09c4 01bf 4527 bcbe da8c 123e
00000200: 47dd 57bf 42c2 88bf ee5f f5be 349f 613e
00000210: e9b2 e5be ab07 81bf 4c56 8c3e a620 b73e
00000220: 3df4 c73d a04f 79bf cc76 143f 1237 abbe
00000230: 5fbc 5abf f304 27bf 9277 ec3e b6ba a63e
00000240: 8132 47be 2e03 093e cc03 4abf 90ab b63d
00000250: 5847 e33e a356 1abf 801b 963e 6fee f13f
00000260: 9353 b6bf ab0b d4bf aaa7 72be df9d 1abf
00000270: 6c61 0fbf 7059 aebe 4d87 c23e 9116 01bc
00000280: 6808 29bf 8a60 883e 90bd 6d3d c4e1 30bf
00000290: 2063 093d 5e68 e83e b62e fbbe 45fa 2dbf
000002a0: af5f b4be 2cbc 0ebf 32d5 02bf bcfc 07bf
000002b0: de06 ea3e bc8c 06be ce81 5fbf fe01 ddbf
000002c0: 7251 8abf 86db 65c0 d5fa ab3e 7d6d 4e3e
000002d0: dce5 17bf 84a2 bcbe 79a5 ef3d 3ec0 36be
000002e0: 10a7 30bf 53dc 23bf d2a9 d6be d12b aebd
000002f0: 2622 7e3f 088a bdbe 7cc3 883e 199b 19bf
00000300: c756 d23e ae81 393f 26e3 c0be 7a5a 4bbf
00000310: 60d9 4d3e e23d c4be 68f7 923e 4f70 0a3f
00000320: af21 16bf 7ef5 4bbf 8910 e5be 8004 6cbf
00000330: 1015 a6bd 627e e13e 6480 873e 3c56 69be
00000340: 5dd9 df39 a59a 37bf a5e6 31bf ee7d 37bf
00000350: a65a e1bd 591b 21bf f3a2 37bf 5343 4abf
00000360: a850 d53d 023b 61be 6358 8d3c 83ee d23e
00000370: bbf0 f3bd e55e 4bbf d6a2 c73e 1834 063f
00000380: e037 8abd c788 a3be 6bd5 dcbe a35f 5d3e
00000390: e999 453e 85f7 03bf e030 e73c a484 143e
000003a0: bc68 3f3e 10dc 23bd 9adf 0dbf 0fc4 eabe
000003b0: cab5 a8be adc5 54bf f6f9 68bf d08c 3bc0
000003c0: 5599 aabe c0a8 8e3e 6488 21bf 1cc0 8dbf
000003d0: e026 c13e ee8f d73d 03ca 9a3e 5f78 153f
000003e0: acb5 b7be 80e7 9ebf c1a7 27bf f341 2dbf
000003f0: 2425 1b3d 51d5 4dbf 55a9 3abf 9f4e b3bd

linear.bias f4 [512]
-0.08883327 0.3436161 0.5486874 0.6335213 0.37643108 0.41283312 0.48001203 0.9454579
0.32197833 0.8777162 -0.5468303 0.58784354 -0.26192716 -0.57071584 0.43082562 0.5794328
-0.35503486 -0.30494314 0.6494985 0.643199 -0.5317903 0.3568117 -0.074287795 0.81312853
0.7561971 -0.38812736 0.11197162 0.27407128 -0.7007002 0.34966934 0.8415217 0.9693598
0.5529799 0.5928475 0.40392813 0.5082013 0.4657535 0.739084 0.81693137 0.6084445
-0.68915397 -0.30069226 0.49695876 -0.4183643 0.15657125 -0.37033466 -0.07107749 0.9563218
0.31739825 0.35487 -0.41619626 -0.27953395 -0.42776066 -0.56788975 -0.076805435 0.43387035
0.62644684 0.45877877 0.89831966 0.9161856 0.74628633 0.47879598 -0.35267243 0.7820958
0.5818222 -0.6692872 0.81267524 -0.578352 0.67422616 0.8837671 0.6220173 -0.623435
0.5162036 0.42820504 0.60478973 0.16976291 -0.24171059 -0.32272238 0.31254137 0.5571206
1.009781 -0.17869782 -0.22989681 0.41483176 -0.61723846 0.6319375 -0.35274062 -0.05898603
-0.38356483 0.9258958 0.96509045 0.65177363 0.35988036 0.908117 0.27072197 -0.27866197
-0.14219008 0.95130545 -0.5545656 -0.68310964 0.59361106 0.8744569 -0.59512156 -0.45612633
0.21679427 0.5152927 0.77259153 0.042273648 -0.34290472 0.4635747 0.8368852 0.5043887
-0.12229735 0.23866801 0.99178743 -0.4906844 -0.566022 0.9551143 0.37789494 -0.42427006
-0.6797293 0.36127278 0.49538526 0.40875372 0.3488162 0.7786056 1.0111433 0.45145604
-0.29339442 0.0467136 -0.57390106 0.22788218 0.7937923 0.69472605 -0.5377266 0.8440345
0.23563226 0.25008252 0.79061943 0.5823622 -0.34606498 -0.6653655 -0.51464105 0.92286223
-0.36447918 0.63492125 -0.24716276 0.86939555 0.8126969 0.62950873 -0.2606286 0.65706277
0.74848807 -0.24357712 -0.038577143 0.7767364 0.9557514 0.0051044 0.52446234 0.7835569
0.84119034 0.4726074 0.9405377 -0.6241402 -0.6707364 0.3906634 0.33575282 0.63916725
0.5704488 0.47432145 -0.41144732 -0.0832988 0.5035345 0.46963048 0.24980593 0.7272765
0.27820823 1.0096663 0.44069397 0.9544071 0.53638303 -0.5565876 0.38384983 0.76885724
0.65670586 0.81170565 0.23970048 0.48248678 0.34726194 -0.26484674 -0.22827399 1.0109054
-0.37686625 -0.09850174 0.9673959 -0.39074773 -0.31321308 -0.61628646 0.9797149 -0.31776482
0.85192126 -0.1640147 0.43164915 0.29450992 -0.62279695 -0.5955126 -0.5243647 0.55874246
-0.57030773 0.87491757 -0.48166436 0.6222346 0.38531244 0.8555401 -0.44611308 0.6820935
0.5562112 -0.3649692 0.46296474 0.6633495 0.4487447 -0.5064218 0.92471546 0.36442336
0.07030011 0.9254754 0.5405027 -0.27047664 -0.54013526 0.95759964 0.65376484 0.012406217
0.525812 0.7703367 0.4142305 0.43913937 -0.5534726 -0.6768131 0.39376667 -0.5053793
-0.6432737 0.37940204 -0.008075273 0.7207301 -0.5794231 0.06823182 -0.3059638 0.40613055
0.6856127 0.74013305 0.5386388 -0.6758164 0.01076289 0.2555469 0.3719958 -0.15830107
00000000: 38ee b5bd 73ee af3e c776 0c3f 742e 223f
00000010: 93bb c03e dd5e d33e 23c4 f53e 8709 723f
00000020: 58da a43e 02b2 603f 12fd 0bbf ea7c 163f
00000030: 511b 86be 6f1a 12bf 2d95 dc3e b555 143f
00000040: 21c7 b5be 8221 9cbe 8945 263f b1a8 243f
00000050: 6923 08bf 06b0 b63e 3324 98bd 3129 503f
00000060: 2296 413f a1b8 c6be 6051 e53d 1253 8c3e
00000070: 1761 33bf dc07 b33e f76d 573f f727 783f
00000080: 1790 0d3f dbc4 173f abcf ce3e 7b19 023f
00000090: 3e77 ee3e 9c34 3d3f 6a22 513f 05c3 1b3f
000000a0: 656c 30bf 56f4 99be 6171 fe3e d833 d6be
000000b0: 3754 203e 819c bdbe 1391 91bd 81d1 743f
000000c0: 0682 a23e 85b1 b53e ad17 d5be 131f 8fbe
000000d0: 7203 dbbe 3961 11bf 2b4c 9dbd 4124 de3e
000000e0: d25e 203f 0de5 ea3e 47f8 653f 248b 6a3f
000000f0: 9f0c 3f3f bf24 f53e 7b91 b4be 6e37 483f
00000100: 4df2 143f 6856 2bbf 7c0b 503f e00e 14bf
00000110: 169a 2c3f 903e 623f 873c 1f3f 7099 1fbf
00000120: eb25 043f b13d db3e 80d3 1a3f 54d6 2d3e
00000130: fb82 77be de3b a5be 6c05 a03e 759f 0e3f
00000140: 8140 813f 90fc 36be 126a 6bbe d464 d43e
00000150: 5703 1ebf a8c6 213f 6b9a b4be 569b 71bd
00000160: 9c62 c4be 8207 6d3f 2b10 773f a3da 263f
00000170: 3d42 b83e 5b7a 683f 129c 8a3e c8ac 8ebe
00000180: 479a 11be c188 733f 03f8 0dbf 46e0 2ebf
00000190: e5f6 173f 68dc 5f3f e359 18bf 6489 e9be
000001a0: 51ff 5d3e 39ea 033f 8fc8 453f 2227 2d3d
000001b0: 3591 afbe aa59 ed3e 1c3e 563f 9e1f 013f
000001c0: 0877 fabd 6365 743e c8e5 7d3f fc3a fbbe
000001d0: d1e6 10bf 5f82 743f 727b c13e ed39 d9be
000001e0: bd02 2ebf bff8 b83e 23a3 fd3e 2b48 d13e
000001f0: 0998 b23e b252 473f 256d 813f 3f25 e73e
00000200: cb37 96be c356 3f3d 2eeb 12bf f259 693e
00000210: f935 4b3f 91d9 313f 73a8 09bf a512 583f
00000220: 9549 713e d10a 803e 0966 4a3f b015 153f
00000230: 6e2f b1be 6555 2abf 84bf 03bf b340 6c3f
00000240: 049d babe 338a 223f 3c18 7dbe b590 5e3f
00000250: e70c 503f 7c27 213f 1d71 85be 4435 283f
00000260: ea9c 3f3f 486c 79be 1103 1ebd 32d8 463f
00000270: 20ac 743f d042 a73b 2a43 063f 2f97 483f
00000280: 4058 573f 99f9 f13e 14c7 703f a7c7 1fbf
00000290: 61b5 2bbf 0805 c83e cbe7 ab3e 77a0 233f
000002a0: ef08 123f 43da f23e 39a9 d2be 9098 aabd
000002b0: a3e7 003f 6873 f03e 20cd 7f3e cb2e 3a3f
000002c0: 4f71 8e3e bf3c 813f a4a2 e13e 0654 743f
000002d0: 6650 093f 867c 0ebf f787 c43e d4d3 443f
000002e0: e01d 283f f1cb 4f3f 0b74 753e 8208 f73e
000002f0: 51cc b13e fe99 87be a8c0 69be 5965 813f
00000300: 9df4 c0be 48bb c9bd 42a7 773f 1610 c8be
00000310: 775d a0be f3c4 1dbf 98ce 7a3f 12b2 a2be
00000320: 8317 5a3f 78f3 27be 1e01 dd3e 01ca 963e
00000330: 9f6f 1fbf 8473 18bf c43c 06bf bf09 0f3f
00000340: b0ff 11bf 99fa 5f3f b69c f6be c44a 1f3f
00000350: ac47 c53e ad04 5b3f ef68 e4be ae9d 2e3f
00000360: db63 0e3f 3edd babe b709 ed3e 46d1 293f
00000370: dec1 e53e dca4 01bf 27ba 6c3f b395 ba3e
00000380: 81f9 8f3d f5eb 6c3f 635e 0a3f ea7b 8abe
00000390: 4e46 0abf 4025 753f 225d 273f 7243 4b3c
000003a0: 9d9b 063f c934 453f 0516 d43e e0d6 e03e
000003b0: 61b0 0dbf a043 2dbf c99b c93e 8a60 01bf
000003c0: 96ad 24bf fc40 c23e 264e 04bc c581 383f
000003d0: 1355 14bf 20bd 8b3d 4aa7 9cbe 58f0 cf3e
000003e0: 5084 2f3f 5c79 3d3f 3be4 093f 4e02 2dbf
000003f0: d556 303c 0bd7 823e 3c76 be3e ad19 22be

linear3.weight f4 [3, 512]
0.027870577 -0.45338607 -0.29576397 -0.23653086 -0.33387125 -0.37600335 -0.25328824 -0.24161081
-0.3896443 -0.20378643 0.54242206 -0.27090287 0.03553761 0.03838749 -0.20734623 -0.16628863
-0.018890886 0.005995594 -0.3334137 -0.19193836 0.011117101 -0.41885987 0.036453195 -0.25545782
-0.26581118 -0.044066362 0.758691 -0.23603489 -0.024110546 -0.30123517 -0.27152154 -0.21768016
-0.49399823 -0.26650065 -0.19227369 -0.18576752 -0.20063087 -0.22881186 -0.21222709 -0.24814545
-0.02790368 0.38596132 -0.38285783 0.037984323 -0.16440539 0.04371315 0.15091781 -0.27814037
-0.10637685 -0.12650678 -0.022576945 0.40449607 -0.003616985 -0.032856815 0.14157106 -0.698358
-0.19273892 -0.19187883 -0.23518436 -0.20765777 -0.3675497 -0.13788271 -0.039531413 -0.2273403
-0.1867841 -0.008022193 -0.22265941 0.029701065 -0.27185833 -0.3298579 -0.16295332 0.034841415
-0.21302642 -0.1824429 -0.4725119 0.719307 0.62488157 0.003515739 -0.16371226 -0.4408658
-0.20061934 0.0047042556 0.038190078 -0.12614839 0.03299875 -0.16845948 0.043191988 0.14519478
0.6390659 -0.32936892 -0.202419 -0.2950465 -0.12641685 -0.2486492 -0.24681777 0.014199831
0.4111919 -0.1897601 0.034991343 0.0338636 -0.19341314 -0.21642056 0.040180262 0.026590023
-0.20799875 -0.20299831 -0.22549441 0.07280849 0.0425929 -0.30296943 -0.273109 -0.4772918
-0.03872675 -0.20951211 -0.27552074 0.011692353 -0.029554624 -0.22045529 -0.20416628 0.6042639
-0.032763984 -0.17268834 -0.4946762 -0.48492974 -0.1403089 -0.14774524 -0.24625297 -0.18515979
0.009850156 -0.07348248 0.002955217 0.3862647 -0.18928583 -0.1394526 0.023308385 -0.26442292
-0.2588349 -0.14947382 -0.20401298 -0.23041616 -0.0012627132 -0.00086516887 0.0077732764 -0.25515014
-0.005141448 -0.18188149 0.028342385 -0.33726132 -0.2565311 -0.20297186 0.024392623 -0.37566742
-0.18964376 0.42028022 0.5618219 -0.33589366 -0.15743086 -0.08975641 -0.15811057 -0.23504026
-0.23659532 -0.38669008 -0.27434063 0.03466678 0.013974756 -0.19675386 -0.36790952 -0.12330198
-0.41987526 -0.40102142 0.02312423 -0.03635741 -0.4912817 -0.16068508 -0.18012847 -0.18307297
-0.17207177 -0.32422 -0.3939728 -0.27734587 -0.5034077 -0.041996583 -0.4046731 -0.2551256
-0.19966583 -0.20361108 -0.13796957 -0.18322504 -0.19073221 -0.0119932555 -0.009195514 -0.23439379
-0.0026432015 -0.03048091 -0.24395525 -0.012625594 0.37935024 0.03858952 -0.26791787 0.031955022
-0.2076553 0.02429923 -0.17757238 -0.18182205 -0.03623052 0.0029332563 -0.009589214 -0.21462485
0.03404915 -0.2215317 0.04246233 -0.40980592 -0.352079 -0.27163076 -0.027682787 -0.21634226
-0.47839838 0.033979926 -0.3626682 -0.16055977 -0.20328319 0.03317565 -0.21610399 -0.45679668
-0.036138777 -0.22653945 -0.22363517 0.01013156 -0.035281293 -0.21092941 -0.2772216 -0.029813763
-0.33454695 -0.25631982 -0.2430876 -0.17396241 0.011649109 -0.031531084 -0.15925245 0.034489002
-0.010978937 -0.47671807 -0.1221174 -0.3704993 0.015893582 0.011193327 0.26045874 -0.15150474
-0.2180263 -0.21830335 -0.38852566 -0.035797246 -0.1138818 -0.18750174 -0.22093314 0.5367072
00000000: d650 e43c 3822 e8be 606e 97be 2535 72be
00000010: 2cf1 aabe 8383 c0be ffae 81be d368 77be
00000020: 757f c7be 64ad 50be 2cdc 0a3f c8b3 8abe
00000030: e38f 113d 333c 1d3d 9252 54be 9147 2abe
00000040: 0fc1 9abc b076 c43b 33b5 aabe 7d8b 44be
00000050: 8024 363c cd74 d6be f24f 153d 5ecb 82be
00000060: 6718 88be ee7e 34bd 9339 423f 21b3 71be
00000070: 7b83 c5bc 7f3b 9abe df04 8bbe 8ce7 5ebe
00000080: 56ed fcbe c672 88be 65e3 44be d739 3ebe
00000090: 2e72 4dbe a84d 6abe 0f52 59be d719 7ebe
000000a0: 4296 e4bc b99c c53e f105 c4be 7395 1b3d
000000b0: e359 28be 8f0c 333d 338a 1a3e 6a68 8ebe
000000c0: 1bdc d9bd fe8a 01be 49f3 b8bc 1c1a cf3e
000000d0: f00a 6dbb de94 06bd 01f8 103e 97c7 32bf
000000e0: 5a5d 45be e27b 44be 2bd4 70be 3da4 54be
000000f0: 792f bcbe 2031 0dbe b1eb 21bd e5cb 68be
00000100: 5544 3fbe 846f 03bc d400 64be a64f f33c
00000110: 0431 8bbe 22e3 a8be 3cdd 26be dfb5 0e3d
00000120: 9923 5abe 50d2 3abe 14ed f1be 8124 383f
00000130: 3df8 1f3f 5068 663b 30a4 27be 2ab9 e1be
00000140: 286f 4dbe 2826 9a3b 336d 1c3d 0b2d 01be
00000150: b329 073d a480 2cbe 15ea 303d f1ad 143e
00000160: d399 233f 0ba3 a8be ed46 4fbe 5610 97be
00000170: 6b73 01be e59d 7ebe ccbd 7cbe 68a6 683c
00000180: bf87 d23e 7950 42be 1553 0f3d 8fb4 0a3d
00000190: 180e 46be 5a9d 5dbe 0f94 243d 52d3 d93c
000001a0: a0fd 54be cade 4fbe 02e8 66be 9e1c 953d
000001b0: e575 2e3d cf1e 9bbe f1d4 8bbe 975f f4be
000001c0: f19f 1ebd 588a 56be 0e11 8dbe 4891 3f3c
000001d0: 8a1c f2bc 08bf 61be f710 51be 0ab1 1a3f
000001e0: 8733 06bd 36d5 30be 3346 fdbe b648 f8be
000001f0: 23ad 0fbe 874a 17be bd29 7cbe 879a 3dbe
00000200: 8c62 213c fc7d 96bd 50ac 413b 7dc4 c53e
00000210: 25d4 41be aacc 0ebe 3af1 be3c 7162 87be
00000220: 0286 84be aa0f 19be c7e8 50be 37f2 6bbe
00000230: a081 a5ba 80cc 62ba f8b6 fe3b 0aa3 82be
00000240: 9879 a8bb 243f 3abe 4a2e e83c 84ad acbe
00000250: 0b58 83be dbd7 4fbe 0ad3 c73c 7b57 c0be
00000260: f931 42be f82e d73e 8fd3 0f3f 41fa abbe
00000270: 8e35 21be 35d2 b7bd bde7 21be 65ae 70be
00000280: 0b46 72be 3efc c5be 6076 8cbe c1fe 0d3d
00000290: 60f6 643c d879 49be a35e bcbe c085 fcbd
000002a0: e4f9 d6be ae52 cdbe 066f bd3c 82eb 14bd
000002b0: 4689 fbbe a18a 24be 9973 38be 7b77 3bbe
000002c0: 9533 30be 2a00 a6be ceb6 c9be 4700 8ebe
000002d0: 54df 00bf 9c04 2cbd 5031 cfbe d39f 82be
000002e0: 3375 4cbe 6c7f 50be e547 0dbe 589f 3bbe
000002f0: 4e4f 43be 5c7f 44bc c8a8 16bc ed04 70be
00000300: 9039 2dbb 1ab3 f9bc 68cf 79be 94db 4ebc
00000310: 323a c23e 0b10 1e3d 882c 89be 45e3 023d
00000320: 97a3 54be 2e0f c73c 89d5 35be 8f2f 3abe
00000330: 7466 14bd e03b 403b 141c 1dbc 9ec6 5bbe
00000340: 1f77 0b3d 35d9 62be fbec 2d3d 15d2 d1be
00000350: b343 b4be 3013 8bbe 03c7 e2bc d388 5dbe
00000360: a2f0 f4be 892e 0b3d a5af b9be c869 24be
00000370: 7829 50be 31e3 073d 5d4a 5dbe 41e1 e9be
00000380: 4106 14bd f5f9 67be 9e00 65be d8fe 253c
00000390: 1e83 10bd e1fd 57be fdef 8dbe fe3b f4bc
000003a0: bd49 abbe 5a3c 83be f5eb 78be 3423 32be
000003b0: e8db 3e3c bd26 01bd 1313 23be 5744 0d3d
000003c0: 00e1 33bc 6414 f4be b018 fabd 16b2 bdbe
000003d0: 4233 823c 3764 373c d95a 853e 0f24 1bbe
000003e0: 4942 5fbe ea8a 5fbe d6ec c6be 22a0 12bd
000003f0: dc3a e9bd 7500 40be 4c3c 62be a565 093f

linear3.bias f4 [3]
-0.2418533 -0.17695642 -0.23220867
00000000: 64a8 77be 1034 35be 1cc8 6dbe
