env2 DQN/log/dqn/ckpt/296000.pth (torch, 14216 bytes, 4 tensors)

linear.weight f4 [512, 2]
0.16220331 -0.16827321 -0.19438761 -6.152926 -0.09467287 -2.7041013 -0.42110494 -7.9446397
-0.2727334 -7.691397 -0.27857 -6.5522 -0.43953684 -6.177895 -0.2851226 -2.0663607
-0.20235465 -6.318498 -0.63949096 -1.8680574 -1.6261668 -14.450212 -0.4190555 -2.3082442
-0.067224324 0.18619382 -0.033943713 -0.39594215 -0.4761291 -7.975391 -0.7618627 -8.20791
0.16641682 0.46537954 0.03483367 -0.3241305 -0.065511905 -2.8377485 -0.45513508 -8.046854
-0.22203329 -0.65520495 0.051581644 -1.9765841 -0.7261115 11.151301 -0.0059827683 -2.8490942
-0.28276172 -2.6975675 0.37731057 0.47499663 -1.6061981 5.3367224 -0.32250535 -7.4072356
-0.14369994 0.4113466 -0.24765457 -5.856988 0.037144795 -3.5260165 -0.1470246 -1.7255836
0.19968824 -2.502001 -0.15452008 -3.6289132 -0.35537088 -7.295304 -1.0506724 -5.279499
-0.6627242 -7.0228834 -0.40572038 -2.669167 -0.32087055 -3.4012492 -0.4426938 -7.7381516
0.60114974 -0.08679706 -1.1474527 -16.011978 -0.08102808 -2.9330764 -0.06633222 0.3056895
-0.3797212 -6.4148993 -0.06821197 -0.4965686 2.2522178 0.80619144 0.04610784 -1.7547189
-0.41141093 -8.039166 -0.43798664 -8.474645 -0.25839406 -0.113936484 -0.9491214 -16.177126
0.40114635 0.2241056 0.449336 0.5312001 -1.3143396 -12.823758 2.9152052 -2.9641106
-0.6034329 -7.3738527 -0.5227674 -7.864082 -0.45908552 -2.1198902 -0.3934983 -2.5825665
0.14874548 -2.0206661 -0.7503208 -7.0413613 0.46630138 -0.5068975 -0.56060237 -2.413122
-1.0320456 -7.1791625 -0.4792475 0.22033387 -0.6587045 -3.5173168 0.2740959 0.35767096
-0.10926204 -3.4913847 0.3798349 -2.7980223 -1.1347845 -6.380777 0.46184975 0.32564324
-0.33091128 -6.7253394 -0.97627264 -5.4690714 0.24578035 -2.983096 -1.8226749 -10.054714
-2.0319202 -11.947583 -0.23696771 -0.6039714 -0.42336604 -7.3372865 0.17987162 -2.3393764
-0.8542561 -2.07857 0.05804211 -0.6909449 0.0335418 0.45392126 -0.4149393 -7.8421082
-0.3522925 -0.5575588 -0.61110556 -7.588879 0.45708364 -0.13139623 -1.1672907 -13.690525
-0.8715244 -16.783726 0.14312617 -2.1279497 -0.79153085 -2.7269704 -0.08248146 -2.6871514
-0.58352274 -7.460278 -0.6175472 -2.6281245 2.3987932 0.57246196 0.26711643 -0.60002285
-0.1758046 11.1838455 -0.5834488 -3.3143497 0.20102453 -0.38328463 0.2870438 0.5407762
-0.66473085 -7.698947 -0.6503243 -3.4709027 -0.08109486 0.44041735 0.26465142 -0.22786802
-0.23068728 -7.155692 -0.7052437 -7.661475 -0.31153846 -3.0489974 -1.8312728 -5.2769194
0.104157746 -0.21995166 -0.16677132 -1.9696013 -0.3183235 -3.3702703 0.21806669 -1.5680585
-0.067489386 -0.3194029 -0.31611535 -6.659562 -0.0040346202 -2.9111288 0.028221548 0.14503723
0.18692297 -0.04000479 -0.76048774 -2.9936724 -0.33766872 -7.8710227 -0.46402702 -17.438972
-0.33320108 0.2786312 -0.48267585 -8.283491 0.1889415 -2.1908572 0.14923759 -1.4167544
-0.35319793 -8.341885 -1.083213 -6.598924 -0.15610695 -3.2471845 -0.86493087 -6.207368
00000000: a018 263e d04f 2cbe 8c0d 47be c5e4 c4c0
00000010: dae3 c1bd ff0f 2dc0 119b d7be 7d3a fec0
00000020: b6a3 8bbe ed1f f6c0 baa0 8ebe 9fab d1c0
00000030: f90a e1be 51b1 c5c0 97fb 91be 413f 04c0
00000040: 0f36 4fbe 2331 cac0 aeb5 23bf 811c efbf
00000050: 3c26 d0bf 1134 67c1 718e d6be 46ba 13c0
00000060: e8ac 89bd 98a9 3e3e 9008 0bbd eeb8 cabe
00000070: 32c7 f3be 6736 ffc0 6f09 43bf 9953 03c1
00000080: 2c69 2a3e 3a46 ee3e c0ad 0e3d 6ff4 a5be
00000090: 1b2b 86bd ac9d 35c0 7707 e9be eabf 00c1
000000a0: b25c 63be 83bb 27bf 4647 533d b500 fdbf
000000b0: 71e2 39bf bb6b 3241 190b c4bb 8f57 36c0
000000c0: 25c6 90be f2a4 2cc0 da2e c13e c232 f33e
000000d0: e697 cdbf 6ec6 aa40 6c1f a5be 1308 edc0
000000e0: 1426 13be 069c d23e 2999 7dbe 726c bbc0
000000f0: 2425 183d 41aa 61c0 9e8d 16be ecdf dcbf
00000100: 137b 4c3e c920 20c0 833a 1ebe 1d40 68c0
00000110: 2cf3 b5be 2173 e9c0 6f7c 86bf a8f1 a8c0
00000120: 4ba8 29bf 76bb e0c0 95ba cfbe a2d3 2ac0
00000130: 2549 a4be 11ae 59c0 c3a8 e2be f09e f7c0
00000140: f3e4 193f a8c2 b1bd bbdf 92bf 8818 80c1
00000150: 0df2 a5bd 86b7 3bc0 30d9 87bd 5683 9c3e
00000160: d16a c2be db46 cdc0 b8b2 8bbd 3d3e febe
00000170: 5624 1040 9062 4e3f 93db 3c3d a19a e0bf
00000180: 74a4 d2be 6da0 00c1 c93f e0be 2598 07c1
00000190: 3a4c 84be 8857 e9bd 9ff9 72bf c16a 81c1
000001a0: 0e63 cd3e f07b 653e 5e0f e63e bbfc 073f
000001b0: 483c a8bf 1d2e 4dc1 b992 3a40 fdb3 3dc0
000001c0: 947a 1abf 9af6 ebc0 16d4 05bf 8fa6 fbc0
000001d0: 420d ebbe 48ac 07c0 9c78 c9be c548 25c0
000001e0: bc50 183e 9852 01c0 0615 40bf d552 e1c0
000001f0: 0ebf ee3e 09c4 01bf a383 0fbf 9770 1ac0
00000200: 121a 84bf b3bb e5c0 ee5f f5be 349f 613e
00000210: dca0 28bf b81b 61c0 4c56 8c3e a620 b73e
00000220: c7c4 dfbd d972 5fc0 b879 c23e cc12 33c0
00000230: 9e40 91bf 532f ccc0 9277 ec3e b6ba a63e
00000240: 346d a9be fb35 d7c0 01ed 79bf a202 afc0
00000250: d8ad 7b3e 0beb 3ec0 694d e9bf 1ce0 20c1
00000260: fb0a 02c0 4d29 3fc1 aaa7 72be df9d 1abf
00000270: 6fc3 d8be 0dcb eac0 4430 383e 58b8 15c0
00000280: 87b0 5abf 4a07 05c0 90bd 6d3d c4e1 30bf
00000290: 2063 093d 5e68 e83e ed72 d4be 8df2 fac0
000002a0: af5f b4be 2cbc 0ebf 6a71 1cbf 19d8 f2c0
000002b0: de06 ea3e bc8c 06be c869 95bf 640c 5bc1
000002c0: 391c 5fbf 1245 86c1 ab8f 123e 5430 08c0
000002d0: c4a1 4abf af86 2ec0 0aec a8bd 4afa 2bc0
000002e0: bf61 15bf 99ba eec0 9317 1ebf 3133 28c0
000002f0: d485 1940 de8c 123f 7cc3 883e 199b 19bf
00000300: 1f06 34be 08f1 3241 e75c 15bf 4e1e 54c0
00000310: 60d9 4d3e e23d c4be 68f7 923e 4f70 0a3f
00000320: cd2b 2abf c65d f6c0 a77b 26bf 4523 5ec0
00000330: 1015 a6bd 627e e13e 6480 873e 3c56 69be
00000340: 4939 6cbe 6efb e4c0 da8a 34bf ce2a f5c0
00000350: f881 9fbe c622 43c0 2667 eabf 86dc a8c0
00000360: a850 d53d 023b 61be 1ac6 2abe e51b fcbf
00000370: 4cfb a2be 82b2 57c0 e04c 5f3e 24b6 c8bf
00000380: e037 8abd c788 a3be dfd9 a1be 221b d5c0
00000390: d934 84bb ef4f 3ac0 e030 e73c a484 143e
000003a0: bc68 3f3e 10dc 23bd 53af 42bf 5498 3fc0
000003b0: eae2 acbe 6bdf fbc0 f394 edbe 0483 8bc1
000003c0: 5599 aabe c0a8 8e3e 4a21 f7be 2e89 04c1
000003d0: e179 413e 0137 0cc0 bdd1 183e 3558 b5bf
000003e0: 5cd6 b4be 5c78 05c1 b9a6 8abf 632a d3c0
000003f0: 80da 1fbe dfd1 4fc0 1c6c 5dbf c2a2 c6c0

linear.bias f4 [512]
-0.08883327 0.22358222 0.45183802 0.30993333 0.27682984 0.24426433 0.2725361 0.8378469
0.22934127 0.7706149 0.43547213 0.4788246 -0.26192716 -0.57071584 0.32130066 0.39175242
-0.35503486 -0.30494314 0.54936564 0.31995156 -0.5317903 0.30985352 -1.1427078 0.7067526
0.6529446 -0.38812736 0.58399904 0.2751979 -0.7007002 0.21992436 0.73579717 0.86674654
0.46750316 0.4916022 0.28044322 0.49091473 0.3407752 0.6337417 0.7137676 0.30907202
-0.68915397 0.36351323 0.40131676 -0.4183643 0.2617051 -0.37033466 0.43751976 0.86165756
0.3104285 0.32742912 -0.41619626 0.3486572 -0.42776066 -0.56788975 0.36865985 -0.24512109
0.33892274 0.3259443 0.7846738 0.8055391 0.65206647 0.36132783 -0.35267243 0.666669
0.46674985 -0.6692872 0.70813 -0.578352 0.57297516 0.7826476 0.5254601 -0.623435
0.26001918 0.4557827 0.51828474 -0.9895683 0.41419384 -0.32272238 0.29438937 0.4748387
0.8986997 -0.17869782 -0.22989681 0.3052813 -0.61723846 0.34547263 -0.35274062 0.3622268
0.33761218 0.8249116 0.86206996 0.54917115 0.33728057 0.7942725 0.6189278 -0.27866197
-0.30969366 0.84184057 -0.5545656 -0.68310964 0.36024144 0.7644195 -0.59512156 -0.45612633
0.2569188 0.36637786 0.6725728 0.53184885 -0.34290472 0.3708712 0.7273534 0.4355343
-0.12229735 0.2563873 0.8894645 -0.4906844 -0.566022 0.8446818 0.2907746 0.23771961
-0.6797293 0.33124813 0.41643363 0.34445593 0.30656475 0.49993265 0.9038973 0.3902144
-0.29339442 0.26175213 -0.57390106 -1.2008691 0.6038909 0.4366905 -0.5377266 0.7436724
0.2758038 0.31749025 0.68230456 0.29108086 -0.34606498 -0.6653655 -0.51464105 0.8165309
-0.36447918 0.39095458 -0.24716276 0.7703656 0.7210575 0.30061433 -0.2606286 0.5585966
0.6429686 -0.3618839 0.35287195 0.67327493 0.8555581 0.5259573 0.37625408 0.686828
0.737993 0.37518474 0.8364997 -0.6241402 -0.6707364 0.33751893 0.28844884 0.51058036
0.4800526 0.386995 -0.41144732 -0.0832988 0.41271332 0.36893392 0.25178748 0.4282094
0.32144627 0.90390766 0.2564462 0.8543389 0.07413305 -0.5565876 0.22690257 0.66247797
0.433527 0.70572716 1.0740842 0.32461417 0.32271996 -0.26484674 -0.22827399 0.8977905
-0.37686625 -0.09850174 0.8596448 -0.39074773 0.2014836 -0.61628646 0.87872344 -0.31776482
0.7426225 -0.1640147 0.40603983 0.31851044 -0.62279695 -0.5955126 -0.5243647 0.2878405
-0.57030773 0.770654 -0.48166436 0.52887416 0.2593484 0.74956506 -0.44611308 0.5520124
0.46092758 -0.3649692 0.27237758 0.41216037 0.3074207 -0.5064218 0.8155924 0.31073448
0.30177376 0.8136603 0.29437238 -0.27047664 -0.54013526 0.8467059 0.5494737 0.5457859
0.42715466 0.66504353 0.27883056 0.36647204 -0.5534726 -0.6768131 0.3452259 -0.5053793
-0.6432737 0.3142227 0.5574155 0.63009953 -0.5794231 0.2147345 1.3199624 0.35734344
0.3560296 0.4305864 0.4495081 -0.6758164 0.52598524 0.29039276 0.28151095 -0.3033056
00000000: 38ee b5bd bdf2 643e 5057 e73e 95af 9e3e
00000010: a4bc 8d3e 6e20 7a3e da89 8b3e 227d 563f
00000020: 70d8 6a3e 0547 453f 34f6 de3e 7f28 f53e
00000030: 511b 86be 6f1a 12bf 8581 a43e c693 c83e
00000040: 21c7 b5be 8221 9cbe 3aa3 0c3f b1d0 a33e
00000050: 6923 08bf 1fa5 9e3e 4044 92bf bded 343f
00000060: 6127 273f a1b8 c6be f680 153f bde6 8c3e
00000070: 1761 33bf da33 613e 345d 3c3f 1ae3 5d3f
00000080: 935c ef3e 49b3 fb3e 4196 8f3e 2d59 fb3e
00000090: 167a ae3e e53c 223f 79b9 363f b03e 9e3e
000000a0: 656c 30bf 681e ba3e 6479 cd3e d833 d6be
000000b0: 36fe 853e 819c bdbe 9702 e03e 9795 5c3f
000000c0: 7cf0 9e3e caa4 a73e ad17 d5be 3283 b23e
000000d0: 7203 dbbe 3961 11bf fcc0 bc3e 0601 7bbe
000000e0: 4887 ad3e 2ce2 a63e 62e0 483f cf37 4e3f
000000f0: d4ed 263f f6ff b83e 7b91 b4be d2aa 2a3f
00000100: d6f9 ee3e 6856 2bbf 0248 353f e00e 14bf
00000110: 80ae 123f 985b 483f 8e84 063f 7099 1fbf
00000120: 3c21 853e 5a5c e93e 4fae 043f 5954 7dbf
00000130: 3711 d43e de3b a5be 34ba 963e 0f1e f33e
00000140: 2f11 663f 90fc 36be 126a 6bbe d54d 9c3e
00000150: 5703 1ebf cae1 b03e 6b9a b4be cb75 b93e
00000160: 81db ac3e 682d 533f 9eb0 5c3f 7b96 0c3f
00000170: 0ab0 ac3e 7155 4b3f 0d72 1e3f c8ac 8ebe
00000180: 2b90 9ebe dd82 573f 03f8 0dbf 46e0 2ebf
00000190: 9171 b83e ffb0 433f e359 18bf 6489 e9be
000001a0: dc8a 833e e195 bb3e bb2d 2c3f 3f27 083f
000001b0: 3591 afbe d4e2 bd3e d533 3a3f 5afe de3e
000001c0: 0877 fabd 3245 833e f2b3 633f fc3a fbbe
000001d0: d1e6 10bf 113d 583f 69e0 943e c56c 733e
000001e0: bd02 2ebf 5b99 a93e ca36 d53e 875c b03e
000001f0: 0ef6 9c3e 2cf7 ff3e d065 673f 2fca c73e
00000200: cb37 96be 6004 863e 2eeb 12bf 14b6 99bf
00000210: 9898 1a3f e695 df3e 73a8 09bf 5061 3e3f
00000220: 2836 8d3e 158e a23e 83ab 2e3f 8d08 953e
00000230: 6e2f b1be 6555 2abf 84bf 03bf 2b08 513f
00000240: 049d babe 332b c83e 3c18 7dbe ae36 453f
00000250: 3997 383f 1fea 993e 1d71 85be 3000 0f3f
00000260: 9799 243f d948 b9be a2ab b43e bf5b 2c3f
00000270: db05 5b3f 23a5 063f 60a4 c03e f6d3 2f3f
00000280: 1ced 3c3f 3718 c03e d824 563f a7c7 1fbf
00000290: 61b5 2bbf 48cf ac3e 91af 933e 65b5 023f
000002a0: 74c9 f53e 3524 c63e 39a9 d2be 9098 aabd
000002b0: 294f d33e e8e4 bc3e 4aea 803e 433e db3e
000002c0: 9b94 a43e 7e66 673f eb4c 833e f4b5 5a3f
000002d0: 12d3 973d 867c 0ebf 2659 683e 2898 293f
000002e0: 40f7 dd3e 89aa 343f 977b 893f d433 a63e
000002f0: 8d3b a53e fe99 87be a8c0 69be 99d5 653f
00000300: 9df4 c0be 48bb c9bd ae11 5c3f 1610 c8be
00000310: b851 4e3e f3c4 1dbf 05f4 603f 12b2 a2be
00000320: 821c 3e3f 78f3 27be 74e4 cf3e cd13 a33e
00000330: 9f6f 1fbf 8473 18bf c43c 06bf d45f 933e
00000340: b0ff 11bf 9549 453f b69c f6be 4c64 073f
00000350: 50c9 843e 7fe3 3f3f ef68 e4be af50 0d3f
00000360: b3fe eb3e 3edd babe 1375 8b3e af06 d33e
00000370: 3f66 9d3e dca4 01bf aaca 503f 9718 9f3e
00000380: 1782 9a3e 0b4c 503f fab7 963e ea7b 8abe
00000390: 4e46 0abf b8c1 583f 4faa 0c3f a0b8 0b3f
000003a0: 04b4 da3e 4b40 2a3f e1c2 8e3e 39a2 bb3e
000003b0: 61b0 0dbf a043 2dbf 73c1 b03e 8a60 01bf
000003c0: 96ad 24bf cce1 a03e c8b2 0e3f 344e 213f
000003d0: 1355 14bf 5ce3 5b3e 87f4 a83f b8f5 b63e
000003e0: 8349 b63e d275 dc3e ed25 e63e 4e02 2dbf
000003f0: f8a6 063f 5cae 943e 3422 903e df4a 9bbe

linear3.weight f4 [3, 512]
0.027870577 -1.2034086 -0.47755408 -0.86636007 -1.168515 -1.0289675 -0.77016044 -0.251979
-1.1790584 -0.21963774 2.2199636 -0.3695144 0.03553761 0.03838749 -0.94826704 -0.8201698
-0.018890886 0.005995594 -0.46544755 -0.811808 0.011117101 -0.7009794 9.061986 -0.34714502
-0.35407072 -0.044066362 1.9808615 -1.0694114 -0.024110546 -0.887053 -0.4095933 -0.2097883
-0.66434366 -0.52909046 -0.89528126 -0.6253232 -0.8047499 -0.3205441 -0.34075567 -0.8672737
-0.02790368 3.0818977 -0.62115103 0.037984323 -0.8364506 0.04371315 -1.3918836 -0.27306092
-0.9039271 -0.934647 -0.022576945 3.581131 -0.003616985 -0.032856815 1.7080532 -1.9404763
-0.7438729 -0.88688016 -0.2567147 -0.25952876 -0.40511173 -0.7209629 -0.039531413 -0.29050866
-0.7690019 -0.008022193 -0.37079924 0.029701065 -0.46945348 -0.41942206 -0.67215574 0.034841415
-0.78099215 -0.65584576 -0.67847764 8.03804 1.8128134 0.003515739 -0.8760561 -0.5967919
-0.22276673 0.0047042556 0.038190078 -0.87661207 0.03299875 -0.73684883 0.043191988 2.08459
4.047215 -0.3499108 -0.266294 -0.41944838 -0.7991103 -0.30675897 -1.2617608 0.014199831
6.6102877 -0.2858435 0.034991343 0.0338636 -0.80239785 -0.3400719 0.040180262 0.026590023
-1.2196943 -0.8446275 -0.3394127 0.995169 0.0425929 -0.41278467 -0.39180666 -0.5420192
-0.03872675 -0.9063483 -0.33410645 0.011692353 -0.029554624 -0.30142406 -1.0168222 5.155755
-0.032763984 -0.9507152 -0.6612223 -0.5476183 -1.0350138 -0.59575385 -0.31884205 -0.71630937
0.009850156 -1.3838907 0.002955217 8.08038 -0.52980024 -0.6886149 0.023308385 -0.31212473
-1.1071433 -0.7902113 -0.32640767 -0.6781866 -0.0012627132 -0.00086516887 0.0077732764 -0.3243971
-0.005141448 -0.69087476 0.028342385 -0.47283345 -0.29270285 -0.74503005 0.024392623 -0.5203756
-0.2500865 5.322129 1.6473707 -0.47375712 -0.22727528 0.57164353 -0.848338 -0.27310166
-0.3298592 -0.5766162 -0.3506532 0.03466678 0.013974756 -0.88624835 -0.44325343 -0.654214
-0.64685243 -0.6525126 0.02312423 -0.03635741 -0.748451 -0.8003509 -0.83833 -0.61686933
-0.7153708 -0.3532858 -1.1130835 -0.37180185 -1.1379107 -0.041996583 -1.0191888 -0.38269785
-0.71858126 -0.35203218 -1.8922042 -0.7658563 -0.9793932 -0.0119932555 -0.009195514 -0.27629125
-0.0026432015 -0.03048091 -0.2949294 -0.012625594 5.060154 0.03858952 -0.24132085 0.031955022
-0.2655455 0.02429923 -0.72190136 -1.0823413 -0.03623052 0.0029332563 -0.009589214 -0.8508638
0.03404915 -0.3106087 0.04246233 -0.58412576 -1.1157429 -0.343424 -0.027682787 -0.58397096
-0.670203 0.033979926 -1.1204593 -0.75032413 -0.9405847 0.03317565 -0.28429595 -0.72926724
-0.8431401 -0.23845352 -0.8844703 0.01013156 -0.035281293 -0.23807806 -0.36351836 0.70925635
-0.56345826 -0.3717416 -0.9208626 -0.75736314 0.011649109 -0.031531084 -0.8477377 0.034489002
-0.010978937 -0.52900904 0.58384854 -0.42029756 0.015893582 0.13154587 6.0486064 -0.84720176
-0.7946775 -0.7295582 -0.42034987 -0.035797246 0.56296 -1.0414033 -0.781026 5.89065
00000000: d650 e43c 4b09 9abf f881 f4be c6c9 5dbf
00000010: e691 95bf 35b5 83bf 3c29 45bf 6403 81be
00000020: 63eb 96bf b7e8 60be e213 0e40 fe30 bdbe
00000030: e38f 113d 333c 1d3d a1c1 72bf a6f6 51bf
00000040: 0fc1 9abc b076 c43b 244f eebe a6d2 4fbf
00000050: 8024 363c 6373 33bf e5fd 1041 febc b1be
00000060: c248 b5be ee7e 34bd df8c fd3f 79e2 88bf
00000070: 7b83 c5bc e815 63bf 37b6 d1be bed2 56be
00000080: 6d12 2abf 7972 07bf 2731 65bf 2e15 20bf
00000090: 1704 4ebf 5b1e a4be 8777 aebe a605 5ebf
000000a0: 4296 e4bc d03d 4540 c103 1fbf 7395 1b3d
000000b0: a021 56bf 8f0c 333d 3e29 b2bf a4ce 8bbe
000000c0: c467 67bf 0745 6fbf 49f3 b8bc 4031 6540
000000d0: f00a 6dbb de94 06bd 7da1 da3f 8761 f8bf
000000e0: 746e 3ebf 940a 63bf 1c70 83be f4e0 84be
000000f0: ce6a cfbe 0691 38bf b1eb 21bd 8dbd 94be
00000100: 4fdd 44bf 846f 03bc 66d9 bdbe a64f f33c
00000110: 355c f0be 7dbe d6be 6612 2cbf dfb5 0e3d
00000120: 1aef 47bf 82e5 27bf b6b0 2dbf d09b 0041
00000130: 450a e83f 5068 663b 3645 60bf 5bc7 18bf
00000140: f61c 64be 2826 9a3b 336d 1c3d a669 60bf
00000150: b329 073d 20a2 3cbf 15ea 303d ec69 0540
00000160: c982 8140 8227 b3be b057 88be f0c1 d6be
00000170: 7e92 4cbf 830f 9dbe 6181 a1bf 68a6 683c
00000180: 7a87 d340 145a 92be 1553 0f3d 8fb4 0a3d
00000190: f269 4dbf e71d aebe 0f94 243d 52d3 d93c
000001a0: f11e 9cbf 8239 58bf 80c7 adbe 65c3 7e3f
000001b0: e575 2e3d 8358 d3be e29a c8be c5c1 0abf
000001c0: f19f 1ebd 7106 68bf 0010 abbe 4891 3f3c
000001d0: 8a1c f2bc 4154 9abe 3b27 82bf f2fb a440
000001e0: 8733 06bd 1262 73bf dd45 29bf b730 0cbf
000001f0: 557b 84bf 5383 18bf 443f a3be 0d60 37bf
00000200: 8c62 213c 5523 b1bf 50ac 413b 3d49 0141
00000210: fda0 07bf 1149 30bf 3af1 be3c d0ce 9fbe
00000220: dfb6 8dbf 4a4b 4abf e81e a7be a39d 2dbf
00000230: a081 a5ba 80cc 62ba f8b6 fe3b 6017 a6be
00000240: 9879 a8bb 2bdd 30bf 4a2e e83c 3a17 f2be
00000250: 26dd 95be 4aba 3ebf 0ad3 c73c 5637 05bf
00000260: 560b 80be e14e aa40 0bdd d23f 4b90 f2be
00000270: daba 68be 3b57 123f ae2c 59bf fbd3 8bbe
00000280: 4ee3 a8be 1f9d 13bf d188 b3be c1fe 0d3d
00000290: 60f6 643c 2ce1 62bf 1df2 e2be 927a 27bf
000002a0: 1f98 25bf 110b 27bf 066f bd3c 82eb 14bd
000002b0: 7c9a 3fbf cce3 4cbf cb9c 56bf 26eb 1dbf
000002c0: 8a22 37bf e0e1 b4be 8579 8ebf d05c bebe
000002d0: 0fa7 91bf 9c04 2cbd c774 82bf f9f0 c3be
000002e0: f1f4 37bf 903d b4be bf33 f2bf 290f 44bf
000002f0: 83b9 7abf 5c7f 44bc c8a8 16bc 0c76 8dbe
00000300: 9039 2dbb 1ab3 f9bc fc00 97be 94db 4ebc
00000310: c8ec a140 0b10 1e3d d01c 77be 45e3 023d
00000320: 94f5 87be 2e0f c73c 87ce 38bf 298a 8abf
00000330: 7466 14bd e03b 403b 141c 1dbc 36d2 59bf
00000340: 1f77 0b3d 1b08 9fbe fbec 2d3d 4489 15bf
00000350: aad0 8ebf 45d5 afbe 03c7 e2bc 1f7f 15bf
00000360: 6c92 2bbf 892e 0b3d 366b 8fbf 3e15 40bf
00000370: 29ca 70bf 31e3 073d 3d8f 91be 42b1 3abf
00000380: 08d8 57bf 292d 74be a56c 62bf d8fe 253c
00000390: 1e83 10bd bcca 73be 141f babe d391 353f
000003a0: cd3e 10bf ea54 bebe a7bd 6bbf 8de2 41bf
000003b0: e8db 3e3c bd26 01bd 5705 59bf 5744 0d3d
000003c0: 00e1 33bc 236d 07bf 1977 153f 3e31 d7be
000003d0: 4233 823c f6b3 063e 2f8e c140 37e2 58bf
000003e0: fc6f 4bbf 54c4 3abf 1938 d7be 22a0 12bd
000003f0: 261e 103f b44c 85bf 52f1 47bf 3480 bc40

linear3.bias f4 [3]
-0.17645521 -0.18164115 -0.20859872
00000000: adb0 34be 2300 3abe e79a 55be
