env2 DQN/log/dqn/ckpt/297000.pth (torch, 14216 bytes, 4 tensors)

linear.weight f4 [512, 2]
0	0x3e2618a0	0.16220331
1	0xbe2c4fd0	-0.16827321
2	0xbe47c90b	-0.19510286
3	0xc0c5169b	-6.1590095
4	0xbdbede63	-0.09319761
5	0xc02bafd7	-2.6826074
6	0xbed65750	-0.4186349
7	0xc0fe789f	-7.9522243
8	0xbe8b963b	-0.27263054
9	0xc0f63e12	-7.695077
10	0xbe8e7a35	-0.27827612
11	0xc0d1e461	-6.5591283
12	0xbedd2a4b	-0.4319633
13	0xc0c6357a	-6.194028
14	0xbe911228	-0.28334165
15	0xc002e93d	-2.0454857
16	0xbe4fe819	-0.20303382
17	0xc0ca620a	-6.3244677
18	0xbf233d69	-0.6376558
19	0xbfec4928	-1.8459826
20	0xbfcf9a0c	-1.6218886
21	0xc16783a1	-14.469636
22	0xbed5d180	-0.41761398
23	0xc0126164	-2.2871943
24	0xbd89ace8	-0.067224324
25	0x3e3ea998	0.18619382
26	0xbd0b0890	-0.033943713
27	0xbecab8ee	-0.39594215
28	0xbeefd8f2	-0.46845204
29	0xc0ffa05b	-7.9883246
30	0xbf410096	-0.7539152
31	0xc1036f82	-8.214724
32	0x3e2a692c	0.16641682
33	0x3eee463a	0.46537954
34	0x3d0eadc0	0.03483367
35	0xbea5f46f	-0.3241305
36	0xbd82e683	-0.06391623
37	0xc0344e21	-2.8172686
38	0xbee634c6	-0.44962138
39	0xc100eabe	-8.05731
40	0xbe635cb2	-0.22203329
41	0xbf27bb83	-0.65520495
42	0x3d5aba58	0.053400367
43	0xbffa50cb	-1.9555906
44	0xbf39e271	-0.7261115
45	0x41326bbb	11.151301
46	0xbb96f8a2	-0.004607276
47	0xc034fce4	-2.8279352
48	0xbe9002cf	-0.28127143
49	0xc02b43eb	-2.6760204
50	0x3ec12eda	0.37731057
51	0x3ef332c2	0.47499663
52	0xbfcc61ff	-1.5967406
53	0x40aa8ec0	5.3299255
54	0xbea46f12	-0.3211599
55	0xc0ed3f7c	-7.4139996
56	0xbe132614	-0.14369994
57	0x3ed29c06	0.4113466
58	0xbe7ce5bd	-0.24697013
59	0xc0bbb0eb	-5.8653464
60	0x3d1d5e47	0.038419988
61	0xc0605108	-3.5049458
62	0xbe14995e	-0.1451163
63	0xbfda1a74	-1.7039323
64	0x3e4e679d	0.20156713
65	0xc01ed17d	-2.4815361
66	0xbe1cef5e	-0.15325686
67	0xc066e18a	-3.6075158
68	0xbeb55a21	-0.35420325
69	0xc0e9bf41	-7.3045964
70	0xbf85efe1	-1.046383
71	0xc0a8526a	-5.2600603
72	0xbf27b1d3	-0.65505713
73	0xc0e0d0ac	-7.0254726
74	0xbecefa05	-0.40425125
75	0xc0297067	-2.6474855
76	0xbea38b61	-0.31942275
77	0xc0584b04	-3.3795786
78	0xbedf6b68	-0.43636632
79	0xc0f7fc3b	-7.74954
80	0x3f19e4f3	0.60114974
81	0xbdb1c2a8	-0.08679706
82	0xbf9247e7	-1.1428193
83	0xc1806835	-16.050882
84	0xbda2b320	-0.07944322
85	0xc03a641e	-2.9123607
86	0xbd87d930	-0.06633222
87	0x3e9c8356	0.3056895
88	0xbebdcd8a	-0.37070876
89	0xc0cdd65c	-6.432417
90	0xbd8bb2b8	-0.06821197
91	0xbefe3e3d	-0.4965686
92	0x401165ee	2.2718463
93	0x3f572370	0.8403845
94	0x3d4537b3	0.048148822
95	0xbfddfa49	-1.7342006
96	0xbed1a703	-0.40947732
97	0xc100ba9c	-8.045559
98	0xbedf5e4f	-0.4362664
99	0xc107af84	-8.4803505
100	0xbe844c3a	-0.25839406
101	0xbde95788	-0.113936484
102	0xbf736c17	-0.95086807
103	0xc1819db7	-16.20201
104	0x3ecd630e	0.40114635
105	0x3e657bf0	0.2241056
106	0x3ee60f5e	0.449336
107	0x3f07fcbb	0.5312001
108	0xbfa78e5a	-1.3090317
109	0xc14da6ba	-12.853205
110	0x403ca04c	2.9472837
111	0xc03d766e	-2.9603534
112	0xbf188ee4	-0.59593034
113	0xc0ec477b	-7.3837256
114	0xbf036602	-0.51327527
115	0xc0fc1eb7	-7.8787494
116	0xbeea46d8	-0.45757174
117	0xc0064bce	-2.0983768
118	0xbec8cbe9	-0.3921807
119	0xc023e295	-2.5607045
120	0x3e1a4036	0.15063557
121	0xc0000cb6	-2.0007758
122	0xbf3e1b4c	-0.742604
123	0xc0e1533d	-7.041411
124	0x3eeebf0e	0.46630138
125	0xbf01c409	-0.5068975
126	0xbf0f2cb0	-0.5592756
127	0xc01912b7	-2.3917673
128	0xbf833512	-1.0250571
129	0xc0e52a8f	-7.161445
130	0xbef55fee	-0.4792475
131	0x3e619f34	0.22033387
132	0xbf284d18	-0.65742636
133	0xc05fb581	-3.4954531
134	0x3e8c564c	0.2740959
135	0x3eb720a6	0.35767096
136	0xbddd09c2	-0.10792877
137	0xc05e146e	-3.469997
138	0x3ec34444	0.3813802
139	0xc031c119	-2.7774107
140	0xbf90bcbc	-1.1307597
141	0xc0cb9a0d	-6.362555
142	0x3eec7792	0.46184975
143	0x3ea6bab6	0.32564324
144	0xbea8b339	-0.32949236
145	0xc0d783fc	-6.7348614
146	0xbf78d2d8	-0.9719672
147	0xc0ae7221	-5.4514318
148	0x3e7d8727	0.24758588
149	0xc03d96cf	-2.9623296
150	0xbfe7906c	-1.8090949
151	0xc121b01b	-10.1054945
152	0xc001a449	-2.0256522
153	0xc13f94c5	-11.973821
154	0xbe72a7aa	-0.23696771
155	0xbf1a9ddf	-0.6039714
156	0xbed504ee	-0.41605324
157	0xc0eb36d1	-7.3504415
158	0x3e3a1781	0.18173029
159	0xc0145af2	-2.3180509
160	0xbf5a3e9f	-0.852518
161	0xc0039de2	-2.0565114
162	0x3d6dbd90	0.05804211
163	0xbf30e1c4	-0.6909449
164	0x3d096320	0.0335418
165	0x3ee8685e	0.45392126
166	0xbed33559	-0.4125164
167	0xc0fb2efc	-7.8494854
168	0xbeb45faf	-0.3522925
169	0xbf0ebc2c	-0.5575588
170	0xbf1a8a3d	-0.60367185
171	0xc0f33967	-7.600757
172	0x3eea06de	0.45708364
173	0xbe068cbc	-0.13139623
174	0xbf94b7dd	-1.1618611
175	0xc15ba1b6	-13.72698
176	0xbf603a64	-0.875891
177	0xc186644d	-16.798975
178	0x3e145772	0.14486483
179	0xc006e2b7	-2.1075876
180	0xbf4a3424	-0.7898581
181	0xc02d1ba0	-2.704811
182	0xbda601ee	-0.08105837
183	0xc02a9ef6	-2.6659522
184	0xbf132e41	-0.5749245
185	0xc0ef306e	-7.474662
186	0xbf1dc2b7	-0.61625236
187	0xc026d339	-2.606642
188	0x4019f8c5	2.4058087
189	0x3f1929fa	0.59829676
190	0x3e88c37c	0.26711643
191	0xbf199b19	-0.60002285
192	0xbe33026c	-0.17481393
193	0x413276a0	11.153961
194	0xbf150aad	-0.58219415
195	0xc052b7ca	-3.2924676
196	0x3e4dd960	0.20102453
197	0xbec43de2	-0.38328463
198	0x3e92f768	0.2870438
199	0x3f0a704f	0.5407762
200	0xbf284847	-0.65735286
201	0xc0f69a0f	-7.706306
202	0xbf2627f1	-0.64904696
203	0xc05cc1f4	-3.449338
204	0xbda61510	-0.08109486
205	0x3ee17e62	0.44041735
206	0x3e878064	0.26465142
207	0xbe69563c	-0.22786802
208	0xbe6cb218	-0.23114812
209	0xc0e51f2e	-7.160056
210	0xbf327f80	-0.697258
211	0xc0f564d8	-7.66856
212	0xbe9eb752	-0.30999237
213	0xc041bdec	-3.027217
214	0xbfe9bff0	-1.82617
215	0xc0a9c951	-5.3058248
216	0x3dd550a8	0.104157746
217	0xbe613b02	-0.21995166
218	0xbe28e215	-0.16492493
219	0xbff96c3d	-1.9486157
220	0xbea25a1a	-0.31709367
221	0xc0565860	-3.349144
222	0x3e61cc3f	0.2205057
223	0xbfc63de2	-1.5487635
224	0xbd8a37e0	-0.067489386
225	0xbea388c7	-0.3194029
226	0xbea11a37	-0.31465313
227	0xc0d57c92	-6.6714563
228	0xbb1ea55a	-0.0024207444
229	0xc038f65a	-2.890036
230	0x3ce730e0	0.028221548
231	0x3e1484a4	0.14503723
232	0x3e3f68bc	0.18692297
233	0xbd23dc10	-0.04000479
234	0xbf425e09	-0.75924736
235	0xc03e3220	-2.9718094
236	0xbeac891c	-0.33698356
237	0xc0fc0b52	-7.876382
238	0xbeede3d3	-0.4646288
239	0xc18bb5df	-17.463804
240	0xbeaa9955	-0.33320108
241	0x3e8ea8c0	0.2786312
242	0xbef33b31	-0.47506097
243	0xc104b9de	-8.295378
244	0x3e438f15	0.1909755
245	0xc00ae856	-2.1704307
246	0x3e1b68e2	0.15176728
247	0xbfb31873	-1.3991836
248	0xbeb4bb48	-0.35299134
249	0xc10587a7	-8.345618
250	0xbf8a05ff	-1.078308
251	0xc0d28069	-6.578175
252	0xbe1e50e0	-0.15460539
253	0xc04e7a0c	-3.2261992
254	0xbf5b9e8e	-0.8578881
255	0xc0c62889	-6.192448

linear.bias f4 [512]
0	0xbdb5ee38	-0.08883327
1	0x3e60bce7	0.2194706
2	0x3ee8c68c	0.4546398
3	0x3e9d7b96	0.3075835
4	0x3e8c85f9	0.27445963
5	0x3e76511c	0.24054378
6	0x3e8a4f9e	0.27013868
7	0x3f5728c5	0.84046584
8	0x3e66bfb4	0.22534066
9	0x3f460b93	0.7736141
10	0x3ee31529	0.4435208
11	0x3ef68221	0.48146155
12	0xbe861b51	-0.26192716
13	0xbf121a6f	-0.57071584
14	0x3ea449c2	0.32087523
15	0x3eca1b31	0.3947387
16	0xbeb5c721	-0.35503486
17	0xbe9c2182	-0.30494314
18	0x3f0d489e	0.5518893
19	0x3ea336d7	0.31877777
20	0xbf082369	-0.5317903
21	0x3ea00dd8	0.31260562
22	0xbf924440	-1.1427078
23	0x3f359bdc	0.7094095
24	0x3f27dedc	0.6557443
25	0xbec6b8a1	-0.38812736
26	0x3f18d7cf	0.597043
27	0x3e8b5d9e	0.27219862
28	0xbf336117	-0.7007002
29	0x3e5d07fa	0.21585074
30	0x3f3d0974	0.7384255
31	0x3f5e9ef1	0.86961275
32	0x3ef0b5d2	0.47013718
33	0x3efd1c50	0.49435663
34	0x3e8d2167	0.27564546
35	0x3f000768	0.500113
36	0x3eb0eea2	0.34557062
37	0x3f22f6c3	0.6365778
38	0x3f377365	0.71660453
39	0x3e9de414	0.30838072
40	0xbf306c65	-0.68915397
41	0x3eb63df7	0.3559415
42	0x3ecece3c	0.4039172
43	0xbed633d8	-0.4183643
44	0x3e8562e5	0.26052013
45	0xbebd9c81	-0.37033466
46	0x3ee374eb	0.4442514
47	0x3f5d41d2	0.8642856
48	0x3e9dcee7	0.30821916
49	0x3ea69016	0.32531804
50	0xbed517ad	-0.41619626
51	0x3eb01a2d	0.3439497
52	0xbedb0372	-0.42776066
53	0xbf116139	-0.56788975
54	0x3ebd63d7	0.36990234
55	0xbe60f007	-0.21966563
56	0x3eaddbbf	0.33956715
57	0x3ea71957	0.3263652
58	0x3f49955e	0.7874354
59	0x3f4ef4cb	0.80842274
60	0x3f278f16	0.65452707
61	0x3ebc20ba	0.36743718
62	0xbeb4917b	-0.35267243
63	0x3f2b5be9	0.6693712
64	0x3ef56dab	0.47935233
65	0xbf2b5668	-0.6692872
66	0x3f360705	0.7110446
67	0xbf140ee0	-0.578352
68	0x3f1362bf	0.5757255
69	0x3f49026b	0.78519315
70	0x3f08bde7	0.5341477
71	0xbf1f9970	-0.623435
72	0x3e82d84b	0.25555643
73	0x3eedc7e5	0.4644157
74	0x3f055e97	0.5209746
75	0xbf7afaf3	-0.9803917
76	0x3ed88690	0.42290163
77	0xbea53bde	-0.32272238
78	0x3e965060	0.29358196
79	0x3ef49449	0.47769383
80	0x3f66d414	0.90167356
81	0xbe36fc90	-0.17869782
82	0xbe6b6a12	-0.22989681
83	0x3e9b1a5d	0.3029355
84	0xbf1e0357	-0.61723846
85	0x3eb09724	0.3449031
86	0xbeb49a6b	-0.35274062
87	0x3eb6fdde	0.3574056
88	0x3eadf523	0.33976087
89	0x3f53d1de	0.82742107
90	0x3f5d76ce	0.86509407
91	0x3f0d46b2	0.55186
92	0x3eac5647	0.33659574
93	0x3f4c09bd	0.7970236
94	0x3f23f99f	0.64052767
95	0xbe8eacc8	-0.27866197
96	0xbea71f47	-0.3264105
97	0x3f584168	0.844748
98	0xbf0df803	-0.5545656
99	0xbf2ee046	-0.68310964
100	0x3eb975e3	0.36222753
101	0x3f4467d9	0.7672096
102	0xbf1859e3	-0.59512156
103	0xbee98964	-0.45612633
104	0x3e81d79d	0.25359812
105	0x3ebd12a6	0.3692829
106	0x3f2cead7	0.6754584
107	0x3f09ec37	0.5387606
108	0xbeaf9135	-0.34290472
109	0x3ebf47cd	0.37359467
110	0x3f3ae0ea	0.7299944
111	0x3ee05382	0.4381371
112	0xbdfa7708	-0.12229735
113	0x3e804225	0.25050464
114	0x3f64630b	0.8921363
115	0xbefb3afc	-0.4906844
116	0xbf10e6d1	-0.566022
117	0x3f58fb47	0.8475842
118	0x3e936e90	0.2879529
119	0x3e77a1a9	0.24182762
120	0xbf2e02bd	-0.6797293
121	0x3ea9a5d9	0.33134344
122	0x3ed6967a	0.4191168
123	0x3eb18a46	0.34675807
124	0x3e9bcec1	0.30431178
125	0x3f02c684	0.5108416
126	0x3f681119	0.9065109
127	0x3ecda876	0.40167588
128	0xbe9637cb	-0.29339442
129	0x3e7e4a9a	0.24833146
130	0xbf12eb2e	-0.57390106
131	0xbf99b614	-1.2008691
132	0x3f1c405f	0.6103572
133	0x3ee307d0	0.44341898
134	0xbf09a873	-0.5377266
135	0x3f3f1870	0.74646664
136	0x3e8bb429	0.2728589
137	0x3ea2ce66	0.31798095
138	0x3f2f62b3	0.6850998
139	0x3e959c01	0.29220584
140	0xbeb12f6e	-0.34606498
141	0xbf2a5565	-0.6653655
142	0xbf03bf84	-0.51464105
143	0x3f51bc26	0.81927717
144	0xbeba9d04	-0.36447918
145	0x3ecbdd5c	0.3981732
146	0xbe7d183c	-0.24716276
147	0x3f45e4d6	0.773023
148	0x3f3951f9	0.72390705
149	0x3e99ebcb	0.30062708
150	0xbe85711d	-0.2606286
151	0x3f0fa875	0.5611642
152	0x3f256057	0.6460013
153	0xbebedf7a	-0.37279874
154	0x3eba1018	0.36340404
155	0x3f2d02fb	0.6758267
156	0x3f5bdc15	0.85882694
157	0x3f08343f	0.5320472
158	0x3ec0fc56	0.37692517
159	0x3f308d63	0.6896574
160	0x3f3da7fa	0.74084437
161	0x3ec170a9	0.37781265
162	0x3f56d01d	0.83911306
163	0xbf1fc7a7	-0.6241402
164	0xbf2bb561	-0.6707364
165	0x3eac72b2	0.33681256
166	0x3e94fd01	0.29099277
167	0x3f059041	0.5217324
168	0x3ef7288c	0.48273122
169	0x3ec7914c	0.3897804
170	0xbed2a939	-0.41144732
171	0xbdaa9890	-0.0832988
172	0x3ed4a4c8	0.41531968
173	0x3ebe896b	0.37214217
174	0x3e7f10e9	0.24908794
175	0x3ee248f7	0.44196293
176	0x3ea7e1b2	0.3278938
177	0x3f680c4b	0.9064376
178	0x3e826487	0.2546732
179	0x3f5b6c34	0.8571198
180	0x3d91c6db	0.07118007
181	0xbf0e7c86	-0.5565876
182	0x3e63c2f7	0.22242342
183	0x3f2a4aa0	0.6652012
184	0x3ee3a333	0.4446045
185	0x3f356b3b	0.70866746
186	0x3f8901f7	1.0703725
187	0x3ea7354a	0.32657844
188	0x3ea4f795	0.3222014
189	0xbe8799fe	-0.26484674
190	0xbe69c0a8	-0.22827399
191	0x3f668f6f	0.9006261
192	0xbec0f49d	-0.37686625
193	0xbdc9bb48	-0.09850174
194	0x3f5cc4bf	0.8623771
195	0xbec81016	-0.39074773
196	0x3e515a99	0.20444717
197	0xbf1dc4f3	-0.61628646
198	0x3f61a3c0	0.8814049
199	0xbea2b212	-0.31776482
200	0x3f3eda51	0.74551874
201	0xbe27f378	-0.1640147
202	0x3ed5dbef	0.4176936
203	0x3ea1f54d	0.31632462
204	0xbf1f6f9f	-0.62279695
205	0xbf187384	-0.5955126
206	0xbf063cc4	-0.5243647
207	0x3e913d16	0.28366917
208	0xbf11ffb0	-0.57030773
209	0x3f460858	0.7735648
210	0xbef69cb6	-0.48166436
211	0x3f08149d	0.53156453
212	0x3e8343cd	0.25637665
213	0x3f40912b	0.7522151
214	0xbee468ef	-0.44611308
215	0x3f0f01bc	0.5586202
216	0x3eed4f02	0.4634934
217	0xbebadd3e	-0.3649692
218	0x3e8a663f	0.27031133
219	0x3ed62d0e	0.4183125
220	0x3e9c3a47	0.30513212
221	0xbf01a4dc	-0.5064218
222	0x3f518ea5	0.81858283
223	0x3ea07a57	0.31343338
224	0x3e992e6f	0.2991824
225	0x3f50f683	0.8162615
226	0x3e9456ff	0.28972623
227	0xbe8a7bea	-0.27047664
228	0xbf0a464e	-0.54013526
229	0x3f5984b2	0.849681
230	0x3f0d5d93	0.5522091
231	0x3f0dbbdc	0.55364776
232	0x3edc06b6	0.4297387
233	0x3f2af2c6	0.6677669
234	0x3e8d127a	0.2755316
235	0x3ebeb3c7	0.37246534
236	0xbf0db061	-0.5534726
237	0xbf2d43a0	-0.6768131
238	0x3eb0bf0a	0.3452075
239	0xbf01608a	-0.5053793
240	0xbf24ad96	-0.6432737
241	0x3ea2127c	0.31654727
242	0x3f10ccd8	0.56562567
243	0x3f21f5ce	0.63265693
244	0xbf145513	-0.5794231
245	0x3e5a765c	0.21334213
246	0x3faa9a99	1.332843
247	0x3eb6af21	0.35680488
248	0x3eb5c52a	0.35501987
249	0x3ee0495b	0.43805966
250	0x3ee76ad8	0.45198703
251	0xbf2d024e	-0.6758164
252	0x3f07c023	0.5302755
253	0x3e92f231	0.28700402
254	0x3e8fa9f5	0.28059354
255	0xbe9a97ed	-0.30194035

linear3.weight f4 [3, 512]
0	0x3ce450d6	0.027870577
1	0xbf9a4467	-1.2052125
2	0xbef3e585	-0.47636047
3	0xbf5e19c0	-0.8675804
4	0xbf95cbcc	-1.1702819
5	0xbf83e9f8	-1.0305777
6	0xbf454650	-0.77060413
7	0xbe80c1b1	-0.25147775
8	0xbf97267c	-1.180862
9	0xbe60361e	-0.21895644
10	0x400e2c8c	2.221469
11	0xbebca14f	-0.3684182
12	0x3d118fe3	0.03553761
13	0x3d1d3c33	0.03838749
14	0xbf72fd57	-0.94917816
15	0xbf51e26e	-0.8198613
16	0xbc9ac10f	-0.018890886
17	0x3bc476b0	0.005995594
18	0xbeedcd3d	-0.46445647
19	0xbf50193f	-0.8128852
20	0x3c362480	0.011117101
21	0xbf3324ec	-0.69978213
22	0x4110fde5	9.061986
23	0xbeb16446	-0.34646815
24	0xbeb4d6a1	-0.3532
25	0xbd347eee	-0.044066362
26	0x3ffd8750	1.9806919
27	0xbf8915fd	-1.0709835
28	0xbcc5837b	-0.024110546
29	0xbf6380f4	-0.8886864
30	0xbed14a59	-0.40877035
31	0xbe5682d6	-0.20948347
32	0xbf29e034	-0.6635773
33	0xbf07114f	-0.52760786
34	0xbf658cee	-0.89668167
35	0xbf2011d7	-0.6252722
36	0xbf4df0b5	-0.80445415
37	0xbea3a2f8	-0.31960273
38	0xbeadf541	-0.33976176
39	0xbf5e4b2b	-0.8683345
40	0xbce49642	-0.02790368
41	0x40455d2f	3.0838125
42	0xbf1ea33b	-0.6196782
43	0x3d1b9573	0.037984323
44	0xbf566366	-0.8374542
45	0x3d330c8f	0.04371315
46	0xbfb390f4	-1.4028611
47	0xbe8bb8d6	-0.27289456
48	0xbf67bc2d	-0.9052151
49	0xbf6f97c6	-0.9359096
50	0xbcb8f349	-0.022576945
51	0x406556f8	3.5834332
52	0xbb6d0af0	-0.003616985
53	0xbd0694de	-0.032856815
54	0x3fdad58a	1.7096417
55	0xbffbcddc	-1.9672198
56	0xbf3e7161	-0.7439175
57	0xbf632c76	-0.88739717
58	0xbe831b1e	-0.25606626
59	0xbe848479	-0.2588232
60	0xbecf42a1	-0.4048052
61	0xbf38733f	-0.7205085
62	0xbd21ebb1	-0.039531413
63	0xbe944990	-0.28962374
64	0xbf44ba8d	-0.76847154
65	0xbc036f84	-0.008022193
66	0xbebd475a	-0.369685
67	0x3cf34fa6	0.029701065
68	0xbeefbea2	-0.4682513
69	0xbed6a3d4	-0.41921866
70	0xbf2c083b	-0.6720006
71	0x3d0eb5df	0.034841415
72	0xbf484a23	-0.78238124
73	0xbf27dc6b	-0.65570706
74	0xbf2d79d3	-0.67764014
75	0x41005bd7	8.022422
76	0x3fe81429	1.8131152
77	0x3b666850	0.003515739
78	0xbf6089b0	-0.87710094
79	0xbf189aaa	-0.59611
80	0xbe636695	-0.222071
81	0x3b9a2628	0.0047042556
82	0x3d1c6d33	0.038190078
83	0xbf60b934	-0.877826
84	0x3d0729b3	0.03299875
85	0xbf3ca607	-0.7369084
86	0x3d30ea15	0.043191988
87	0x40058691	2.0863383
88	0x4081971d	4.0496964
89	0xbeb30c47	-0.34970304
90	0xbe87eba8	-0.2654698
91	0xbed646d8	-0.41850924
92	0xbf4c9d03	-0.7992708
93	0xbe9ca4cc	-0.3059448
94	0xbfa2d3d6	-1.2720897
95	0x3c68a668	0.014199831
96	0x40d20559	6.563153
97	0xbe91e458	-0.28494525
98	0x3d0f5315	0.034991343
99	0x3d0ab48f	0.0338636
100	0xbf4d6423	-0.8023092
101	0xbead9659	-0.3390377
102	0x3d24940f	0.040180262
103	0x3cd9d352	0.026590023
104	0xbf9c59ef	-1.2214946
105	0xbf58282e	-0.8443631
106	0xbead4a4d	-0.3384575
107	0x3f7ec707	0.9952244
108	0x3d2e75e5	0.0425929
109	0xbed2c52c	-0.41166055
110	0xbec81c51	-0.39084104
111	0xbf0ab2a7	-0.5417885
112	0xbd1e9ff1	-0.03872675
113	0xbf686616	-0.9078077
114	0xbeaacf2e	-0.3336119
115	0x3c3f9148	0.011692353
116	0xbcf21c8a	-0.029554624
117	0xbe99e0db	-0.30054364
118	0xbf825b62	-1.0184138
119	0x40a5104d	5.15824
120	0xbd063387	-0.032763984
121	0xbf73a3a5	-0.95171577
122	0xbf2915f6	-0.66049135
123	0xbf0c12bd	-0.5471609
124	0xbf84b012	-1.0366232
125	0xbf18733a	-0.5955082
126	0xbea2e95a	-0.31818658
127	0xbf373aeb	-0.71574277
128	0x3c21628c	0.009850156
129	0xbfb2e982	-1.3977511
130	0x3b41ac50	0.002955217
131	0x4101493d	8.08038
132	0xbf07a423	-0.5298483
133	0xbf30268b	-0.6880881
134	0x3cbef13a	0.023308385
135	0xbe9f83be	-0.311552
136	0xbf8deb05	-1.1087347
137	0xbf4a519b	-0.7903077
138	0xbea69f02	-0.32543188
139	0xbf2d99cd	-0.67812806
140	0xbaa581a0	-0.0012627132
141	0xba62cc80	-0.00086516887
142	0x3bfeb6f8	0.0077732764
143	0xbea5c0b2	-0.32373577
144	0xbba87998	-0.005141448
145	0xbf30bb0e	-0.6903542
146	0x3ce82e4a	0.028342385
147	0xbef1d7f8	-0.47235084
148	0xbe95a938	-0.29230666
149	0xbf3ee5f1	-0.7456961
150	0x3cc7d30a	0.024392623
151	0xbf04fe91	-0.5195094
152	0xbe7f3954	-0.24924213
153	0x40aa0444	5.3130207
154	0x3fd2dffa	1.6474602
155	0xbef2243d	-0.47293273
156	0xbe67dfb6	-0.22643933
157	0x3f1216e8	0.570662
158	0xbf592dfe	-0.84835804
159	0xbe8b8cb5	-0.27255788
160	0xbea867b3	-0.32891616
161	0xbf134425	-0.57525855
162	0xbeb32b68	-0.34994054
163	0x3d0dfec1	0.03466678
164	0x3c64f660	0.013974756
165	0xbf62f49c	-0.88654494
166	0xbee2a670	-0.44267607
167	0xbf2769b4	-0.65395665
168	0xbf254ba8	-0.6456857
169	0xbf26aec3	-0.65110415
170	0x3cbd6f06	0.02312423
171	0xbd14eb82	-0.03635741
172	0xbf3f40b3	-0.747081
173	0xbf4cd10f	-0.800065
174	0xbf56eeba	-0.8395802
175	0xbf1dcfb5	-0.6164506
176	0xbf3707e9	-0.71496445
177	0xbeb4d797	-0.35320732
178	0xbf8eb1df	-1.1148032
179	0xbebe248a	-0.37137252
180	0xbf94308c	-1.1577315
181	0xbd2c049c	-0.041996583
182	0xbf82aac9	-1.020837
183	0xbec37174	-0.38172495
184	0xbf37cdb2	-0.7179824
185	0xbeb3ab7c	-0.3509177
186	0xbff39ede	-1.9032857
187	0xbf440826	-0.76574934
188	0xbf7b0297	-0.98050827
189	0xbc447f5c	-0.0119932555
190	0xbc16a8c8	-0.009195514
191	0xbe8d116a	-0.27552348
192	0xbb2d3990	-0.0026432015
193	0xbcf9b31a	-0.03048091
194	0xbe96a0ec	-0.2941965
195	0xbc4edb94	-0.012625594
196	0x40a1dd6b	5.0582786
197	0x3d1e100b	0.03858952
198	0xbe76e632	-0.2411125
199	0x3d02e345	0.031955022
200	0xbe8787b9	-0.26470736
201	0x3cc70f2e	0.02429923
202	0xbf38a85f	-0.72131914
203	0xbf8aba61	-1.0838128
204	0xbd146674	-0.03623052
205	0x3b403be0	0.0029332563
206	0xbc1d1c14	-0.009589214
207	0xbf5a31cf	-0.8523225
208	0x3d0b771f	0.03404915
209	0xbe9e8c39	-0.30966356
210	0x3d2decfb	0.04246233
211	0xbf1551a3	-0.5832769
212	0xbf8f0b85	-1.117539
213	0xbeaf898b	-0.34284624
214	0xbce2c703	-0.027682787
215	0xbf1580eb	-0.5839984
216	0xbf2b4a70	-0.6691046
217	0x3d0b2e89	0.033979926
218	0xbf8fa489	-1.1222087
219	0xbf3ff5d8	-0.749845
220	0xbf711885	-0.9417804
221	0x3d07e331	0.03317565
222	0xbe911cdd	-0.28342333
223	0xbf3a617c	-0.72805
224	0xbf582a1c	-0.84439254
225	0xbe73984e	-0.23788568
226	0xbf62c941	-0.8858834
227	0x3c25fed8	0.01013156
228	0xbd10831e	-0.035281293
229	0xbe73105e	-0.23736712
230	0xbeb9a1eb	-0.36256346
231	0x3f357391	0.70879465
232	0xbf0fdf06	-0.5619968
233	0xbebdd319	-0.37075117
234	0xbf6c0c0a	-0.9220587
235	0xbf41c199	-0.7568603
236	0x3c3edbe8	0.011649109
237	0xbd0126bd	-0.031531084
238	0xbf5914f3	-0.8479759
239	0x3d0d4457	0.034489002
240	0xbc33e100	-0.010978937
241	0xbf074c09	-0.52850395
242	0x3f15408d	0.5830162
243	0xbed70c5f	-0.42001626
244	0x3c823342	0.015893582
245	0x3e0694b5	0.13142665
246	0x40c14f61	6.04094
247	0xbf58e903	-0.8473055
248	0xbf4b7773	-0.7947914
249	0xbf3aa162	-0.729025
250	0xbed6e712	-0.41973168
251	0xbd12a022	-0.035797246
252	0x3f0feab2	0.5621749
253	0xbf857d7b	-1.0428919
254	0xbf47fc28	-0.78119135
255	0x40bc308b	5.8809257

linear3.bias f4 [3]
0	0xbe34ff9c	-0.17675632
1	0xbe3e06b8	-0.1855725
2	0xbe5880d8	-0.211429
