env2 DQN/log/dqn/ckpt/304000.pth (torch, 14216 bytes, 4 tensors)

linear.weight f4 [512, 2]
000000 a0 18 26 3e d0 4f 2c be 03 80 5d be 06 60 c6 c0
       0.16220331 -0.16827321 -0.21630864 -6.1992216
000010 a2 03 9c bd c5 2e 29 c0 57 7b da be 55 ea ff c0
       -0.076178804 -2.6434796 -0.42672226 -7.997355
000020 c6 ee 92 be 83 ee f7 c0 f9 37 93 be c7 6e d3 c0
       -0.28697795 -7.747865 -0.2875364 -6.6072726
000030 d0 20 d5 be d8 0e c9 c0 9c 9f 88 be 4a a8 00 c0
       -0.41626596 -6.283062 -0.26684272 -2.0102715
000040 1f b8 64 be 3b b4 cb c0 dd aa 1e bf 98 9e e6 bf
       -0.22335862 -6.365751 -0.61979467 -1.8017149
000050 d4 9e cf bf 4c 65 69 c1 fc 3d cd be f9 17 10 c0
       -1.6220345 -14.587231 -0.40086353 -2.2514632
000060 e8 ac 89 bd 98 a9 3e 3e 90 08 0b bd ee b8 ca be
       -0.067224324 0.18619382 -0.033943713 -0.39594215
000070 94 2e ee be 84 e4 00 c1 28 f0 3a bf dc 7e 04 c1
       -0.4651991 -8.05579 -0.730227 -8.280972
000080 2c 69 2a 3e 3a 46 ee 3e c0 ad 0e 3d 6f f4 a5 be
       0.16641682 0.46537954 0.03483367 -0.3241305
000090 1c 9b 44 bd fd 40 32 c0 4f 97 e7 be 45 de 01 c1
       -0.047999486 -2.7852166 -0.45232627 -8.116765
0000a0 b2 5c 63 be 83 bb 27 bf 3d a3 8e 3d d7 b0 f5 bf
       -0.22203329 -0.65520495 0.06964729 -1.9194592
0000b0 71 e2 39 bf bb 6b 32 41 af 9f 46 3c 41 a5 32 c0
       -0.7261115 11.151301 0.0121230325 -2.7913363
0000c0 1b 35 87 be 02 bb 28 c0 da 2e c1 3e c2 32 f3 3e
       -0.26407704 -2.636414 0.37731057 0.47499663
0000d0 b3 c2 cd bf 8b 3f aa 40 9d 84 a8 be b5 cf ee c0
       -1.6075042 5.3202567 -0.32913676 -7.462855
0000e0 14 26 13 be 06 9c d2 3e fe 28 84 be 69 3f bd c0
       -0.14369994 0.4113466 -0.25812525 -5.9139905
0000f0 76 8d 61 3d 6a 03 5e c0 58 fb 02 be 73 d7 d4 bf
       0.05506655 -3.4689584 -0.12791193 -1.662825
000100 0f 7a 5e 3e 25 b2 1c c0 66 76 0b be 09 68 64 c0
       0.21726249 -2.448373 -0.13619384 -3.5688498
000110 b9 02 ba be d9 38 eb c0 1e cf 84 bf cc 4b aa c0
       -0.36330202 -7.3506894 -1.0375707 -5.3217525
000120 76 36 22 bf 74 41 e3 c0 b1 0c c6 be 20 d4 26 c0
       -0.6336435 -7.10174 -0.38681558 -2.606697
000130 e2 a5 9a be d8 af 55 c0 4e b3 df be 54 e2 f9 c0
       -0.30204684 -3.3388577 -0.43691486 -7.808878
000140 f3 e4 19 3f a8 c2 b1 bd 65 87 92 bf 44 4e 81 c1
       0.60114974 -0.08679706 -1.1447569 -16.163216
000150 1b b9 81 bd f9 3f 38 c0 30 d9 87 bd 56 83 9c 3e
       -0.06334134 -2.8789046 -0.06633222 0.3056895
000160 a6 5f ba be 99 4d d0 c0 b8 b2 8b bd 3d 3e fe be
       -0.364011 -6.5094724 -0.06821197 -0.4965686
000170 71 62 15 40 f5 0b 75 3f e0 50 83 3d 3f 94 d9 bf
       2.3341334 0.9572137 0.0641191 -1.6998366
000180 26 f7 d6 be 60 6e 01 c1 97 97 e4 be 53 5f 08 c1
       -0.41985434 -8.089447 -0.44646904 -8.5232725
000190 3a 4c 84 be 88 57 e9 bd ee c5 77 bf 63 6b 82 c1
       -0.25839406 -0.113936484 -0.9678639 -16.302435
0001a0 0e 63 cd 3e f0 7b 65 3e 5e 0f e6 3e bb fc 07 3f
       0.40114635 0.2241056 0.449336 0.5312001
0001b0 12 4a a7 bf 2e 82 4f c1 0a bb 3f 40 56 70 3d c0
       -1.306948 -12.969282 2.995791 -2.9599814
0001c0 1a 5c 14 bf 13 b5 ee c0 a8 85 00 bf 79 4e fe c0
       -0.57953036 -7.459604 -0.50203943 -7.947079
0001d0 b4 69 e1 be 27 c6 03 c0 da a8 bf be 81 20 21 c0
       -0.44025958 -2.0589693 -0.3743351 -2.517609
0001e0 18 e8 29 3e ff 42 fc bf 4f 75 36 bf 99 c8 e3 c0
       0.16592443 -1.9707946 -0.7127275 -7.118237
0001f0 0e bf ee 3e 09 c4 01 bf e0 c1 0a bf b0 9e 16 c0
       0.46630138 -0.5068975 -0.5420208 -2.3534355
000200 b7 b6 7f bf 55 72 e6 c0 ee 5f f5 be 34 9f 61 3e
       -0.99888176 -7.2014565 -0.4792475 0.22033387
000210 e1 bc 23 bf 35 f2 5c c0 4c 56 8c 3e a6 20 b7 3e
       -0.6396008 -3.4522831 0.2740959 0.35767096
000220 c6 36 ba bd 01 9e 5b c0 3d 64 cb 3e 33 a7 2f c0
       -0.090924785 -3.4315188 0.39724913 -2.74458
000230 a5 89 8e bf e3 04 cd c0 92 77 ec 3e b6 ba a6 3e
       -1.1135756 -6.4068465 0.46184975 0.32564324
000240 f4 72 ad be 5e fb d8 c0 ab 37 75 bf 3d 0e b0 c0
       -0.33876765 -6.7806845 -0.9578807 -5.501738
000250 2d f0 86 3e f3 5e 3b c0 c1 59 e3 bf a2 d9 23 c1
       0.26355115 -2.9276702 -1.7761766 -10.240633
000260 c5 d1 00 c0 12 b3 41 c1 aa a7 72 be df 9d 1a bf
       -2.0128033 -12.106218 -0.23696771 -0.6039714
000270 74 a4 d4 be b2 44 ed c0 1b 02 4b 3e 5f e2 11 c0
       -0.41531718 -7.4146357 0.19825022 -2.2794416
000280 01 a8 55 bf 65 cc 00 c0 90 bd 6d 3d c4 e1 30 bf
       -0.8345948 -2.0124753 0.05804211 -0.6909449
000290 20 63 09 3d 5e 68 e8 3e 72 8b d7 be 50 9f fc c0
       0.0335418 0.45392126 -0.42098576 -7.8944473
0002a0 af 5f b4 be 2c bc 0e bf 3f 30 16 bf e1 a6 f5 c0
       -0.3522925 -0.5575588 -0.5866737 -7.676621
0002b0 de 06 ea 3e bc 8c 06 be 7a ed 95 bf 50 02 5d c1
       0.45708364 -0.13139623 -1.1713097 -13.813065
0002c0 fe 99 64 bf 36 43 87 c1 05 79 24 3e a5 d7 04 c0
       -0.89297473 -16.907818 0.1606179 -2.075662
0002d0 f7 9a 45 bf a8 3b 2a c0 ba b5 83 bd 14 43 28 c0
       -0.7718958 -2.6598911 -0.06431146 -2.6290941
0002e0 f5 fd 0c bf 24 67 f2 c0 70 4e 19 bf 6c 4b 24 c0
       -0.5507501 -7.5750904 -0.5988531 -2.5671034
0002f0 e6 81 1b 40 9f 1f 2e 3f 7c c3 88 3e 19 9b 19 bf
       2.4298034 0.68017 0.26711643 -0.60002285
000300 73 c6 4a be 3a cb 31 41 7c 72 10 bf a2 ec 4f c0
       -0.19802265 11.112116 -0.5642469 -3.248818
000310 60 d9 4d 3e e2 3d c4 be 68 f7 92 3e 4f 70 0a 3f
       0.20102453 -0.38328463 0.2870438 0.5407762
000320 e2 76 22 bf fb 35 f9 c0 c3 ae 21 bf eb 2d 5a c0
       -0.6346265 -7.7878394 -0.6315729 -3.4090526
000330 10 15 a6 bd 62 7e e1 3e 64 80 87 3e 3c 56 69 be
       -0.08109486 0.44041735 0.26465142 -0.22786802
000340 54 fe 81 be 84 73 e6 c0 40 c4 2c bf 3c b0 f7 c0
       -0.2538935 -7.201601 -0.67486954 -7.740263
000350 a3 ca 95 be fb 15 3f c0 8e 78 ec bf f0 a7 ae c0
       -0.29256162 -2.9857166 -1.847429 -5.458
000360 a8 50 d5 3d 02 3b 61 be 6a 0f 18 be f7 cd f4 bf
       0.104157746 -0.21995166 -0.1484963 -1.9125355
000370 88 b5 99 be ed 00 54 c0 73 f2 70 3e 0d 42 c2 bf
       -0.3002131 -3.3125565 0.23529987 -1.5176407
000380 e0 37 8a bd c7 88 a3 be bc 35 a5 be 51 1b d7 c0
       -0.067489386 -0.3194029 -0.3226756 -6.7220845
000390 2c 78 67 3c ce a4 36 c0 e0 30 e7 3c a4 84 14 3e
       0.014127772 -2.8538089 0.028221548 0.14503723
0003a0 bc 68 3f 3e 10 dc 23 bd a8 c5 3d bf 35 69 3b c0
       0.18692297 -0.04000479 -0.74129725 -2.9282963
0003b0 83 2e b1 be 01 83 fd c0 45 6c ed be dd e7 8c c1
       -0.34605798 -7.9222417 -0.46371666 -17.613214
0003c0 55 99 aa be c0 a8 8e 3e f2 01 f3 be 05 be 05 c1
       -0.33320108 0.2786312 -0.47462422 -8.3588915
0003d0 c0 95 53 3e 4d be 08 c0 de 4c 29 3e b8 f8 af bf
       0.20662594 -2.136615 0.16533229 -1.3747778
0003e0 4f 90 b7 be 21 68 06 c1 37 b1 87 bf 11 01 d4 c0
       -0.35852286 -8.400422 -1.0600957 -6.62513
0003f0 87 5d 0d be 77 37 4c c0 c9 73 55 bf d9 81 c7 c0
       -0.13805209 -3.1908853 -0.833798 -6.2346005

linear.bias f4 [512]
000000 38 ee b5 bd 2c dd 69 3e ad 7a e9 3e 65 e2 a4 3e
       -0.08883327 0.22838277 0.45601407 0.32203975
000010 90 f7 8d 3e b4 1f 81 3e 14 d7 8e 3e 03 48 57 3f
       0.27727938 0.252195 0.27898467 0.84094256
000020 80 17 70 3e 93 5f 46 3f 51 56 ed 3e 6c 04 f7 3e
       0.23446465 0.77489585 0.46354917 0.4824556
000030 51 1b 86 be 6f 1a 12 bf 5c b6 a9 3e 67 01 d9 3e
       -0.26192716 -0.57071584 0.33146942 0.42383882
000040 21 c7 b5 be 82 21 9c be 75 72 0d 3f 68 33 a8 3e
       -0.35503486 -0.30494314 0.5525277 0.3285172
000050 69 23 08 bf 2f 99 a0 3e 40 44 92 bf ed dd 35 3f
       -0.5317903 0.3136687 -1.1427078 0.71041757
000060 2c 33 28 3f a1 b8 c6 be 20 e6 1b 3f 95 64 91 3e
       0.6570308 -0.38812736 0.6089802 0.2839705
000070 17 61 33 bf e2 23 69 3e 73 50 3d 3f 95 d3 5e 3f
       -0.7007002 0.22767594 0.7395088 0.870416
000080 12 19 f1 3e 58 de fd 3e e4 bf 93 3e 5d a3 02 3f
       0.4708944 0.49583697 0.28857338 0.5103052
000090 7f 8c bb 3e e3 50 23 3f 06 cf 37 3f 4a 19 a4 3e
       0.36630628 0.637953 0.7180027 0.32050544
0000a0 65 6c 30 bf 0f 3e c0 3e 7a 43 cf 3e d8 33 d6 be
       -0.68915397 0.37547347 0.40481168 -0.4183643
0000b0 63 2f 8b 3e 81 9c bd be 45 ac c6 3e 48 56 5d 3f
       0.2718459 -0.37033466 0.38803306 0.8645978
0000c0 38 ef a4 3e 15 82 ad 3e ad 17 d5 be a9 72 b1 3e
       0.3221376 0.33888307 -0.41619626 0.3465779
0000d0 72 03 db be 39 61 11 bf 1a 27 ca 3e 8a 62 5e be
       -0.42776066 -0.56788975 0.39482957 -0.21717277
0000e0 d7 d5 b5 3e ed 39 b0 3e 1f db 49 3f 07 5a 4f 3f
       0.3551471 0.34419194 0.7884998 0.80996746
0000f0 0b 9f 27 3f f8 e5 cb 3e 7b 91 b4 be 7d a8 2b 3f
       0.65477055 0.3982389 -0.35267243 0.6705397
000100 93 6f 05 3f 68 56 2b bf c7 7d 36 3f e0 0e 14 bf
       0.52123374 -0.6692872 0.7128567 -0.578352
000110 91 bc 13 3f 98 2e 49 3f b0 b5 0f 3f 70 99 1f bf
       0.57709605 0.7858672 0.5613661 -0.623435
000120 02 1c 8a 3e 05 be f8 3e 9c 9b 05 3f c9 92 73 bf
       0.26974493 0.48582473 0.52190566 -0.9514585
000130 b6 09 f1 3e de 3b a5 be c5 51 9c 3e a6 32 f5 3e
       0.4707772 -0.32272238 0.30531135 0.47890204
000140 fe 2b 67 3f 90 fc 36 be 12 6a 6b be 62 6e a2 3e
       0.903015 -0.17869782 -0.22989681 0.3172484
000150 57 03 1e bf fb df b8 3e 6b 9a b4 be 20 92 c5 3e
       -0.61723846 0.36108384 -0.35274062 0.38588047
000160 4f 5b a9 3e a4 eb 53 3f 96 de 5d 3f d3 8f 0d 3f
       0.33077475 0.82781434 0.86667764 0.55297583
000170 f1 04 b2 3e f5 60 4c 3f e3 46 23 3f c8 ac 8e be
       0.34769395 0.79835445 0.6378004 -0.27866197
000180 d2 0b 99 be 35 b2 58 3f 03 f8 0d bf 46 e0 2e bf
       -0.2989183 0.8464692 -0.5545656 -0.68310964
000190 e5 58 c3 3e c7 c8 44 3f e3 59 18 bf 64 89 e9 be
       0.3815376 0.7686886 -0.59512156 -0.45612633
0001a0 d5 2b 84 3e 9b 92 c9 3e f6 47 2d 3f fc 87 f3 3e
       0.2581469 0.39369664 0.6768793 0.47564685
0001b0 35 91 af be e6 b8 bf 3e bd 2d 3b 3f 16 79 e0 3e
       -0.34290472 0.37445754 0.73116666 0.4384238
0001c0 08 77 fa bd 27 fa 86 3e 8a 99 64 3f fc 3a fb be
       -0.12229735 0.26362726 0.8929678 -0.4906844
0001d0 d1 e6 10 bf c6 6e 59 3f 28 34 99 3e d9 b6 5f 3e
       -0.566022 0.8493465 0.29922605 0.21847095
0001e0 bd 02 2e bf 77 3a af 3e 86 f8 d6 3e 68 61 b1 3e
       -0.6797293 0.34224293 0.41986483 0.34644628
0001f0 6f 95 9f 3e 9c d0 09 3f 0f 44 68 3f 56 44 e1 3e
       0.31168696 0.5383394 0.9072885 0.4399745
000200 cb 37 96 be 3a cf 4a 3e 2e eb 12 bf 14 b6 99 bf
       -0.29339442 0.19805613 -0.57390106 -1.2008691
000210 9e b6 1b 3f 02 ff f6 3e 73 a8 09 bf 0b 5c 3f 3f
       0.60825527 0.4824143 -0.5377266 0.7474982
000220 f9 c6 91 3e 49 95 a8 3e 6f c4 2f 3f 28 64 9b 3e
       0.28472117 0.32926396 0.6865911 0.3034985
000230 6e 2f b1 be 65 55 2a bf 84 bf 03 bf 9f 08 52 3f
       -0.34606498 -0.6653655 -0.51464105 0.82044405
000240 04 9d ba be 02 a3 dd 3e 3c 18 7d be ff 27 46 3f
       -0.36447918 0.43288428 -0.24716276 0.7740478
000250 ff 8c 39 3f 89 f2 a0 3e 1d 71 85 be c2 db 0f 3f
       0.7248077 0.3143504 -0.2606286 0.561947
000260 06 d5 25 3f 6b 3a c9 be a2 0d cf 3e 5b 3a 2d 3f
       0.6477817 -0.39302382 0.4044009 0.6766717
000270 5d 78 5c 3f 64 73 0c 3f c8 c4 ca 3e e2 c7 30 3f
       0.8612116 0.5486357 0.39603257 0.69054997
000280 bb fe 3d 3f 9b ef c1 3e 8e 01 57 3f a7 c7 1f bf
       0.7421681 0.37878117 0.8398675 -0.6241402
000290 61 b5 2b bf f2 93 b2 3e 29 ef 94 3e 45 c3 0c 3f
       -0.6707364 0.34878498 0.29088715 0.5498546
0002a0 a6 a9 f7 3e a9 2f c8 3e 39 a9 d2 be 90 98 aa bd
       0.4837162 0.39098862 -0.41144732 -0.0832988
0002b0 79 17 d5 3e e5 7f cb 3e 2f 95 86 3e 2e b7 f2 3e
       0.4161947 0.39746013 0.26285693 0.4740538
0002c0 94 0f b3 3e b5 34 68 3f aa 5d 86 3e d5 be 5b 3f
       0.34972823 0.90705425 0.26243335 0.8583806
0002d0 b4 ed 9a 3d 86 7c 0e bf 35 4f 6f 3e e1 9f 2a 3f
       0.075648695 -0.5565876 0.23370059 0.66650206
0002e0 39 6f fa 3e 38 ec 35 3f ca ca 80 3f f3 ef af 3e
       0.4891298 0.71063566 1.0061886 0.34362754
0002f0 7f 30 ab 3e fe 99 87 be a8 c0 69 be 69 e5 66 3f
       0.33435437 -0.26484674 -0.22827399 0.901938
000300 9d f4 c0 be 48 bb c9 bd e5 03 5d 3f 16 10 c8 be
       -0.37686625 -0.09850174 0.8633407 -0.39074773
000310 55 75 a9 3e f3 c4 1d bf 41 bc 61 3f 12 b2 a2 be
       0.3309733 -0.61628646 0.8817788 -0.31776482
000320 a0 36 3f 3f 78 f3 27 be 48 b6 ea 3e 27 ad a9 3e
       0.74692726 -0.1640147 0.45842195 0.33139917
000330 9f 6f 1f bf 84 73 18 bf c4 3c 06 bf 4e 96 98 3e
       -0.62279695 -0.5955126 -0.5243647 0.29802173
000340 b0 ff 11 bf ed 64 46 3f b6 9c f6 be 88 59 08 3f
       -0.57030773 0.7749775 -0.48166436 0.53261614
000350 f0 6d 86 3e 22 cf 40 3f ef 68 e4 be 68 2f 0f 3f
       0.2625575 0.7531606 -0.44611308 0.5593171
000360 7c bb ed 3e 3e dd ba be 1d ba 8c 3e de 3c ea 3e
       0.46432102 -0.3649692 0.27485743 0.45749563
000370 57 96 a3 3e dc a4 01 bf cd 04 52 3f f2 f2 a0 3e
       0.31950638 -0.5064218 0.82038575 0.31435353
000380 be 58 a0 3e 06 15 51 3f dc 4b 9b 3e ea 7b 8a be
       0.31317705 0.81672704 0.30331314 -0.27047664
000390 4e 46 0a bf c0 e7 59 3f 5d a7 0d 3f 34 d4 09 3f
       -0.54013526 0.8511925 0.553335 0.5383942
0003a0 05 7a dc 3e b7 3f 2b 3f 25 21 94 3e de 49 d1 3e
       0.43061844 0.66894096 0.28931537 0.4087667
0003b0 61 b0 0d bf a0 43 2d bf 48 07 b7 3e 8a 60 01 bf
       -0.5534726 -0.6768131 0.35747743 -0.5053793
0003c0 96 ad 24 bf 73 ed a1 3e a5 ba 14 3f a5 11 22 3f
       -0.6432737 0.31626472 0.58097297 0.63308173
0003d0 13 55 14 bf 8d fa 5d 3e 2c b9 ac 3f 04 4d be 3e
       -0.5794231 0.21677609 1.349401 0.37168133
0003e0 73 48 bd 3e 18 2e f3 3e 7f 82 e7 3e 4e 02 2d bf
       0.36969337 0.47496104 0.45216748 -0.6758164
0003f0 2a bb 08 3f ed 7d 9a 3e f5 16 94 3e 4b 97 a0 be
       0.5341059 0.301742 0.28923765 -0.31365427

linear3.weight f4 [3, 512]
000000 d6 50 e4 3c 91 9c 9c bf ea 2c f3 be 0e 39 62 bf
       0.027870577 -1.223528 -0.47495204 -0.8836831
000010 a7 eb 97 bf 6a 2e 86 bf 14 c5 48 bf 12 65 7e be
       -1.186879 -1.0482914 -0.7842572 -0.24843243
000020 30 7c 99 bf 21 16 5c be 89 3d 0f 40 aa e1 ba be
       -1.1991024 -0.21492817 2.2381308 -0.36500293
000030 e3 8f 11 3d 33 3c 1d 3d 71 d0 76 bf 67 1e 54 bf
       0.03553761 0.03838749 -0.96411806 -0.8285889
000040 0f c1 9a bc b0 76 c4 3b 78 16 ed be b7 06 54 bf
       -0.018890886 0.005995594 -0.46306205 -0.82822746
000050 80 24 36 3c 76 29 33 bf e5 fd 10 41 e3 ad b0 be
       0.011117101 -0.6998514 9.061986 -0.34507665
000060 c5 78 b3 be ee 7e 34 bd 50 9f fe 3f ac 3f 8b bf
       -0.35053077 -0.044066362 1.9892368 -1.0878806
000070 7b 83 c5 bc 6c 33 68 bf c3 de d0 be 05 ae 53 be
       -0.024110546 -0.90703464 -0.40794954 -0.20671852
000080 91 29 2a bf 4f c2 06 bf 2b ca 69 bf f6 0b 21 bf
       -0.66469675 -0.5264024 -0.9132411 -0.62908876
000090 43 36 50 bf 27 0b a2 be da b2 ac be ea 49 62 bf
       -0.81332797 -0.31649134 -0.33730203 -0.88394034
0000a0 42 96 e4 bc 22 a9 46 40 7e 65 1e bf 73 95 1b 3d
       -0.02790368 3.104073 -0.61873615 0.037984323
0000b0 4d 9b 5a bf 8f 0c 33 3d ee 9d b8 bf 11 af 8a be
       -0.8539322 0.04371315 -1.4423196 -0.2708669
0000c0 2f db 6b bf 12 99 73 bf 49 f3 b8 bc 6f eb 66 40
       -0.9213132 -0.9515544 -0.022576945 3.6081197
0000d0 f0 0a 6d bb de 94 06 bd 4c 0c dd 3f 8c 70 02 c0
       -0.003616985 -0.032856815 1.7269378 -2.0381193
0000e0 c6 48 41 bf 4d c7 66 bf b9 4f 81 be 3a ee 82 be
       -0.7550167 -0.9014786 -0.25256136 -0.25572377
0000f0 37 ce ce be 6a 3b 3a bf b1 eb 21 bd e0 67 92 be
       -0.40391704 -0.7274691 -0.039531413 -0.28594875
000100 37 cf 45 bf 84 6f 03 bc 9c 8c bb be a6 4f f3 3c
       -0.7726931 -0.008022193 -0.36630714 0.029701065
000110 f5 1b ef be 49 00 d7 be 5d 0d 2d bf df b5 0e 3d
       -0.46701017 -0.41992405 -0.67598516 0.034841415
000120 c5 ad 4c bf bd f0 28 bf 27 e5 2d bf c8 99 ff 40
       -0.7995265 -0.6599234 -0.67927784 7.987522
000130 35 7b e9 3f 50 68 66 3b 3b 93 64 bf 67 c6 18 bf
       1.8240725 0.003515739 -0.89287156 -0.5967774
000140 c8 13 5f be 28 26 9a 3b 33 6d 1c 3d 71 d0 64 bf
       -0.2178489 0.0047042556 0.038190078 -0.89380556
000150 b3 29 07 3d 52 82 3f bf 15 ea 30 3d 82 b8 06 40
       0.03299875 -0.7480823 0.043191988 2.1050115
000160 30 79 82 40 52 60 b2 be ab eb 85 be 02 76 d5 be
       4.0772934 -0.34839112 -0.26156363 -0.41691595
000170 64 a1 4f bf 32 c7 9a be 18 20 a6 bf 68 a6 68 3c
       -0.8110564 -0.302301 -1.2978544 0.014199831
000180 52 5d d1 40 ee 38 90 be 15 53 0f 3d 8f b4 0a 3d
       6.5426416 -0.28168434 0.034991343 0.0338636
000190 f0 fd 4f bf 5c dc ab be 0f 94 24 3d 52 d3 d9 3c
       -0.8124685 -0.33566558 0.040180262 0.026590023
0001a0 0e 86 9e bf e1 79 5a bf 2c f7 ab be 7e 60 80 3f
       -1.238466 -0.8534222 -0.33587015 1.0029447
0001b0 e5 75 2e 3d 24 85 d1 be 8d d7 c6 be fd d9 0a bf
       0.0425929 -0.4092189 -0.38836327 -0.54238874
0001c0 f1 9f 1e bd 22 dd 6c bf 76 f4 a9 be 48 91 3f 3c
       -0.03872675 -0.9252492 -0.3319432 0.011692353
0001d0 8a 1c f2 bc e2 f4 97 be fa 76 84 bf 6b 3c a6 40
       -0.029554624 -0.29679018 -1.0348809 5.1948752
0001e0 87 33 06 bd b1 85 77 bf e0 62 29 bf ff 29 0c bf
       -0.032763984 -0.9668837 -0.66166496 -0.5475158
0001f0 ca b6 86 bf 6b 78 19 bf a7 d5 a1 be 56 64 38 bf
       -1.0524533 -0.5994937 -0.31608316 -0.720281
000200 8c 62 21 3c 73 3d ba bf 50 ac 41 3b 3d 49 01 41
       0.009850156 -1.4550003 0.002955217 8.08038
000210 76 6d 08 bf 10 78 31 bf 3a f1 be 3c 03 5e 9e be
       -0.53292024 -0.69323826 0.023308385 -0.309311
000220 11 14 90 bf 8d 42 4d bf d5 59 a5 be aa 45 30 bf
       -1.1256124 -0.80179673 -0.322951 -0.688563
000230 a0 81 a5 ba 80 cc 62 ba f8 b6 fe 3b 57 9f a4 be
       -0.0012627132 -0.00086516887 0.0077732764 -0.32152817
000240 98 79 a8 bb 8d 1b 32 bf 4a 2e e8 3c 44 41 f2 be
       -0.005141448 -0.6957329 0.028342385 -0.4731542
000250 ea c7 94 be 4d a3 42 bf 0a d3 c7 3c d8 e8 04 bf
       -0.29058772 -0.7603043 0.024392623 -0.5191779
000260 25 8b 7b be 60 0f ae 40 28 36 d4 3f 8a d7 f1 be
       -0.24564798 5.439377 1.6579027 -0.47234756
000270 e3 b1 63 be d2 fc 12 3f 09 f8 5b bf 74 60 8a be
       -0.22235827 0.57417023 -0.85925347 -0.27026713
000280 00 9e a6 be 1d da 12 bf 4a 08 b2 be c1 fe 0d 3d
       -0.3254242 -0.57364064 -0.3477195 0.03466678
000290 60 f6 64 3c 45 2e 66 bf b0 90 e2 be b8 67 28 bf
       0.013974756 -0.8991435 -0.44251013 -0.6578326
0002a0 c8 70 25 bf 83 96 26 bf 06 6f bd 3c 82 eb 14 bd
       -0.64625216 -0.6507341 0.02312423 -0.03635741
0002b0 04 65 3f bf 1d 19 4f bf ba 57 5b bf 06 f4 1e bf
       -0.7476351 -0.80897695 -0.85680735 -0.620911
0002c0 9e ce 38 bf 82 7f b4 be d6 e6 90 bf 08 f3 bd be
       -0.7219027 -0.3525353 -1.1320446 -0.3709948
0002d0 58 1d 9c bf 9c 04 2c bd fe fa 84 bf ea 5b c2 be
       -1.2196455 -0.041996583 -1.0389097 -0.3796075
0002e0 7b db 38 bf f4 d9 b1 be ef bc f4 bf 1c a2 46 bf
       -0.722099 -0.34736598 -1.9120158 -0.7759111
0002f0 76 04 7f bf 5c 7f 44 bc c8 a8 16 bc 78 f3 8a be
       -0.9961618 -0.0119932555 -0.009195514 -0.27138877
000300 90 39 2d bb 1a b3 f9 bc 56 f0 94 be 94 db 4e bc
       -0.0026432015 -0.03048091 -0.29089612 -0.012625594
000310 3c 3d a1 40 0b 10 1e 3d 41 fa 73 be 45 e3 02 3d
       5.038725 0.03858952 -0.23825933 0.031955022
000320 bd 93 85 be 2e 0f c7 3c 95 c6 39 bf 93 d5 8c bf
       -0.26089278 0.02429923 -0.7256864 -1.1002678
000330 74 66 14 bd e0 3b 40 3b 14 1c 1d bc 3e 80 5e bf
       -0.03623052 0.0029332563 -0.009589214 -0.8691443
000340 1f 77 0b 3d ee 67 9c be fb ec 2d 3d 19 75 15 bf
       0.03404915 -0.30548042 0.04246233 -0.583818
000350 fb 41 91 bf bb c2 ae be 03 c7 e2 bc f3 58 16 bf
       -1.1348261 -0.34132943 -0.027682787 -0.58729476
000360 6c 50 2b bf 89 2e 0b 3d a1 cc 91 bf 79 a3 41 bf
       -0.6691959 0.033979926 -1.1390573 -0.75640064
000370 aa 2a 75 bf 31 e3 07 3d 3b e2 8e be 48 74 3a bf
       -0.95768225 0.03317565 -0.27906975 -0.7283368
000380 cf 5d 5c bf e0 31 70 be dd fa 66 bf d8 fe 25 3c
       -0.8608064 -0.23456526 -0.90226537 0.01013156
000390 1e 83 10 bd 29 e9 6e be 14 1e b8 be 79 b9 36 3f
       -0.035281293 -0.23331131 -0.35960448 0.7137676
0003a0 0d 85 0f bf 1d 76 bc be 28 46 70 bf cf 64 43 bf
       -0.56062394 -0.36808863 -0.9385705 -0.76325697
0003b0 e8 db 3e 3c bd 26 01 bd 8e 38 5c bf 57 44 0d 3d
       0.011649109 -0.031531084 -0.86023796 0.034489002
0003c0 00 e1 33 bc 45 4e 07 bf ef 3b 16 3f df d1 d6 be
       -0.010978937 -0.52853805 0.586852 -0.41956994
0003d0 42 33 82 3c 22 c3 0d 3e 8a 77 c1 40 79 d7 5b bf
       0.015893582 0.13843969 6.045842 -0.8587566
0003e0 62 65 4e bf 80 e6 3b bf 2a f6 d5 be 22 a0 12 bd
       -0.8062345 -0.7339859 -0.4178937 -0.035797246
0003f0 76 d3 10 3f 8c af 87 bf 1d 0a 4b bf b2 8d c0 40
       0.56572664 -1.0600448 -0.79312307 6.017297

linear3.bias f4 [3]
000000 27 f6 31 be 96 4b 40 be 9e 34 5d be
       -0.17379056 -0.18778834 -0.21602103
