env2 DQN/log/dqn/ckpt/306000.pth (torch, 14216 bytes, 4 tensors)

linear.weight f4 [512, 2]
000000 a0 18 26 3e d0 4f 2c be 18 8e 6b be 1d b8 c5 c0
       0.16220331 -0.16827321 -0.23003423 -6.178725
000010 b5 25 8d bd 94 87 27 c0 f0 6c de be 77 06 00 c1
       -0.06891958 -2.61765 -0.43442488 -8.001578
000020 cd 80 98 be 98 2a f7 c0 52 0a 99 be b3 03 d3 c0
       -0.29785767 -7.7239494 -0.29890686 -6.5942016
000030 a2 7d d8 be 20 32 c9 c0 c7 6a 85 be a5 eb fd bf
       -0.4228335 -6.287369 -0.26058027 -1.9837538
000040 0a 66 73 be 81 03 cb c0 da ce 1c bf 7d 09 e3 bf
       -0.23769394 -6.3441777 -0.6125313 -1.773727
000050 09 d7 d0 bf 89 2c 6a c1 69 b0 c9 be 48 80 0e c0
       -1.6315624 -14.635873 -0.39392403 -2.2265797
000060 e8 ac 89 bd 98 a9 3e 3e 90 08 0b bd ee b8 ca be
       -0.067224324 0.18619382 -0.033943713 -0.39594215
000070 a6 40 f2 be 42 f4 00 c1 14 8e 3c bf 72 9e 04 c1
       -0.47314948 -8.059633 -0.73654294 -8.288683
000080 2c 69 2a 3e 3a 46 ee 3e c0 ad 0e 3d 6f f4 a5 be
       0.16641682 0.46537954 0.03483367 -0.3241305
000090 25 b4 2b bd 86 a3 30 c0 51 ce ea be 26 f9 01 c1
       -0.041919846 -2.7599807 -0.45860532 -8.123327
0000a0 b2 5c 63 be 83 bb 27 bf aa 16 9b 3d 50 39 f2 bf
       -0.22203329 -0.65520495 0.07572682 -1.892374
0000b0 71 e2 39 bf bb 6b 32 41 56 87 9e 3c 9a 0d 31 c0
       -0.7261115 11.151301 0.019351643 -2.7664552
0000c0 71 71 83 be ac 12 27 c0 da 2e c1 3e c2 32 f3 3e
       -0.25672486 -2.6105146 0.37731057 0.47499663
0000d0 46 9a ce bf 7c 23 aa 40 96 30 ae be 18 61 ee c0
       -1.614083 5.3168316 -0.34021443 -7.4493523
0000e0 14 26 13 be 06 9c d2 3e 28 30 8a be 75 e4 bc c0
       -0.14369994 0.4113466 -0.26989865 -5.902888
0000f0 92 90 7f 3d 49 76 5c c0 b2 15 f8 bd 87 42 d1 bf
       0.062393732 -3.4447196 -0.12113513 -1.6348428
000100 f9 2f 64 3e 7f f9 1a c0 f9 9f 03 be ba d5 62 c0
       0.22283925 -2.421478 -0.12853993 -3.5442948
000110 98 78 bf be 71 f5 ea c0 2f 36 85 bf 63 25 ab c0
       -0.37396693 -7.342461 -1.040716 -5.348314
000120 65 8a 23 bf 48 71 e3 c0 fb 2c c2 be b9 2b 25 c0
       -0.6388305 -7.1075783 -0.37924942 -2.5807936
000130 a0 c3 96 be cd 08 54 c0 d0 6d e3 be 2e 15 fa c0
       -0.29446125 -3.3130372 -0.44419718 -7.8150854
000140 f3 e4 19 3f a8 c2 b1 bd 01 9a 93 bf 27 77 81 c1
       0.60114974 -0.08679706 -1.1531373 -16.18318
000150 b0 e6 69 bd 16 9f 36 c0 30 d9 87 bd 56 83 9c 3e
       -0.057104766 -2.8534598 -0.06633222 0.3056895
000160 62 60 be be 59 44 d0 c0 b8 b2 8b bd 3d 3e fe be
       -0.3718291 -6.508343 -0.06821197 -0.4965686
000170 58 c1 15 40 dc 66 83 3f 31 c9 8e 3d a9 0b d6 bf
       2.3399258 1.0265765 0.06971968 -1.6722308
000180 50 bd db be d5 6b 01 c1 5c 6a e9 be f1 5f 08 c1
       -0.4291787 -8.088826 -0.45588958 -8.523423
000190 3a 4c 84 be 88 57 e9 bd ee c1 78 bf 6a ae 82 c1
       -0.25839406 -0.113936484 -0.97170913 -16.335163
0001a0 0e 63 cd 3e f0 7b 65 3e 5e 0f e6 3e bb fc 07 3f
       0.40114635 0.2241056 0.449336 0.5312001
0001b0 b5 81 a8 bf cc 40 50 c1 88 71 3f 40 d7 a6 3d c0
       -1.3164583 -13.01582 2.9913044 -2.963308
0001c0 57 39 16 bf d8 19 ef c0 3d 9f 02 bf 58 8a fe c0
       -0.58681244 -7.4719048 -0.5102423 -7.9543877
0001d0 f1 a3 dd be 52 1e 02 c0 a4 6e bb be 62 80 1f c0
       -0.4328914 -2.0331006 -0.3660785 -2.4922109
0001e0 6c 44 2f 3e 97 e3 f8 bf ed 6f 37 bf 11 4f e4 c0
       0.17115945 -1.9444455 -0.7165516 -7.1346517
0001f0 0e bf ee 3e 09 c4 01 bf ab cf 08 bf 26 0b 15 c0
       0.46630138 -0.5068975 -0.53441876 -2.3288054
000200 b8 73 80 bf f8 5b e7 c0 ee 5f f5 be 34 9f 61 3e
       -1.0035315 -7.2299767 -0.4792475 0.22033387
000210 e8 9e 21 bf 08 55 5b c0 4c 56 8c 3e a6 20 b7 3e
       -0.63133097 -3.427065 0.2740959 0.35767096
000220 be dd aa bd 61 05 5a c0 04 a2 ce 3e 92 07 2e c0
       -0.08343075 -3.4065783 0.40357983 -2.719212
000230 de 1e 8f bf 29 de cd c0 92 77 ec 3e b6 ba a6 3e
       -1.1181295 -6.433369 0.46184975 0.32564324
000240 08 88 b2 be 16 d7 d8 c0 fd 4f 76 bf b3 e9 b0 c0
       -0.3486941 -6.7762556 -0.962158 -5.5285277
000250 6c f8 89 3e df a6 39 c0 89 82 e2 bf a2 8b 24 c1
       0.26947343 -2.90081 -1.7696086 -10.28409
000260 ca 85 01 c0 c0 5d 42 c1 aa a7 72 be df 9d 1a bf
       -2.0237908 -12.147888 -0.23696771 -0.6039714
000270 fb 90 d8 be d5 75 ed c0 e5 7c 51 3e dc 1c 10 c0
       -0.4229811 -7.420634 0.204578 -2.2517614
000280 4e bf 53 bf af 12 fe bf 90 bd 6d 3d c4 e1 30 bf
       -0.8271378 -1.9849452 0.05804211 -0.6909449
000290 20 63 09 3d 5e 68 e8 3e b1 a3 db be cd c2 fc c0
       0.0335418 0.45392126 -0.42898324 -7.8987794
0002a0 af 5f b4 be 2c bc 0e bf ba df 17 bf 24 0b f6 c0
       -0.3522925 -0.5575588 -0.59325755 -7.68886
0002b0 de 06 ea 3e bc 8c 06 be 45 24 97 bf 39 b4 5d c1
       0.45708364 -0.13139623 -1.1807944 -13.8565
0002c0 70 5b 66 bf bd 6c 87 c1 e1 78 2a 3e 69 2d 03 c0
       -0.8998327 -16.928095 0.16647674 -2.0496466
0002d0 dd a5 43 bf 54 7a 28 c0 69 48 6a bd 95 a6 26 c0
       -0.7642496 -2.6324663 -0.057197962 -2.6039174
0002e0 3d c9 0e bf c2 af f2 c0 ff 4d 17 bf ad b6 22 c0
       -0.55775815 -7.583955 -0.5910339 -2.5423996
0002f0 22 b0 1b 40 ce 76 3e 3f 7c c3 88 3e 19 9b 19 bf
       2.4326253 0.7440003 0.26711643 -0.60002285
000300 ac bc 2c be a3 c3 31 41 84 49 0e bf b1 51 4e c0
       -0.16868848 11.110263 -0.55580926 -3.223736
000310 60 d9 4d 3e e2 3d c4 be 68 f7 92 3e 4f 70 0a 3f
       0.20102453 -0.38328463 0.2870438 0.5407762
000320 79 84 24 bf db 94 f9 c0 86 a7 1f bf eb 98 58 c0
       -0.6426464 -7.799421 -0.62364995 -3.3843334
000330 10 15 a6 bd 62 7e e1 3e 64 80 87 3e 3c 56 69 be
       -0.08109486 0.44041735 0.26465142 -0.22786802
000340 63 68 88 be f2 aa e5 c0 b8 70 2e bf c9 f1 f7 c0
       -0.2664214 -7.1771173 -0.68140745 -7.748265
000350 3e f8 91 be a0 64 3d c0 4a c8 ed bf d8 f8 af c0
       -0.28509706 -2.9592667 -1.8576748 -5.4991264
000360 a8 50 d5 3d 02 3b 61 be 7e d6 11 be 5f 59 f1 bf
       0.104157746 -0.21995166 -0.14241979 -1.8855399
000370 0a dc 95 be ee 78 52 c0 ab 3c 75 3e 53 9d be bf
       -0.2926944 -3.288631 0.23948924 -1.4891762
000380 e0 37 8a bd c7 88 a3 be 6c c2 a9 be 52 f2 d6 c0
       -0.067489386 -0.3194029 -0.33156145 -6.71708
000390 eb 71 aa 3c 69 f9 34 c0 e0 30 e7 3c a4 84 14 3e
       0.020806273 -2.8277228 0.028221548 0.14503723
0003a0 bc 68 3f 3e 10 dc 23 bd fb 9b 3b bf ce cf 39 c0
       0.18692297 -0.04000479 -0.7328488 -2.9033084
0003b0 df e6 b6 be 98 09 fd c0 1d 56 de be 3d 56 8d c1
       -0.35723016 -7.907421 -0.43425074 -17.667109
0003c0 55 99 aa be c0 a8 8e 3e be 05 f7 be 54 d5 05 c1
       -0.33320108 0.2786312 -0.48246568 -8.364582
0003d0 0b 0c 59 3e ed f9 06 c0 12 70 2c 3e cf 72 ac bf
       0.21196 -2.1090043 0.16839626 -1.3472537
0003e0 40 7c bd be f6 12 06 c1 7c 55 88 bf 1d e9 d4 c0
       -0.37008858 -8.379629 -1.0651088 -6.653456
0003f0 26 65 06 be 72 99 4a c0 23 88 56 bf 01 57 c8 c0
       -0.13124523 -3.1656156 -0.8380148 -6.2606206

linear.bias f4 [512]
000000 38 ee b5 bd 46 04 6d 3e a5 ef e9 3e 1c bb a1 3e
       -0.08883327 0.23146161 0.45690647 0.31588066
000010 cb ac 91 3e 7d 8e 81 3e 92 0c 8c 3e 18 79 57 3f
       0.28452143 0.25304022 0.2735334 0.8416915
000020 c7 71 73 3e 96 9a 46 3f 9a eb e0 3e 92 6d f7 3e
       0.23773871 0.7757963 0.4392975 0.48325783
000030 51 1b 86 be 6f 1a 12 bf d5 88 a6 3e 60 68 d5 3e
       -0.26192716 -0.57071584 0.3252627 0.41681194
000040 21 c7 b5 be 82 21 9c be 8d a5 0d 3f f9 fe a4 3e
       -0.35503486 -0.30494314 0.55330735 0.3222578
000050 69 23 08 bf 89 11 a1 3e 40 44 92 bf af 11 36 3f
       -0.5317903 0.3145869 -1.1427078 0.71120733
000060 de 6b 28 3f a1 b8 c6 be f2 0f 1c 3f fc 21 92 3e
       0.6578959 -0.38812736 0.6096183 0.28541553
000070 17 61 33 bf 91 70 68 3e 61 84 3d 3f 9a 09 5f 3f
       -0.7007002 0.2269919 0.7403012 0.87124026
000080 d3 8b f1 3e 77 50 fe 3e 7f 11 93 3e f8 23 ff 3e
       0.4717699 0.49670765 0.28724286 0.4983213
000090 d4 18 b9 3e f3 89 23 3f 3f 08 38 3f e7 75 a0 3e
       0.36151755 0.6388237 0.7188758 0.31339952
0000a0 65 6c 30 bf 0d 4c c4 3e 0f b1 cf 3e d8 33 d6 be
       -0.68915397 0.38339272 0.40564772 -0.4183643
0000b0 6d 68 89 3e 81 9c bd be b7 c8 bd 3e 50 89 5d 3f
       0.26837483 -0.37033466 0.37067196 0.8653765
0000c0 4c 9c a2 3e 5b f6 aa 3e ad 17 d5 be df 66 b4 3e
       0.3175987 0.3339108 -0.41619626 0.35234734
0000d0 72 03 db be 39 61 11 bf 84 61 be 3e d3 a2 84 be
       -0.42776066 -0.56788975 0.37183774 -0.25905475
0000e0 80 88 b0 3e 2a f0 ab 3e 21 10 4a 3f 44 92 4f 3f
       0.3447914 0.33581668 0.7893086 0.8108256
0000f0 20 d1 27 3f 45 9f c7 3e 7b 91 b4 be a3 dc 2b 3f
       0.65553474 0.389887 -0.35267243 0.6713354
000100 4c a6 01 3f 68 56 2b bf 51 ba 36 3f e0 0e 14 bf
       0.50644374 -0.6692872 0.71378046 -0.578352
000110 17 f5 13 3f 0e 62 49 3f 29 1e 0c 3f 70 99 1f bf
       0.5779585 0.78665245 0.5473352 -0.623435
000120 0f 8a 88 3e 08 dd f1 3e 3c d6 05 3f 34 67 78 bf
       0.2666783 0.47238946 0.5228002 -0.97032475
000130 b0 43 e5 3e de 3b a5 be a4 a2 98 3e 18 af f5 3e
       0.44778204 -0.32272238 0.29811585 0.47985148
000140 96 66 67 3f 90 fc 36 be 12 6a 6b be 2a 2e 9f 3e
       0.9039091 -0.17869782 -0.22989681 0.31089908
000150 57 03 1e bf f0 e6 b3 3e 6b 9a b4 be 7e 8a bb 3e
       -0.61723846 0.3513713 -0.35274062 0.366291
000160 f2 ce b0 3e 4f 1d 54 3f 2c 1c 5e 3f 3e c6 0d 3f
       0.34532887 0.8285722 0.86761737 0.5538062
000170 f2 eb ad 3e 00 97 4c 3f 82 40 1f 3f c8 ac 8e be
       0.33969074 0.7991791 0.62207806 -0.27866197
000180 8a f7 a2 be 3e ec 58 3f 03 f8 0d bf 46 e0 2e bf
       -0.31829482 0.84735477 -0.5545656 -0.68310964
000190 39 bd bd 3e c6 00 45 3f e3 59 18 bf 64 89 e9 be
       0.37058428 0.76954305 -0.59512156 -0.45612633
0001a0 d2 7d 87 3e 23 c5 c5 3e d0 82 2d 3f b2 ab e6 3e
       0.2646318 0.38626966 0.6777773 0.45052868
0001b0 35 91 af be c8 29 c0 3e b6 61 3b 3f e4 eb e0 3e
       -0.34290472 0.37531877 0.7319597 0.4392997
0001c0 08 77 fa bd c6 01 86 3e 65 ce 64 3f fc 3a fb be
       -0.12229735 0.26173228 0.89377433 -0.4906844
0001d0 d1 e6 10 bf 6e a9 59 3f c3 59 9a 3e 14 37 68 3e
       -0.566022 0.85024154 0.30146608 0.2267726
0001e0 bd 02 2e bf 42 9d ab 3e 89 6e d7 3e 88 c7 b1 3e
       -0.6797293 0.33518416 0.4207652 0.34722543
0001f0 59 65 a2 3e 86 e1 05 3f 58 76 68 3f 0c 80 da 3e
       0.31717947 0.52297246 0.9080558 0.42675817
000200 cb 37 96 be 7e d1 52 3e 2e eb 12 bf 14 b6 99 bf
       -0.29339442 0.20587727 -0.57390106 -1.2008691
000210 ee 4f 18 3f 2c c7 f0 3e 73 a8 09 bf db 93 3f 3f
       0.59496963 0.47026956 -0.5377266 0.74834985
000220 28 d1 92 3e f8 14 a4 3e 93 fb 2f 3f c5 52 97 3e
       0.286752 0.32047248 0.68743247 0.29555336
000230 6e 2f b1 be 65 55 2a bf 84 bf 03 bf c9 3e 52 3f
       -0.34606498 -0.6653655 -0.51464105 0.8212705
000240 04 9d ba be 0f 72 d7 3e 3c 18 7d be e0 5e 46 3f
       -0.36447918 0.42079207 -0.24716276 0.7748852
000250 27 c6 39 3f 4a d6 9d 3e 1d 71 85 be c8 10 10 3f
       0.7256798 0.30827552 -0.2606286 0.56275606
000260 13 12 26 3f 86 20 ba be f8 4c c2 3e bb 6d 2d 3f
       0.6487133 -0.36352938 0.37949347 0.6774556
000270 4c bc 5c 3f 39 39 0f 3f 92 08 c5 3e 97 ff 30 3f
       0.8622482 0.5594669 0.384831 0.6914
000280 f1 38 3e 3f ca 5d c2 3e fe 34 57 3f a7 c7 1f bf
       0.74305636 0.3796218 0.84065235 -0.6241402
000290 61 b5 2b bf 08 ff ae 3e 3c 5e 95 3e 6b b5 08 3f
       -0.6707364 0.34178948 0.29173458 0.5340182
0002a0 b1 1c f8 3e 3b a8 c8 3e 39 a9 d2 be 90 98 aa bd
       0.4845939 0.3919085 -0.41144732 -0.0832988
0002b0 ff 87 d5 3e db 45 c8 3e e9 01 84 3e 99 a2 eb 3e
       0.4170532 0.39115795 0.25782707 0.4602249
0002c0 70 fb af 3e 34 66 68 3f 30 48 89 3e 2d f7 5b 3f
       0.3437152 0.9078095 0.26812887 0.85924035
0002d0 3f 7f 8c 3d 86 7c 0e bf fc c6 6f 3e 36 d6 2a 3f
       0.06860208 -0.5565876 0.2341575 0.6673311
0002e0 cf ec f3 3e 34 29 36 3f a4 1c 80 3f 8d a9 aa 3e
       0.47641608 0.7115662 1.000874 0.33332482
0002f0 f6 d3 a7 3e fe 99 87 be a8 c0 69 be fc 1d 67 3f
       0.327789 -0.26484674 -0.22827399 0.9028013
000300 9d f4 c0 be 48 bb c9 bd 74 39 5d 3f 16 10 c8 be
       -0.37686625 -0.09850174 0.8641579 -0.39074773
000310 38 d2 a9 3e f3 c4 1d bf 51 ef 61 3f 12 b2 a2 be
       0.33168197 -0.61628646 0.8825579 -0.31776482
000320 4a 70 3f 3f 78 f3 27 be de ef e3 3e f4 40 a9 3e
       0.74780715 -0.1640147 0.44518942 0.33057368
000330 9f 6f 1f bf 84 73 18 bf c4 3c 06 bf 9b 66 97 3e
       -0.62279695 -0.5955126 -0.5243647 0.2957047
000340 b0 ff 11 bf 1c a1 46 3f b6 9c f6 be ba 92 08 3f
       -0.57030773 0.77589583 -0.48166436 0.53348887
000350 b4 32 89 3e 12 03 41 3f ef 68 e4 be f4 7d 0c 3f
       0.26796496 0.7539531 -0.44611308 0.5487969
000360 4d 28 ee 3e 3e dd ba be a9 09 90 3e 59 76 e4 3e
       0.46515122 -0.3649692 0.2813237 0.44621542
000370 47 3d a0 3e dc a4 01 bf 7c 42 52 3f 54 69 a1 3e
       0.3129675 -0.5064218 0.821327 0.3152567
000380 cf 91 9d 3e c5 44 51 3f 3e 14 9a 3e ea 7b 8a be
       0.30775306 0.8174556 0.3009357 -0.27047664
000390 4e 46 0a bf e3 22 5a 3f 92 de 0d 3f 55 33 06 3f
       -0.54013526 0.8520948 0.5541774 0.52422076
0003a0 38 e5 dc 3e 80 76 2b 3f ee 11 91 3e 1a 92 cb 3e
       0.4314363 0.6697769 0.28333992 0.39759904
0003b0 61 b0 0d bf a0 43 2d bf 07 47 b3 3e 8a 60 01 bf
       -0.5534726 -0.6768131 0.35015127 -0.5053793
0003c0 96 ad 24 bf dd 53 a2 3e b4 1f 16 3f c5 46 22 3f
       -0.6432737 0.31704608 0.58642125 0.63389236
0003d0 13 55 14 bf cc 26 5f 3e 7e 86 ac 3f f0 47 b9 3e
       -0.5794231 0.21792144 1.3478544 0.36187696
0003e0 b2 a6 b8 3e 59 cf ed 3e e2 e8 e7 3e 4e 02 2d bf
       0.36064678 0.46447256 0.45294863 -0.6758164
0003f0 f2 81 0c 3f 01 80 99 3e ba 72 90 3e 13 8c 9b be
       0.5488578 0.29980472 0.2821253 -0.30380306

linear3.weight f4 [3, 512]
000000 d6 50 e4 3c ac 79 9c bf ca 2f f2 be ae 15 62 bf
       0.027870577 -1.2224631 -0.47302085 -0.8831433
000010 49 ac 97 bf 48 1a 86 bf d8 da 48 bf d2 d2 7d be
       -1.1849452 -1.047677 -0.7845893 -0.24787453
000020 83 5a 99 bf 96 fa 5b be 29 aa 0f 40 bf 7d ba be
       -1.1980747 -0.2148231 2.2447608 -0.36424062
000030 e3 8f 11 3d 33 3c 1d 3d d9 b2 76 bf d5 43 54 bf
       0.03553761 0.03838749 -0.9636665 -0.82916003
000040 0f c1 9a bc b0 76 c4 3b ca 2a ec be ab da 53 bf
       -0.018890886 0.005995594 -0.46126395 -0.82755536
000050 80 24 36 3c cb 72 32 bf e5 fd 10 41 d2 e3 af be
       0.011117101 -0.6970641 9.061986 -0.343535
000060 8f f5 b2 be ee 7e 34 bd 3d 4c fe 3f ca 24 8b bf
       -0.3495297 -0.044066362 1.9867016 -1.0870602
000070 7b 83 c5 bc 59 18 68 bf 5d e3 cf be 18 17 53 be
       -0.024110546 -0.9066215 -0.40603152 -0.20614278
000080 84 6d 29 bf 0d 31 06 bf c7 a3 69 bf 65 7f 21 bf
       -0.6618273 -0.52418596 -0.9126553 -0.63085014
000090 f2 5d 50 bf 55 a2 a1 be 37 18 ac be e2 33 62 bf
       -0.8139335 -0.31569162 -0.33612224 -0.88360417
0000a0 42 96 e4 bc b5 55 47 40 ab c7 1d bf 73 95 1b 3d
       -0.02790368 3.1146061 -0.61632794 0.037984323
0000b0 f7 ab 5a bf 8f 0c 33 3d 32 d7 b8 bf 88 3b 8a be
       -0.8541865 0.04371315 -1.4440672 -0.26998544
0000c0 b3 b3 6b bf 99 69 73 bf 49 f3 b8 bc 95 bd 67 40
       -0.92071074 -0.95083004 -0.022576945 3.6209462
0000d0 f0 0a 6d bb de 94 06 bd ed ff dd 3f c2 d1 02 c0
       -0.003616985 -0.032856815 1.7343727 -2.0440526
0000e0 c3 5e 41 bf 45 c8 66 bf 9d 1c 81 be e2 9a 82 be
       -0.7553522 -0.9014934 -0.25217143 -0.2550879
0000f0 33 00 ce be a9 71 3a bf b1 eb 21 bd 94 2d 92 be
       -0.40234527 -0.7282968 -0.039531413 -0.28550398
000100 33 1c 46 bf 84 6f 03 bc 8e 2c bb be a6 4f f3 3c
       -0.7738678 -0.008022193 -0.3655743 0.029701065
000110 4e 17 ee be 5c e1 d5 be ba 78 2d bf df b5 0e 3d
       -0.46502155 -0.41773498 -0.6776234 0.034841415
000120 50 96 4c bf 13 5d 29 bf 91 18 2d bf 76 34 00 41
       -0.7991686 -0.66157645 -0.6761561 8.012808
000130 9d fe e9 3f 50 68 66 3b a4 81 64 bf 5e 1d 18 bf
       1.8280827 0.003515739 -0.89260316 -0.5941981
000140 66 16 5f be 28 26 9a 3b 33 6d 1c 3d 90 a8 64 bf
       -0.21785888 0.0047042556 0.038190078 -0.89319706
000150 b3 29 07 3d a2 93 3f bf 15 ea 30 3d 87 49 07 40
       0.03299875 -0.74834645 0.043191988 2.1138628
000160 0e f0 82 40 40 ba b1 be 24 cb 85 be 7f 9e d4 be
       4.0918036 -0.3471241 -0.26131546 -0.41527173
000170 ed b3 4f bf 47 92 9a be 62 7f a5 bf 68 a6 68 3c
       -0.8113392 -0.30189726 -1.2929499 0.014199831
000180 2e 17 d1 40 ce e2 8f be 15 53 0f 3d 8f b4 0a 3d
       6.5340796 -0.28102726 0.034991343 0.0338636
000190 e9 1b 50 bf 20 82 ab be 0f 94 24 3d 52 d3 d9 3c
       -0.8129259 -0.33497715 0.040180262 0.026590023
0001a0 01 48 9e bf 48 9e 5a bf 4b 68 ab be 2e 8a 80 3f
       -1.2365724 -0.8539777 -0.33478007 1.0042169
0001b0 e5 75 2e 3d 82 cf d0 be 16 40 c6 be 6b 45 0a bf
       0.0425929 -0.40783316 -0.3872077 -0.54012173
0001c0 f1 9f 1e bd 7d be 6c bf 3a 4f a9 be 48 91 3f 3c
       -0.03872675 -0.9247816 -0.33068258 0.011692353
0001d0 8a 1c f2 bc d8 c4 97 be 9b 54 84 bf e4 fb a6 40
       -0.029554624 -0.29642367 -1.033832 5.2182484
0001e0 87 33 06 bd 0b 66 77 bf 8a a5 28 bf 10 8c 0b bf
       -0.032763984 -0.9664008 -0.6587759 -0.54510593
0001f0 a2 89 86 bf 31 d7 19 bf ec 3f a1 be f5 ac 38 bf
       -1.0510752 -0.6009398 -0.3149408 -0.7213891
000200 8c 62 21 3c ac e3 ba bf 50 ac 41 3b 3d 49 01 41
       0.009850156 -1.460073 0.002955217 8.08038
000210 03 eb 08 bf 52 af 31 bf 3a f1 be 3c cd d6 9d be
       -0.534836 -0.6940814 0.023308385 -0.30827942
000220 26 f8 8f bf fb 60 4d bf 09 c2 a4 be 8c 6d 30 bf
       -1.1247604 -0.80226105 -0.32179287 -0.68917155
000230 a0 81 a5 ba 80 cc 62 ba f8 b6 fe 3b dc 0f a4 be
       -0.0012627132 -0.00086516887 0.0077732764 -0.3204335
000240 98 79 a8 bb 8a 52 32 bf 4a 2e e8 3c bd 02 f1 be
       -0.005141448 -0.69657195 0.028342385 -0.47072402
000250 0b 2c 94 be c5 9b 42 bf 0a d3 c7 3c 47 56 04 bf
       -0.28939852 -0.76018935 0.024392623 -0.5169415
000260 13 14 7b be f3 1a af 40 fc a6 d4 3f 8c ca f0 be
       -0.24519376 5.4720397 1.661346 -0.4702953
000270 17 8e 63 be a9 28 12 3f 03 0b 5c bf aa dd 89 be
       -0.22222172 0.5709329 -0.859543 -0.2692693
000280 23 53 a6 be 15 58 12 bf 79 74 b1 be c1 fe 0d 3d
       -0.32485303 -0.5716565 -0.34659174 0.03466678
000290 60 f6 64 3c 90 35 66 bf b9 64 e1 be f4 c4 28 bf
       0.013974756 -0.8992548 -0.44022158 -0.65925527
0002a0 e7 b2 24 bf bf e8 25 bf 06 6f bd 3c 82 eb 14 bd
       -0.64335483 -0.6480827 0.02312423 -0.03635741
0002b0 3d 9b 3e bf df 3c 4f bf ce 51 5b bf f6 45 1f bf
       -0.74455625 -0.80952257 -0.856717 -0.62216127
0002c0 91 08 39 bf 26 bf b3 be 95 c1 90 bf 4b 02 bd be
       -0.72278696 -0.35106772 -1.1309077 -0.36915812
0002d0 c4 b3 9c bf 9c 04 2c bd 0a eb 84 bf 90 a9 c1 be
       -1.224236 -0.041996583 -1.0384228 -0.37824678
0002e0 21 24 39 bf cc 87 b1 be 37 71 f3 bf 05 c2 46 bf
       -0.72320753 -0.34673917 -1.9018925 -0.776398
0002f0 91 dd 7e bf 5c 7f 44 bc c8 a8 16 bc 4d e8 8a be
       -0.99556834 -0.0119932555 -0.009195514 -0.27130356
000300 90 39 2d bb 1a b3 f9 bc 53 a8 94 be 94 db 4e bc
       -0.0026432015 -0.03048091 -0.2903467 -0.012625594
000310 72 67 a1 40 0b 10 1e 3d 6a 7c 73 be 45 e3 02 3d
       5.0438776 0.03858952 -0.23777929 0.031955022
000320 b3 69 85 be 2e 0f c7 3c 97 0e 3a bf be b8 8c bf
       -0.26057205 0.02429923 -0.7267851 -1.0993879
000330 74 66 14 bd e0 3b 40 3b 14 1c 1d bc fb 50 5e bf
       -0.03623052 0.0029332563 -0.009589214 -0.86842316
000340 1f 77 0b 3d 95 52 9c be fb ec 2d 3d 88 c8 14 bf
       0.03404915 -0.30531755 0.04246233 -0.58118486
000350 b6 0f 91 bf 2c 0a ae be 03 c7 e2 bc e2 d3 16 bf
       -1.133292 -0.33992136 -0.027682787 -0.5891706
000360 6c a3 2a bf 89 2e 0b 3d e0 97 91 bf 0c dc 41 bf
       -0.6665561 0.033979926 -1.1374474 -0.7572639
000370 bc 02 75 bf 31 e3 07 3d 8d e0 8e be 74 b5 39 bf
       -0.957073 0.03317565 -0.27905694 -0.725425
000380 15 41 5c bf c9 bb 6f be d1 cb 66 bf d8 fe 25 3c
       -0.8603681 -0.23411478 -0.9015475 0.01013156
000390 1e 83 10 bd ac cf 6e be 91 a5 b7 be e3 67 36 3f
       -0.035281293 -0.23321408 -0.35868505 0.7125227
0003a0 6c f7 0e bf 98 e8 bb be 84 30 70 bf 80 9e 43 bf
       -0.55846286 -0.36700892 -0.9382403 -0.76413727
0003b0 e8 db 3e 3c bd 26 01 bd 22 3e 5c bf 57 44 0d 3d
       0.011649109 -0.031531084 -0.8603231 0.034489002
0003c0 00 e1 33 bc 8c b5 06 bf bc 7d 15 3f 09 eb d5 be
       -0.010978937 -0.5262077 0.5839498 -0.4178088
0003d0 42 33 82 3c 6d 66 0b 3e 30 c9 c1 40 43 e8 5b bf
       0.015893582 0.13613291 6.055809 -0.8590128
0003e0 0b 78 4e bf 07 1d 3c bf a3 41 d5 be 22 a0 12 bd
       -0.8065192 -0.7348179 -0.4165164 -0.035797246
0003f0 b5 ff 0f 3f a0 99 87 bf 06 25 4b bf bb ca c1 40
       0.5624955 -1.0593758 -0.7935337 6.0559974

linear3.bias f4 [3]
000000 44 f1 31 be b2 a4 41 be 96 20 5e be
       -0.17377192 -0.18910483 -0.21692118
