env2 DQN/log/dqn/ckpt/307000.pth (torch, 14216 bytes, 4 tensors)

linear.weight f4 [512, 2]
000000 a0 18 26 3e d0 4f 2c be aa c0 71 be a5 2e c6 c0
       0.16220331 -0.16827321 -0.23608652 -6.193194
000010 70 1d 8a bd b2 14 27 c0 89 4c df be a5 5e 00 c1
       -0.06743896 -2.6106381 -0.4361308 -8.023107
000020 b6 f8 9a be 50 9f f7 c0 74 35 9a be 27 8a d3 c0
       -0.30267876 -7.7381973 -0.30118906 -6.6106143
000030 64 14 d9 be 1f c6 c9 c0 34 be 84 be 3e f4 fc bf
       -0.4239837 -6.3054347 -0.25926363 -1.9762037
000040 c5 0e 7a be 6b 70 cb c0 c6 4a 1c bf 7c f6 e1 bf
       -0.24419697 -6.357473 -0.61051595 -1.7653346
000050 b8 32 d1 bf 3e 0f 6a c1 71 16 c9 be 7e 16 0e c0
       -1.6343603 -14.628721 -0.39274934 -2.2201228
000060 e8 ac 89 bd 98 a9 3e 3e 90 08 0b bd ee b8 ca be
       -0.067224324 0.18619382 -0.033943713 -0.39594215
000070 57 85 f2 be 7b 4a 01 c1 1b af 3c bf d3 dd 04 c1
       -0.47367355 -8.080684 -0.7370469 -8.304156
000080 2c 69 2a 3e 3a 46 ee 3e c0 ad 0e 3d 6f f4 a5 be
       0.16641682 0.46537954 0.03483367 -0.3241305
000090 30 c7 27 bd ef 34 30 c0 d5 6f eb be 79 50 02 c1
       -0.040961444 -2.7532308 -0.4598376 -8.144647
0000a0 b2 5c 63 be 83 bb 27 bf d6 df 9d 3d 25 38 f1 bf
       -0.22203329 -0.65520495 0.07708709 -1.8845259
0000b0 71 e2 39 bf bb 6b 32 41 7e 09 a9 3c 2c a3 30 c0
       -0.7261115 11.151301 0.020634409 -2.7599592
0000c0 35 a8 82 be 00 9f 26 c0 da 2e c1 3e c2 32 f3 3e
       -0.25518957 -2.6034546 0.37731057 0.47499663
0000d0 15 33 cf bf 9f 3b aa 40 bf 86 af be 34 ea ee c0
       -1.6187464 5.319778 -0.3428249 -7.4660892
0000e0 14 26 13 be 06 9c d2 3e 29 6b 8b be 2d 5c bd c0
       -0.14369994 0.4113466 -0.27230194 -5.917502
0000f0 54 38 82 3d 45 12 5c c0 79 4d f4 bd 4d 2d d0 bf
       0.063584 -3.438615 -0.11928839 -1.6263825
000100 ab 62 65 3e 9c 79 1a c0 34 39 02 be 58 6f 62 c0
       0.2240092 -2.4136724 -0.12717134 -3.538046
000110 80 88 c0 be f8 a6 eb c0 91 44 85 bf 12 ad ab c0
       -0.3760414 -7.364132 -1.041155 -5.3648767
000120 8f ae 23 bf 0c f5 e3 c0 ee 58 c1 be 30 b8 24 c0
       -0.6393823 -7.123663 -0.3776316 -2.573742
000130 c1 f0 95 be fa 95 53 c0 04 31 e4 be 2e d5 fa c0
       -0.29285243 -3.3060288 -0.44568646 -7.838523
000140 f3 e4 19 3f a8 c2 b1 bd 5e bb 93 bf ec 79 81 c1
       0.60114974 -0.08679706 -1.1541555 -16.184532
000150 48 9f 65 bd 32 2f 36 c0 30 d9 87 bd 56 83 9c 3e
       -0.056060106 -2.8466306 -0.06633222 0.3056895
000160 bf a7 bf be ff e9 d0 c0 b8 b2 8b bd 3d 3e fe be
       -0.37432668 -6.528564 -0.06821197 -0.4965686
000170 cd 9e 15 40 66 bc 89 3f c8 9d 91 3d c9 fa d4 bf
       2.3378174 1.076062 0.071101725 -1.6639034
000180 45 22 dd be 02 b8 01 c1 23 d3 ea be 51 b1 08 c1
       -0.43190208 -8.107424 -0.4586421 -8.54329
000190 3a 4c 84 be 88 57 e9 bd ac ff 77 bf 42 c5 82 c1
       -0.25839406 -0.113936484 -0.968745 -16.346317
0001a0 0e 63 cd 3e f0 7b 65 3e 5e 0f e6 3e bb fc 07 3f
       0.40114635 0.2241056 0.449336 0.5312001
0001b0 3a d0 a8 bf 96 35 50 c1 06 28 3f 40 63 5b 3d c0
       -1.3188546 -13.0130825 2.9868178 -2.9587028
0001c0 d5 b7 16 bf 7d 87 ef c0 e0 17 03 bf 58 1a ff c0
       -0.58874255 -7.485289 -0.51208305 -7.971966
0001d0 92 d9 dc be 98 aa 01 c0 ad 83 ba be 05 11 1f c0
       -0.43134743 -2.0260372 -0.36428586 -2.4854138
0001e0 41 40 30 3e dd eb f7 bf 19 5c 37 bf d7 ea e4 c0
       0.17212011 -1.9368855 -0.71624905 -7.153667
0001f0 0e bf ee 3e 09 c4 01 bf bb 75 08 bf db a3 14 c0
       0.46630138 -0.5068975 -0.5330464 -2.322501
000200 98 8b 80 bf 76 fb e7 c0 ee 5f f5 be 34 9f 61 3e
       -1.0042601 -7.249446 -0.4792475 0.22033387
000210 44 2c 21 bf 30 e8 5a c0 4c 56 8c 3e a6 20 b7 3e
       -0.6295817 -3.4204216 0.2740959 0.35767096
000220 07 07 a8 bd 2f 9b 59 c0 cc 2d cf 3e 8c 97 2d c0
       -0.08204465 -3.4000967 0.40464628 -2.7123747
000230 f3 4c 8f bf 6e 6a ce c0 92 77 ec 3e b6 ba a6 3e
       -1.1195358 -6.450492 0.46184975 0.32564324
000240 92 ca b3 be 6a 6e d9 c0 b1 90 76 bf a3 78 b1 c0
       -0.35115486 -6.7947283 -0.9631453 -5.545976
000250 5e 9d 8a 3e 27 28 39 c0 b4 e3 e1 bf d0 fb 24 c1
       0.27073187 -2.8930757 -1.7647614 -10.311478
000260 c0 b2 01 c0 f9 68 42 c1 aa a7 72 be df 9d 1a bf
       -2.026535 -12.150628 -0.23696771 -0.6039714
000270 ca 74 d9 be 2d 29 ee c0 69 1c 53 3e 5c 96 0f c0
       -0.42471915 -7.4425263 0.20616306 -2.2435522
000280 64 3e 53 bf d3 09 fd bf 90 bd 6d 3d c4 e1 30 bf
       -0.82517076 -1.9768623 0.05804211 -0.6909449
000290 20 63 09 3d 5e 68 e8 3e 07 74 dc be 7e 6c fd c0
       0.0335418 0.45392126 -0.43057272 -7.9194937
0002a0 af 5f b4 be 2c bc 0e bf 12 61 18 bf 5f 84 f6 c0
       -0.3522925 -0.5575588 -0.5952312 -7.7036586
0002b0 de 06 ea 3e bc 8c 06 be b9 98 97 bf f4 9b 5d c1
       0.45708364 -0.13139623 -1.1843482 -13.8505745
0002c0 d7 a7 65 bf b3 78 87 c1 45 90 2b 3e ec b5 02 c0
       -0.8970923 -16.933935 0.16754253 -2.0423536
0002d0 4f 22 43 bf 35 f7 27 c0 4b fb 64 bd ca 39 26 c0
       -0.76224226 -2.6244633 -0.055903714 -2.5972772
0002e0 62 33 0f bf 93 33 f3 c0 b0 ed 16 bf 9f 4e 22 c0
       -0.5593778 -7.6000457 -0.5895643 -2.5360487
0002f0 03 ab 1b 40 30 b5 46 3f 7c c3 88 3e 19 9b 19 bf
       2.4323127 0.7762022 0.26711643 -0.60002285
000300 51 3b 17 be 6a 74 31 41 4b d3 0d bf 7e e5 4d c0
       -0.14768721 11.090921 -0.5540053 -3.217132
000310 60 d9 4d 3e e2 3d c4 be 68 f7 92 3e 4f 70 0a 3f
       0.20102453 -0.38328463 0.2870438 0.5407762
000320 69 ad 24 bf 1a 21 fa c0 6d 44 1f bf df 30 58 c0
       -0.643271 -7.8165407 -0.62213784 -3.3779829
000330 10 15 a6 bd 62 7e e1 3e 64 80 87 3e 3c 56 69 be
       -0.08109486 0.44041735 0.26465142 -0.22786802
000340 0b 0c 8b be 70 15 e6 c0 6a 8a 2e bf 2d 6e f8 c0
       -0.27157626 -7.190117 -0.68179953 -7.763449
000350 55 19 91 be 71 eb 3c c0 45 f8 ed bf e3 d5 af c0
       -0.2833964 -2.9518702 -1.8591391 -5.494859
000360 a8 50 d5 3d 02 3b 61 be 6b 73 10 be 79 59 f0 bf
       0.104157746 -0.21995166 -0.14106528 -1.8777305
000370 6c 3e 95 be 3a 18 52 c0 ca 88 76 3e 1a 73 bd bf
       -0.29149187 -3.2827287 0.24075618 -1.4800751
000380 e0 37 8a bd c7 88 a3 be bf aa aa be 34 8f d7 c0
       -0.067489386 -0.3194029 -0.33333394 -6.736231
000390 30 6b b5 3c ef 82 34 c0 e0 30 e7 3c a4 84 14 3e
       0.022145838 -2.8204916 0.028221548 0.14503723
0003a0 bc 68 3f 3e 10 dc 23 bd 27 27 3b bf b3 64 39 c0
       0.18692297 -0.04000479 -0.73106617 -2.8967712
0003b0 af 62 b8 be 79 8f fd c0 c4 1b d7 be d7 5a 8d c1
       -0.3601279 -7.9237638 -0.4201337 -17.669355
0003c0 55 99 aa be c0 a8 8e 3e df ab f7 be 08 2e 06 c1
       -0.33320108 0.2786312 -0.48373315 -8.386238
0003d0 f6 5b 5a 3e 0f 72 06 c0 13 45 2d 3e 3d 53 ab bf
       0.21324143 -2.1007116 0.16920881 -1.3384777
0003e0 07 2d bf be 86 51 06 c1 d4 8c 88 bf 41 88 d5 c0
       -0.3733904 -8.394903 -1.0667977 -6.6728826
0003f0 8d 26 05 be f4 2a 4a c0 02 86 56 bf 14 e7 c8 c0
       -0.13002987 -3.1588717 -0.8379823 -6.278208

linear.bias f4 [512]
000000 38 ee b5 bd 60 a5 6b 3e c6 b6 ea 3e 27 4d a0 3e
       -0.08883327 0.23012304 0.4584257 0.31308863
000010 8e 60 91 3e 7d 93 81 3e e7 10 8c 3e 1d d8 57 3f
       0.28393978 0.25307837 0.27356645 0.8431414
000020 9b 62 72 3e 0e 14 47 3f 96 1d e1 3e a1 14 f8 3e
       0.23670428 0.77764976 0.43967885 0.4845324
000030 51 1b 86 be 6f 1a 12 bf ca c0 a5 3e 7a 23 d6 3e
       -0.26192716 -0.57071584 0.3237365 0.4182394
000040 21 c7 b5 be 82 21 9c be 05 f8 0d 3f 99 d0 a3 3e
       -0.35503486 -0.30494314 0.5545657 0.31995085
000050 69 23 08 bf 71 e6 a1 3e 40 44 92 bf 1e 69 36 3f
       -0.5317903 0.31621125 -1.1427078 0.71254146
000060 5a cf 28 3f a1 b8 c6 be 96 73 1a 3f 33 c5 91 3e
       0.65941393 -0.38812736 0.6033262 0.28470764
000070 17 61 33 bf 02 7f 69 3e b0 d6 3d 3f 1d 7f 5f 3f
       -0.7007002 0.22802356 0.7415571 0.87303334
000080 4a 56 f2 3e c0 03 ff 3e 3d 68 91 3e 27 1f ff 3e
       0.47331458 0.4980755 0.2839984 0.49828455
000090 d8 c4 b9 3e ed ee 23 3f 2c 6d 38 3f 92 95 9e 3e
       0.36282992 0.64036447 0.72041583 0.30973488
0000a0 65 6c 30 bf fa ca c1 3e 2a 5f d0 3e d8 33 d6 be
       -0.68915397 0.3785017 0.40697604 -0.4183643
0000b0 92 41 88 3e 81 9c bd be 28 9b c0 3e 93 f3 5d 3f
       0.26612526 -0.37033466 0.37618375 0.8669979
0000c0 26 8c a1 3e 87 68 a9 3e ad 17 d5 be ba 03 b1 3e
       0.31552237 0.3308756 -0.41619626 0.34573156
0000d0 72 03 db be 39 61 11 bf e5 e8 bc 3e 84 1e 8e be
       -0.42776066 -0.56788975 0.36896434 -0.27757657
0000e0 e9 20 b1 3e 56 83 ab 3e f4 70 4a 3f 68 f8 4f 3f
       0.3459542 0.3349864 0.790786 0.8123841
0000f0 c8 2b 28 3f 49 f1 c7 3e 7b 91 b4 be 76 32 2c 3f
       0.65691805 0.39051273 -0.35267243 0.672645
000100 29 51 01 3f 68 56 2b bf 5c 20 37 3f e0 0e 14 bf
       0.50514466 -0.6692872 0.7153375 -0.578352
000110 f6 50 14 3f 1e b9 49 3f 00 bb 0b 3f 70 99 1f bf
       0.57936037 0.7879809 0.54582214 -0.623435
000120 e1 ca 87 3e 48 58 f1 3e 29 3d 06 3f 48 94 79 bf
       0.26521972 0.47137666 0.52437073 -0.97491884
000130 1d 75 e1 3e de 3b a5 be b2 20 97 3e c0 96 f6 3e
       0.44034663 -0.32272238 0.29517132 0.48161888
000140 c4 db 67 3f 90 fc 36 be 12 6a 6b be aa ff 9d 3e
       0.9056971 -0.17869782 -0.22989681 0.3085912
000150 57 03 1e bf 1a 03 b4 3e 6b 9a b4 be 3b 22 ba 3e
       -0.61723846 0.35158616 -0.35274062 0.3635424
000160 96 42 b0 3e be 76 54 3f b4 93 5e 3f 68 20 0e 3f
       0.344258 0.82993686 0.8694413 0.555182
000170 42 0d ae 3e 95 f0 4c 3f 95 49 1f 3f c8 ac 8e be
       0.3399449 0.800546 0.6222165 -0.27866197
000180 62 f5 af be c8 51 59 3f 03 f8 0d bf 46 e0 2e bf
       -0.343669 0.84890413 -0.5545656 -0.68310964
000190 24 0c be 3e 85 5c 45 3f e3 59 18 bf 64 89 e9 be
       0.37118638 0.770943 -0.59512156 -0.45612633
0001a0 64 62 87 3e 83 b7 c6 3e f0 ed 2d 3f 66 25 e5 3e
       0.26442254 0.38811883 0.6794119 0.44755095
0001b0 35 91 af be 46 f7 c0 3e 84 b1 3b 3f 73 d5 e1 3e
       -0.34290472 0.37688655 0.7331774 0.4410816
0001c0 08 77 fa bd ce 5a 85 3e 35 2e 65 3f fc 3a fb be
       -0.12229735 0.2604584 0.8952363 -0.4906844
0001d0 d1 e6 10 bf 0e 0e 5a 3f ff fb 99 3e a7 3b 6d 3e
       -0.566022 0.85177696 0.3007507 0.23167287
0001e0 bd 02 2e bf 59 4b aa 3e d6 48 d8 3e b1 93 b2 3e
       -0.6797293 0.3326061 0.4224307 0.34878305
0001f0 0e 23 a2 3e 23 33 05 3f 30 cd 68 3f 53 bd da 3e
       0.3166737 0.52031153 0.9093809 0.42722568
000200 cb 37 96 be 29 47 58 3e 2e eb 12 bf 14 b6 99 bf
       -0.29339442 0.21120895 -0.57390106 -1.2008691
000210 ad 6b 18 3f e0 ea ee 3e 73 a8 09 bf 88 fd 3f 3f
       0.595393 0.4666357 -0.5377266 0.74996233
000220 f8 50 92 3e da 18 a5 3e bf 57 30 3f cb 42 98 3e
       0.285774 0.32245523 0.6888389 0.2973846
000230 6e 2f b1 be 65 55 2a bf 84 bf 03 bf c0 9d 52 3f
       -0.34606498 -0.6653655 -0.51464105 0.8227196
000240 04 9d ba be a4 d4 d5 3e 3c 18 7d be d3 ba 46 3f
       -0.36447918 0.41763794 -0.24716276 0.7762882
000250 7f 3b 3a 3f 61 a4 9d 3e 1d 71 85 be ed 66 10 3f
       0.72747034 0.30789474 -0.2606286 0.5640705
000260 36 86 26 3f 65 5e b8 be 40 cc be 3e f7 bd 2d 3f
       0.6504854 -0.36009517 0.37265205 0.6786799
000270 f3 42 5d 3f 50 56 0d 3f 55 54 c5 3e 88 70 31 3f
       0.8643028 0.5520983 0.38540903 0.69312334
000280 a7 a1 3e 3f e7 0d c3 3e 11 8e 57 3f a7 c7 1f bf
       0.7446541 0.38096544 0.8420115 -0.6241402
000290 61 b5 2b bf 6c 4b ae 3e 6f 56 96 3e ac 19 08 3f
       -0.6707364 0.34041917 0.2936282 0.5316417
0002a0 ea df f8 3e df 79 c9 3e 39 a9 d2 be 90 98 aa bd
       0.48608333 0.39350793 -0.41144732 -0.0832988
0002b0 3e 3f d6 3e 5d 15 c9 3e c0 6e 83 3e a5 f2 ea 3e
       0.41845125 0.3927411 0.25670433 0.45888248
0002c0 3b b1 af 3e 1a bb 68 3f 56 91 88 3e 69 5b 5c 3f
       0.34314904 0.90910494 0.26673383 0.8607698
0002d0 4f e0 86 3d 86 7c 0e bf d0 0a 70 3e 63 2e 2b 3f
       0.06585752 -0.5565876 0.23441625 0.66867656
0002e0 93 2a f4 3e 5e 8f 36 3f 52 32 80 3f 27 08 ac 3e
       0.47688732 0.7131251 1.0015357 0.3359997
0002f0 2d c1 a6 3e fe 99 87 be a8 c0 69 be 63 83 67 3f
       0.32569256 -0.26484674 -0.22827399 0.90434855
000300 9d f4 c0 be 48 bb c9 bd 97 9a 5d 3f 16 10 c8 be
       -0.37686625 -0.09850174 0.8656401 -0.39074773
000310 08 01 a7 3e f3 c4 1d bf 40 5c 62 3f 12 b2 a2 be
       0.32617974 -0.61628646 0.8842201 -0.31776482
000320 d6 da 3f 3f 78 f3 27 be 6a 19 e4 3e 15 8b a7 3e
       0.7494329 -0.1640147 0.4455064 0.327233
000330 9f 6f 1f bf 84 73 18 bf c4 3c 06 bf 43 35 96 3e
       -0.62279695 -0.5955126 -0.5243647 0.2933751
000340 b0 ff 11 bf 2e 0f 47 3f b6 9c f6 be 9d f3 08 3f
       -0.57030773 0.7775754 -0.48166436 0.53496724
000350 fa 73 88 3e f6 5b 41 3f ef 68 e4 be a9 f2 0c 3f
       0.26650983 0.75530946 -0.44611308 0.5505777
000360 42 d5 ee 3e 3e dd ba be 8e 91 8f 3e dd fb e3 3e
       0.46647078 -0.3649692 0.28040737 0.44528094
000370 e3 ec 9e 3e dc a4 01 bf ae b1 52 3f ca 39 a2 3e
       0.31040105 -0.5064218 0.8230237 0.31684715
000380 b6 2f 9c 3e b2 9f 51 3f 2f 65 98 3e ea 7b 8a be
       0.3050515 0.818843 0.29764697 -0.27047664
000390 4e 46 0a bf e4 94 5a 3f 6b 3d 0e 3f bf 09 04 3f
       -0.54013526 0.8538344 0.55562466 0.5157737
0003a0 8c 8c dd 3e 34 d2 2b 3f 3a f1 8f 3e a9 15 cb 3e
       0.4327129 0.6711762 0.2811373 0.39664963
0003b0 61 b0 0d bf a0 43 2d bf e9 8c b2 3e 8a 60 01 bf
       -0.5534726 -0.6768131 0.3487313 -0.5053793
0003c0 96 ad 24 bf bf 21 a3 3e 13 8d 13 3f a8 a9 22 3f
       -0.6432737 0.31861684 0.5763714 0.63540125
0003d0 13 55 14 bf bd dc 60 3e 13 dc ac 3f 3a 5a b9 3e
       -0.5794231 0.21959205 1.3504661 0.3620165
0003e0 c3 73 b8 3e e2 ad eb 3e 65 a8 e8 3e 4e 02 2d bf
       0.3602582 0.460311 0.45440975 -0.6758164
0003f0 ac 70 0b 3f 1f 89 98 3e 1c 8b 91 3e 5b 66 99 be
       0.544688 0.29792115 0.28426445 -0.29960904

linear3.weight f4 [3, 512]
000000 d6 50 e4 3c b7 35 9d bf a8 ab f1 be a9 5b 63 bf
       0.027870577 -1.2282017 -0.47201276 -0.8881174
000010 03 63 98 bf 53 ce 86 bf 28 03 4a bf be 3b 7d be
       -1.1905216 -1.0531715 -0.78911066 -0.24729821
000020 be 16 9a bf 19 2c 5c be cd 8c 0f 40 e2 8f ba be
       -1.203819 -0.21501197 2.2429688 -0.364379
000030 e3 8f 11 3d 33 3c 1d 3d 77 eb 77 bf 8f 40 55 bf
       0.03553761 0.03838749 -0.96843666 -0.83301634
000040 0f c1 9a bc b0 76 c4 3b 0d 95 eb be 6b 18 55 bf
       -0.018890886 0.005995594 -0.46012154 -0.83240384
000050 80 24 36 3c f8 f1 31 bf e5 fd 10 41 d6 35 af be
       0.011117101 -0.6950984 9.061986 -0.3422076
000060 73 b6 b2 be ee 7e 34 bd 0a 13 fe 3f 83 d7 8b bf
       -0.34904823 -0.044066362 1.984956 -1.0925144
000070 7b 83 c5 bc 1f 81 69 bf c0 20 cf be 77 2c 52 be
       -0.024110546 -0.9121265 -0.40454674 -0.20524774
000080 d4 c7 28 bf df fa 05 bf 76 f5 6a bf 48 40 22 bf
       -0.65929914 -0.52335924 -0.91780794 -0.63379335
000090 cb 59 51 bf e0 8e a1 be 81 db ab be 2d 73 63 bf
       -0.8177764 -0.31554317 -0.33565906 -0.8884762
0000a0 42 96 e4 bc 43 35 47 40 17 81 1d bf 73 95 1b 3d
       -0.02790368 3.1126258 -0.615251 0.037984323
0000b0 01 f2 5b bf 8f 0c 33 3d b2 77 b8 bf 34 86 89 be
       -0.85916144 0.04371315 -1.4411528 -0.268602
0000c0 da fd 6c bf bc af 74 bf 49 f3 b8 bc 57 a0 67 40
       -0.92574847 -0.9558065 -0.022576945 3.6191614
0000d0 f0 0a 6d bb de 94 06 bd e3 c3 dd 3f 8c 1a 02 c0
       -0.003616985 -0.032856815 1.7325405 -2.0328703
0000e0 42 6d 42 bf 27 f4 67 bf 45 06 81 be 03 6e 82 be
       -0.75947964 -0.9060692 -0.25200096 -0.25474557
0000f0 50 0b cd be 9a 58 3b bf b1 eb 21 bd 5d 42 92 be
       -0.40047693 -0.7318207 -0.039531413 -0.28566256
000100 64 d8 46 bf 84 6f 03 bc 74 4b bb be a6 4f f3 3c
       -0.77673936 -0.008022193 -0.36581004 0.029701065
000110 0b 92 ed be 23 95 d4 be d9 39 2e bf df b5 0e 3d
       -0.46400484 -0.41520032 -0.6805702 0.034841415
000120 8f e9 4d bf ba 1e 2a bf 57 6a 2c bf 33 40 00 41
       -0.8043451 -0.66453135 -0.6734976 8.015674
000130 17 cc e9 3f 50 68 66 3b d3 c0 65 bf 62 81 17 bf
       1.8265408 0.003515739 -0.8974735 -0.591818
000140 51 73 5f be 28 26 9a 3b 33 6d 1c 3d 74 ed 65 bf
       -0.21821333 0.0047042556 0.038190078 -0.8981545
000150 b3 29 07 3d be a3 40 bf 15 ea 30 3d 32 2a 07 40
       0.03299875 -0.7524985 0.043191988 2.1119504
000160 9b e2 82 40 75 dc b0 be c1 f0 85 be 1f 12 d4 be
       4.090162 -0.34543195 -0.26160243 -0.41420075
000170 4a cc 50 bf bd 9e 9a be 93 d9 a4 bf 68 a6 68 3c
       -0.8156172 -0.30199233 -1.2878898 0.014199831
000180 39 9d d0 40 91 dd 8f be 15 53 0f 3d 8f b4 0a 3d
       6.519192 -0.2809873 0.034991343 0.0338636
000190 3e 24 51 bf 56 96 ab be 0f 94 24 3d 52 d3 d9 3c
       -0.81695926 -0.33513135 0.040180262 0.026590023
0001a0 fa 01 9f bf ce 9c 5b bf cc 2e ab be b2 77 80 3f
       -1.2422478 -0.8578614 -0.3343414 1.0036528
0001b0 e5 75 2e 3d 7e 86 d0 be 6f 01 c6 be 06 98 09 bf
       0.0425929 -0.4072761 -0.3867297 -0.53747594
0001c0 f1 9f 1e bd db 17 6e bf 36 a6 a8 be 48 91 3f 3c
       -0.03872675 -0.9300515 -0.3293931 0.011692353
0001d0 8a 1c f2 bc e1 e5 97 be 50 07 85 bf bb f0 a6 40
       -0.029554624 -0.2966757 -1.0392857 5.216886
0001e0 87 33 06 bd 50 a1 78 bf 15 fa 27 bf 11 e6 0a bf
       -0.032763984 -0.97121143 -0.6561597 -0.54257303
0001f0 3b 3d 87 bf ee 93 1a bf 91 c5 a0 be 07 6a 39 bf
       -1.0565561 -0.6038197 -0.3140073 -0.7242741
000200 8c 62 21 3c 3a 8d ba bf 50 ac 41 3b 3d 49 01 41
       0.009850156 -1.4574349 0.002955217 8.08038
000210 7c ab 09 bf 69 74 32 bf 3a f1 be 3c fb 57 9d be
       -0.5377729 -0.6970888 0.023308385 -0.30731186
000220 33 ab 90 bf ca 72 4e bf db 83 a4 be bf 74 31 bf
       -1.1302246 -0.80643904 -0.32131848 -0.69318765
000230 a0 81 a5 ba 80 cc 62 ba f8 b6 fe 3b 92 9b a3 be
       -0.0012627132 -0.00086516887 0.0077732764 -0.31954628
000240 98 79 a8 bb b2 1a 33 bf 4a 2e e8 3c d0 c5 ef be
       -0.005141448 -0.6996261 0.028342385 -0.46830606
000250 75 76 93 be c6 cd 43 bf 0a d3 c7 3c 8c e2 03 bf
       -0.28801313 -0.7648586 0.024392623 -0.5151756
000260 91 24 7b be 77 05 af 40 72 76 d4 3f f3 f5 ef be
       -0.24525668 5.469417 1.6598647 -0.46867332
000270 ee fd 63 be f8 82 11 3f c4 18 5d bf 63 5c 89 be
       -0.22264835 0.5684047 -0.86365914 -0.26828298
000280 31 63 a6 be 84 22 12 bf 13 07 b1 be c1 fe 0d 3d
       -0.32497552 -0.57083917 -0.3457571 0.03466678
000290 60 f6 64 3c 08 53 67 bf dd 33 e0 be 89 80 29 bf
       0.013974756 -0.9036107 -0.4378957 -0.66211754
0002a0 48 2e 24 bf 47 89 25 bf 06 6f bd 3c 82 eb 14 bd
       -0.6413312 -0.64662594 0.02312423 -0.03635741
0002b0 59 1c 3e bf 41 3b 50 bf f6 a0 5c bf e5 02 20 bf
       -0.74262005 -0.81340414 -0.86183107 -0.62504417
0002c0 a9 e8 39 bf 8f b4 b2 be ef 79 91 bf a3 04 bc be
       -0.72620636 -0.3490338 -1.1365336 -0.36722288
0002d0 b2 e2 9b bf 9c 04 2c bd 64 a0 85 bf 33 4e c1 be
       -1.2178557 -0.041996583 -1.0439572 -0.37754974
0002e0 37 e0 39 bf 58 b6 b1 be 30 83 f2 bf 0c ca 47 bf
       -0.7260775 -0.3470943 -1.8946285 -0.78042674
0002f0 e0 0f 80 bf 5c 7f 44 bc c8 a8 16 bc ae 19 8b be
       -1.0004845 -0.0119932555 -0.009195514 -0.2716803
000300 90 39 2d bb 1a b3 f9 bc db 8e 94 be 94 db 4e bc
       -0.0026432015 -0.03048091 -0.2901524 -0.012625594
000310 4a 3f a1 40 0b 10 1e 3d 1e 87 72 be 45 e3 02 3d
       5.0389757 0.03858952 -0.23684356 0.031955022
000320 67 86 85 be 2e 0f c7 3c f6 ca 3a bf 0f 65 8d bf
       -0.26079103 0.02429923 -0.72965944 -1.1046466
000330 74 66 14 bd e0 3b 40 3b 14 1c 1d bc 4a a8 5f bf
       -0.03623052 0.0029332563 -0.009589214 -0.87366164
000340 1f 77 0b 3d e7 9f 9c be fb ec 2d 3d 2c 39 14 bf
       0.03404915 -0.30590746 0.04246233 -0.5789974
000350 8c c9 91 bf 9f 5b ad be 03 c7 e2 bc fe 94 17 bf
       -1.1389632 -0.33858964 -0.027682787 -0.5921172
000360 0e 29 2a bf 89 2e 0b 3d 69 4f 92 bf 28 be 42 bf
       -0.66468894 0.033979926 -1.1430484 -0.76071405
000370 3f 46 76 bf 31 e3 07 3d ab 33 8f be a2 2e 39 bf
       -0.9620094 0.03317565 -0.27969107 -0.7233678
000380 d7 89 5d bf 77 5d 6f be 6d 1d 68 bf d8 fe 25 3c
       -0.8653845 -0.23375498 -0.906699 0.01013156
000390 1e 83 10 bd f4 12 6f be 1a 82 b7 be 50 1b 36 3f
       -0.035281293 -0.23347074 -0.35841447 0.71135426
0003a0 25 c2 0e bf e2 b8 bb be 1f 78 71 bf e8 7b 44 bf
       -0.5576499 -0.36664492 -0.94323915 -0.76751566
0003b0 e8 db 3e 3c bd 26 01 bd 2e 59 5d bf 57 44 0d 3d
       0.011649109 -0.031531084 -0.864642 0.034489002
0003c0 00 e1 33 bc ca 16 06 bf 77 ea 14 3f 12 da d4 be
       -0.010978937 -0.52378523 0.58170265 -0.41572624
0003d0 42 33 82 3c 33 c0 09 3e 41 fc c1 40 f3 fd 5c bf
       0.015893582 0.13452224 6.0620427 -0.86324996
0003e0 68 8d 4f bf b6 de 3c bf e4 96 d4 be 22 a0 12 bd
       -0.81075144 -0.7377733 -0.4152137 -0.035797246
0003f0 a0 4f 0f 3f 46 47 88 bf 14 3b 4c bf 7b aa c1 40
       0.55980873 -1.0646751 -0.79777646 6.0520606

linear3.bias f4 [3]
000000 49 ce 30 be ed 54 45 be c6 8e 5f be
       -0.17266192 -0.19270678 -0.21831807
