env2 DQN/log/dqn/ckpt/310000.pth (torch, 14216 bytes, 4 tensors)

linear.weight f4 [512, 2]
00000000: a018 263e d04f 2cbe 5f3c 6fbe de28 c8c0
00000010: b094 7abd fdeb 24c0 1821 debe 8845 01c1
00000020: 8fce 98be c5a4 f9c0 0da4 97be 158e d5c0
00000030: 4efb d3be 33b0 cbc0 050e 81be 0afa f8bf
00000040: d136 77be 9f6a cdc0 3c80 1abf 48e3 ddbf
00000050: 7fff d1bf a597 6ac1 61d4 c5be 97f2 0bc0
00000060: e8ac 89bd 98a9 3e3e 9008 0bbd eeb8 cabe
00000070: b383 f1be 7507 02c1 ec4e 3bbf 29a0 05c1
00000080: 2c69 2a3e 3a46 ee3e c0ad 0e3d 6ff4 a5be
00000090: 49a7 0bbd 1c2e 2ec0 39f8 e9be 6b1f 03c1
000000a0: b25c 63be 83bb 27bf 03b5 ac3d 2c4d edbf
000000b0: 71e2 39bf bb6b 3241 729b da3c 5372 2ec0
000000c0: 7adf 7ebe b075 24c0 da2e c13e c232 f33e
000000d0: 4bdc d1bf 744a aa40 2abc aebe e1dc f0c0
000000e0: 1426 13be 069c d23e 1edb 87be 0a53 bfc0
000000f0: bb19 8e3d b9d8 59c0 a39a e5bd 3e31 ccbf
00000100: fd0a 6d3e 9b93 18c0 1fc7 f8bd eb2f 60c0
00000110: 23a1 c0be 4163 edc0 aee3 83bf 954b acc0
00000120: 7daa 21bf cd90 e5c0 bc2c bebe b589 22c0
00000130: 8bcd 92be 3465 51c0 9b0c e2be f687 fcc0
00000140: f3e4 193f a8c2 b1bd 1934 95bf 44cd 81c1
00000150: 74bf 49bd 9b24 34c0 30d9 87bd 5683 9c3e
00000160: 598a bdbe 7364 d2c0 b8b2 8bbd 3d3e febe
00000170: 9402 1540 2dc0 9f3f d779 a13d 3f44 d1bf
00000180: 96a5 ddbe 788c 02c1 b927 ebbe 1683 09c1
00000190: 3a4c 84be 8857 e9bd e5d2 78bf 0e45 83c1
000001a0: 0e63 cd3e f07b 653e 5e0f e63e bbfc 073f
000001b0: c48c a9bf 7ade 50c1 2aab 3e40 4541 39c0
000001c0: ac5b 14bf c43a f1c0 0881 02bf 894c 00c1
000001d0: 9096 d9be b005 ffbf eda0 b7be 62cb 1cc0
000001e0: 1c08 383e 0030 f4bf 82ec 34bf 95a5 e6c0
000001f0: 0ebf ee3e 09c4 01bf a8f1 06bf 216a 12c0
00000200: 5461 7ebf 8804 e9c0 ee5f f5be 349f 613e
00000210: e9bf 1fbf 0aa0 58c0 4c56 8c3e a620 b73e
00000220: 49f4 9bbd 5863 57c0 0590 d23e 5884 2bc0
00000230: a10f 8ebf 3d2b cfc0 9277 ec3e b6ba a63e
00000240: 8f81 b3be 7134 dbc0 22c2 73bf 8442 b2c0
00000250: f252 8e3e 4c34 37c0 ef1c dfbf cc47 26c1
00000260: 2bf9 01c0 90be 42c1 aaa7 72be df9d 1abf
00000270: aeab d7be c7b8 efc0 1579 5a3e 239e 0dc0
00000280: aa81 51bf fbde f8bf 90bd 6d3d c4e1 30bf
00000290: 2063 093d 5e68 e83e 43a2 dbbe 0e27 ffc0
000002a0: af5f b4be 2cbc 0ebf d30a 16bf a83f f8c0
000002b0: de06 ea3e bc8c 06be 85fe 98bf 8c35 5ec1
000002c0: 7b1c 64bf e829 88c1 f6e2 323e a0bc 00c0
000002d0: 0974 41bf 54d9 25c0 cd91 4bbd a00f 24c0
000002e0: 8884 0cbf 2714 f5c0 3d73 15bf 9a0e 20c0
000002f0: 550f 1c40 526a 553f 7cc3 883e 199b 19bf
00000300: 58fc b9bd d2fe 3041 2b6e 0cbf e498 4bc0
00000310: 60d9 4d3e e23d c4be 68f7 923e 4f70 0a3f
00000320: bf04 22bf 83e6 fbc0 81cf 1dbf a5ed 55c0
00000330: 1015 a6bd 627e e13e 6480 873e 3c56 69be
00000340: 6151 8bbe 5afb e7c0 a0d1 2cbf c101 fac0
00000350: 48d8 8dbe c2c4 3ac0 c4d9 eebf 8e1f b0c0
00000360: a850 d53d 023b 61be fbe9 08be d574 ecbf
00000370: 3d55 92be bcd8 4fc0 2a6c 7f3e 2f49 babf
00000380: e037 8abd c788 a3be 7700 a9be 5568 d9c0
00000390: e54c ec3c e66e 32c0 e030 e73c a484 143e
000003a0: bc68 3f3e 10dc 23bd 7cc3 39bf f916 37c0
000003b0: a435 b8be c38f ffc0 941f dbbe 5b9a 8dc1
000003c0: 5599 aabe c0a8 8e3e 0a22 f6be c6f1 06c1
000003d0: ee56 623e 829e 04c0 84a1 363e 6f7b a8bf
000003e0: e082 bebe 3865 07c1 7e37 87bf e163 d6c0
000003f0: fd0c fdbd 3f0c 48c0 17e9 53bf 6af8 c9c0
0.16220331 -0.16827321 -0.23362873 -6.2549887 -0.061176956 -2.5769036 -0.43384624 -8.079475
-0.29845092 -7.8013635 -0.29617348 -6.673594 -0.41402668 -6.3652587 -0.2520601 -1.9451306
-0.24142005 -6.4192653 -0.6035192 -1.7334986 -1.6406096 -14.662023 -0.38638595 -2.1866815
-0.067224324 0.18619382 -0.033943713 -0.39594215 -0.4717079 -8.126821 -0.731673 -8.351602
0.16641682 0.46537954 0.03483367 -0.3241305 -0.034095082 -2.7215643 -0.4569719 -8.19517
-0.22203329 -0.65520495 0.08432963 -1.8539176 -0.7261115 11.151301 0.02668545 -2.7257278
-0.24889937 -2.569683 0.37731057 0.47499663 -1.6395353 5.3215885 -0.34127933 -7.5269628
-0.14369994 0.4113466 -0.2653436 -5.9788866 0.069385014 -3.4038527 -0.11211135 -1.5952528
0.23148723 -2.3840091 -0.12147354 -3.5029247 -0.37622938 -7.418366 -1.0303857 -5.3842263
-0.6315077 -7.173926 -0.37143505 -2.539655 -0.28672442 -3.271802 -0.44150242 -7.891597
0.60114974 -0.08679706 -1.1656524 -16.225227 -0.04925485 -2.8147342 -0.06633222 0.3056895
-0.37019613 -6.574762 -0.06821197 -0.4965686 2.3282824 1.2480522 0.07884567 -1.6348952
-0.43290395 -8.159294 -0.45928743 -8.594503 -0.25839406 -0.113936484 -0.971968 -16.408718
0.40114635 0.2241056 0.449336 0.5312001 -1.3246083 -13.054316 2.979197 -2.8946087
-0.5795238 -7.5384235 -0.50978136 -8.018685 -0.42497683 -1.9923611 -0.35864964 -2.4499135
0.17971843 -1.9077148 -0.7067338 -7.2077127 0.46630138 -0.5068975 -0.5271249 -2.2877276
-0.9936726 -7.281803 -0.4792475 0.22033387 -0.62402207 -3.384768 0.2740959 0.35767096
-0.07614953 -3.3654385 0.41125503 -2.6799526 -1.109852 -6.474028 0.46184975 0.32564324
-0.35059783 -6.8501515 -0.952181 -5.5706196 0.27797657 -2.862567 -1.7430705 -10.392529
-2.030833 -12.171524 -0.23696771 -0.6039714 -0.4212317 -7.491306 0.21335252 -2.212777
-0.81838477 -1.9443048 0.05804211 -0.6909449 0.0335418 0.45392126 -0.42897233 -7.9735174
-0.3522925 -0.5575588 -0.58610266 -7.7577705 0.45708364 -0.13139623 -1.1952673 -13.888073
-0.8910596 -17.020462 0.17469391 -2.0115128 -0.7556768 -2.5913897 -0.049699593 -2.5634537
-0.54889727 -7.65871 -0.58378965 -2.5008912 2.4384358 0.83365357 0.26711643 -0.60002285
-0.09081334 11.062212 -0.548556 -3.1812067 0.20102453 -0.38328463 0.2870438 0.5407762
-0.6328849 -7.8718886 -0.6164475 -3.3426297 -0.08109486 0.44041735 0.26465142 -0.22786802
-0.27210525 -7.2494326 -0.6750736 -7.812714 -0.27704072 -2.9182591 -1.8660207 -5.503852
0.104157746 -0.21995166 -0.13370506 -1.8473154 -0.28580657 -3.2476034 0.24943605 -1.4553584
-0.067489386 -0.3194029 -0.33008167 -6.793986 0.02884526 -2.7880187 0.028221548 0.14503723
0.18692297 -0.04000479 -0.7256391 -2.8607771 -0.35978425 -7.986299 -0.4279753 -17.700369
-0.33320108 0.2786312 -0.48072845 -8.434027 0.22103474 -2.0721745 0.17835051 -1.3162669
-0.37209225 -8.462212 -1.056381 -6.6996922 -0.12355993 -3.1257474 -0.8277754 -6.311574

linear.bias f4 [512]
00000000: 38ee b5bd 533f 623e 4e1c ed3e f7a4 9b3e
00000010: b247 8c3e dddb 783e 4763 8a3e 79f1 583f
00000020: 0534 693e 6431 483f 73ad e13e 5573 fa3e
00000030: 511b 86be 6f1a 12bf 8b26 a43e 9add d43e
00000040: 21c7 b5be 8221 9cbe 5f1e 0f3f 4050 a13e
00000050: 6923 08bf 4c2d a43e 4044 92bf 6c9a 373f
00000060: 1aff 293f a1b8 c6be f025 133f 839c 8b3e
00000070: 1761 33bf 3b82 623e 080d 3f3f b794 603f
00000080: f590 f43e a6bd 003f be70 8c3e 9d84 023f
00000090: 5126 b93e 9d1f 253f 269f 393f d3fe 9b3e
000000a0: 656c 30bf d6bd ba3e d7b4 d23e d833 d6be
000000b0: 136f 883e 819c bdbe 0e4f da3e db00 5f3f
000000c0: a2e7 9c3e 3bdd a43e ad17 d5be b910 a73e
000000d0: 7203 dbbe 3961 11bf 6b06 ba3e e9c4 89be
000000e0: f9ca b03e a0d1 a93e 5c9b 4b3f aa2d 513f
000000f0: c240 293f 3f6b c73e 7b91 b4be 0066 2d3f
00000100: 933f 033f 6856 2bbf a85c 383f e00e 14bf
00000110: d888 153f 40e2 4a3f 1b20 0e3f 7099 1fbf
00000120: 16ed 823e fd7b f63e ce5f 073f 1c53 76bf
00000130: 1ae4 ea3e de3b a5be 8ad4 953e 34dc f83e
00000140: 3afe 683f 90fc 36be 126a 6bbe f5c9 993e
00000150: 5703 1ebf 8032 b33e 6b9a b4be 3319 b43e
00000160: 1f96 a23e bd93 553f 6dbc 5f3f 2352 0f3f
00000170: ab34 ad3e 1027 4e3f 6901 263f c8ac 8ebe
00000180: 85ab b8be d48b 5a3f 03f8 0dbf 46e0 2ebf
00000190: 9e8d bd3e c495 463f e359 18bf 6489 e9be
000001a0: b4a6 813e 79ab c53e 351c 2f3f 272a ec3e
000001b0: 3591 afbe ce32 c33e 1cea 3c3f 99cc e33e
000001c0: 0877 fabd f733 813e 8154 663f fc3a fbbe
000001d0: d1e6 10bf a549 5b3f 897e 923e 2a77 723e
000001e0: bd02 2ebf 60d9 a83e 2375 da3e fc69 b43e
000001f0: 9261 993e 1aa8 073f dff6 693f 5bec dd3e
00000200: cb37 96be e9ff 883e 2eeb 12bf 14b6 99bf
00000210: e270 1c3f 8bdf ee3e 73a8 09bf 5822 413f
00000220: 3f2d 8c3e dbff a43e e091 313f e3de 963e
00000230: 6e2f b1be 6555 2abf 84bf 03bf 20ce 533f
00000240: 049d babe 7cb8 d53e 3c18 7dbe f9ea 473f
00000250: e653 3b3f c1dc 9b3e 1d71 85be fd90 113f
00000260: 8fb7 273f a201 c0be 531a c93e 44ee 2e3f
00000270: 7776 5e3f d9c9 023f 477d c53e 6c8b 323f
00000280: 7bcd 3f3f f466 c53e cab4 583f a7c7 1fbf
00000290: 61b5 2bbf e4e6 ac3e d612 983e fdac 0a3f
000002a0: ec2f fb3e 5fcc cb3e 39a9 d2be 9098 aabd
000002b0: 818e d83e a977 c83e d9b2 803e 3d78 ef3e
000002c0: 32ef ad3e 3fe4 693f 472e 833e 4b8d 5d3f
000002d0: 4536 b03d 867c 0ebf 5610 683e 1e66 2c3f
000002e0: 4d6e f73e 6fcf 373f ceb1 833f f424 ab3e
000002f0: 4321 a43e fe99 87be a8c0 69be dab0 683f
00000300: 9df4 c0be 48bb c9bd 45c1 5e3f 1610 c8be
00000310: 4e2d 933e f3c4 1dbf cb68 633f 12b2 a2be
00000320: d407 413f 78f3 27be 0c41 e73e 56bb a03e
00000330: 9f6f 1fbf 8473 18bf c43c 06bf 015a 903e
00000340: b0ff 11bf 1639 483f b69c f6be 7e1f 0a3f
00000350: 039f 833e 878a 423f ef68 e4be 9d74 103f
00000360: de29 f13e 3edd babe a78a 8a3e f7cb e33e
00000370: 86bf 9a3e dca4 01bf b6e6 533f f078 a43e
00000380: 078b 973e feba 523f 0f8c 923e ea7b 8abe
00000390: 4e46 0abf c3bf 5b3f 886a 0f3f 55ca 003f
000003a0: 5de5 df3e 7903 2d3f 6863 8c3e b48a ca3e
000003b0: 61b0 0dbf a043 2dbf 617f b13e 8a60 01bf
000003c0: 96ad 24bf baf9 a43e e558 0b3f 38bf 233f
000003d0: 1355 14bf 42c7 5b3e f8e2 ab3f b853 b93e
000003e0: 7d22 b73e 9779 eb3e 03be ea3e 4e02 2dbf
000003f0: 9dc3 fc3e 3cfe 923e cb44 903e 3e87 98be
-0.08883327 0.22094469 0.46310657 0.30399296 0.2739845 0.24302621 0.27028868 0.8474346
0.2277375 0.78200364 0.44077644 0.48916116 -0.26192716 -0.57071584 0.32060656 0.4157532
-0.35503486 -0.30494314 0.5590572 0.31506538 -0.5317903 0.3206581 -1.1427078 0.71720004
0.6640488 -0.38812736 0.57479763 0.27267846 -0.7007002 0.22119991 0.7462926 0.8772692
0.47766843 0.5028938 0.27429765 0.509836 0.36162046 0.64501363 0.72508466 0.30467853
-0.68915397 0.36472958 0.41153595 -0.4183643 0.26647243 -0.37033466 0.4263844 0.8711068
0.30645472 0.32200035 -0.41619626 0.32629946 -0.42776066 -0.56788975 0.36333022 -0.26908043
0.34529856 0.33167744 0.79533935 0.817103 0.6611444 0.3894901 -0.35267243 0.67733765
0.5126888 -0.6692872 0.7201638 -0.578352 0.5841193 0.7925148 0.5551774 -0.623435
0.25571507 0.4814147 0.5288056 -0.96220565 0.45877153 -0.32272238 0.29263717 0.48605502
0.9101292 -0.17869782 -0.22989681 0.30036893 -0.61723846 0.34999466 -0.35274062 0.35175475
0.31755158 0.83428556 0.8739689 0.55984706 0.33829245 0.80528355 0.648459 -0.27866197
-0.3606836 0.8536961 -0.5545656 -0.68310964 0.37022108 0.77572274 -0.59512156 -0.45612633
0.25322497 0.38607386 0.68402416 0.4612591 -0.34290472 0.38124698 0.7379472 0.44492033
-0.12229735 0.2523496 0.8997269 -0.4906844 -0.566022 0.8565925 0.28612164 0.2367827
-0.6797293 0.32978344 0.42667493 0.3523711 0.29957253 0.5299088 0.9139232 0.43344387
-0.29339442 0.26757744 -0.57390106 -1.2008691 0.61109746 0.46654925 -0.5377266 0.7544303
0.2737827 0.32226452 0.6936321 0.29466924 -0.34606498 -0.6653655 -0.51464105 0.82736397
-0.36447918 0.41742313 -0.24716276 0.78092915 0.73174894 0.3044186 -0.2606286 0.5686186
0.65514463 -0.37501246 0.39277896 0.68332314 0.86899513 0.51089245 0.38572142 0.6974399
0.74922913 0.3855511 0.8465086 -0.6241402 -0.6707364 0.33769906 0.2970187 0.5417021
0.4906 0.3980436 -0.41144732 -0.0832988 0.42296222 0.39153793 0.2513645 0.46771422
0.33971554 0.913639 0.25621244 0.8654372 0.08604101 -0.5565876 0.22662482 0.6734332
0.4832634 0.71800894 1.0288637 0.3342663 0.32056627 -0.26484674 -0.22827399 0.90894854
-0.37686625 -0.09850174 0.87013656 -0.39074773 0.28745502 -0.61628646 0.88831776 -0.31776482
0.7540257 -0.1640147 0.45166814 0.31392926 -0.62279695 -0.5955126 -0.5243647 0.28193668
-0.57030773 0.78212106 -0.48166436 0.53954303 0.25707254 0.75992626 -0.44611308 0.5642794
0.47102255 -0.3649692 0.27058908 0.4449155 0.30224246 -0.5064218 0.8277391 0.32123518
0.29598257 0.8231658 0.2862248 -0.27047664 -0.54013526 0.8583948 0.5602193 0.50308734
0.43729678 0.67583424 0.2741959 0.39558947 -0.5534726 -0.6768131 0.34667495 -0.5053793
-0.6432737 0.32221776 0.5443252 0.6396365 -0.5794231 0.2146273 1.342864 0.36196685
0.357685 0.45991203 0.45848092 -0.6758164 0.4936799 0.2870959 0.28177485 -0.29790682

linear3.weight f4 [3, 512]
00000000: d650 e43c 8f02 9fbf 105e f1be 04b0 65bf
00000010: e826 9abf 575e 88bf c478 4bbf 9e9e 7dbe
00000020: 53e2 9bbf 8cf1 5abe c5c1 0f40 6a76 b9be
00000030: e38f 113d 333c 1d3d 48f5 79bf 2675 55bf
00000040: 0fc1 9abc b076 c43b d59b ebbe 4c48 57bf
00000050: 8024 363c 0d32 32bf e5fd 1041 edc4 afbe
00000060: 2761 b2be ee7e 34bd 42a5 fe3f 985d 8dbf
00000070: 7b83 c5bc 8ba7 6cbf 479e cfbe c590 53be
00000080: db7c 29bf f990 05bf 358c 6dbf a32e 21bf
00000090: c784 51bf 7de0 a0be 3d59 abbe 389f 65bf
000000a0: 4296 e4bc b40f 4740 db32 1dbf 7395 1b3d
000000b0: 2323 5ebf 8f0c 333d 260c babf ecc1 8abe
000000c0: d466 6fbf b80a 77bf 49f3 b8bc 2b58 6740
000000d0: f00a 6dbb de94 06bd bfff dd3f 71f4 fdbf
000000e0: 342e 43bf 6890 69bf 2fb9 80be 0331 82be
000000f0: 107b cebe 9c16 3bbf b1eb 21bd fb66 91be
00000100: 3bc2 45bf 846f 03bc 4e16 babe a64f f33c
00000110: 133d edbe 50a3 d6be cf21 2dbf dfb5 0e3d
00000120: c07b 50bf 600f 29bf 2d20 2dbf 92f8 fe40
00000130: c6b3 ea3f 5068 663b 7bec 67bf 2a37 18bf
00000140: b7e8 5dbe 2826 9a3b 336d 1c3d c340 68bf
00000150: b329 073d 3976 41bf 15ea 303d 7827 0740
00000160: 92b5 8240 7d45 b2be 3c0f 85be 241e d4be
00000170: 84d9 51bf bde5 99be d18d a6bf 68a6 683c
00000180: fe63 ce40 8524 8fbe 1553 0f3d 8fb4 0a3d
00000190: c0b1 51bf d289 aabe 0f94 243d 52d3 d93c
000001a0: a1ce a0bf 59de 5bbf 9cb5 aabe 7c43 823f
000001b0: e575 2e3d 9af7 cfbe d488 c5be f7ad 0abf
000001c0: f19f 1ebd cbe0 70bf 1865 a9be 4891 3f3c
000001d0: 8a1c f2bc 3cf8 96be ad8d 86bf b19c a640
000001e0: 8733 06bd 34bf 7abf 35c0 28bf 7ace 0bbf
000001f0: 6ecb 88bf 976d 19bf 9c09 a1be 9461 38bf
00000200: 8c62 213c e4ae bbbf 50ac 413b 3d49 0141
00000210: 0793 08bf 9198 31bf 3af1 be3c 58c2 9dbe
00000220: 9532 92bf 033c 4fbf e209 a4be 0bf5 31bf
00000230: a081 a5ba 80cc 62ba f8b6 fe3b 38d7 a3be
00000240: 9879 a8bb 2d50 32bf 4a2e e83c 6e67 f1be
00000250: 0a6e 94be e291 45bf 0ad3 c73c 4738 04bf
00000260: fab6 79be 79c9 ad40 7d74 d53f e58e f0be
00000270: 76ff 61be 0d01 143f 2ed7 5dbf 02d6 89be
00000280: c67b a5be e5cd 11bf c025 b1be c1fe 0d3d
00000290: 60f6 643c 0192 68bf 42c5 e1be 1a56 28bf
000002a0: cb70 24bf d26e 25bf 066f bd3c 82eb 14bd
000002b0: 6936 3ebf 4377 50bf cb19 5fbf 89ee 1ebf
000002c0: b08e 39bf 5287 b4be ea29 93bf 8e58 bdbe
000002d0: 6755 9abf 9c04 2cbd 3238 87bf 2401 c1be
000002e0: 8ccf 38bf 7069 b0be b1ed f3bf e54f 48bf
000002f0: 3730 81bf 5c7f 44bc c8a8 16bc 0c37 8abe
00000300: 9039 2dbb 1ab3 f9bc ea28 94be 94db 4ebc
00000310: 45a2 a140 0b10 1e3d 3d36 74be 45e3 023d
00000320: a1ae 84be 2e0f c73c b5bd 39bf 54c9 8ebf
00000330: 7466 14bd e03b 403b 141c 1dbc 566a 62bf
00000340: 1f77 0b3d 265a 9bbe fbec 2d3d e1bd 14bf
00000350: 2d95 93bf a90a aebe 03c7 e2bc f87f 16bf
00000360: 0366 2abf 892e 0b3d 710d 94bf dc62 42bf
00000370: 6796 78bf 31e3 073d 2cfd 8dbe 6f74 39bf
00000380: a3e8 5fbf 963f 6fbe eec0 6abf d8fe 253c
00000390: 1e83 10bd d3a6 6dbe 1be9 b6be a7aa 393f
000003a0: fc59 0ebf 7823 bbbe 13cd 73bf ed0e 44bf
000003b0: e8db 3e3c bd26 01bd a688 5ebf 5744 0d3d
000003c0: 00e1 33bc 2cef 06bf 61c4 173f 6e7d d6be
000003d0: 4233 823c 2a3b 0b3e 9f3e c140 00fd 5dbf
000003e0: 597f 50bf e0f3 3bbf a03b d5be 22a0 12bd
000003f0: 2442 113f e4b2 89bf 2a22 4dbf 7bdb bf40
0.027870577 -1.2422656 -0.47142076 -0.89721704 -1.2043123 -1.065379 -0.7948115 -0.24767539
-1.2178444 -0.21381205 2.2462018 -0.36223155 0.03553761 0.03838749 -0.97639894 -0.8338188
-0.018890886 0.005995594 -0.46017328 -0.8409469 0.011117101 -0.6960762 9.061986 -0.3432993
-0.34839746 -0.044066362 1.9894183 -1.1044188 -0.024110546 -0.9244315 -0.40550444 -0.20660694
-0.6620614 -0.52174336 -0.92792064 -0.62961787 -0.8184323 -0.3142127 -0.3346652 -0.89696074
-0.02790368 3.1103334 -0.61405724 0.037984323 -0.86772364 0.04371315 -1.4534957 -0.27101076
-0.9351628 -0.9650073 -0.022576945 3.6147563 -0.003616985 -0.032856815 1.7343673 -1.9840223
-0.76242375 -0.9123597 -0.25141284 -0.25428018 -0.40328264 -0.73081374 -0.039531413 -0.2839888
-0.772495 -0.008022193 -0.36345142 0.029701065 -0.46335658 -0.41921473 -0.6762971 0.034841415
-0.8143883 -0.66039085 -0.6762722 7.967843 1.8336112 0.003515739 -0.90595216 -0.59459174
-0.21670805 0.0047042556 0.038190078 -0.9072382 0.03299875 -0.7557102 0.043191988 2.111784
4.0846643 -0.3481864 -0.25988185 -0.41429245 -0.8197253 -0.3005809 -1.3012029 0.014199831
6.449706 -0.2795755 0.034991343 0.0338636 -0.8191185 -0.33308274 0.040180262 0.026590023
-1.2563058 -0.8588615 -0.33341682 1.0176845 0.0425929 -0.40618593 -0.38580954 -0.541717
-0.03872675 -0.94093007 -0.3308494 0.011692353 -0.029554624 -0.29486263 -1.0511986 5.2066274
-0.032763984 -0.97948 -0.65918285 -0.54611933 -1.0687082 -0.59932846 -0.31452644 -0.7202389
0.009850156 -1.4662747 0.002955217 8.08038 -0.53349346 -0.6937342 0.023308385 -0.30812335
-1.1421686 -0.80950946 -0.3203879 -0.6951453 -0.0012627132 -0.00086516887 0.0077732764 -0.32000136
-0.005141448 -0.6965359 0.028342385 -0.47149223 -0.28990203 -0.77175725 0.024392623 -0.5164837
-0.24386206 5.430844 1.6676174 -0.4698402 -0.22070107 0.57814103 -0.86656463 -0.26921088
-0.32320994 -0.56954795 -0.34599113 0.03466678 0.013974756 -0.90847784 -0.44095808 -0.6575638
-0.6423461 -0.64622223 0.02312423 -0.03635741 -0.74301773 -0.8143198 -0.8714873 -0.62082726
-0.7248335 -0.3525949 -1.1497166 -0.36981624 -1.2057313 -0.041996583 -1.0564024 -0.37696183
-0.7219169 -0.34455442 -1.9056913 -0.7824691 -1.0092839 -0.0119932555 -0.009195514 -0.26995122
-0.0026432015 -0.03048091 -0.28937465 -0.012625594 5.0510583 0.03858952 -0.23848815 0.031955022
-0.2591448 0.02429923 -0.72555095 -1.115519 -0.03623052 0.0029332563 -0.009589214 -0.88443506
0.03404915 -0.30342215 0.04246233 -0.5810223 -1.15299 -0.33992508 -0.027682787 -0.58789015
-0.6656191 0.033979926 -1.1566602 -0.759321 -0.97104496 0.03317565 -0.27732217 -0.7244329
-0.8746435 -0.233641 -0.9170064 0.01013156 -0.035281293 -0.2320817 -0.3572472 0.7252602
-0.55606055 -0.36550498 -0.95234793 -0.76585275 0.011649109 -0.031531084 -0.8692726 0.034489002
-0.010978937 -0.527087 0.59284025 -0.4189257 0.015893582 0.13596788 6.038894 -0.8671417
-0.8144432 -0.73419 -0.41647053 -0.035797246 0.5674155 -1.0757718 -0.80130255 5.995542

linear3.bias f4 [3]
00000000: 1be7 33be 1447 46be 6c92 64be
-0.17568628 -0.19363052 -0.2232148
