env2 DQN/log/dqn/ckpt/313000.pth (torch, 14216 bytes, 4 tensors)

linear.weight f4 [512, 2]
000000 a0 18 26 3e d0 4f 2c be 97 fd 74 be 4b f5 c7 c0
       0.16220331 -0.16827321 -0.23924862 -6.248693
000010 26 e1 6d bd f3 a2 25 c0 66 54 de be c1 41 01 c1
       -0.058076046 -2.5880706 -0.43423766 -8.078553
000020 9f 58 9d be 32 21 f9 c0 bb 25 98 be 3c a0 d5 c0
       -0.30731675 -7.785302 -0.29716286 -6.67581
000030 b2 c5 d2 be 36 3d cc c0 f0 df 7e be 4b b4 fa bf
       -0.41166455 -6.382472 -0.24890113 -1.9586271
000040 fe 84 7c be 78 39 cd c0 23 bd 19 bf b7 9a df bf
       -0.24660107 -6.413265 -0.60054225 -1.746909
000050 90 e6 d1 bf 3b 57 6b c1 df 22 c4 be b7 a4 0c c0
       -1.6398487 -14.7087965 -0.38307855 -2.1975534
000060 e8 ac 89 bd 98 a9 3e 3e 90 08 0b bd ee b8 ca be
       -0.067224324 0.18619382 -0.033943713 -0.39594215
000070 84 73 f3 be 79 08 02 c1 39 9f 3a bf c3 e7 05 c1
       -0.4754907 -8.1270685 -0.72899204 -8.369082
000080 2c 69 2a 3e 3a 46 ee 3e c0 ad 0e 3d 6f f4 a5 be
       0.16641682 0.46537954 0.03483367 -0.3241305
000090 f6 94 fc bc 80 fa 2e c0 55 9c eb be 57 14 03 c1
       -0.030832749 -2.7340393 -0.4601771 -8.192466
0000a0 b2 5c 63 be 83 bb 27 bf 6c fd b2 3d f3 1c ef bf
       -0.22203329 -0.65520495 0.08739743 -1.868071
0000b0 71 e2 39 bf bb 6b 32 41 f0 60 f4 3c cc 1c 2f c0
       -0.7261115 11.151301 0.02983138 -2.7361326
0000c0 11 b0 7b be 03 2c 25 c0 da 2e c1 3e c2 32 f3 3e
       -0.24578883 -2.5808113 0.37731057 0.47499663
0000d0 36 0e d2 bf cd 76 ac 40 32 6b b0 be 24 bf f0 c0
       -1.6410587 5.389502 -0.34456784 -7.5233326
0000e0 14 26 13 be 06 9c d2 3e 54 31 88 be fe 99 bf c0
       -0.14369994 0.4113466 -0.26600134 -5.987548
0000f0 10 9e 94 3d 11 77 5a c0 b3 ac df bd bf 00 ce bf
       0.072567105 -3.4135172 -0.10921612 -1.6093978
000100 f2 34 70 3e bc 84 19 c0 ce 4a f2 bd 47 ca 60 c0
       0.23457697 -2.3987265 -0.11830674 -3.512346
000110 3e 5d c1 be 2d 6f ed c0 36 7a 83 bf a2 2b ae c0
       -0.3776645 -7.4198213 -1.0271671 -5.4428263
000120 54 fb 20 bf 2b 1b e6 c0 c3 94 bc be a8 3a 23 c0
       -0.62883496 -7.1908164 -0.36832246 -2.550455
000130 5c 38 91 be 81 14 52 c0 1d 03 e3 be 64 77 fc c0
       -0.2836331 -3.2825015 -0.44338313 -7.889574
000140 f3 e4 19 3f a8 c2 b1 bd 7d 7c 95 bf c2 2e 82 c1
       0.60114974 -0.08679706 -1.1678616 -16.272831
000150 70 70 3c bd cf ef 34 c0 30 d9 87 bd 56 83 9c 3e
       -0.046005666 -2.8271368 -0.06633222 0.3056895
000160 59 e6 ba be a9 d3 d2 c0 b8 b2 8b bd 3d 3e fe be
       -0.36503866 -6.5883374 -0.06821197 -0.4965686
000170 bb 8c 14 40 53 63 b7 3f 9d 9a a7 3d 80 41 d3 bf
       2.3210895 1.4327186 0.08183787 -1.6504364
000180 d2 98 de be c8 83 02 c1 e1 b0 ec be b6 7d 09 c1
       -0.43475968 -8.157173 -0.46228698 -8.593191
000190 3a 4c 84 be 88 57 e9 bd d0 8f 75 bf c7 0b 84 c1
       -0.25839406 -0.113936484 -0.95922565 -16.50575
0001a0 0e 63 cd 3e f0 7b 65 3e 5e 0f e6 3e bb fc 07 3f
       0.40114635 0.2241056 0.449336 0.5312001
0001b0 2f 70 a9 bf c5 8d 51 c1 83 0f 3e 40 7e cc 38 c0
       -1.3237361 -13.097112 2.9696968 -2.8874812
0001c0 d0 79 13 bf e8 d3 f1 c0 d0 0e 03 bf 8b 6f 00 c1
       -0.57607746 -7.5571175 -0.5119448 -8.027232
0001d0 60 fa d7 be 49 39 00 c0 f3 14 b6 be 9a 63 1d c0
       -0.42183208 -2.0034964 -0.35562858 -2.4592042
0001e0 6a 3f 3b 3e 02 14 f6 bf fc 17 33 bf ad 89 e7 c0
       0.1828591 -1.9224856 -0.6995847 -7.235556
0001f0 0e bf ee 3e 09 c4 01 bf a6 1c 06 bf 30 08 13 c0
       0.46630138 -0.5068975 -0.52387464 -2.2973747
000200 90 69 7c bf cf 36 ea c0 ee 5f f5 be 34 9f 61 3e
       -0.98598576 -7.3191905 -0.4792475 0.22033387
000210 bc f6 1e bf 17 34 59 c0 4c 56 8c 3e a6 20 b7 3e
       -0.62095237 -3.3938043 0.2740959 0.35767096
000220 ba 83 95 bd 7a 07 58 c0 91 29 d4 3e b8 4a 2c c0
       -0.073005155 -3.3754563 0.41437963 -2.6920605
000230 57 8f 8d bf 20 f8 d0 c0 92 77 ec 3e b6 ba a6 3e
       -1.1059369 -6.5302887 0.46184975 0.32564324
000240 e5 c3 b2 be 39 4f db c0 38 59 73 bf 56 0e b4 c0
       -0.3491508 -6.8534207 -0.9505801 -5.62675
000250 ad e5 8f 3e f1 1b 38 c0 94 74 da bf 94 ee 25 c1
       0.28104916 -2.8767054 -1.7066827 -10.370747
000260 03 cb 01 c0 75 5f 43 c1 aa a7 72 be df 9d 1a bf
       -2.0280159 -12.210805 -0.23696771 -0.6039714
000270 99 da d8 be 66 b3 ef c0 25 7e 5d 3e c7 88 0e c0
       -0.42354277 -7.490649 0.21630152 -2.2270982
000280 7c bb 50 bf 64 7c fa bf 90 bd 6d 3d c4 e1 30 bf
       -0.8153608 -1.9569211 0.05804211 -0.6909449
000290 20 63 09 3d 5e 68 e8 3e 70 5e dc be f1 1b ff c0
       0.0335418 0.45392126 -0.430408 -7.972161
0002a0 af 5f b4 be 2c bc 0e bf 26 42 15 bf 0b dc f8 c0
       -0.3522925 -0.5575588 -0.5830406 -7.7768607
0002b0 de 06 ea 3e bc 8c 06 be 90 22 99 bf 9e ff 5e c1
       0.45708364 -0.13139623 -1.1963673 -13.937407
0002c0 d9 35 5e bf 1c 1b 89 c1 ff 18 36 3e cf 99 01 c0
       -0.86800915 -17.138237 0.17782973 -2.0250127
0002d0 d3 b0 40 bf 75 a0 26 c0 56 9a 3e bd d9 c0 24 c0
       -0.7526981 -2.6035435 -0.046533905 -2.5742705
0002e0 1f 3e 0b bf 1b ca f5 c0 f0 a1 14 bf be a7 20 c0
       -0.54391664 -7.680921 -0.58059597 -2.5102382
0002f0 0c 15 1d 40 70 6b 69 3f 7c c3 88 3e 19 9b 19 bf
       2.4544096 0.9117956 0.26711643 -0.60002285
000300 ba cc 07 bd 00 69 32 41 e9 a6 0b bf 97 27 4c c0
       -0.033154227 11.150635 -0.5455156 -3.1899164
000310 60 d9 4d 3e e2 3d c4 be 68 f7 92 3e 4f 70 0a 3f
       0.20102453 -0.38328463 0.2870438 0.5407762
000320 11 1a 21 bf 46 64 fc c0 27 ff 1c bf 10 84 56 c0
       -0.629304 -7.8872404 -0.6132683 -3.3518105
000330 10 15 a6 bd 62 7e e1 3e 64 80 87 3e 3c 56 69 be
       -0.08109486 0.44041735 0.26465142 -0.22786802
000340 f6 17 90 be eb 82 e7 c0 77 0a 2c bf 07 83 fa c0
       -0.2814328 -7.234731 -0.6720347 -7.8284945
000350 c5 48 8c be a8 80 3b c0 cb a6 ef bf 69 c8 b1 c0
       -0.2739927 -2.9297276 -1.8722776 -5.555714
000360 a8 50 d5 3d 02 3b 61 be 6d b2 05 be 0d 46 ee bf
       0.104157746 -0.21995166 -0.13056345 -1.8615128
000370 bd ab 90 be 4f 6e 50 c0 07 31 81 3e 41 ae bc bf
       -0.28256026 -3.2567327 0.25232717 -1.4740678
000380 e0 37 8a bd c7 88 a3 be d7 29 a7 be 25 a2 d9 c0
       -0.067489386 -0.3194029 -0.3264911 -6.801043
000390 75 db 02 3d e8 38 33 c0 e0 30 e7 3c a4 84 14 3e
       0.03194757 -2.8003483 0.028221548 0.14503723
0003a0 bc 68 3f 3e 10 dc 23 bd 9c fa 38 bf 8a a3 37 c0
       0.18692297 -0.04000479 -0.722574 -2.8693566
0003b0 04 5f bb be f2 40 ff c0 b4 58 e5 be f0 21 8e c1
       -0.3659593 -7.976678 -0.44794238 -17.766571
0003c0 55 99 aa be c0 a8 8e 3e d4 5c f8 be de e3 06 c1
       -0.33320108 0.2786312 -0.48508322 -8.430632
0003d0 95 6e 65 3e 1b a2 05 c0 5d ae 39 3e ed fa aa bf
       0.22405465 -2.0880191 0.1813292 -1.3357826
0003e0 ea 92 c1 be 09 2d 07 c1 0c 6f 86 bf 62 fe d7 c0
       -0.378074 -8.448495 -1.0502639 -6.7498026
0003f0 80 83 f6 bd 8e c7 48 c0 85 1f 52 bf da 12 cb c0
       -0.120368004 -3.1371799 -0.82079345 -6.346051

linear.bias f4 [512]
000000 38 ee b5 bd 63 e7 7d 3e 4d 3b e9 3e 01 4d a9 3e
       -0.08883327 0.24795298 0.45553055 0.33066562
000010 b3 a6 9b 3e 7a f8 88 3e 1e 44 93 3e a8 10 57 3f
       0.3040062 0.26752073 0.28762907 0.8400979
000020 a3 7d 82 3e 13 16 46 3f 65 6e f4 3e d0 c4 f6 3e
       0.25486478 0.7737743 0.47740474 0.4819703
000030 51 1b 86 be 6f 1a 12 bf 96 f6 af 3e 3f fb dd 3e
       -0.26192716 -0.57071584 0.34367818 0.43355748
000040 21 c7 b5 be 82 21 9c be 1a 5f 0d 3f d5 50 ae 3e
       -0.35503486 -0.30494314 0.5522324 0.34046045
000050 69 23 08 bf b3 7c a0 3e 40 44 92 bf 65 b3 35 3f
       -0.5317903 0.31345138 -1.1427078 0.7097686
000060 f4 07 28 3f a1 b8 c6 be 4c 37 15 3f a4 17 99 3e
       0.65637136 -0.38812736 0.582875 0.2990085
000070 17 61 33 bf fb f4 77 3e 31 2d 3d 3f b1 84 5e 3f
       -0.7007002 0.24214546 0.7389708 0.8692122
000080 da 06 f1 3e 23 a5 fd 3e 5e db 98 3e 17 51 02 3f
       0.4707554 0.49540052 0.29854864 0.50904983
000090 a4 3e c2 3e ce 20 23 3f bc a0 37 3f bd 4d a9 3e
       0.37938416 0.6372193 0.71729636 0.33067122
0000a0 65 6c 30 bf 30 83 ce 3e 72 2c cf 3e d8 33 d6 be
       -0.68915397 0.40334463 0.40463597 -0.4183643
0000b0 8e fc 93 3e 81 9c bd be d5 04 ed 3e f0 22 5d 3f
       0.2890362 -0.37033466 0.4629275 0.86381435
0000c0 7c 64 aa 3e 69 8e b1 3e ad 17 d5 be 3c 70 ae 3e
       0.33279788 0.34678963 -0.41619626 0.34070003
0000d0 72 03 db be 39 61 11 bf 9b d6 ce 3e 28 ac 8f be
       -0.42776066 -0.56788975 0.40398106 -0.28061032
0000e0 a4 e1 b9 3e 33 b4 b3 3e 81 a0 49 3f f7 19 4f 3f
       0.36304963 0.3509842 0.78760535 0.80898994
0000f0 b6 89 27 3f f7 2e d0 3e 7b 91 b4 be 08 78 2b 3f
       0.65444505 0.4066083 -0.35267243 0.6698003
000100 eb 76 06 3f 68 56 2b bf 35 51 36 3f e0 0e 14 bf
       0.52525204 -0.6692872 0.7121766 -0.578352
000110 79 9c 13 3f c4 13 49 3f 8e 5d 0e 3f 70 99 1f bf
       0.57660633 0.78545785 0.55611503 -0.623435
000120 32 03 90 3e 77 88 f5 3e d6 8f 05 3f 76 b9 72 bf
       0.28127438 0.47955677 0.521726 -0.9481424
000130 6a 9d 01 3f de 3b a5 be 2c a9 a2 3e a1 01 f5 3e
       0.5063082 -0.32272238 0.31769693 0.47852805
000140 99 e5 66 3f 90 fc 36 be 12 6a 6b be 92 27 a7 3e
       0.9019409 -0.17869782 -0.22989681 0.32647377
000150 57 03 1e bf e3 06 bc 3e 6b 9a b4 be 5b 4a c5 3e
       -0.61723846 0.36724004 -0.35274062 0.3853329
000160 d7 e3 a7 3e 06 ca 53 3f d3 a0 5d 3f 48 6e 0d 3f
       0.32791016 0.8273014 0.86573523 0.552464
000170 93 2b b6 3e 49 30 4c 3f 12 2c 28 3f c8 ac 8e be
       0.3558012 0.7976118 0.65692246 -0.27866197
000180 b1 74 9f be 78 78 58 3f 03 f8 0d bf 46 e0 2e bf
       -0.31143716 0.8455882 -0.5545656 -0.68310964
000190 69 97 c7 3e cd 9c 44 3f e3 59 18 bf 64 89 e9 be
       0.38982704 0.7680176 -0.59512156 -0.45612633
0001a0 4d 39 90 3e 5c 4e cf 3e 57 18 2d 3f 7e 6d f1 3e
       0.28168717 0.4048947 0.67615265 0.47153848
0001b0 35 91 af be 69 80 bf 3e 3e 09 3b 3f 89 63 e0 3e
       -0.34290472 0.37402657 0.7306098 0.4382594
0001c0 08 77 fa bd a9 fa 8d 3e cd 6e 64 3f fc 3a fb be
       -0.12229735 0.277303 0.8923157 -0.4906844
0001d0 d1 e6 10 bf c8 38 59 3f 73 c1 a0 3e af c3 80 3e
       -0.566022 0.84852266 0.3139759 0.25149295
0001e0 bd 02 2e bf f6 a4 b5 3e ed e3 d6 3e 69 70 b1 3e
       -0.6797293 0.35477418 0.4197077 0.34656075
0001f0 2e fd a8 3e f0 28 09 3f c0 18 68 3f 80 71 e4 3e
       0.3300566 0.5357809 0.90662766 0.44617844
000200 cb 37 96 be ab 68 a0 3e 2e eb 12 bf 14 b6 99 bf
       -0.29339442 0.31329855 -0.57390106 -1.2008691
000210 cf f3 1b 3f ca 96 fa 3e 73 a8 09 bf 37 2a 3f 3f
       0.609189 0.48943168 -0.5377266 0.7467379
000220 34 ae 99 3e 6d 9b ae 3e c3 92 2f 3f a0 ef a1 3e
       0.3001572 0.34102955 0.68583316 0.31628132
000230 6e 2f b1 be 65 55 2a bf 84 bf 03 bf 8f d8 51 3f
       -0.34606498 -0.6653655 -0.51464105 0.8197107
000240 04 9d ba be d1 e9 e0 3e 3c 18 7d be 8f 0c 46 3f
       -0.36447918 0.43928388 -0.24716276 0.7736291
000250 68 55 39 3f ec 2b a6 3e 1d 71 85 be 98 c9 0f 3f
       0.72395945 0.32455385 -0.2606286 0.5616698
000260 5c 91 25 3f 9f 91 ce be f4 19 e0 3e 0f 22 2d 3f
       0.64674926 -0.40345475 0.437698 0.67630094
000270 77 29 5c 3f 32 27 03 3f df 78 ce 3e cc 8d 30 3f
       0.8600077 0.5123168 0.40326592 0.68966365
000280 e4 d1 3d 3f 2b d0 c1 3e d4 dc 56 3f a7 c7 1f bf
       0.7414839 0.37854132 0.83930707 -0.6241402
000290 61 b5 2b bf df 43 b6 3e fb d2 94 3e c9 7f 0c 3f
       -0.6707364 0.35598657 0.29067215 0.54882485
0002a0 72 8d f7 3e d9 0a c8 3e 39 a9 d2 be 90 98 aa bd
       0.48350102 0.39070776 -0.41144732 -0.0832988
0002b0 80 0a d5 3e 53 38 d1 3e 79 e1 8d 3e e6 db f3 3e
       0.41609573 0.40863284 0.27711084 0.47628707
0002c0 aa ba b6 3e ad 0f 68 3f 1c 66 91 3e 56 93 5b 3f
       0.35689288 0.9064892 0.28398216 0.8577169
0002d0 29 b1 db 3d 86 7c 0e bf 6c 0b 7e 3e f6 77 2a 3f
       0.1072715 -0.5565876 0.24809045 0.66589296
0002e0 f4 fb fd 3e 32 bc 35 3f 29 41 85 3f 5a d6 b4 3e
       0.49606287 0.7099029 1.041051 0.35319787
0002f0 83 40 b1 3e fe 99 87 be a8 c0 69 be 59 b0 66 3f
       0.3461953 -0.26484674 -0.22827399 0.90112835
000300 9d f4 c0 be 48 bb c9 bd c8 d3 5c 3f 16 10 c8 be
       -0.37686625 -0.09850174 0.8626065 -0.39074773
000310 77 44 8f 3e f3 c4 1d bf 65 7e 61 3f 12 b2 a2 be
       0.27981922 -0.61628646 0.8808349 -0.31776482
000320 b0 fc 3e 3f 78 f3 27 be 78 c2 ed 3e 12 fb ad 3e
       0.7460432 -0.1640147 0.4643743 0.33980614
000330 9f 6f 1f bf 84 73 18 bf c4 3c 06 bf 49 e8 9d 3e
       -0.62279695 -0.5955126 -0.5243647 0.30841282
000340 b0 ff 11 bf 4b 36 46 3f b6 9c f6 be fb 45 08 3f
       -0.57030773 0.77426594 -0.48166436 0.5323178
000350 64 88 92 3e bb a4 40 3f ef 68 e4 be ef 21 10 3f
       0.28619683 0.7525136 -0.44611308 0.5630178
000360 44 a8 ed 3e 3e dd ba be dc 3e 99 3e 36 11 ee 3e
       0.4641744 -0.3649692 0.2993077 0.46497506
000370 55 d7 a7 3e dc a4 01 bf d1 cc 51 3f 3b df a0 3e
       0.32781473 -0.5064218 0.8195315 0.3142031
000380 33 a0 a5 3e 7e db 50 3f 62 95 9f 3e ea 7b 8a be
       0.32348785 0.8158492 0.31168658 -0.27047664
000390 4e 46 0a bf 5c a4 59 3f 6f 81 0d 3f 16 af fe 3e
       -0.54013526 0.8501642 0.55275625 0.49742955
0003a0 c8 5d dc 3e 27 1a 2b 3f c6 f4 99 3e 6f cd d3 3e
       0.430403 0.6683678 0.3006956 0.4136767
0003b0 61 b0 0d bf a0 43 2d bf 93 c9 ba 3e 8a 60 01 bf
       -0.5534726 -0.6768131 0.36481914 -0.5053793
0003c0 96 ad 24 bf c0 f6 a1 3e ea fc 0a 3f 74 fa 21 3f
       -0.6432737 0.31633568 0.54292166 0.63272786
0003d0 13 55 14 bf 78 03 60 3e c1 5d a9 3f be a5 c1 3e
       -0.5794231 0.21876323 1.3231736 0.37821764
0003e0 7a 09 c0 3e bf 35 f7 3e f2 5f e7 3e 4e 02 2d bf
       0.3750723 0.48283193 0.45190388 -0.6758164
0003f0 65 b2 f9 3e 7b bd a0 3e c9 5b 99 3e ba 75 a5 be
       0.48768917 0.31394562 0.2995284 -0.3231638

linear3.weight f4 [3, 512]
000000 d6 50 e4 3c 63 54 a0 bf 21 0f f2 be a2 33 67 bf
       0.027870577 -1.2525753 -0.47277167 -0.9031316
000010 27 5c 9b bf 2a 88 89 bf d8 e9 4c bf f5 50 7d be
       -1.2137498 -1.0744679 -0.8004432 -0.24737914
000020 43 34 9d bf 5b bb 59 be bd 5f 10 40 c8 33 b9 be
       -1.2281574 -0.21262877 2.2558434 -0.36172318
000030 e3 8f 11 3d 33 3c 1d 3d 8a 6f 7b bf 0a 68 56 bf
       0.03553761 0.03838749 -0.9821707 -0.837525
000040 0f c1 9a bc b0 76 c4 3b ea 44 ec be b4 c2 58 bf
       -0.018890886 0.005995594 -0.46146327 -0.84672093
000050 80 24 36 3c 71 e1 32 bf e5 fd 10 41 e6 5e b0 be
       0.011117101 -0.69875246 9.061986 -0.34447402
000060 17 71 b2 be ee 7e 34 bd 6d 92 ff 3f 9c 6d 8e bf
       -0.34851906 -0.044066362 1.9966561 -1.11272
000070 7b 83 c5 bc 22 1a 6f bf 07 79 d0 be 29 7a 53 be
       -0.024110546 -0.9339925 -0.40717337 -0.20652069
000080 87 4c 2a bf 29 f7 05 bf 5e 36 6f bf 93 c2 21 bf
       -0.6652302 -0.5233026 -0.9344233 -0.6318752
000090 0e 8d 52 bf 80 bc a0 be 54 82 ab be 25 2c 67 bf
       -0.8224648 -0.31393814 -0.3349787 -0.90301734
0000a0 42 96 e4 bc b1 91 47 40 5d ab 1d bf 73 95 1b 3d
       -0.02790368 3.1182673 -0.61589605 0.037984323
0000b0 b7 2a 60 bf 8f 0c 33 3d 34 82 bb bf 3d 04 8b be
       -0.8756518 0.04371315 -1.464911 -0.2715167
0000c0 bc ee 70 bf 37 73 78 bf 49 f3 b8 bc e0 c4 67 40
       -0.9411428 -0.97050804 -0.022576945 3.6213913
0000d0 f0 0a 6d bb de 94 06 bd 82 30 df 3f fd 45 fe bf
       -0.003616985 -0.032856815 1.7436678 -1.9865109
0000e0 8a 3f 44 bf bc e1 6a bf 9c 5e 80 be 22 07 82 be
       -0.7665945 -0.91750693 -0.2507218 -0.25396067
0000f0 77 3d cf be eb fd 3b bf b1 eb 21 bd 2c fc 90 be
       -0.4047658 -0.73434323 -0.039531413 -0.28317392
000100 16 7c 46 bf 84 6f 03 bc 53 d1 b9 be a6 4f f3 3c
       -0.7753309 -0.008022193 -0.36292514 0.029701065
000110 2f fb ed be 34 f3 d7 be 40 bf 2d bf df b5 0e 3d
       -0.464807 -0.42177737 -0.6786995 0.034841415
000120 ab 47 52 bf 7b b5 29 bf e6 07 2e bf 3f c9 fc 40
       -0.82140607 -0.6629254 -0.679808 7.899566
000130 3c d7 eb 3f 50 68 66 3b 82 8f 69 bf 8f ef 18 bf
       1.8425059 0.003515739 -0.912346 -0.5974054
000140 cf 7e 5c be 28 26 9a 3b 33 6d 1c 3d e4 bf 69 bf
       -0.21532749 0.0047042556 0.038190078 -0.91308427
000150 b3 29 07 3d b4 82 42 bf 15 ea 30 3d 64 b6 07 40
       0.03299875 -0.7598069 0.043191988 2.1205072
000160 18 e9 82 40 ae d4 b2 be a9 83 84 be 05 af d4 be
       4.090954 -0.34927887 -0.258817 -0.4153978
000170 c3 03 53 bf 9a 7b 99 be de 71 a7 bf 68 a6 68 3c
       -0.82427615 -0.29977113 -1.3081625 0.014199831
000180 db 38 d0 40 39 e9 8e be 15 53 0f 3d 8f b4 0a 3d
       6.5069404 -0.2791231 0.034991343 0.0338636
000190 04 bb 52 bf 3a 44 aa be 0f 94 24 3d 52 d3 d9 3c
       -0.82316613 -0.33255178 0.040180262 0.026590023
0001a0 19 06 a2 bf 16 db 5c bf f2 cf aa be 3d 6c 83 3f
       -1.2658111 -0.862718 -0.33361775 1.0267407
0001b0 e5 75 2e 3d 86 35 d0 be 00 af c5 be 29 57 0b bf
       0.0425929 -0.40665835 -0.38610077 -0.5442987
0001c0 f1 9f 1e bd 1e f3 72 bf b1 d7 a9 be 48 91 3f 3c
       -0.03872675 -0.9490222 -0.33172372 0.011692353
0001d0 8a 1c f2 bc 01 80 96 be d4 8e 87 bf 6a b6 a6 40
       -0.029554624 -0.29394534 -1.0590463 5.2097673
0001e0 87 33 06 bd a8 3d 7c bf cd 92 29 bf 92 76 0c bf
       -0.032763984 -0.9853158 -0.66239625 -0.54868424
0001f0 a9 c5 89 bf dd 11 1a bf 15 51 a1 be c8 2c 39 bf
       -1.0763446 -0.6018351 -0.31507173 -0.72333956
000200 8c 62 21 3c 4b 8d bd bf 50 ac 41 3b 3d 49 01 41
       0.009850156 -1.4808744 0.002955217 8.08038
000210 10 09 09 bf 92 50 32 bf 3a f1 be 3c 01 fb 9d be
       -0.53529453 -0.6965419 0.023308385 -0.30855563
000220 38 41 93 bf 50 7a 50 bf ce 30 a4 be 7b 2d 33 bf
       -1.1504278 -0.81436634 -0.32068485 -0.6999127
000230 a0 81 a5 ba 80 cc 62 ba f8 b6 fe 3b 73 14 a4 be
       -0.0012627132 -0.00086516887 0.0077732764 -0.32046852
000240 98 79 a8 bb d9 11 33 bf 4a 2e e8 3c 45 d0 f2 be
       -0.005141448 -0.6994911 0.028342385 -0.47424522
000250 8f db 94 be f6 ff 46 bf 0a d3 c7 3c bb c2 04 bf
       -0.2907376 -0.77734315 0.024392623 -0.51859635
000260 5c f4 78 be 65 ec af 40 4f 94 d6 3f ef 83 f1 be
       -0.24311966 5.4976068 1.676401 -0.4717097
000270 7a ba 60 be 7f c2 15 3f 5b da 5e bf 40 0a 8a be
       -0.21946135 0.584999 -0.87051934 -0.26960945
000280 d1 26 a5 be 57 1f 12 bf 95 62 b1 be c1 fe 0d 3d
       -0.32256177 -0.5707907 -0.34645525 0.03466678
000290 60 f6 64 3c 69 c4 69 bf 0b f2 e2 be 2e f6 28 bf
       0.013974756 -0.91315323 -0.4432529 -0.6600064
0002a0 74 30 25 bf 60 06 26 bf 06 6f bd 3c 82 eb 14 bd
       -0.6452706 -0.6485348 0.02312423 -0.03635741
0002b0 89 fc 3e bf 1a 71 51 bf 50 1c 61 bf b5 af 1f bf
       -0.7460409 -0.81813204 -0.87933826 -0.6237748
0002c0 1b 87 3a bf c5 4e b5 be 32 62 94 bf 76 4d be be
       -0.72862405 -0.3541166 -1.1592467 -0.37168473
0002d0 53 21 9b bf 9c 04 2c bd 24 6f 88 bf 0b 53 c1 be
       -1.2119545 -0.041996583 -1.0658917 -0.3775867
0002e0 ea 8b 39 bf 48 0e b0 be ae c5 f3 bf b0 65 49 bf
       -0.72479117 -0.34385896 -1.9044702 -0.7867079
0002f0 4f f0 81 bf 5c 7f 44 bc c8 a8 16 bc 00 8e 89 be
       -1.0151461 -0.0119932555 -0.009195514 -0.2686615
000300 90 39 2d bb 1a b3 f9 bc 06 e7 93 be 94 db 4e bc
       -0.0026432015 -0.03048091 -0.28887194 -0.012625594
000310 89 8a a2 40 0b 10 1e 3d 2a 07 74 be 45 e3 02 3d
       5.079411 0.03858952 -0.23830858 0.031955022
000320 1b 30 84 be 2e 0f c7 3c 11 7f 3a bf ad 9f 8f bf
       -0.25817952 0.02429923 -0.7285014 -1.1220604
000330 74 66 14 bd e0 3b 40 3b 14 1c 1d bc 29 3a 64 bf
       -0.03623052 0.0029332563 -0.009589214 -0.89151245
000340 1f 77 0b 3d 8c ad 9a be fb ec 2d 3d 5e 73 15 bf
       0.03404915 -0.3021053 0.04246233 -0.5837916
000350 05 da 94 bf 2d 93 ae be 03 c7 e2 bc 68 01 17 bf
       -1.1629034 -0.3409666 -0.027682787 -0.5898652
000360 73 0d 2b bf 89 2e 0b 3d 54 43 95 bf 18 40 43 bf
       -0.66817397 0.033979926 -1.1661172 -0.76269674
000370 5e 0f 7a bf 31 e3 07 3d c1 39 8d be 13 2f 3a bf
       -0.976797 0.03317565 -0.27583125 -0.7272808
000380 5e 81 61 bf fd b3 6e be 1b 69 6c bf d8 fe 25 3c
       -0.88088024 -0.23310848 -0.9234788 0.01013156
000390 1e 83 10 bd 00 68 6c be 38 db b6 be 34 c5 3b 3f
       -0.035281293 -0.23086548 -0.35714126 0.73347783
0003a0 95 b8 0e bf d7 35 bb be 3b 7b 75 bf 5f f0 44 bf
       -0.557504 -0.36564514 -0.9589116 -0.7692928
0003b0 e8 db 3e 3c bd 26 01 bd b3 b1 5f bf 57 44 0d 3d
       0.011649109 -0.031531084 -0.8738052 0.034489002
0003c0 00 e1 33 bc bf 8b 07 bf 28 a0 19 3f 67 6a d7 be
       -0.010978937 -0.5294761 0.60010004 -0.42073366
0003d0 42 33 82 3c 66 a5 0f 3e 0e e4 c0 40 b4 18 5f bf
       0.015893582 0.14027938 6.0278387 -0.8714707
0003e0 15 93 51 bf ea a7 3c bf 1f af d5 be 22 a0 12 bd
       -0.81865054 -0.73693717 -0.4173517 -0.035797246
0003f0 42 d1 12 3f 5c ac 8a bf ee 69 4e bf d6 c8 c1 40
       0.5735055 -1.083385 -0.80630386 6.055766

linear3.bias f4 [3]
000000 03 65 33 be e9 08 3e be 14 fc 5b be
       -0.17519002 -0.18558086 -0.21482879
