env2 DQN/log/dqn/ckpt/318000.pth (torch, 14216 bytes, 4 tensors)

linear.weight f4 [512, 2]
00000000: a018 263e d04f 2cbe 3746 81be c4c9 cac0
00000010: 847a 02bd cc41 23c0 0b3a e3be 727e 02c1
00000020: a493 a4be d4f2 fbc0 5f6c 9fbe 870e d8c0
00000030: 644a d9be 904d cec0 ca04 66be 6a31 f6bf
00000040: 0fc2 84be e519 d0c0 35df 12bf f0b1 dabf
00000050: a24a d4bf dbd9 6cc1 9b4b b7be 775f 0ac0
00000060: e8ac 89bd 98a9 3e3e 9008 0bbd eeb8 cabe
00000070: a959 f9be 0a2d 03c1 ddad 3ebf 1205 07c1
00000080: 2c69 2a3e 3a46 ee3e c0ad 0e3d 6ff4 a5be
00000090: d0f3 edbb 3cca 2cc0 3a0c f1be 2747 04c1
000000a0: b25c 63be 83bb 27bf 728f e43d 508e eabf
000000b0: 71e2 39bf bb6b 3241 c99f 643d 20c6 2cc0
000000c0: 66a9 60be 1fc9 22c0 da2e c13e c232 f33e
000000d0: 4805 d1bf 7df5 ad40 5575 b7be e03c f3c0
000000e0: 1426 13be 069c d23e 6653 8ebe 171a c2c0
000000f0: a7eb c93d 8923 58c0 9a4c aabd 5d2e c9bf
00000100: 4df3 833e 5e50 17c0 a5ba bbbd 926a 5ec0
00000110: d42f c7be 12c3 efc0 7825 85bf decd b0c0
00000120: 09db 24bf 117f e8c0 27e0 aebe 51d2 20c0
00000130: 1f7c 83be d7aa 4fc0 2a17 e9be a1d6 fec0
00000140: f3e4 193f a8c2 b1bd 59e5 97bf 23c9 82c1
00000150: 1701 b5bc 0bb8 32c0 30d9 87bd 5683 9c3e
00000160: f821 c4be 9548 d5c0 b8b2 8bbd 3d3e febe
00000170: 1487 1640 735b d13f 6dae d73d 98c9 cebf
00000180: 4279 e3be 9dc4 03c1 9ea1 f0be 4bbb 0ac1
00000190: 3a4c 84be 8857 e9bd 11c7 79bf c985 84c1
000001a0: 0e63 cd3e f07b 653e 5e0f e63e bbfc 073f
000001b0: 6f2f acbf 72d4 52c1 1dc6 4040 4dc3 30c0
000001c0: 6bdd 16bf 30da f3c0 601e 06bf 8f71 01c1
000001d0: e47b cabe fbb1 fbbf 17b1 a7be 8ae8 1ac0
000001e0: 0011 523e 23d1 f1bf 4f74 37bf c807 eac0
000001f0: 0ebf ee3e 09c4 01bf 74b4 febe 5daf 10c0
00000200: c5be 80bf dc91 edc0 ee5f f5be 349f 613e
00000210: 6dcb 17bf 7dbb 56c0 4c56 8c3e a620 b73e
00000220: 15ab 3ebd 5fa8 55c0 80ae e03e 3309 2ac0
00000230: 7c91 8fbf ad18 d4c0 9277 ec3e b6ba a63e
00000240: 82b8 b8be 69c5 ddc0 78f0 76bf f61f b7c0
00000250: 951e 9c3e 5ddb 35c0 0a8f e0bf 698c 27c1
00000260: 799a 02c0 709c 45c1 aaa7 72be df9d 1abf
00000270: c779 e0be e001 f2c0 b923 773e 772f 0cc0
00000280: e9d0 49bf 3193 f5bf 90bd 6d3d c4e1 30bf
00000290: 2063 093d 5e68 e83e 7841 e1be f2cc 00c1
000002a0: af5f b4be 2cbc 0ebf 556b 18bf 79c0 fac0
000002b0: de06 ea3e bc8c 06be 8185 9bbf 5b4e 60c1
000002c0: b55a 60bf 10b2 89c1 d438 4e3e 5ac9 febf
000002d0: bdaa 39bf 2624 24c0 c52f aabc f06b 22c0
000002e0: 9977 0ebf 42b3 f7c0 c3bc 0dbf 1a45 1ec0
000002f0: b46c 1f40 6356 853f 7cc3 883e 199b 19bf
00000300: d147 1dbd c00b 3341 1b66 04bf 01ab 49c0
00000310: 60d9 4d3e e23d c4be 68f7 923e 4f70 0a3f
00000320: 8fac 24bf d092 fec0 1e0d 16bf b01d 54c0
00000330: 1015 a6bd 627e e13e 6480 873e 3c56 69be
00000340: fb97 95be 657e eac0 7d03 30bf 3cc6 fcc0
00000350: 0e24 7dbe b613 39c0 0047 f1bf c1a5 b3c0
00000360: a850 d53d 023b 61be 1f5a dabd 63c5 e9bf
00000370: c840 83be 6c1b 4ec0 57c5 8b3e d68b b8bf
00000380: e037 8abd c788 a3be 5ec4 aebe 2bfe dbc0
00000390: c30c 6a3d 45e8 30c0 e030 e73c a484 143e
000003a0: bc68 3f3e 10dc 23bd aabb 31bf 7428 35c0
000003b0: d2d4 c2be 4ad6 00c1 7171 ccbe f9b3 8fc1
000003c0: 5599 aabe c0a8 8e3e 6500 ffbe 1a07 08c1
000003d0: a4d3 7c3e fd6e 03c0 03b8 4b3e ec4d a7bf
000003e0: 26db cabe 9e4b 08c1 ce79 88bf c722 dbc0
000003f0: 8805 c3bd 407d 46c0 8508 57bf e085 cec0
0.16220331 -0.16827321 -0.25248882 -6.3371296 -0.03185512 -2.550891 -0.4438022 -8.15587
-0.3214389 -7.873392 -0.31137368 -6.7517734 -0.42439568 -6.446968 -0.22462764 -1.923383
-0.25929305 -6.503161 -0.57371837 -1.7085552 -1.6585276 -14.803187 -0.3579987 -2.1620767
-0.067224324 0.18619382 -0.033943713 -0.39594215 -0.48701218 -8.198496 -0.74484044 -8.438738
0.16641682 0.46537954 0.03483367 -0.3241305 -0.0072617307 -2.6998434 -0.4707964 -8.267371
-0.22203329 -0.65520495 0.111601725 -1.832468 -0.7261115 11.151301 0.055816445 -2.6995926
-0.2193962 -2.5435255 0.37731057 0.47499663 -1.6329737 5.436217 -0.35831705 -7.601181
-0.14369994 0.4113466 -0.27798003 -6.065685 0.098594 -3.377169 -0.08315392 -1.5717274
0.2577156 -2.3642802 -0.09166459 -3.4752545 -0.38903677 -7.4925623 -1.040206 -5.5251303
-0.6439672 -7.265511 -0.3415539 -2.5128367 -0.25680634 -3.2448022 -0.45525485 -7.9637
0.60114974 -0.08679706 -1.1866866 -16.348211 -0.022095246 -2.792483 -0.06633222 0.3056895
-0.38307166 -6.66511 -0.06821197 -0.4965686 2.3519945 1.6356033 0.10531316 -1.6155272
-0.4442845 -8.235501 -0.46998304 -8.670726 -0.25839406 -0.113936484 -0.97569376 -16.565325
0.40114635 0.2241056 0.449336 0.5312001 -1.3451976 -13.176867 3.0120919 -2.7619202
-0.58931607 -7.620384 -0.523901 -8.090224 -0.39547646 -1.966369 -0.32752296 -2.420443
0.20514297 -1.8891948 -0.7166185 -7.31345 0.46630138 -0.5068975 -0.4974705 -2.2607033
-1.0058218 -7.424055 -0.4792475 0.22033387 -0.5929478 -3.3551934 0.2740959 0.35767096
-0.046549875 -3.3384016 0.43883133 -2.6568115 -1.1216273 -6.628012 0.46184975 0.32564324
-0.36078268 -6.930348 -0.96460676 -5.7226515 0.30492082 -2.8415139 -1.7543652 -10.47178
-2.0406783 -12.350693 -0.23696771 -0.6039714 -0.4384291 -7.562729 0.24134721 -2.190397
-0.78834397 -1.9185544 0.05804211 -0.6909449 0.0335418 0.45392126 -0.4399526 -8.050035
-0.3522925 -0.5575588 -0.59538776 -7.835995 0.45708364 -0.13139623 -1.2150117 -14.01913
-0.8763841 -17.211945 0.20138866 -1.9905198 -0.7252615 -2.5647063 -0.020774731 -2.537838
-0.5565124 -7.740632 -0.5536615 -2.4729676 2.4910097 1.0416988 0.26711643 -0.60002285
-0.038398568 11.190369 -0.517183 -3.1510623 0.20102453 -0.38328463 0.2870438 0.5407762
-0.64325804 -7.9554214 -0.58613765 -3.314312 -0.08109486 0.44041735 0.26465142 -0.22786802
-0.29217514 -7.327929 -0.6875532 -7.8991985 -0.24720785 -2.891828 -1.8849792 -5.6139836
0.104157746 -0.21995166 -0.106617205 -1.8263363 -0.25635362 -3.2204237 0.27298996 -1.4417675
-0.067489386 -0.3194029 -0.3413419 -6.8747764 0.057141077 -2.7641766 0.028221548 0.14503723
0.18692297 -0.04000479 -0.6942698 -2.830594 -0.38052994 -8.052317 -0.399303 -17.962877
-0.33320108 0.2786312 -0.49804989 -8.501734 0.2469011 -2.0536492 0.19894414 -1.3070655
-0.39620322 -8.518461 -1.0662172 -6.8479953 -0.095225394 -3.1013947 -0.83997375 -6.453842

linear.bias f4 [512]
00000000: 38ee b5bd 92e8 643e 8be6 ef3e 80b8 9f3e
00000010: c94b 8e3e 45ea 7d3e 1171 8c3e d01a 5a3f
00000020: e95d 6b3e 9b72 493f 15cd e23e 0d0b fd3e
00000030: 511b 86be 6f1a 12bf 512a a73e 2493 d23e
00000040: 21c7 b5be 8221 9cbe 965d 103f 11c8 a43e
00000050: 6923 08bf 70c5 a63e 4044 92bf d9f7 383f
00000060: de5b 2b3f a1b8 c6be 76a9 1b3f d469 8e3e
00000070: 1761 33bf 58b3 643e 1773 403f e3cc 613f
00000080: 0c0d f73e 972f 023f ce4b 903e 92ad f63e
00000090: 3b45 b63e 117d 263f 4e01 3b3f e8a9 9f3e
000000a0: 656c 30bf 2bac c93e 2649 d53e d833 d6be
000000b0: 8504 883e 819c bdbe b643 cf3e d121 603f
000000c0: f6a2 a03e fb75 a83e ad17 d5be 4102 b73e
000000d0: 7203 dbbe 3961 11bf 1198 c03e ebc2 9bbe
000000e0: b1fe b13e 18f2 ac3e d8e8 4c3f fa99 523f
000000f0: bb66 2a3f 4735 c23e 7b91 b4be c6bd 2e3f
00000100: 6da3 f63e 6856 2bbf 75d4 393f e00e 14bf
00000110: 7ef4 163f 1433 4c3f fe32 053f 7099 1fbf
00000120: 6441 863e 7ac5 e43e fba9 083f 0c50 6ebf
00000130: a793 e63e de3b a5be 7eae 983e 0985 fb3e
00000140: cb45 6a3f 90fc 36be 126a 6bbe 0460 9d3e
00000150: 5703 1ebf d786 b53e 6b9a b4be 4473 ba3e
00000160: 7917 b03e e3c9 563f ee14 613f b9af 103f
00000170: c224 b03e 7889 4f3f a739 193f c8ac 8ebe
00000180: 6111 a0be e1ff 5b3f 03f8 0dbf 46e0 2ebf
00000190: ffe0 bd3e 1fff 473f e359 18bf 6489 e9be
000001a0: 3efd 823e 9615 c43e 157b 303f 3789 e33e
000001b0: 3591 afbe ea9f c53e ab4e 3e3f dadf e53e
000001c0: 0877 fabd 3750 843e a29f 673f fc3a fbbe
000001d0: d1e6 10bf 43bf 5c3f 693c 963e da46 653e
000001e0: bd02 2ebf a053 ac3e 61e0 dc3e 6324 b63e
000001f0: 9d02 9f3e 20a1 ff3e 9340 6b3f 430d ce3e
00000200: cb37 96be 3870 903e 2eeb 12bf 14b6 99bf
00000210: d9c4 153f 66cd e53e 73a8 09bf e46f 423f
00000220: 0def 8e3e b633 a53e f701 333f 5f9d 973e
00000230: 6e2f b1be 6555 2abf 84bf 03bf 622c 553f
00000240: 049d babe b6fb cd3e 3c18 7dbe bb4b 493f
00000250: b893 3c3f 97a4 9e3e 1d71 85be 7edd 123f
00000260: a922 293f 8398 bcbe 3b43 c13e 3045 303f
00000270: e7f7 5f3f 7887 f93e 8c48 c63e 90c9 333f
00000280: 3621 413f ea02 c83e 2bf8 593f a7c7 1fbf
00000290: 61b5 2bbf 8324 b03e 1fc0 993e acc2 023f
000002a0: 89ce fd3e a276 ce3e 39a9 d2be 9098 aabd
000002b0: ff21 db3e b7c2 c53e ec82 823e 9a66 df3e
000002c0: e278 a93e a433 6b3f 27ca 863e 8ef7 5e3f
000002d0: 8cac 453d 867c 0ebf 96db 6b3e d5ce 2d3f
000002e0: 0809 e83e 2250 393f bd85 803f 6927 ab3e
000002f0: d801 a73e fe99 87be a8c0 69be 4c04 6a3f
00000300: 9df4 c0be 48bb c9bd 0a06 603f 1610 c8be
00000310: 4949 a43e f3c4 1dbf 2787 643f 12b2 a2be
00000320: 2c5f 423f 78f3 27be 41f4 d63e 1a36 a53e
00000330: 9f6f 1fbf 8473 18bf c43c 06bf e8bc 943e
00000340: b0ff 11bf 6a89 493f b69c f6be 6178 0b3f
00000350: c0f0 843e 82e3 433f ef68 e4be 14d9 093f
00000360: 67c3 f33e 3edd babe 6606 8d3e 39b3 dd3e
00000370: 0f53 9e3e dca4 01bf 9e52 553f 51fe a63e
00000380: 1d6b 9b3e 1de3 533f 015e 973e ea7b 8abe
00000390: 4e46 0abf 8f18 5d3f adbc 103f 3580 f63e
000003a0: 7179 e23e 375c 2e3f 85f3 8f3e b654 c43e
000003b0: 61b0 0dbf a043 2dbf 9cbd b43e 8a60 01bf
000003c0: 96ad 24bf ecb7 a63e fe6c 063f 1bed 243f
000003d0: 1355 14bf 4b68 523e f244 aa3f 9024 bb3e
000003e0: f72a ba3e 4e90 e23e e0de ec3e 4e02 2dbf
000003f0: af80 f13e 911f 963e d615 923e e7e0 9cbe
-0.08883327 0.22354344 0.46855578 0.3119545 0.27792194 0.24796398 0.27430013 0.8519716
0.22985043 0.786905 0.4429709 0.49422494 -0.26192716 -0.57071584 0.32649472 0.41127884
-0.35503486 -0.30494314 0.563928 0.3218389 -0.5317903 0.32572508 -1.1427078 0.72253186
0.66937053 -0.38812736 0.6080545 0.27815115 -0.7007002 0.22334039 0.75175613 0.8820326
0.4825214 0.50853866 0.28182834 0.481793 0.35599694 0.65034586 0.73048866 0.31184316
-0.68915397 0.39389166 0.4165737 -0.4183643 0.26565948 -0.37033466 0.40481347 0.875516
0.3137433 0.32902512 -0.41619626 0.35743907 -0.42776066 -0.56788975 0.37616017 -0.30422148
0.34764627 0.33778453 0.8004279 0.822662 0.66563004 0.37931272 -0.35267243 0.6825832
0.4817156 -0.6692872 0.7258981 -0.578352 0.58966815 0.7976544 0.5203093 -0.623435
0.26221764 0.44681913 0.5338437 -0.9309089 0.45034525 -0.32272238 0.29820627 0.49124935
0.91512746 -0.17869782 -0.22989681 0.30737317 -0.61723846 0.35454437 -0.35274062 0.36416066
0.34392908 0.83901805 0.8792256 0.5651813 0.34403044 0.81069136 0.59853595 -0.27866197
-0.3126326 0.85937315 -0.5545656 -0.68310964 0.3708572 0.7812366 -0.59512156 -0.45612633
0.25583833 0.3829772 0.6893781 0.44440624 -0.34290472 0.38598567 0.7433879 0.44897348
-0.12229735 0.2584245 0.90477955 -0.4906844 -0.566022 0.8622934 0.29342964 0.22390309
-0.6797293 0.3365755 0.43139938 0.35574636 0.3105668 0.49927616 0.9189541 0.40244493
-0.29339442 0.28210616 -0.57390106 -1.2008691 0.5850349 0.4488327 -0.5377266 0.7595198
0.27916756 0.32266015 0.69924873 0.29612252 -0.34606498 -0.6653655 -0.51464105 0.8327085
-0.36447918 0.40231103 -0.24716276 0.7863118 0.736629 0.30984947 -0.2606286 0.5736922
0.6606851 -0.36835107 0.37746605 0.6885557 0.87487644 0.48736167 0.38727224 0.70229435
0.754413 0.39064723 0.851443 -0.6241402 -0.6707364 0.34402856 0.3002939 0.51078296
0.49571636 0.40324885 -0.41144732 -0.0832988 0.42799374 0.38625118 0.2549051 0.43632966
0.3310004 0.9187567 0.26326105 0.8709649 0.048260257 -0.5565876 0.23032984 0.67893726
0.4531939 0.723879 1.0040814 0.33428505 0.32618594 -0.26484674 -0.22827399 0.91412807
-0.37686625 -0.09850174 0.87509215 -0.39074773 0.32087162 -0.61628646 0.89268726 -0.31776482
0.7592647 -0.1640147 0.41983226 0.3226784 -0.62279695 -0.5955126 -0.5243647 0.29050374
-0.57030773 0.787253 -0.48166436 0.5448056 0.25964928 0.76519024 -0.44611308 0.5384686
0.47610018 -0.3649692 0.27543944 0.433008 0.30922744 -0.5064218 0.8332919 0.32615903
0.30355158 0.8276842 0.29563907 -0.27047664 -0.54013526 0.863656 0.56537896 0.4814469
0.44233277 0.6810946 0.28115478 0.3834588 -0.5534726 -0.6768131 0.3530091 -0.5053793
-0.6432737 0.32562196 0.5251006 0.64424294 -0.5794231 0.20547597 1.330229 0.36551332
0.36360905 0.4425072 0.4626379 -0.6758164 0.4716849 0.29320958 0.28532284 -0.30640337

linear3.weight f4 [3, 512]
00000000: d650 e43c e34e a2bf 431a f2be b6d1 6abf
00000010: 8a45 9dbf ad75 8bbf f4db 50bf 46dd 7dbe
00000020: cd30 9fbf 6b37 59be 1176 1140 bca3 b8be
00000030: e38f 113d 333c 1d3d fe14 7fbf d9b6 59bf
00000040: 0fc1 9abc b076 c43b 367d ecbe c058 5cbf
00000050: 8024 363c 052c 33bf e5fd 1041 14e8 b0be
00000060: 5a69 b2be ee7e 34bd 90d8 ff3f 7b48 90bf
00000070: 7b83 c5bc 8318 73bf 9ef9 d0be 20a4 54be
00000080: c2d0 2abf cecf 05bf 6cd5 72bf f27b 23bf
00000090: 1bee 55bf 4377 a0be ea5c abbe 74e1 6abf
000000a0: 4296 e4bc 2900 4940 7197 1dbf 7395 1b3d
000000b0: 4858 64bf 8f0c 333d 54df b9bf 70e5 8bbe
000000c0: 1187 74bf d4e7 7bbf 49f3 b8bc 385f 6940
000000d0: f00a 6dbb de94 06bd de8a e13f b762 febf
000000e0: fece 47bf d18b 6ebf e654 80be 6c0b 82be
000000f0: 623e d0be a924 3fbf b1eb 21bd 4b93 90be
00000100: f7cf 48bf 846f 03bc 082b b9be a64f f33c
00000110: 99fd edbe b145 d9be fc99 2fbf dfb5 0e3d
00000120: 6a0d 56bf 3f91 2bbf c88c 2ebf 1372 fd40
00000130: e45e ed3f 5068 663b f25d 6dbf 6275 19bf
00000140: ecbe 5bbe 2826 9a3b 336d 1c3d 4c56 6dbf
00000150: b329 073d f80b 46bf 15ea 303d 8d00 0940
00000160: babc 8340 10d0 b3be a712 84be 03ed d4be
00000170: 04b5 56bf 0229 99be d67d a4bf 68a6 683c
00000180: f106 d040 7099 8ebe 1553 0f3d 8fb4 0a3d
00000190: 303f 56bf 70b9 a9be 0f94 243d 52d3 d93c
000001a0: 3ae4 a3bf 5c3d 60bf c5b0 aabe c788 843f
000001b0: e575 2e3d 3b0f d0be 378f c5be 1d08 0cbf
000001c0: f19f 1ebd a5d6 76bf 1577 aabe 4891 3f3c
000001d0: 8a1c f2bc a308 96be be5c 89bf 4994 a740
000001e0: 8733 06bd 59e6 7fbf 4120 2abf 0d10 0dbf
000001f0: 9893 8bbf 5712 1cbf d6a6 a1be 449d 3bbf
00000200: 8c62 213c 257b bdbf 50ac 413b 3d49 0141
00000210: 4194 0abf 131c 35bf 3af1 be3c 256a 9ebe
00000220: 461a 95bf f332 54bf 8512 a4be 0ce6 36bf
00000230: a081 a5ba 80cc 62ba f8b6 fe3b 3167 a4be
00000240: 9879 a8bb d8ee 35bf 4a2e e83c c8ef f3be
00000250: 089d 95be 5eba 4abf 0ad3 c73c f911 05bf
00000260: 795b 78be 2216 b240 26ff d73f c614 f2be
00000270: 3db1 5fbe 44ea 163f e154 62bf be82 8abe
00000280: f9b4 a4be 3a06 12bf 76a1 b1be c1fe 0d3d
00000290: 60f6 643c 596d 6dbf fc08 e4be 23f5 2abf
000002a0: c077 25bf 1b17 26bf 066f bd3c 82eb 14bd
000002b0: 482d 3fbf f6c4 54bf 3325 65bf 70f4 21bf
000002c0: 4ebe 3dbf 0081 b6be 1959 96bf 3d43 bfbe
000002d0: 4036 9bbf 9c04 2cbd 3a68 8abf c153 c1be
000002e0: e0ea 3bbf 7856 afbe 35ad efbf 1cf4 4cbf
000002f0: 4cbd 83bf 5c7f 44bc c8a8 16bc fa19 89be
00000300: 9039 2dbb 1ab3 f9bc 37cc 93be 94db 4ebc
00000310: fbfe a140 0b10 1e3d c256 75be 45e3 023d
00000320: d2c7 83be 2e0f c73c 3de6 3cbf 105c 91bf
00000330: 7466 14bd e03b 403b 141c 1dbc e6db 67bf
00000340: 1f77 0b3d b2f3 99be fbec 2d3d 96de 15bf
00000350: 0fca 96bf ff2c afbe 03c7 e2bc 209b 18bf
00000360: e050 2bbf 892e 0b3d f030 97bf ab5b 46bf
00000370: 9c9d 7dbf 31e3 073d de8a 8cbe 417c 3abf
00000380: 7a36 65bf e1ed 6ebe 98f8 6fbf d8fe 253c
00000390: 1e83 10bd 50c1 6bbe 60a6 b6be 4ba3 3d3f
000003a0: 2f91 0ebf 8402 bbbe 753e 79bf ce03 48bf
000003b0: e8db 3e3c bd26 01bd 4054 63bf 5744 0d3d
000003c0: 00e1 33bc 9a1d 08bf 5ce1 1a3f 9d87 d8be
000003d0: 4233 823c b211 113e 4b30 c140 46b7 62bf
000003e0: 5332 55bf 8f67 3fbf e342 d6be 22a0 12bd
000003f0: 2478 133f 6f88 8cbf 5c36 52bf 6c39 c440
0.027870577 -1.2680324 -0.4728566 -0.91726243 -1.2286847 -1.0895287 -0.8158562 -0.2479144
-1.2436768 -0.21212547 2.2728312 -0.3606242 0.03553761 0.03838749 -0.99641407 -0.8504463
-0.018890886 0.005995594 -0.46189278 -0.8607292 0.011117101 -0.69989043 9.061986 -0.34552062
-0.34846002 -0.044066362 1.9987965 -1.1272119 -0.024110546 -0.94959277 -0.40815443 -0.20765734
-0.6672479 -0.5227021 -0.94856906 -0.63861 -0.83566445 -0.3134099 -0.33469325 -0.91750264
-0.02790368 3.1406348 -0.61559206 0.037984323 -0.89197206 0.04371315 -1.4521279 -0.27323484
-0.95518595 -0.98400617 -0.022576945 3.6464367 -0.003616985 -0.032856815 1.7620504 -1.9873875
-0.7805022 -0.9318209 -0.25064772 -0.2539934 -0.40672594 -0.74665314 -0.039531413 -0.28237376
-0.7844233 -0.008022193 -0.36165643 0.029701065 -0.46482542 -0.42435983 -0.68594337 0.034841415
-0.8361422 -0.670185 -0.68183565 7.920175 1.8544583 0.003515739 -0.92721474 -0.59944737
-0.2145955 0.0047042556 0.038190078 -0.92709804 0.03299875 -0.7736201 0.043191988 2.1406586
4.116788 -0.35119677 -0.2579548 -0.41587076 -0.8386996 -0.299141 -1.2850902 0.014199831
6.5008473 -0.2785144 0.034991343 0.0338636 -0.83690166 -0.3314929 0.040180262 0.026590023
-1.2804024 -0.87593627 -0.3333799 1.0354241 0.0425929 -0.4063662 -0.38585827 -0.5469988
-0.03872675 -0.9642127 -0.33293977 0.011692353 -0.029554624 -0.29303464 -1.0731428 5.236851
-0.032763984 -0.9996086 -0.66455466 -0.55102617 -1.0904417 -0.60965484 -0.31572598 -0.73286843
0.009850156 -1.4803206 0.002955217 8.08038 -0.5413247 -0.7074596 0.023308385 -0.30940357
-1.1648643 -0.8289024 -0.3204538 -0.71444774 -0.0012627132 -0.00086516887 0.0077732764 -0.3210998
-0.005141448 -0.7106757 0.028342385 -0.47643876 -0.29221368 -0.79190624 0.024392623 -0.5198055
-0.24253644 5.5652018 1.687474 -0.47281474 -0.21844955 0.5895121 -0.88410765 -0.27052873
-0.3216932 -0.5704075 -0.34693497 0.03466678 0.013974756 -0.92744976 -0.44538105 -0.667803
-0.6463585 -0.64879006 0.02312423 -0.03635741 -0.7467847 -0.8311304 -0.89509887 -0.6326361
-0.74118507 -0.35645294 -1.174594 -0.37355986 -1.2125931 -0.041996583 -1.0813057 -0.37759212
-0.73405266 -0.34245658 -1.8724734 -0.8005998 -1.0292144 -0.0119932555 -0.009195514 -0.2677763
-0.0026432015 -0.03048091 -0.2886674 -0.012625594 5.0623755 0.03858952 -0.23958877 0.031955022
-0.25738388 0.02429923 -0.73788816 -1.135622 -0.03623052 0.0029332563 -0.009589214 -0.90569913
0.03404915 -0.30068737 0.04246233 -0.58542764 -1.1780413 -0.34214017 -0.027682787 -0.596117
-0.6692028 0.033979926 -1.181181 -0.77483624 -0.9906862 0.03317565 -0.27449697 -0.72845846
-0.8953625 -0.23332931 -0.937387 0.01013156 -0.035281293 -0.23022962 -0.3567381 0.7407729
-0.5569028 -0.36525357 -0.97360927 -0.78130805 0.011649109 -0.031531084 -0.8880043 0.034489002
-0.010978937 -0.5317017 0.6050012 -0.42290965 0.015893582 0.14166906 6.037145 -0.88560903
-0.83279914 -0.7476739 -0.41847906 -0.035797246 0.57605195 -1.0979136 -0.82114196 6.1320095

linear3.bias f4 [3]
00000000: e662 35be 3b47 48be bc31 6cbe
-0.17713508 -0.19558422 -0.23065847
