env2 DQN/log/dqn/ckpt/324000.pth (torch, 14216 bytes, 4 tensors)

linear.weight f4 [512, 2]
0.16220331 -0.16827321 -0.21535288 -6.3469787 -0.043198667 -2.3704984 -0.43616855 -8.1621475
-0.28684872 -7.878501 -0.2928267 -6.761161 -0.4161422 -6.4825225 -0.23287196 -1.7378256
-0.2208548 -6.5158753 -0.58515376 -1.5214663 -1.6515083 -14.950741 -0.36788416 -1.9832733
-0.067224324 0.18619382 -0.033943713 -0.39594215 -0.48244148 -8.204776 -0.7705269 -8.429769
0.16641682 0.46537954 0.03483367 -0.3241305 -0.014848402 -2.518731 -0.4674198 -8.263757
-0.22203329 -0.65520495 0.1036999 -1.6468041 -0.7261115 11.151301 0.044482708 -2.521324
-0.23099071 -2.3626976 0.37731057 0.47499663 -1.619865 5.26781 -0.34266648 -7.6075172
-0.14369994 0.4113466 -0.2588354 -6.0765615 0.0869852 -3.201388 -0.093546115 -1.3834853
0.251259 -2.1786025 -0.1040991 -3.2999032 -0.38080513 -7.4914107 -1.0618427 -5.404607
-0.6652126 -7.260972 -0.3537125 -2.332548 -0.26908305 -3.0649874 -0.4515967 -7.965432
0.60114974 -0.08679706 -1.1840974 -16.511198 -0.030051757 -2.611401 -0.06633222 0.3056895
-0.37077895 -6.687931 -0.06821197 -0.4965686 2.3658786 1.6884763 0.09844506 -1.4267615
-0.43511948 -8.240425 -0.46176526 -8.672791 -0.25839406 -0.113936484 -0.9969202 -16.688711
0.40114635 0.2241056 0.449336 0.5312001 -1.3369365 -13.333728 3.07116 -2.4933841
-0.60190123 -7.6425366 -0.52241755 -8.113873 -0.40701318 -1.784974 -0.3420126 -2.2435505
0.19958319 -1.7038755 -0.745258 -7.302794 0.46630138 -0.5068975 -0.50950694 -2.083975
-1.0394359 -7.404798 -0.4792475 0.22033387 -0.6073824 -3.1795068 0.2740959 0.35767096
-0.058565367 -3.1612287 0.42990148 -2.4754863 -1.1520075 -6.5563617 0.46184975 0.32564324
-0.35168758 -6.9324117 -0.99363893 -5.665267 0.29741648 -2.656322 -1.7061728 -10.9425535
-2.0229394 -12.579431 -0.23696771 -0.6039714 -0.43079314 -7.5711436 0.23236938 -2.0036306
-0.8002551 -1.7329797 0.05804211 -0.6909449 0.0335418 0.45392126 -0.4319768 -8.054333
-0.3522925 -0.5575588 -0.6080591 -7.860409 0.45708364 -0.13139623 -1.207413 -14.1783285
-0.91785085 -17.273336 0.1939143 -1.8061914 -0.7378939 -2.3804333 -0.031649303 -2.3586848
-0.55726254 -7.7921653 -0.5665342 -2.2966938 2.3864625 1.2240435 0.26711643 -0.60002285
-0.28744024 11.017858 -0.5321757 -2.9760487 0.20102453 -0.38328463 0.2870438 0.5407762
-0.66182077 -7.96135 -0.5993047 -3.1387055 -0.08109486 0.44041735 0.26465142 -0.22786802
-0.24554978 -7.3522296 -0.71007127 -7.8953266 -0.25919688 -2.709923 -1.8614135 -5.6928806
0.104157746 -0.21995166 -0.114112265 -1.6404902 -0.2683472 -3.0460181 0.27031115 -1.2530254
-0.067489386 -0.3194029 -0.3226514 -6.8961477 0.047380947 -2.581142 0.028221548 0.14503723
0.18692297 -0.04000479 -0.70928127 -2.6559224 -0.36802667 -8.053271 -0.30896547 -18.127645
-0.33320108 0.2786312 -0.4936672 -8.506236 0.24108452 -1.8662604 0.19990139 -1.1224294
-0.3791917 -8.52611 -1.1006095 -6.7986455 -0.10514705 -2.9207983 -0.86927044 -6.4439173
00000000: a018 263e d04f 2cbe 7785 5cbe 731a cbc0
00000010: 16f1 30bd 3fb6 17c0 7c51 dfbe 2898 02c1
00000020: d6dd 92be ae1c fcc0 62ed 95be 6e5b d8c0
00000030: 9710 d5be d370 cfc0 fd75 6ebe 1271 debf
00000040: c327 62be 0d82 d0c0 a3cc 15bf 68bf c2bf
00000050: a064 d3bf 3c36 6fc1 505b bcbe e6db fdbf
00000060: e8ac 89bd 98a9 3e3e 9008 0bbd eeb8 cabe
00000070: 9202 f7be c346 03c1 4041 45bf 55e0 06c1
00000080: 2c69 2a3e 3a46 ee3e c0ad 0e3d 6ff4 a5be
00000090: b646 73bc e432 21c0 a651 efbe 5938 04c1
000000a0: b25c 63be 83bb 27bf 9d60 d43d 7aca d2bf
000000b0: 71e2 39bf bb6b 3241 8033 363d 5f5d 21c0
000000c0: d488 6cbe 7036 17c0 da2e c13e c232 f33e
000000d0: bc57 cfbf e691 a840 fb71 afbe c870 f3c0
000000e0: 1426 13be 069c d23e 1386 84be 3173 c2c0
000000f0: 4c25 b23d 8ae3 4cc0 1b95 bfbd 0c16 b1bf
00000100: 05a5 803e 396e 0bc0 e931 d5bd 9d31 53c0
00000110: e4f8 c2be a3b9 efc0 76ea 87bf 8af2 acc0
00000120: 5f4b 2abf e259 e8c0 ce19 b5be 7748 15c0
00000130: 41c5 89be c128 44c0 af37 e7be d2e4 fec0
00000140: f3e4 193f a8c2 b1bd 8190 97bf ef16 84c1
00000150: 1a2f f6bc 3221 27c0 30d9 87bd 5683 9c3e
00000160: bdd6 bdbe 8803 d6c0 b8b2 8bbd 3d3e febe
00000170: 8e6a 1740 fe1f d83f 909d c93d 1fa0 b6bf
00000180: fbc7 debe c8d8 03c1 7f6c ecbe c0c3 0ac1
00000190: 3a4c 84be 8857 e9bd 2a36 7fbf 7b82 85c1
000001a0: 0e63 cd3e f07b 653e 5e0f e63e bbfc 073f
000001b0: bc20 abbf f356 55c1 e38d 4440 9b93 1fc0
000001c0: 3316 1abf a98f f4c0 28bd 05bf 6cd2 01c1
000001d0: 0864 d0be 077a e4bf 471c afbe 5596 0fc0
000001e0: 895f 4c3e 9818 dabf 3ac9 3ebf 7db0 e9c0
000001f0: 0ebf ee3e 09c4 01bf 0c6f 02bf d95f 05c0
00000200: 3c0c 85bf 1bf4 ecc0 ee5f f5be 349f 613e
00000210: 6a7d 1bbf 0a7d 4bc0 4c56 8c3e a620 b73e
00000220: 3de2 6fbd 9251 4ac0 0c1c dc3e 5e6e 1ec0
00000230: fb74 93bf b7cd d1c0 9277 ec3e b6ba a63e
00000240: 6510 b4be 51d6 ddc0 1f5f 7ebf de49 b5c0
00000250: f946 983e 2e01 2ac0 df63 dabf b314 2fc1
00000260: d777 01c0 5945 49c1 aaa7 72be df9d 1abf
00000270: eb90 dcbe cf46 f2c0 3df2 6d3e 7c3b 00c0
00000280: 85dd 4cbf 47d2 ddbf 90bd 6d3d c4e1 30bf
00000290: 2063 093d 5e68 e83e 102c ddbe 8cde 00c1
000002a0: af5f b4be 2cbc 0ebf c3a9 1bbf 7888 fbc0
000002b0: de06 ea3e bc8c 06be 828c 9abf 6fda 62c1
000002c0: 46f8 6abf cb2f 8ac1 7891 463e 4831 e7bf
000002d0: 9de6 3cbf 0559 18c0 b3a2 01bd b1f4 16c0
000002e0: c2a8 0ebf 6b59 f9c0 6308 11bf 08fd 12c0
000002f0: cdbb 1840 75ad 9c3f 7cc3 883e 199b 19bf
00000300: 5e2b 93be 2549 3041 ab3c 08bf 9577 3ec0
00000310: 60d9 4d3e e23d c4be 68f7 923e 4f70 0a3f
00000320: 166d 29bf 61c3 fec0 086c 19bf 8de0 48c0
00000330: 1015 a6bd 627e e13e 6480 873e 3c56 69be
00000340: 6771 7bbe 7745 ebc0 3bc7 35bf 84a6 fcc0
00000350: 74b5 84be 616f 2dc0 cc42 eebf 142c b6c0
00000360: a850 d53d 023b 61be b1b3 e9bd 95fb d1bf
00000370: ce64 89be f6f1 42c0 3966 8a3e 2363 a0bf
00000380: e037 8abd c788 a3be 9032 a5be 3ead dcc0
00000390: 8612 423d 6e31 25c0 e030 e73c a484 143e
000003a0: bc68 3f3e 10dc 23bd 7593 35bf a2fa 29c0
000003b0: fe6d bcbe 33da 00c1 b930 9ebe 6b05 91c1
000003c0: 5599 aabe c0a8 8e3e f2c1 fcbe 8b19 08c1
000003d0: dcde 763e 9fe1 eebf f3b2 4c3e c4ab 8fbf
000003e0: 6a25 c2be f26a 08c1 c6e0 8cbf 818e d9c0
000003f0: 5657 d7bd 5cee 3ac0 8288 5ebf 9234 cec0

linear.bias f4 [512]
-0.08883327 0.22446257 0.48717725 0.28984514 0.27581432 0.23533772 0.23877788 0.87084675
0.23046315 0.80627495 0.41585353 0.51237065 -0.26192716 -0.57071584 0.3007876 0.35698506
-0.35503486 -0.30494314 0.5824233 0.30056238 -0.5317903 0.3451364 -1.1427078 0.7406973
0.68793935 -0.38812736 0.58744013 0.2633408 -0.7007002 0.21241367 0.7696663 0.90146244
0.50190693 0.5265519 0.26464197 0.47333512 0.30498987 0.66884214 0.7489681 0.28896534
-0.68915397 0.3500234 0.43518403 -0.4183643 0.24460515 -0.37033466 0.2957418 0.89502114
0.29306495 0.3078957 -0.41619626 0.32663295 -0.42776066 -0.56788975 0.34491783 -0.15275213
0.2928909 0.29833978 0.81888187 0.840791 0.68471974 0.3221726 -0.35267243 0.70046955
0.4207982 -0.6692872 0.7440238 -0.578352 0.60785866 0.816235 0.48469707 -0.623435
0.24584925 0.40636683 0.5531754 -0.976739 0.38951403 -0.32272238 0.27580228 0.5108901
0.934258 -0.17869782 -0.22989681 0.28628078 -0.61723846 0.2983456 -0.35274062 0.33009824
0.32983306 0.85787815 0.89835364 0.5835183 0.28681707 0.8286203 0.64945245 -0.27866197
-0.30460152 0.87734914 -0.5545656 -0.68310964 0.3176412 0.7991694 -0.59512156 -0.45612633
0.25170147 0.33009323 0.70815974 0.4801316 -0.34290472 0.40522012 0.7611011 0.46919194
-0.12229735 0.24014206 0.92352957 -0.4906844 -0.566022 0.880238 0.2780977 0.16465898
-0.6797293 0.3114904 0.45113423 0.37554806 0.29320866 0.45070937 0.9373011 0.34255886
-0.29339442 0.15496752 -0.57390106 -1.2008691 0.5928049 0.3828851 -0.5377266 0.7785349
0.26436368 0.26926515 0.7170857 0.24434347 -0.34606498 -0.6653655 -0.51464105 0.85107166
-0.36447918 0.33836955 -0.24716276 0.8048491 0.7562253 0.2781475 -0.2606286 0.592264
0.6792934 -0.37317258 0.31619334 0.7067181 0.8935788 0.44235247 0.33217236 0.72166634
0.7732163 0.40922385 0.870004 -0.6241402 -0.6707364 0.29348963 0.32075024 0.46176788
0.5147403 0.42243704 -0.41144732 -0.0832988 0.44688633 0.33453584 0.23710938 0.37745613
0.27881095 0.9371902 0.25338095 0.8895158 0.008430364 -0.5565876 0.21857728 0.69691306
0.39371178 0.74173975 1.1043577 0.283099 0.30668 -0.26484674 -0.22827399 0.9326763
-0.37686625 -0.09850174 0.89377797 -0.39074773 0.34956512 -0.61628646 0.9122109 -0.31776482
0.7779057 -0.1640147 0.3607567 0.3048318 -0.62279695 -0.5955126 -0.5243647 0.27198574
-0.57030773 0.8062427 -0.48166436 0.56368667 0.25948778 0.7834952 -0.44611308 0.5468132
0.4947567 -0.3649692 0.2701514 0.3705241 0.28784627 -0.5064218 0.85180074 0.3455969
0.2822759 0.84634507 0.2790744 -0.27047664 -0.54013526 0.8824738 0.583927 0.48383185
0.46075657 0.6994257 0.25965273 0.3248153 -0.5534726 -0.6768131 0.2995138 -0.5053793
-0.6432737 0.34544626 0.49085188 0.6635804 -0.5794231 0.1920592 1.3696952 0.308118
0.30517572 0.37727377 0.48200715 -0.6758164 0.42256624 0.27495024 0.23351867 -0.27045688
00000000: 38ee b5bd 84d9 653e 4c6f f93e 9566 943e
00000010: 8937 8d3e 5ffc 703e 3082 743e d0ef 5e3f
00000020: 88fe 6b3e 0968 4e3f c1ea d43e b92a 033f
00000030: 511b 86be 6f1a 12bf d500 9a3e bfc6 b63e
00000040: 21c7 b5be 8221 9cbe b219 153f 50e3 993e
00000050: 6923 08bf b8b5 b03e 4044 92bf 579e 3d3f
00000060: cb1c 303f a1b8 c6be 7a62 163f 9bd4 863e
00000070: 1761 33bf f882 593e da08 453f 3ec6 663f
00000080: f97c 003f 1bcc 063f 277f 873e fb58 f23e
00000090: a227 9c3e 3d39 2b3f 60bc 3f3f 44f3 933e
000000a0: 656c 30bf 4436 b33e 71d0 de3e d833 d6be
000000b0: c679 7a3e 819c bdbe 786b 973e 1b20 653f
000000c0: 9c0c 963e 81a4 9d3e ad17 d5be 6f3c a73e
000000d0: 7203 dbbe 3961 11bf 1299 b03e 0e6b 1cbe
000000e0: ccf5 953e febf 983e 3ea2 513f 143e 573f
000000f0: cb49 2f3f cff3 a43e 7b91 b4be f951 333f
00000100: dd72 d73e 6856 2bbf 5878 3e3f e00e 14bf
00000110: a09c 1b3f c7f4 503f 372a f83e 7099 1fbf
00000120: e8bf 7b3e 500f d03e e79c 0d3f 910b 7abf
00000130: 626e c73e de3b a5be f535 8d3e b2c9 023f
00000140: 882b 6f3f 90fc 36be 126a 6bbe 6593 923e
00000150: 5703 1ebf c1c0 983e 6b9a b4be a302 a93e
00000160: e1df a83e e79d 5b3f 81fa 653f 7561 153f
00000170: b0d9 923e 7620 543f 8442 263f c8ac 8ebe
00000180: bbf4 9bbe f499 603f 03f8 0dbf 46e0 2ebf
00000190: dea1 a23e 5e96 4c3f e359 18bf 6489 e9be
000001a0: 04df 803e fb01 a93e f549 353f cfd3 f53e
000001b0: 3591 afbe 0379 cf3e 86d7 423f ed39 f03e
000001c0: 0877 fabd cde7 753e 6f6c 6c3f fc3a fbbe
000001d0: d1e6 10bf 4757 613f d262 8e3e 5d9c 283e
000001e0: bd02 2ebf ab7b 9f3e 11fb e63e d647 c03e
000001f0: 721f 963e 61c3 e63e f7f2 6f3f e063 af3e
00000200: cb37 96be ceaf 1e3e 2eeb 12bf 14b6 99bf
00000210: 10c2 173f 8409 c43e 73a8 09bf 104e 473f
00000220: ad5a 873e 1fdd 893e ee92 373f 2d35 7a3e
00000230: 6e2f b1be 6555 2abf 84bf 03bf d5df 593f
00000240: 049d babe c63e ad3e 3c18 7dbe 970a 4e3f
00000250: fb97 413f 5969 8e3e 1d71 85be 9d9e 173f
00000260: 2ce6 2d3f 7a10 bfbe 18e4 a13e 7aeb 343f
00000270: 95c1 643f 067c e23e 7f12 aa3e 20bf 383f
00000280: 81f1 453f ca85 d13e 95b8 5e3f a7c7 1fbf
00000290: 61b5 2bbf 4644 963e 6039 a43e d76c ec3e
000002a0: 05c6 033f ab49 d83e 39a9 d2be 9098 aabd
000002b0: 49ce e43e 4848 ab3e cdcc 723e ee41 c13e
000002c0: 4fc0 8e3e b2eb 6f3f 26bb 813e 4fb7 633f
000002d0: 821f 0a3c 867c 0ebf b9d2 5f3e e568 323f
000002e0: 9794 c93e a8e2 3d3f 985b 8d3f 5af2 903e
000002f0: 2905 9d3e fe99 87be a8c0 69be e0c3 6e3f
00000300: 9df4 c0be 48bb c9bd a2ce 643f 1610 c8be
00000310: 33fa b23e f3c4 1dbf a786 693f 12b2 a2be
00000320: d424 473f 78f3 27be 1ab5 b83e ea12 9c3e
00000330: 9f6f 1fbf 8473 18bf c43c 06bf b741 8b3e
00000340: b0ff 11bf ec65 4e3f b69c f6be c54d 103f
00000350: 95db 843e 2493 483f ef68 e4be f3fb 0b3f
00000360: c050 fd3e 3edd babe 4951 8a3e 56b5 bd3e
00000370: 9660 933e dca4 01bf 9d0f 5a3f 14f2 b03e
00000380: 7786 903e 12aa 583f d7e2 8e3e ea7b 8abe
00000390: 4e46 0abf cee9 613f 3d7c 153f cfb8 f73e
000003a0: 49e8 eb3e 900d 333f 34f1 843e 314e a63e
000003b0: 61b0 0dbf a043 2dbf df59 993e 8a60 01bf
000003c0: 96ad 24bf 55de b03e f050 fb3e 68e0 293f
000003d0: 1355 14bf 2bab 443e 2c52 af3f a4c1 9d3e
000003e0: fe3f 9c3e 072a c13e a4c9 f63e 4e02 2dbf
000003f0: 9a5a d83e 47c6 8c3e 851f 6f3e 5379 8abe

linear3.weight f4 [3, 512]
0.027870577 -1.270677 -0.46880487 -0.9207929 -1.2317643 -1.0944551 -0.8174711 -0.2518489
-1.246368 -0.21307614 2.2851784 -0.3564088 0.03553761 0.03838749 -0.998953 -0.8463744
-0.018890886 0.005995594 -0.460033 -0.86368006 0.011117101 -0.69798565 9.061986 -0.3475289
-0.3475992 -0.044066362 1.991357 -1.1318692 -0.024110546 -0.95459735 -0.4079845 -0.21448593
-0.668801 -0.5139502 -0.9525259 -0.6296024 -0.8316462 -0.31128392 -0.3318562 -0.9205577
-0.02790368 3.1510043 -0.6078099 0.037984323 -0.8954889 0.04371315 -1.442354 -0.28187406
-0.95878005 -0.9874309 -0.022576945 3.6609833 -0.003616985 -0.032856815 1.7736571 -1.9350475
-0.7785966 -0.9331395 -0.25234902 -0.25499943 -0.41379496 -0.7415332 -0.039531413 -0.28055438
-0.7758364 -0.008022193 -0.3563428 0.029701065 -0.4598616 -0.43161252 -0.6761997 0.034841415
-0.84020555 -0.66046226 -0.6819196 8.086856 1.8682672 0.003515739 -0.93018943 -0.60236967
-0.21489505 0.0047042556 0.038190078 -0.9305489 0.03299875 -0.7720008 0.043191988 2.151125
4.135536 -0.35916346 -0.2565364 -0.41481304 -0.8385107 -0.29814434 -1.2659528 0.014199831
6.6539416 -0.27638367 0.034991343 0.0338636 -0.83406913 -0.32729128 0.040180262 0.026590023
-1.2823689 -0.87208694 -0.33122984 1.0511161 0.0425929 -0.40353423 -0.38332954 -0.5557081
-0.03872675 -0.9689003 -0.33699834 0.011692353 -0.029554624 -0.29083806 -1.0775776 5.329427
-0.032763984 -1.0022976 -0.66706944 -0.5577732 -1.0949873 -0.6000442 -0.3174593 -0.7247496
0.009850156 -1.4783571 0.002955217 8.08038 -0.53344953 -0.70058346 0.023308385 -0.31276813
-1.1695005 -0.82745004 -0.31796312 -0.71207595 -0.0012627132 -0.00086516887 0.0077732764 -0.32296908
-0.005141448 -0.70418936 0.028342385 -0.48022583 -0.2981679 -0.79379225 0.024392623 -0.5197232
-0.24161851 5.404219 1.7013896 -0.47280085 -0.21674666 0.60013545 -0.88191366 -0.27450734
-0.31894082 -0.5643469 -0.347959 0.03466678 0.013974756 -0.9278306 -0.4519001 -0.65816194
-0.64267313 -0.6425226 0.02312423 -0.03635741 -0.7408191 -0.8271481 -0.8992192 -0.6238815
-0.7362072 -0.36568755 -1.1788365 -0.3783414 -1.19196 -0.041996583 -1.086225 -0.37534925
-0.72565275 -0.33698723 -1.8593388 -0.79776746 -1.0323279 -0.0119932555 -0.009195514 -0.26696992
-0.0026432015 -0.03048091 -0.2890015 -0.012625594 5.2564507 0.03858952 -0.24768788 0.031955022
-0.25604993 0.02429923 -0.7296591 -1.1396334 -0.03623052 0.0029332563 -0.009589214 -0.9098914
0.03404915 -0.2972409 0.04246233 -0.5856928 -1.1801869 -0.3453935 -0.027682787 -0.5878839
-0.66657645 0.033979926 -1.1847825 -0.7694044 -0.99411064 0.03317565 -0.27199188 -0.72622716
-0.89902645 -0.2362247 -0.9413308 0.01013156 -0.035281293 -0.23051314 -0.35484785 0.75572306
-0.5487927 -0.36248276 -0.97726583 -0.7758247 0.011649109 -0.031531084 -0.88812745 0.034489002
-0.010978937 -0.53846276 0.61687994 -0.43029314 0.015893582 0.13544224 6.040317 -0.8849336
-0.8319155 -0.7406397 -0.42258325 -0.035797246 0.58298993 -1.1023388 -0.8205399 5.9485593
00000000: d650 e43c 8ba5 a2bf 3107 f0be 15b9 6bbf
00000010: 74aa 9dbf 1b17 8cbf c945 51bf 57f2 80be
00000020: fd88 9fbf a230 5abe 5d40 1240 377b b6be
00000030: e38f 113d 333c 1d3d 62bb 7fbf feab 58bf
00000040: 0fc1 9abc b076 c43b 7289 ebbe 231a 5dbf
00000050: 8024 363c 30af 32bf e5fd 1041 4fef b1be
00000060: 86f8 b1be ee7e 34bd c9e4 fe3f 17e1 90bf
00000070: 7b83 c5bc 7e60 74bf 58e3 d0be 33a2 5bbe
00000080: 8b36 2bbf 3e92 03bf bdd8 73bf 9f2d 21bf
00000090: c4e6 54bf 9b60 9fbe 0ee9 a9be aba9 6bbf
000000a0: 4296 e4bc 0eaa 4940 6e99 1bbf 7395 1b3d
000000b0: c33e 65bf 8f0c 333d 0e9f b8bf cc51 90be
000000c0: 9c72 75bf 45c8 7cbf 49f3 b8bc 8d4d 6a40
000000d0: f00a 6dbb de94 06bd 3207 e33f a3af f7bf
000000e0: 1b52 47bf 3be2 6ebf e433 81be 498f 82be
000000f0: efdc d3be 1fd5 3dbf b1eb 21bd d3a4 8fbe
00000100: 379d 46bf 846f 03bc 9072 b6be a64f f33c
00000110: fb72 ebbe 51fc dcbe 6c1b 2dbf dfb5 0e3d
00000120: b617 57bf 0e14 29bf 4892 2ebf c363 0141
00000130: 6123 ef3f 5068 663b e520 6ebf e634 1abf
00000140: 730d 5cbe 2826 9a3b 336d 1c3d 7438 6ebf
00000150: b329 073d d8a1 45bf 15ea 303d 08ac 0940
00000160: 5056 8440 46e4 b7be bd58 83be 6062 d4be
00000170: a3a8 56bf 60a6 98be be0a a2bf 68a6 683c
00000180: 17ed d440 2982 8dbe 1553 0f3d 8fb4 0a3d
00000190: 8e85 55bf b992 a7be 0f94 243d 52d3 d93c
000001a0: aa24 a4bf 1741 5fbf f596 a9be f98a 863f
000001b0: e575 2e3d 0a9c cebe c543 c4be e342 0ebf
000001c0: f19f 1ebd da09 78bf 0c8b acbe 4891 3f3c
000001d0: 8a1c f2bc bae8 94be 10ee 89bf aa8a aa40
000001e0: 8733 06bd 4a4b 80bf 10c5 2abf 39ca 0ebf
000001f0: 8b28 8cbf 7f9c 19bf 068a a2be 3189 39bf
00000200: 8c62 213c ce3a bdbf 50ac 413b 3d49 0141
00000210: 2690 08bf 7059 33bf 3af1 be3c 2523 a0be
00000220: 31b2 95bf c4d3 53bf 10cc a2be 9c4a 36bf
00000230: a081 a5ba 80cc 62ba f8b6 fe3b 345c a5be
00000240: 9879 a8bb c145 34bf 4a2e e83c 29e0 f5be
00000250: 77a9 98be f835 4bbf 0ad3 c73c 940c 05bf
00000260: d86a 77be 5def ac40 22c7 d93f f412 f2be
00000270: d6f2 5dbe 7aa2 193f 18c5 61bf 3a8c 8cbe
00000280: 364c a3be 0a79 10bf af27 b2be c1fe 0d3d
00000290: 60f6 643c 4e86 6dbf 735f e7be 4d7d 28bf
000002a0: 3a86 24bf 5c7c 24bf 066f bd3c 82eb 14bd
000002b0: 52a6 3dbf fabf 53bf 3b33 66bf b3b6 1fbf
000002c0: 1378 3cbf 663b bbbe 1de4 96bf f7b5 c1be
000002d0: 2592 98bf 9c04 2cbd 6c09 8bbf c72d c0be
000002e0: 61c4 39bf 9789 acbe d0fe edbf 7d3a 4cbf
000002f0: 5223 84bf 5c7f 44bc c8a8 16bc 48b0 88be
00000300: 9039 2dbb 1ab3 f9bc 01f8 93be 94db 4ebc
00000310: d834 a840 0b10 1e3d e4a1 7dbe 45e3 023d
00000320: fa18 83be 2e0f c73c f0ca 3abf 82df 91bf
00000330: 7466 14bd e03b 403b 141c 1dbc a5ee 68bf
00000340: 1f77 0b3d f62f 98be fbec 2d3d f7ef 15bf
00000350: 5d10 97bf 6bd7 b0be 03c7 e2bc 8f7f 16bf
00000360: c1a4 2abf 892e 0b3d f4a6 97bf b0f7 44bf
00000370: 097e 7ebf 31e3 073d 8542 8bbe 06ea 39bf
00000380: 9926 66bf e3e4 71be 0efb 70bf d8fe 253c
00000390: 1e83 10bd a30b 6cbe 9eae b5be 1177 413f
000003a0: ae7d 0cbf 5797 b9be 182e 7abf 739c 46bf
000003b0: e8db 3e3c bd26 01bd 525c 63bf 5744 0d3d
000003c0: 00e1 33bc b2d8 09bf d8eb 1d3f 624f dcbe
000003d0: 4233 823c 5fb1 0a3e 474a c140 028b 62bf
000003e0: 6af8 54bf 909a 3dbf d55c d8be 22a0 12bd
000003f0: d43e 153f 7019 8dbf e70e 52bf 995a be40

linear3.bias f4 [3]
-0.19023283 -0.21337202 -0.23931725
00000000: 65cc 42be 327e 5abe 950f 75be
