env2 DQN/log/dqn/ckpt/379000.pth (torch, 14216 bytes, 4 tensors)

linear.weight f4 [512, 2]
00000000: a018 263e d04f 2cbe 8fc6 e0bd 0e1c dcc0
00000010: 0f9f c3bc 6d31 e9bf f16c c4be b881 09c1
00000020: 1067 4cbe bc22 06c1 0036 67be 299c e7c0
00000030: 531c 9fbe 002d e0c0 faa6 56be 7332 99bf
00000040: ab44 eebd 9d93 e1c0 ecb3 11bf 5a05 74bf
00000050: a919 d1bf 92e8 7ac1 a293 b1be fae5 b8bf
00000060: e8ac 89bd 98a9 3e3e 9008 0bbd eeb8 cabe
00000070: fc99 d3be 6587 0ac1 c03f 23bf 9bbf 0ec1
00000080: 2c69 2a3e 3a46 ee3e c0ad 0e3d 6ff4 a5be
00000090: bce2 3d3c 9796 ffbf 7c46 cebe b464 0bc1
000000a0: b25c 63be 83bb 27bf 4c28 043e 04ae 8ebf
000000b0: 71e2 39bf bb6b 3241 78b7 833d cf28 fdbf
000000c0: 5e12 5abe c59e e7bf da2e c13e c232 f33e
000000d0: 77d2 c9bf 54bc 9f40 b4ed 93be 56f1 00c1
000000e0: 1426 13be 069c d23e 319b 31be 46be d2c0
000000f0: 648f da3d cd59 2ac0 0c4e 98bd 9bc9 52bf
00000100: e940 8f3e 6d8b d4bf 26c0 b0bd 0645 30c0
00000110: 0c42 a7be a3db fdc0 e7f3 8cbf 622b b0c0
00000120: e500 0abf 5231 f8c0 a587 acbe cd4e e3bf
00000130: 4509 81be c29b 20c0 dc20 c6be 21ad 06c1
00000140: f3e4 193f a8c2 b1bd 55f2 99bf aab6 89c1
00000150: f3ec 84bb 8795 05c0 30d9 87bd 5683 9c3e
00000160: 972a 8fbe c1d0 e6c0 b8b2 8bbd 3d3e febe
00000170: abb8 1e40 9733 4d40 b73f fe3d 6db5 64bf
00000180: 48df c5be 87be 0ac1 5062 d3be dc7f 11c1
00000190: 3a4c 84be 8857 e9bd 0f2e 7fbf 9c1c 8cc1
000001a0: 0e63 cd3e f07b 653e 5e0f e63e bbfc 073f
000001b0: a94e a6bf bcf5 61c1 59e0 4d40 a563 64bf
000001c0: 0bc9 f8be 731c 02c1 b32d dbbe fa79 09c1
000001d0: 8676 c7be 2d58 9dbf 199a a8be f2ed d6bf
000001e0: ee75 6a3e 8073 98bf 236b 2ebf 7bde f9c0
000001f0: 0ebf ee3e 09c4 01bf b03b fcbe 2f66 c4bf
00000200: 8bfa 7fbf 75c4 f4c0 ee5f f5be 349f 613e
00000210: 334b 18bf fe8b 27c0 4c56 8c3e a620 b73e
00000220: 163e 24bd 2d58 27c0 7ef3 e83e 3277 f9bf
00000230: a96e 93bf 6180 d6c0 9277 ec3e b6ba a63e
00000240: 4ba2 95be 2c8b ecc0 bd3a 7dbf be3e bac0
00000250: d116 a63e 1d6d 08c0 3fcc aebf c114 51c1
00000260: 9c4d f5bf 2a4b 59c1 aaa7 72be df9d 1abf
00000270: 7d13 bbbe 4c8d 00c1 8cef 823e 0c30 bbbf
00000280: 99f9 48bf 6d13 95bf 90bd 6d3d c4e1 30bf
00000290: 2063 093d 5e68 e83e ca6d c3be 7bbc 07c1
000002a0: af5f b4be 2cbc 0ebf 61d5 fabe f79b 05c1
000002b0: de06 ea3e bc8c 06be 55fb 98bf 91b0 6ec1
000002c0: 0a73 68bf 532c 91c1 3f1e 613e e0c8 a3bf
000002d0: 0939 39bf 0bd5 e7bf 25a7 39bc f26f e8bf
000002e0: dfa5 e3be 1aa4 04c1 741d 0dbf 6e1a dfbf
000002f0: 681d f83f 19ec 1540 7cc3 883e 199b 19bf
00000300: 33d4 ffbd ef72 2d41 b341 05bf 4e64 1ac0
00000310: 60d9 4d3e e23d c4be 68f7 923e 4f70 0a3f
00000320: 8517 0bbf 3c20 07c1 3f94 15bf a270 25c0
00000330: 1015 a6bd 627e e13e 6480 873e 3c56 69be
00000340: d4a4 04be 33ed fbc0 7f38 15bf 4c36 06c1
00000350: 00c9 77be edb6 09c0 1310 ebbf 7273 cfc0
00000360: a850 d53d 023b 61be 08c1 b5bd b2a7 8dbf
00000370: 7e30 80be 7f3d 20c0 fe8a 9b3e 8d57 42bf
00000380: e037 8abd c788 a3be 4bbb 81be eb12 ecc0
00000390: 39f0 8d3d 647a 02c0 e030 e73c a484 143e
000003a0: bc68 3f3e 10dc 23bd 44b3 32bf 73ed 05c0
000003b0: bb01 abbe 077f 07c1 ab3f 453d a953 95c1
000003c0: 5599 aabe c0a8 8e3e 8439 dbbe 7841 0fc1
000003d0: 2f6c 8a3e 9ac9 acbf eae0 753e 33f7 2abf
000003e0: e67d b1be 010f 0fc1 84bd 8abf d7ad dfc0
000003f0: 10db aabd 3e63 18c0 d8e4 5cbf 9782 dbc0
0.16220331 -0.16827321 -0.10975372 -6.8784246 -0.023879556 -1.8218209 -0.38364366 -8.59417
-0.1996119 -8.38348 -0.22579193 -7.2378125 -0.31076297 -7.005493 -0.20962134 -1.1968521
-0.11634191 -7.049269 -0.56915164 -0.95320666 -1.6335956 -15.68178 -0.34682947 -1.4445183
-0.067224324 0.18619382 -0.033943713 -0.39594215 -0.41328418 -8.658055 -0.6376915 -8.921779
0.16641682 0.46537954 0.03483367 -0.3241305 0.011589702 -1.9967831 -0.4028815 -8.712086
-0.22203329 -0.65520495 0.12905997 -1.1146855 -0.7261115 11.151301 0.06431478 -1.9778079
-0.21296069 -1.8095328 0.37731057 0.47499663 -1.5767354 4.9917393 -0.2889229 -8.05892
-0.14369994 0.4113466 -0.17344357 -6.5857267 0.10671881 -2.661731 -0.07436761 -0.82338876
0.2797921 -1.6605049 -0.086303994 -2.7542129 -0.32667577 -7.933061 -1.1011933 -5.5052958
-0.53907615 -7.7560205 -0.3369724 -1.7758423 -0.25202385 -2.5095067 -0.38696945 -8.417268
0.60114974 -0.08679706 -1.2027079 -17.214191 -0.004056567 -2.0872514 -0.06633222 0.3056895
-0.2796218 -7.2129827 -0.06821197 -0.4965686 2.4800212 3.2062738 0.124144964 -0.89339334
-0.38646913 -8.671515 -0.41285944 -9.093716 -0.25839406 -0.113936484 -0.99679655 -17.51397
0.40114635 0.2241056 0.449336 0.5312001 -1.2992755 -14.122494 3.216818 -0.89214545
-0.48590884 -8.131946 -0.42808303 -8.592279 -0.38957614 -1.2292534 -0.32930067 -1.6791365
0.22896549 -1.1910248 -0.6813223 -7.8084083 0.46630138 -0.5068975 -0.49264288 -1.5343684
-0.99991673 -7.6489816 -0.4792475 0.22033387 -0.59489745 -2.6179194 0.2740959 0.35767096
-0.040098272 -2.6147568 0.4549827 -1.94895 -1.1518146 -6.7031713 0.46184975 0.32564324
-0.29225382 -7.3919888 -0.9891775 -5.820159 0.32439283 -2.1316597 -1.3656081 -13.067567
-1.916431 -13.580851 -0.23696771 -0.6039714 -0.36538306 -8.034496 0.25573385 -1.4624038
-0.78505856 -1.1646553 0.05804211 -0.6909449 0.0335418 0.45392126 -0.381697 -8.483516
-0.3522925 -0.5575588 -0.4899092 -8.350577 0.45708364 -0.13139623 -1.19517 -14.918107
-0.90800536 -18.146643 0.21984194 -1.2795677 -0.72352654 -1.811189 -0.011331354 -1.8159163
-0.44462487 -8.290064 -0.55123067 -1.7429941 1.9383974 2.3425353 0.26711643 -0.60002285
-0.12491646 10.84056 -0.52053374 -2.412372 0.20102453 -0.38328463 0.2870438 0.5407762
-0.5433276 -8.44537 -0.5842933 -2.5849996 -0.08109486 0.44041735 0.26465142 -0.22786802
-0.12953502 -7.872705 -0.5828933 -8.388256 -0.24197769 -2.15179 -1.836428 -6.4828424
0.104157746 -0.21995166 -0.088747084 -1.1066802 -0.25036997 -2.5037534 0.3037948 -0.7591484
-0.067489386 -0.3194029 -0.25338206 -7.3773093 0.069305845 -2.0387201 0.028221548 0.14503723
0.18692297 -0.04000479 -0.6980479 -2.0926178 -0.33399758 -8.468513 0.04815642 -18.66585
-0.33320108 0.2786312 -0.42817318 -8.953484 0.27035663 -1.3499024 0.24011579 -0.66783446
-0.34666365 -8.941163 -1.0839086 -6.9899707 -0.08342564 -2.3810573 -0.8628669 -6.859691

linear.bias f4 [512]
00000000: 38ee b5bd a552 853e e8be ff3e 7831 a93e
00000010: ee31 9d3e 8b1d 8d3e efed 8d3e 5b61 613f
00000020: 34ce 883e bbcd 503f 4af7 e93e fafc 053f
00000030: 511b 86be 6f1a 12bf 468d ae3e b0dd d23e
00000040: 21c7 b5be 8221 9cbe 121b 183f 3f40 ad3e
00000050: 6923 08bf c15d b73e 4044 92bf 5095 403f
00000060: d607 333f a1b8 c6be 753f 263f 72e5 9a3e
00000070: 1761 33bf c692 823e cb22 483f 8638 693f
00000080: d9ca 033f 1905 0a3f fe40 9b3e 0a4f f53e
00000090: 668c b83e f70a 2e3f b89f 423f 49eb a73e
000000a0: 656c 30bf 1098 c33e 382e e53e d833 d6be
000000b0: 9add 913e 819c bdbe db8d 863e b3c4 673f
000000c0: d122 aa3e 0539 b23e ad17 d5be a387 a23e
000000d0: 7203 dbbe 3961 11bf c0a8 c03e acea 45be
000000e0: c4b8 b43e 7efc af3e cd37 543f f0fa 593f
000000f0: c73d 323f 3383 5a3e 7b91 b4be 4c01 363f
00000100: 2f76 f53e 6856 2bbf aa7c 413f e00e 14bf
00000110: 58c4 1e3f 5a27 543f c85b 093f 7099 1fbf
00000120: 767c 913e dc47 e83e cdf7 103f 2fe0 5fbf
00000130: bff7 e23e de3b a5be e89c a03e 2f21 063f
00000140: cf95 713f 90fc 36be 126a 6bbe 9fdb a63e
00000150: 5703 1ebf 60b1 b73e 6b9a b4be 19b9 b83e
00000160: 1986 963e 8087 5e3f 03a4 683f 7c71 183f
00000170: c593 b03e f6ec 563f 925d 5e3f c8ac 8ebe
00000180: 2fbb 99be a76a 633f 03f8 0dbf 46e0 2ebf
00000190: 5689 c13e 8a79 4f3f e359 18bf 6489 e9be
000001a0: a31f 973e 5aa6 c53e 852c 383f e5e8 c43e
000001b0: 3591 afbe 1138 d53e 11d8 453f 1d6e f63e
000001c0: 0877 fabd 45a0 8f3e 9d4f 6f3f fc3a fbbe
000001d0: d1e6 10bf 3135 643f 4d95 a23e d49f dd3e
000001e0: bd02 2ebf 474c b43e e98f ed3e 8804 c63e
000001f0: dae3 a93e 35d8 003f 7cbc 723f b3dd 433e
00000200: cb37 96be 87c2 153e 2eeb 12bf 14b6 99bf
00000210: b680 103f dc88 5f3e 73a8 09bf c922 4a3f
00000220: ba1e 9b3e 8db2 a53e 537b 3a3f 5b79 973e
00000230: 6e2f b1be 6555 2abf 84bf 03bf 88c4 5c3f
00000240: 049d babe 55d5 3d3e 3c18 7dbe 2650 513f
00000250: 4b66 443f 4289 a23e 1d71 85be 2dcb 1a3f
00000260: 2896 303f 3ce1 c2be f80d ce3e 9311 383f
00000270: 8c7c 673f e692 be3e 24c0 c93e b56b 3b3f
00000280: 35bd 483f 07d7 d73e c08c 613f a7c7 1fbf
00000290: 61b5 2bbf bb5d b13e b4ba a93e 4db2 053f
000002a0: 2910 073f e1d7 de3e 39a9 d2be 9098 aabd
000002b0: 5870 eb3e b040 c73e aed4 8e3e 1cae d33e
000002c0: c09e a53e b5fa 723f bc5d 953e 59da 663f
000002d0: 40f9 1cbd 867c 0ebf 86b2 863e e86b 353f
000002e0: 8c2d 9e3e e2e5 403f 5130 ab3f 307c ae3e
000002f0: 862b b03e fe99 87be a8c0 69be 306a 713f
00000300: 9df4 c0be 48bb c9bd 9877 673f 1610 c8be
00000310: f347 d93e f3c4 1dbf ad02 6c3f 12b2 a2be
00000320: 1ac5 493f 78f3 27be b52e 513e 1cda af3e
00000330: 9f6f 1fbf 8473 18bf c43c 06bf 3132 a03e
00000340: b0ff 11bf 8d20 513f b69c f6be 049c 133f
00000350: 207a 983e 7087 4b3f ef68 e4be 2f06 023f
00000360: b2f3 013f 3edd babe ba9c 9a3e 7f97 7a3e
00000370: f9d8 a73e dca4 01bf 95d8 5c3f 3e92 b73e
00000380: bee1 a53e 4801 5b3f 8c4d a23e ea7b 8abe
00000390: 4e46 0abf 1e7a 643f 335c 183f b85d b23e
000003a0: 7c22 f23e def6 353f 8a1b 9a3e f675 463e
000003b0: 61b0 0dbf a043 2dbf 6601 b63e 8a60 01bf
000003c0: 96ad 24bf 5595 b63e ce87 b33e c8e9 2c3f
000003d0: 1355 14bf a4ac 3d3e da63 b23f d9ac bc3e
000003e0: 8ce9 ba3e 704a 593e 5970 fc3e 4e02 2dbf
000003f0: bef2 253f 9b58 a23e 6543 903e 5ce3 98be
-0.08883327 0.26039615 0.49950337 0.33045554 0.30702156 0.27561602 0.2772059 0.8803918
0.2671982 0.8156392 0.4569648 0.52339137 -0.26192716 -0.57071584 0.34092158 0.4118476
-0.35503486 -0.30494314 0.59416306 0.33838078 -0.5317903 0.35813716 -1.1427078 0.7522783
0.6993383 -0.38812736 0.6494058 0.30253178 -0.7007002 0.25502604 0.7817809 0.9110187
0.51481396 0.5391403 0.30323023 0.47911865 0.36044616 0.6798548 0.7602496 0.32796696
-0.68915397 0.38201952 0.44761825 -0.4183643 0.2848938 -0.37033466 0.26280102 0.90534514
0.33229688 0.34809127 -0.41619626 0.31744108 -0.42776066 -0.56788975 0.37628746 -0.19327801
0.35297215 0.34372324 0.82897645 0.85148525 0.69625515 0.21339111 -0.35267243 0.7109573
0.4794173 -0.6692872 0.7558085 -0.578352 0.62018347 0.82872546 0.5365567 -0.623435
0.2841527 0.45367324 0.56628114 -0.8745145 0.4432964 -0.32272238 0.3136971 0.52394384
0.94369215 -0.17869782 -0.22989681 0.32589433 -0.61723846 0.35877514 -0.35274062 0.36078718
0.29399183 0.86925507 0.9087526 0.59548163 0.3448774 0.83955324 0.86861527 -0.27866197
-0.30025622 0.88834614 -0.5545656 -0.68310964 0.37800092 0.8104483 -0.59512156 -0.45612633
0.29516324 0.3860348 0.7194293 0.38458934 -0.34290472 0.41644338 0.77282816 0.48130885
-0.12229735 0.28051963 0.93480855 -0.4906844 -0.566022 0.89143664 0.31754532 0.43286002
-0.6797293 0.35214445 0.46398857 0.38675332 0.3318165 0.50329906 0.94818854 0.1912754
-0.29339442 0.14624988 -0.57390106 -1.2008691 0.564464 0.21829551 -0.5377266 0.7895933
0.3029688 0.32362786 0.7284443 0.29584774 -0.34606498 -0.6653655 -0.51464105 0.8623738
-0.36447918 0.18538411 -0.24716276 0.8176292 0.76718587 0.31745344 -0.2606286 0.6046627
0.6897912 -0.38062465 0.40245032 0.71901816 0.9042442 0.3722145 0.39404404 0.7321122
0.78413707 0.4215624 0.8810539 -0.6241402 -0.6707364 0.34641823 0.33150256 0.5222519
0.52759033 0.43524078 -0.41144732 -0.0832988 0.4598415 0.3891654 0.27896637 0.41343772
0.3234768 0.949138 0.29173076 0.9017692 -0.03832364 -0.5565876 0.26308078 0.70867777
0.30894125 0.75350773 1.337412 0.34079123 0.34408206 -0.26484674 -0.22827399 0.94302654
-0.37686625 -0.09850174 0.9041686 -0.39074773 0.42437705 -0.61628646 0.9219158 -0.31776482
0.7881638 -0.1640147 0.20427974 0.34346092 -0.62279695 -0.5955126 -0.5243647 0.31288293
-0.57030773 0.81690294 -0.48166436 0.57659936 0.29780674 0.79503536 -0.44611308 0.50790685
0.50762475 -0.3649692 0.30197698 0.24471854 0.32782724 -0.5064218 0.8626798 0.3585376
0.3239879 0.8554883 0.3169979 -0.27047664 -0.54013526 0.89248836 0.59515685 0.34837127
0.47291934 0.71079814 0.30099136 0.19380936 -0.5534726 -0.6768131 0.35547942 -0.5053793
-0.6432737 0.35660806 0.35064548 0.6754422 -0.5794231 0.18522888 1.3936722 0.36850622
0.36506307 0.21219802 0.49304464 -0.6758164 0.6482352 0.31708226 0.28176418 -0.2986096

linear3.weight f4 [3, 512]
00000000: d650 e43c 87e2 b3bf 2ba5 e5be 5223 83bf
00000010: 9d8d aebf 38f8 9cbf c2e8 6cbf 84b9 79be
00000020: 58d7 b0bf 734d 48be 5576 1940 477f a8be
00000030: e38f 113d 333c 1d3d d277 8cbf f95d 64bf
00000040: 0fc1 9abc b076 c43b 201e e3be 6586 76bf
00000050: 8024 363c a027 31bf e5fd 1041 a4f7 adbe
00000060: 19bb a8be ee7e 34bd 4c6a 0040 1a30 a0bf
00000070: 7b83 c5bc 5020 8cbf 5ab2 cabe 54c7 5bbe
00000080: 1c92 2bbf d151 f6be 9dee 87bf 026c 24bf
00000090: c960 62bf e7f1 93be 5418 9ebe e8f7 82bf
000000a0: 4296 e4bc ded4 5140 2869 14bf 7395 1b3d
000000b0: acf4 82bf 8f0c 333d a061 c3bf c1a1 93be
000000c0: bbf3 87bf edec 8abf 49f3 b8bc 2e22 7340
000000d0: f00a 6dbb de94 06bd d9e0 f13f 9ae7 06c0
000000e0: 5867 5abf db54 83bf 619f 73be dd7e 75be
000000f0: 2c67 d7be 5315 45bf b1eb 21bd e2b0 83be
00000100: 1cb3 4abf 846f 03bc 3020 a6be a64f f33c
00000110: 0520 dfbe f9b3 e2be 3d62 30bf dfb5 0e3d
00000120: 2328 75bf 1c41 2cbf ed23 2ebf fe50 0541
00000130: 9329 fb3f 5068 663b a6a6 84bf 022c 1bbf
00000140: c85d 47be 2826 9a3b 336d 1c3d 0429 84bf
00000150: b329 073d e0cf 58bf 15ea 303d d55e 1140
00000160: f8e3 8840 2b62 bbbe 0e63 6ebe 55e5 ccbe
00000170: 5050 6dbf c779 8dbe ab9b 98bf 68a6 683c
00000180: fae8 e140 493e 81be 1553 0f3d 8fb4 0a3d
00000190: d019 66bf a78c 98be 0f94 243d 52d3 d93c
000001a0: d67a b4bf 1180 6cbf 37b0 9ebe f919 8e3f
000001b0: e575 2e3d ea05 c5be 8cb6 b8be 3d15 13bf
000001c0: f19f 1ebd bf7f 8cbf 4b49 aabe 4891 3f3c
000001d0: 8a1c f2bc d9eb 87be d02b 98bf 1338 b040
000001e0: 8733 06bd 26e7 8cbf 961f 2cbf ea8f 12bf
000001f0: d748 9abf aada 1cbf 3a99 9cbe fab0 3dbf
00000200: 8c62 213c c55a d1bf 50ac 413b 3d49 0141
00000210: 5787 0bbf 0b74 38bf 3af1 be3c 19b3 9cbe
00000220: 12d9 a4bf 5707 6abf ed87 97be 9571 4bbf
00000230: a081 a5ba 80cc 62ba f8b6 fe3b 5dc1 9fbe
00000240: 9879 a8bb 4cc9 39bf 4a2e e83c 7d30 f7be
00000250: b46e 99be 7b80 64bf 0ad3 c73c 65cc 02bf
00000260: eb92 62be aad2 b040 f80a e53f c8a4 ecbe
00000270: 6f98 44be 7118 1c3f 74ff 72bf 6a14 8abe
00000280: 3a24 96be 6f19 0abf be49 abbe c1fe 0d3d
00000290: 60f6 643c 5534 82bf 99f4 eebe cfcf 2bbf
000002a0: b6e6 20bf 1df9 1ebf 066f bd3c 82eb 14bd
000002b0: 93d6 38bf 033a 60bf 4f96 83bf f65d 23bf
000002c0: b144 46bf 931e c1be 4a04 a8bf 195b c2be
000002d0: 48aa a9bf 9c04 2cbd 73ba 9cbf 63c8 b5be
000002e0: 2a47 3dbf 5ec8 9bbe 6883 f0bf 08bf 5dbf
000002f0: 9af5 90bf 5c7f 44bc c8a8 16bc 56e8 79be
00000300: 9039 2dbb 1ab3 f9bc 19cf 8abe 94db 4ebc
00000310: 04a8 ac40 0b10 1e3d a052 80be 45e3 023d
00000320: f5dd 6ebe 2e0f c73c 7bb8 3ebf e9eb 9ebf
00000330: 7466 14bd e03b 403b 141c 1dbc 05b0 82bf
00000340: 1f77 0b3d e221 89be fbec 2d3d 59bc 14bf
00000350: d5e7 a7bf 992c aebe 03c7 e2bc e89d 19bf
00000360: a56c 27bf 892e 0b3d a879 a8bf cf70 4bbf
00000370: 2521 8cbf 31e3 073d e561 7abe 804d 38bf
00000380: feee 80bf 456e 66be 2a2b 86bf d8fe 253c
00000390: 1e83 10bd 99f2 57be e523 abbe e18e 4b3f
000003a0: c895 04bf 62b8 adbe be50 8bbf 2351 4dbf
000003b0: e8db 3e3c bd26 01bd e371 79bf 5744 0d3d
000003c0: 00e1 33bc 22a6 0dbf 4029 233f 7e15 e1be
000003d0: 4233 823c 6c33 153e 9a82 be40 14a6 77bf
000003e0: 55bc 69bf 609d 42bf 31ed d7be 22a0 12bd
000003f0: 47e6 183f bd11 9cbf da1c 6abf 601e c240
0.027870577 -1.4053506 -0.44852576 -1.0245154 -1.3636967 -1.226325 -0.9254266 -0.24387175
-1.3815718 -0.19560795 2.3978474 -0.32909605 0.03553761 0.03838749 -1.0974066 -0.8920589
-0.018890886 0.005995594 -0.4435892 -0.9629882 0.011117101 -0.6920109 9.061986 -0.33977997
-0.32955244 -0.044066362 2.0064878 -1.251468 -0.024110546 -1.0947361 -0.39589196 -0.21462756
-0.6701982 -0.48109296 -1.0619694 -0.64227307 -0.8842893 -0.28895494 -0.30877936 -1.0231905
-0.02790368 3.2786174 -0.57972956 0.037984323 -1.0230918 0.04371315 -1.5264168 -0.28834346
-1.0621256 -1.0853554 -0.022576945 3.7989612 -0.003616985 -0.032856815 1.8896743 -2.1078858
-0.8531394 -1.0260271 -0.23791267 -0.23974176 -0.420709 -0.76985663 -0.039531413 -0.25720888
-0.7917955 -0.008022193 -0.32446432 0.029701065 -0.43579116 -0.44277933 -0.688999 0.034841415
-0.9576437 -0.6728685 -0.6802357 8.3322735 1.9622062 0.003515739 -1.0363357 -0.60614026
-0.19469368 0.0047042556 0.038190078 -1.0325017 0.03299875 -0.8469219 0.043191988 2.271413
4.277828 -0.36598334 -0.23279974 -0.40018716 -0.9270067 -0.2763197 -1.1922506 0.014199831
7.0596895 -0.25242832 0.034991343 0.0338636 -0.89883137 -0.2979481 0.040180262 0.026590023
-1.4099987 -0.92382914 -0.30993816 1.1101676 0.0425929 -0.38481075 -0.36076772 -0.5745428
-0.03872675 -1.0976485 -0.33259043 0.011692353 -0.029554624 -0.26547125 -1.188837 5.506845
-0.032763984 -1.1008041 -0.67235696 -0.57250845 -1.2053479 -0.61271155 -0.30585653 -0.7409817
0.009850156 -1.6355826 0.002955217 8.08038 -0.5450339 -0.7205207 0.023308385 -0.3060539
-1.2878745 -0.9141745 -0.2959589 -0.7947019 -0.0012627132 -0.00086516887 0.0077732764 -0.31202212
-0.005141448 -0.7257278 0.028342385 -0.4827918 -0.29967272 -0.89258546 0.024392623 -0.5109313
-0.22126357 5.525716 1.7893972 -0.46219468 -0.19198774 0.60974795 -0.9492104 -0.269687
-0.29324514 -0.5394506 -0.33454698 0.03466678 0.013974756 -1.017222 -0.46670988 -0.67113966
-0.62852037 -0.62098867 0.02312423 -0.03635741 -0.72202414 -0.8758852 -1.0280246 -0.6381525
-0.77448565 -0.3771864 -1.3126309 -0.37960127 -1.3255091 -0.041996583 -1.22444 -0.35504445
-0.7393671 -0.30426306 -1.8790102 -0.86619616 -1.1324952 -0.0119932555 -0.009195514 -0.24405035
-0.0026432015 -0.03048091 -0.27111128 -0.012625594 5.3955097 0.03858952 -0.25063038 0.031955022
-0.23326857 0.02429923 -0.74500245 -1.2415744 -0.03623052 0.0029332563 -0.009589214 -1.0209967
0.03404915 -0.26783663 0.04246233 -0.58099896 -1.3117625 -0.340184 -0.027682787 -0.6000657
-0.65400153 0.033979926 -1.3162127 -0.7946901 -1.0947615 0.03317565 -0.24451406 -0.71993256
-1.0072935 -0.22503002 -1.0481923 0.01013156 -0.035281293 -0.21088637 -0.33425823 0.7951489
-0.5179105 -0.33929735 -1.0884016 -0.8020193 0.011649109 -0.031531084 -0.974394 0.034489002
-0.010978937 -0.55331624 0.6373482 -0.4396171 0.015893582 0.14570397 5.9534426 -0.9673779
-0.91302997 -0.76021385 -0.4217315 -0.035797246 0.59726375 -1.2192913 -0.91450274 6.066208

linear3.bias f4 [3]
00000000: 1be8 4dbe 9e2c 62be 00b5 81be
-0.20108072 -0.22087333 -0.25333405
