env2 DQN/log/dqn/ckpt/394000.pth (torch, 14216 bytes, 4 tensors)

linear.weight f4 [512, 2]
00000000: a018 263e d04f 2cbe f1b0 c0bd 3cd4 ddc0
00000010: 6f00 76bc 68a5 dfbf fc7b c3be 2541 0ac1
00000020: 30eb 31be e703 07c1 8f8c 5abe 4894 e9c0
00000030: 5ec3 99be 4cf7 e1c0 e358 4dbe cf42 8fbf
00000040: 7d76 d8bd 244b e3c0 e487 0fbf 88bc 5fbf
00000050: aa7d cdbf 88a3 7cc1 cde0 acbe 40ad afbf
00000060: e8ac 89bd 98a9 3e3e 9008 0bbd eeb8 cabe
00000070: 1bb1 d6be 8410 0bc1 bdc6 24bf c382 0fc1
00000080: 2c69 2a3e 3a46 ee3e c0ad 0e3d 6ff4 a5be
00000090: 30c6 aa3c 881b f6bf 95c1 cfbe 6f03 0cc1
000000a0: b25c 63be 83bb 27bf 6426 0d3e fb8d 84bf
000000b0: 71e2 39bf bb6b 3241 5b52 963d 34db f3bf
000000c0: 2e01 51be 3d18 debf da2e c13e c232 f33e
000000d0: 040e cdbf ff59 9d40 5c58 89be 083e 02c1
000000e0: 1426 13be 069c d23e edfe 1abe 6331 d5c0
000000f0: 6946 ed3d e2d0 25c0 2b89 86bd e119 3ebf
00000100: 88d2 933e 7a7a cabf 975b 9ebd bec1 2bc0
00000110: bad3 a5be 7f98 ffc0 f4c4 8dbf 704a b2c0
00000120: 2f7b 0bbf 48c6 f9c0 a103 a8be 8fdb d9bf
00000130: 3702 79be 85e3 1bc0 ae97 c5be 4f5e 07c1
00000140: f3e4 193f a8c2 b1bd d78d 9abf b79f 89c1
00000150: 1fee a73b 49d5 00c0 30d9 87bd 5683 9c3e
00000160: d66c 85be 08ca e8c0 b8b2 8bbd 3d3e febe
00000170: 9889 2340 1924 5c40 f731 083e 3cf2 4fbf
00000180: 1426 c6be be60 0bc1 749f d4be e923 12c1
00000190: 3a4c 84be 8857 e9bd 122a 7abf 87e5 8cc1
000001a0: 0e63 cd3e f07b 653e 5e0f e63e bbfc 073f
000001b0: 2928 a4bf acc8 62c1 41fa 5340 01da 24bf
000001c0: 63b1 fabe e60c 03c1 38f4 debe 90fa 09c1
000001d0: 5fe6 c2be 21d9 93bf a228 a4be 36c3 cdbf
000001e0: 6bc2 733e 1182 8ebf 9a11 31bf 8b92 f8c0
000001f0: 0ebf ee3e 09c4 01bf 8f9b f7be 3963 bbbf
00000200: 1c17 7ebf 0a9c f7c0 ee5f f5be 349f 613e
00000210: 7818 16bf fb08 23c0 4c56 8c3e a620 b73e
00000220: e9f6 febc b5bd 22c0 37a0 ed3e e1de efbf
00000230: 25af 94bf caf9 d8c0 9277 ec3e b6ba a63e
00000240: ec71 8bbe f951 efc0 4c56 7ebf e198 bcc0
00000250: 5fa6 aa3e 8567 03c0 a3f8 a2bf 8c9e 62c1
00000260: 1bce f2bf c518 5ac1 aaa7 72be df9d 1abf
00000270: 7926 babe f32f 01c1 0c59 873e 3cdb b0bf
00000280: 6ccb 46bf 7e28 8bbf 90bd 6d3d c4e1 30bf
00000290: 2063 093d 5e68 e83e a928 c3be c66f 08c1
000002a0: af5f b4be 2cbc 0ebf d577 febe d87c 06c1
000002b0: de06 ea3e bc8c 06be e6a1 97bf d551 6fc1
000002c0: 2975 68bf 4999 91c1 5f6a 6a3e 3ef3 99bf
000002d0: 4711 37bf 1ef8 ddbf eae4 16bb 1611 dfbf
000002e0: b975 e4be 506d 05c1 f6d6 0abf df19 d6bf
000002f0: ba9b e43f 6238 0040 7cc3 883e 199b 19bf
00000300: 05b5 86be a067 2b41 a70c 03bf cae8 15c0
00000310: 60d9 4d3e e23d c4be 68f7 923e 4f70 0a3f
00000320: eef5 0bbf 2806 08c1 c74e 13bf 14f7 20c0
00000330: 1015 a6bd 627e e13e 6480 873e 3c56 69be
00000340: fb6a dabd 8a5d fdc0 36c8 16bf 1af5 06c1
00000350: 50d4 6ebe 8fe0 04c0 ae4c e8bf 474c d0c0
00000360: a850 d53d 023b 61be ef6c a3bd f08f 83bf
00000370: fe0e 77be 73cf 1bc0 11ee 9f3e a525 2dbf
00000380: e037 8abd c788 a3be 159f 6bbe f471 eec0
00000390: a65f a03d 8c34 fbbf e030 e73c a484 143e
000003a0: bc68 3f3e 10dc 23bd 3b82 30bf 7b79 01c0
000003b0: 9cb8 a3be 79fc 08c1 352e ea3d 9795 95c1
000003c0: 5599 aabe c0a8 8e3e 510b dfbe eab9 0fc1
000003d0: d1ea 8e3e 3878 a2bf 8ce3 7e3e 61c1 16bf
000003e0: f3db a9be df91 10c1 4c1d 8bbf a60f e2c0
000003f0: 5f18 98bd aca9 13c0 a9f5 64bf e508 d9c0
0.16220331 -0.16827321 -0.09408749 -6.9321575 -0.015014752 -1.7472353 -0.3818053 -8.640904
-0.17374873 -8.438453 -0.21342681 -7.2993507 -0.30031866 -7.0614376 -0.20053439 -1.1192263
-0.10569475 -7.1029224 -0.5606673 -0.8739705 -1.6053975 -15.789925 -0.3376526 -1.3724747
-0.067224324 0.18619382 -0.033943713 -0.39594215 -0.41931996 -8.691532 -0.6436575 -8.969424
0.16641682 0.46537954 0.03483367 -0.3241305 0.020846456 -1.9227152 -0.4057738 -8.750838
-0.22203329 -0.65520495 0.13784176 -1.0355829 -0.7261115 11.151301 0.07339927 -1.905127
-0.20410606 -1.7351147 0.37731057 0.47499663 -1.6019902 4.917236 -0.26825225 -8.140144
-0.14369994 0.4113466 -0.15136309 -6.6622787 0.11585695 -2.5908742 -0.065691315 -0.7425824
0.2887156 -1.5818627 -0.07732313 -2.6837 -0.32388097 -7.9873652 -1.107573 -5.5715866
-0.5448484 -7.8054543 -0.3281527 -1.7020129 -0.24317251 -2.4357617 -0.38592285 -8.460525
0.60114974 -0.08679706 -1.2074536 -17.202986 0.005124822 -2.013018 -0.06633222 0.3056895
-0.26059598 -7.274662 -0.06821197 -0.4965686 2.555273 3.4397032 0.1330031 -0.81228995
-0.38700926 -8.711119 -0.41527903 -9.133767 -0.25839406 -0.113936484 -0.97720444 -17.612074
0.40114635 0.2241056 0.449336 0.5312001 -1.2824756 -14.173992 3.3121493 -0.6439515
-0.4896346 -8.190649 -0.435457 -8.6236725 -0.38066384 -1.1550637 -0.3206225 -1.6075199
0.23804633 -1.1133443 -0.6916748 -7.7678885 0.46630138 -0.5068975 -0.4836087 -1.4639655
-0.9925401 -7.7377977 -0.4792475 0.22033387 -0.58631086 -2.5474231 0.2740959 0.35767096
-0.031123595 -2.5428288 0.46411297 -1.8739892 -1.161595 -6.780492 0.46184975 0.32564324
-0.27235353 -7.4787564 -0.9935043 -5.893662 0.33330056 -2.0531933 -1.2732128 -14.163708
-1.8969148 -13.631047 -0.23696771 -0.6039714 -0.36357477 -8.074206 0.26435125 -1.3816905
-0.7765415 -1.0871732 0.05804211 -0.6909449 0.0335418 0.45392126 -0.3811696 -8.527288
-0.3522925 -0.5575588 -0.497008 -8.405479 0.45708364 -0.13139623 -1.1846282 -14.957479
-0.9080377 -18.199846 0.2289214 -1.2027357 -0.7151074 -1.7341344 -0.0023024627 -1.7427089
-0.44621065 -8.339188 -0.54234254 -1.6726645 1.7860024 2.0034413 0.26711643 -0.60002285
-0.26309982 10.712799 -0.5119118 -2.3423333 0.20102453 -0.38328463 0.2870438 0.5407762
-0.54672134 -8.501503 -0.5754208 -2.5150805 -0.08109486 0.44041735 0.26465142 -0.22786802
-0.10664936 -7.9176683 -0.5889925 -8.434839 -0.23323178 -2.076206 -1.8148401 -6.509311
0.104157746 -0.21995166 -0.07979762 -1.0278301 -0.24126813 -2.4345367 0.31236318 -0.67635566
-0.067489386 -0.3194029 -0.23009904 -7.4514103 0.078307435 -1.9625411 0.028221548 0.14503723
0.18692297 -0.04000479 -0.68948716 -2.0230396 -0.31976783 -8.561639 0.114345945 -18.698042
-0.33320108 0.2786312 -0.4356332 -8.982889 0.27913526 -1.2692938 0.2489149 -0.5888882
-0.3317562 -9.035613 -1.0868316 -7.06441 -0.074265234 -2.307231 -0.8943735 -6.7823358

linear.bias f4 [512]
00000000: 38ee b5bd b2cd 943e a0e2 ff3e 7294 b13e
00000010: 50ad ac3e 3bba 963e 4d34 993e 8b50 613f
00000020: 9205 973e 65be 503f abc4 f33e 73f3 053f
00000030: 511b 86be 6f1a 12bf 0d00 b83e 4b14 d73e
00000040: 21c7 b5be 8221 9cbe ad21 183f fbc0 b53e
00000050: 6923 08bf 9aaf b73e 4044 92bf 5f95 403f
00000060: 0d0b 333f a1b8 c6be 7030 1f3f d749 a03e
00000070: 1761 33bf 2a7c 8d3e db25 483f ba30 693f
00000080: e9f1 033f 1010 0a3f dd53 a13e e28a ef3e
00000090: 5bc0 bc3e a706 2e3f 159f 423f 324f b13e
000000a0: 656c 30bf f27c df3e d852 e53e d833 d6be
000000b0: 47ff 9f3e 819c bdbe a0d9 913e f8c9 673f
000000c0: d7b9 b33e a819 ba3e ad17 d5be 6d45 a13e
000000d0: 7203 dbbe 3961 11bf b20c d53e d76b 1cbe
000000e0: 7f16 b83e aeb3 b93e 9726 543f 9fed 593f
000000f0: c64c 323f 038f 303e 7b91 b4be f5eb 353f
00000100: 77fd f63e 6856 2bbf 457d 413f e00e 14bf
00000110: ebce 1e3f ac3a 543f 1763 043f 7099 1fbf
00000120: 326f 953e f146 e33e 9120 113f 2bb8 3fbf
00000130: bb82 fa3e de3b a5be b708 ac3e 784e 063f
00000140: 1483 713f 90fc 36be 126a 6bbe 996e af3e
00000150: 5703 1ebf ea4f ba3e 6b9a b4be fb8c cd3e
00000160: 5adc 9d3e 1390 5e3f c89e 683f 3079 183f
00000170: fb82 b83e bfde 563f 27d6 693f c8ac 8ebe
00000180: 1157 c6be df5d 633f 03f8 0dbf 46e0 2ebf
00000190: 8351 c53e 466f 4f3f e359 18bf 6489 e9be
000001a0: 57a8 a83e 9d51 ca3e 9430 383f fc52 d63e
000001b0: 3591 afbe 2551 d53e edd1 453f 80c8 f63e
000001c0: 0877 fabd 83a6 993e 7e54 6f3f fc3a fbbe
000001d0: d1e6 10bf 092b 643f 300a a13e 38e8 e93e
000001e0: bd02 2ebf 1a4b be3e 8fe9 ed3e 0c41 c63e
000001f0: 8122 a83e 83e6 fd3e 89b4 723f 52ff 063e
00000200: cb37 96be 23f0 f63d 2eeb 12bf 14b6 99bf
00000210: f2d7 0f3f 3423 273e 73a8 09bf 9e28 4a3f
00000220: 5961 9f3e 42c4 ae3e 2672 3a3f 17fb 9e3e
00000230: 6e2f b1be 6555 2abf 84bf 03bf b3c3 5c3f
00000240: 049d babe 8fe4 073e 3c18 7dbe 9067 513f
00000250: b074 443f 61d5 ab3e 1d71 85be 90dc 1a3f
00000260: a78b 303f a0bb cdbe d5e5 d33e df1a 383f
00000270: 8475 673f 1272 d73e 38ae ce3e 316f 3b3f
00000280: 9abb 483f a8f8 d73e be8a 613f a7c7 1fbf
00000290: 61b5 2bbf 15f5 b93e ac06 aa3e 48fd 013f
000002a0: c12f 073f 9d1b df3e 39a9 d2be 9098 aabd
000002b0: 35ae eb3e e669 cc3e d907 973e 7225 df3e
000002c0: 7831 af3e 8804 733f b46d a13e 60eb 663f
000002d0: fa3f 56bc 867c 0ebf 4227 903e df6a 353f
000002e0: 33df dd3e 5ee2 403f 06fa a83f 95a5 b13e
000002f0: 0acf b93e fe99 87be a8c0 69be 6e5c 713f
00000300: 9df4 c0be 48bb c9bd b26d 673f 1610 c8be
00000310: 8a14 fd3e f3c4 1dbf 9cff 6b3f 12b2 a2be
00000320: 14b7 493f 78f3 27be 4628 0d3e 6328 b63e
00000330: 9f6f 1fbf 8473 18bf c43c 06bf 5814 a13e
00000340: b0ff 11bf 361d 513f b69c f6be bbba 133f
00000350: f28b a73e 1489 4b3f ef68 e4be 5b12 023f
00000360: 340d 023f 3edd babe 37f5 a63e a26f 843e
00000370: a4be af3e dca4 01bf e2d0 5c3f d5e3 b73e
00000380: 1f01 af3e 72e7 5a3f 4a17 a83e ea7b 8abe
00000390: 4e46 0abf 3c6b 643f 7d5c 183f d627 b33e
000003a0: 6238 f23e edf4 353f 549d a33e d271 ff3d
000003b0: 61b0 0dbf a043 2dbf 8b93 bd3e 8a60 01bf
000003c0: 96ad 24bf 3dd1 b63e 2649 b13e 0f01 2d3f
000003d0: 1355 14bf 2f76 543e 829d af3f bc9c c23e
000003e0: 9af1 bf3e 6cec 1e3e 6c8d fc3e 4e02 2dbf
000003f0: af59 303f cfa8 a23e c67a 9c3e e80c adbe
-0.08883327 0.29063183 0.4997759 0.34683567 0.33725977 0.29438958 0.29922715 0.88013524
0.29496437 0.8154052 0.47610983 0.523246 -0.26192716 -0.57071584 0.3593754 0.4200767
-0.35503486 -0.30494314 0.59426385 0.35498795 -0.5317903 0.3587616 -1.1427078 0.7522792
0.6993874 -0.38812736 0.62183285 0.31306335 -0.7007002 0.27633792 0.7818276 0.91089976
0.51541 0.5393076 0.31509295 0.46785647 0.36865506 0.679789 0.7602399 0.34630734
-0.68915397 0.43650013 0.44789767 -0.4183643 0.3124945 -0.37033466 0.28486347 0.90542555
0.35102722 0.363477 -0.41619626 0.3149828 -0.42776066 -0.56788975 0.41611248 -0.15275513
0.35954663 0.36269897 0.82871383 0.85128206 0.69648397 0.17242055 -0.35267243 0.71063167
0.48240253 -0.6692872 0.7558177 -0.578352 0.6203448 0.82902026 0.517137 -0.623435
0.29186398 0.44390061 0.5669032 -0.74890393 0.48927864 -0.32272238 0.336004 0.52463484
0.94340634 -0.17869782 -0.22989681 0.34264067 -0.61723846 0.36389095 -0.35274062 0.40146622
0.30832177 0.8693859 0.9086728 0.5955992 0.3603743 0.83933634 0.91342396 -0.27866197
-0.387383 0.8881511 -0.5545656 -0.68310964 0.3853875 0.81029165 -0.59512156 -0.45612633
0.32940933 0.3951539 0.71949124 0.41860187 -0.34290472 0.4166347 0.77273446 0.48199844
-0.12229735 0.3000985 0.934883 -0.4906844 -0.566022 0.89128166 0.31453085 0.4568498
-0.6797293 0.37166673 0.46467254 0.38721502 0.32838824 0.4958993 0.94806725 0.13183334
-0.29339442 0.12057521 -0.57390106 -1.2008691 0.5618888 0.16322023 -0.5377266 0.78968227
0.31128958 0.34134108 0.72830427 0.3105094 -0.34606498 -0.6653655 -0.51464105 0.86236113
-0.36447918 0.13270782 -0.24716276 0.8179865 0.7674055 0.33561233 -0.2606286 0.604928
0.6896309 -0.4018221 0.41386285 0.71916 0.9041369 0.42079216 0.40367293 0.7321654
0.7841126 0.42181897 0.8810233 -0.6241402 -0.6707364 0.36319795 0.33208215 0.507771
0.5280724 0.43575755 -0.41144732 -0.0832988 0.46031347 0.39924544 0.29498175 0.43583256
0.3421743 0.9492879 0.3152901 0.90202904 -0.013076777 -0.5565876 0.2815495 0.708662
0.4333435 0.7534541 1.3201301 0.34696642 0.3629077 -0.26484674 -0.22827399 0.9428166
-0.37686625 -0.09850174 0.90401757 -0.39074773 0.49429733 -0.61628646 0.92186904 -0.31776482
0.7879498 -0.1640147 0.13784894 0.35577688 -0.62279695 -0.5955126 -0.5243647 0.31460834
-0.57030773 0.816852 -0.48166436 0.57706803 0.32723957 0.7950604 -0.44611308 0.5080926
0.50801396 -0.3649692 0.3260896 0.2586642 0.34325135 -0.5064218 0.8625623 0.3591601
0.34180543 0.8550941 0.32830268 -0.27047664 -0.54013526 0.89226127 0.59516126 0.3499133
0.47308642 0.7107685 0.3195597 0.124728814 -0.5534726 -0.6768131 0.3702663 -0.5053793
-0.6432737 0.3570651 0.3462612 0.6757974 -0.5794231 0.20748208 1.3719943 0.38010204
0.37489015 0.15519875 0.49326646 -0.6758164 0.68886846 0.31769416 0.3056242 -0.3379891

linear3.weight f4 [3, 512]
00000000: d650 e43c 1b59 b8bf 5963 e3be 4883 85bf
00000010: 5fc1 b2bf 2f88 a0bf 4513 72bf 7c77 76be
00000020: 3549 b5bf 4dbc 43be 7b39 1a40 ae9f a5be
00000030: e38f 113d 333c 1d3d 23a5 8ebf a990 66bf
00000040: 0fc1 9abc b076 c43b 5615 e1be 690a 7bbf
00000050: 8024 363c 00ac 30bf e5fd 1041 f57a acbe
00000060: 0178 a6be ee7e 34bd 94a4 0040 9a30 a3bf
00000070: 7b83 c5bc 8b47 90bf acf2 c8be 40a0 59be
00000080: b55c 2bbf 6725 f3be 4f7a 8abf 6037 27bf
00000090: 10c4 64bf d95f 91be 197a 9bbe cf4b 85bf
000000a0: 4296 e4bc 6f27 5240 190b 13bf 7395 1b3d
000000b0: 2e1c 86bf 8f0c 333d c88c bdbf ee07 93be
000000c0: e44d 8abf a72e 8dbf 49f3 b8bc 645b 7340
000000d0: f00a 6dbb de94 06bd d03f f33f ff5a 0cc0
000000e0: 3d9d 5dbf 0765 85bf 1978 6fbe 543e 71be
000000f0: 42ff d6be 2be8 42bf b1eb 21bd 9a05 81be
00000100: afcb 4cbf 846f 03bc 3fdc a2be a64f f33c
00000110: d28b dcbe 6fc9 e2be fb1f 33bf dfb5 0e3d
00000120: b0c6 7abf dfeb 2ebf c4d9 2dbf 6ea7 0841
00000130: 16a2 fc3f 5068 663b d20a 87bf be00 1bbf
00000140: ea60 42be 2826 9a3b 336d 1c3d 697c 86bf
00000150: b329 073d 410f 5cbf 15ea 303d 6be0 1140
00000160: 9700 8940 ffe0 babe 21ef 68be fbf7 cabe
00000170: e730 71bf dae2 8abe c2d2 8ebf 68a6 683c
00000180: caec e340 3a04 7dbe 1553 0f3d 8fb4 0a3d
00000190: 1ce8 68bf 0373 95be 0f94 243d 52d3 d93c
000001a0: 1ed4 b8bf ccdd 6ebf 1534 9cbe 1dce 8d3f
000001b0: e575 2e3d e7df c2be f01e b6be 6874 13bf
000001c0: f19f 1ebd 4dc7 8fbf 38fa a8be 4891 3f3c
000001d0: 8a1c f2bc e213 85be 1eaf 9abf cb16 b140
000001e0: 8733 06bd a211 8fbf 0213 2cbf ccd0 12bf
000001f0: 6fc9 9cbf 7c60 1fbf bec2 9abe 9214 3bbf
00000200: 8c62 213c d531 cebf 50ac 413b 3d49 0141
00000210: 5844 0ebf 92f8 35bf 3af1 be3c f737 9bbe
00000220: 87c2 a7bf d1f3 6dbf 42fd 94be b833 4fbf
00000230: a081 a5ba 80cc 62ba f8b6 fe3b bef7 9dbe
00000240: 9879 a8bb 4178 37bf 4a2e e83c 3dae f6be
00000250: 538e 98be 93fa 68bf 0ad3 c73c 4c19 02bf
00000260: e5ac 5dbe b573 b140 c078 e63f 670b ebbe
00000270: 7ffe 3ebe 4974 173f 85df 75bf c2bd 88be
00000280: 5e4e 93be 1dd4 08bf a154 a9be c1fe 0d3d
00000290: 60f6 643c 5c30 84bf af6d efbe 775b 2ebf
000002a0: ae16 20bf a1e0 1dbf 066f bd3c 82eb 14bd
000002b0: f5e1 37bf 6683 62bf 0fb8 86bf 1a5c 25bf
000002c0: 564c 48bf 96fd c0be f625 acbf d091 c1be
000002d0: e844 afbf 9c04 2cbd f8ec a0bf 3362 b3be
000002e0: d798 3dbf 5b74 98be 49a4 f6bf 30ae 60bf
000002f0: 2b37 93bf 5c7f 44bc c8a8 16bc 388a 74be
00000300: 9039 2dbb 1ab3 f9bc 4b7e 88be 94db 4ebc
00000310: 5f7d ad40 0b10 1e3d c0d8 7ebe 45e3 023d
00000320: 4595 69be 2e0f c73c 430d 3cbf 8d48 a1bf
00000330: 7466 14bd e03b 403b 141c 1dbc 9736 85bf
00000340: 1f77 0b3d 2e06 86be fbec 2d3d 583e 14bf
00000350: 104b acbf ecd7 acbe 03c7 e2bc b06b 1cbf
00000360: 67a4 26bf 892e 0b3d c172 acbf 8532 49bf
00000370: 3f6f 8ebf 31e3 073d 0969 74be 86d3 37bf
00000380: 5c6a 83bf 01b9 62be 33a7 88bf d8fe 253c
00000390: 1e83 10bd e30c 53be 59b9 a8be ec4a 493f
000003a0: 9e16 03bf fc18 abbe 53de 8dbf 7e40 4bbf
000003b0: e8db 3e3c bd26 01bd 0b44 7dbf 5744 0d3d
000003c0: 00e1 33bc fce3 0dbf 675d 1f3f 9ce7 e0be
000003d0: 4233 823c b456 193e 33f6 be40 ec32 7bbf
000003e0: 9f4d 6dbf 5525 40bf 60fb d6be 22a0 12bd
000003f0: 0a5e 1a3f bcbd 9ebf e47d 6ebf 306c c140
0.027870577 -1.4402193 -0.44411734 -1.0430689 -1.3965262 -1.254156 -0.9456065 -0.24069017
-1.4162966 -0.191148 2.4097583 -0.32348388 0.03553761 0.03838749 -1.1144146 -0.90064484
-0.018890886 0.005995594 -0.4396159 -0.9806276 0.011117101 -0.6901245 9.061986 -0.3368756
-0.3251343 -0.044066362 2.010045 -1.2749207 -0.024110546 -1.1271833 -0.39247644 -0.21252537
-0.66938335 -0.47489473 -1.0818576 -0.6531887 -0.8936167 -0.28393438 -0.3036659 -1.041376
-0.02790368 3.2836568 -0.5743881 0.037984323 -1.047735 0.04371315 -1.4808588 -0.28716987
-1.080502 -1.1029862 -0.022576945 3.802453 -0.003616985 -0.032856815 1.9003849 -2.193054
-0.8656805 -1.0421456 -0.23385657 -0.23558933 -0.4199162 -0.7613551 -0.039531413 -0.25199586
-0.79998296 -0.008022193 -0.3180866 0.029701065 -0.43075424 -0.44294307 -0.69970673 0.034841415
-0.97959423 -0.6832866 -0.6791041 8.540876 1.9736965 0.003515739 -1.0550177 -0.6054801
-0.18982282 0.0047042556 0.038190078 -1.0506717 0.03299875 -0.85960776 0.043191988 2.2793224
4.281322 -0.36499783 -0.2274747 -0.3964232 -0.94215244 -0.271262 -1.1158068 0.014199831
7.122655 -0.24708644 0.034991343 0.0338636 -0.9097917 -0.2918931 0.040180262 0.026590023
-1.4439733 -0.93307185 -0.30508485 1.1078526 0.0425929 -0.3806145 -0.35570478 -0.57599497
-0.03872675 -1.1232697 -0.33003402 0.011692353 -0.029554624 -0.25991732 -1.2084692 5.5340323
-0.032763984 -1.1177256 -0.67216504 -0.5734985 -1.2248973 -0.622566 -0.30226701 -0.7307826
0.009850156 -1.6108958 0.002955217 8.08038 -0.55573034 -0.71082413 0.023308385 -0.30316135
-1.310624 -0.9295016 -0.2909947 -0.8093829 -0.0012627132 -0.00086516887 0.0077732764 -0.30853075
-0.005141448 -0.7166787 0.028342385 -0.48179808 -0.29796085 -0.91007346 0.024392623 -0.5081985
-0.21647985 5.5453744 1.80056 -0.45907137 -0.1865177 0.5916181 -0.9604419 -0.26707274
-0.28770727 -0.5344866 -0.3307238 0.03466678 0.013974756 -1.0327258 -0.4676337 -0.68108314
-0.62534606 -0.6167088 0.02312423 -0.03635741 -0.7182916 -0.8848175 -1.052492 -0.6459366
-0.7824148 -0.3769347 -1.3449085 -0.3780656 -1.3692904 -0.041996583 -1.2572317 -0.35035858
-0.7406134 -0.29776272 -1.9268886 -0.8776579 -1.1501211 -0.0119932555 -0.009195514 -0.23880851
-0.0026432015 -0.03048091 -0.26658854 -0.012625594 5.421554 0.03858952 -0.24887371 0.031955022
-0.22810848 0.02429923 -0.73457736 -1.2600266 -0.03623052 0.0029332563 -0.009589214 -1.0407284
0.03404915 -0.2617659 0.04246233 -0.5790763 -1.3460407 -0.33758485 -0.027682787 -0.6110182
-0.6509461 0.033979926 -1.347252 -0.7859271 -1.11277 0.03317565 -0.23868193 -0.71807134
-1.0266833 -0.22140886 -1.0676025 0.01013156 -0.035281293 -0.20610385 -0.3295391 0.78629947
-0.51206386 -0.334175 -1.1083473 -0.7939528 0.011649109 -0.031531084 -0.9893195 0.034489002
-0.010978937 -0.55426 0.62251896 -0.43926704 0.015893582 0.14974481 5.9675536 -0.98124576
-0.92696565 -0.75056964 -0.4198866 -0.035797246 0.6029974 -1.2401652 -0.93160844 6.0444565

linear3.bias f4 [3]
00000000: 8bd9 4cbe 443e 64be 70af 81be
-0.20004861 -0.22289377 -0.2532916
