env2 DQN/log/dqn/ckpt/40000.pth (torch, 14208 bytes, 4 tensors)

linear.weight f4 [512, 2]
00000000: a018 263e d04f 2cbe af6f 7b3d 1ee6 38bf
00000010: f026 97bd 3509 70bf 649b debe acdb d6bf
00000020: ae13 69be b69e e9bf 7f50 74be daa6 41bf
00000030: 03d7 06bf f9f6 98be dd86 8ebe 4778 ecbe
00000040: 5bb6 203d 3ce5 60bf 2e7a 21bf 5cc3 45be
00000050: ed50 e0bf b016 2fc0 2c17 d3be d2c4 02bf
00000060: e8ac 89bd 98a9 3e3e 9008 0bbd eeb8 cabe
00000070: 2447 33bf 55a7 d4bf 69f9 69bf 33ef 01c0
00000080: 2c69 2a3e 3a46 ee3e c0ad 0e3d 6ff4 a5be
00000090: 59a2 74bd b31f 89bf cf5d 04bf dc92 d4bf
000000a0: b25c 63be 83bb 27bf 7aa0 9d3d 0aa8 b1be
000000b0: 3e04 163f 04dc ec3f 240d 5d3c 105f 8ebf
000000c0: 3387 88be 7d06 72bf da2e c13e c232 f33e
000000d0: 9f7a 71bf db01 6840 a6d5 ebbe 25ed a7bf
000000e0: 1426 13be 069c d23e 186c 97be bb40 81bd
000000f0: 7356 743d 617f e4bf eaf1 04be b324 34be
00000100: fede 533e 868a 44bf 4ae0 02be 529b edbf
00000110: 02a1 13bf f762 7fbf 74ad 6ebf 5bf0 05bf
00000120: b5ff 48bf 195b 88bf b3c5 c7be 4cc2 67bf
00000130: f272 9abe 24dc d1bf 5488 febe 4fb8 c1bf
00000140: f3e4 193f a8c2 b1bd 5ae0 a9bf 02be 64c0
00000150: 6b52 92bd 17f6 91bf 30d9 87bd 5683 9c3e
00000160: 0c40 0ebf ee8a 32bf b8b2 8bbd 3d3e febe
00000170: 27eb 323f db55 f3bd 8d17 623d a20f 82be
00000180: c50c 21bf 26d3 dcbf 04db 2cbf 5136 03c0
00000190: 3a4c 84be 8857 e9bd b93a a0bf e4c1 65c0
000001a0: 0e63 cd3e f07b 653e 5e0f e63e bbfc 073f
000001b0: e1b7 98bf 51d3 d9bf 31d6 aa3f 3718 3ac0
000001c0: 8545 29bf ec86 9abf 33fd 3fbf 8fdd c2bf
000001d0: 6a5c e4be 3a95 cfbe bfb6 bdbe 6d5c 5abf
000001e0: 7e1d 1b3e 58dc bbbe 8075 58bf 3bb0 8ebf
000001f0: 0ebf ee3e 09c4 01bf b65f 0cbf 5d96 24bf
00000200: 0f6d 7dbf e923 e6bf ee5f f5be 349f 613e
00000210: b33e 22bf a0ce e0bf 4c56 8c3e a620 b73e
00000220: dca1 aebd a4fd dcbf 2d0d cc3e cca2 89bf
00000230: 3c9a 83bf 7c8f b2bf 9277 ec3e b6ba a63e
00000240: bc8b c1be bf67 07bf 8f09 60bf 65ee 1cbf
00000250: 4f61 843e 10fc 9ebf 19e3 db3e 026f 3340
00000260: 19ce debf f5ae ecbf aaa7 72be df9d 1abf
00000270: 5c87 23bf 9bfb 8ebf 768f 483e 9df7 21bf
00000280: 0d0f 58bf 8081 c7be 90bd 6d3d c4e1 30bf
00000290: 2063 093d 5e68 e83e 3fdb 24bf be10 bdbf
000002a0: af5f b4be 2cbc 0ebf 540f 32bf 42dd adbf
000002b0: de06 ea3e bc8c 06be 1aeb 8fbf 270d f9bf
000002c0: 6499 b2bf 900c 81c0 81ce 1d3e 3b46 f9be
000002d0: 2049 47bf ccfe 80bf 78d5 84bd 2977 6cbf
000002e0: 6185 41bf be62 aebf dac9 19bf a227 60bf
000002f0: 091f 973f eeaf dfbe 7cc3 883e 199b 19bf
00000300: 21cb 3a3f 033b cf3f ce09 0fbf 1255 c8bf
00000310: 60d9 4d3e e23d c4be 68f7 923e 4f70 0a3f
00000320: 38c4 46bf 0a43 ccbf d7a5 21bf 2e53 d9bf
00000330: 1015 a6bd 627e e13e 6480 873e 3c56 69be
00000340: c48f 3bbe 2fa5 b6bf 297d 58bf 5f3b cbbf
00000350: a08a 96be 6325 a6bf bbfe 7cbf 6304 9cbd
00000360: a850 d53d 023b 61be 39d4 29be 9983 53be
00000370: 1292 99be cf4d cebf 466f 533e b39d 8cbb
00000380: e037 8abd c788 a3be 80fa 02bf 5513 03bf
00000390: 3499 2b3c 2c0c 9bbf e030 e73c a484 143e
000003a0: bc68 3f3e 10dc 23bd faa1 3cbf 874e 9fbf
000003b0: 547c 01bf 6d4d d5bf 5a6e 9dbf 4535 83c0
000003c0: 5599 aabe c0a8 8e3e 77bd 34bf 64ac fabf
000003d0: 2d31 453e 521d f9be effd f43d 78e0 9c3d
000003e0: 8e56 00bf 9001 09c0 55cf 56bf 1c7f b4bf
000003f0: 9354 13be 00f4 c3bf 6197 57bf 80c6 56bf
0.16220331 -0.16827321 0.061385807 -0.7222613 -0.073804736 -0.9376405 -0.4347793 -1.6785789
-0.22761413 -1.825156 -0.23858832 -0.7564522 -0.5267183 -0.29875925 -0.27837268 -0.46185514
0.039236408 -0.87849784 -0.63077056 -0.19312805 -1.7524697 -2.7357597 -0.41228616 -0.51081574
-0.067224324 0.18619382 -0.033943713 -0.39594215 -0.70030427 -1.6613566 -0.91396195 -2.0302246
0.16641682 0.46537954 0.03483367 -0.3241305 -0.05972514 -1.0712799 -0.5170564 -1.6607318
-0.22203329 -0.65520495 0.07696624 -0.34698516 0.58600223 1.8504643 0.0134919025 -1.1122761
-0.2666565 -0.9454115 0.37731057 0.47499663 -0.9432773 3.6251132 -0.46061438 -1.3119246
-0.14369994 0.4113466 -0.29574656 -0.063111745 0.059652757 -1.7851373 -0.12982908 -0.17592125
0.20690534 -0.7677387 -0.12780872 -1.8563025 -0.57667553 -0.99760383 -0.9323342 -0.5231988
-0.7851518 -1.0652801 -0.3901802 -0.9053085 -0.3016582 -1.6395307 -0.49713385 -1.5134372
0.60114974 -0.08679706 -1.3271592 -3.5740972 -0.07144626 -1.1403226 -0.06633222 0.3056895
-0.5556648 -0.6974324 -0.06821197 -0.4965686 0.69890064 -0.1188161 0.05519824 -0.25402552
-0.6291011 -1.7251937 -0.6752169 -2.0501902 -0.25839406 -0.113936484 -1.2517921 -3.5899591
0.40114635 0.2241056 0.449336 0.5312001 -1.1931115 -1.7017614 1.3346616 -2.907728
-0.66121703 -1.2072425 -0.74995726 -1.5223864 -0.44601756 -0.40543538 -0.37053487 -0.8529728
0.15147969 -0.36691546 -0.8455429 -1.1147531 0.46630138 -0.5068975 -0.54833543 -0.64291936
-0.98994535 -1.7979709 -0.4792475 0.22033387 -0.6337692 -1.7563057 0.2740959 0.35767096
-0.08526966 -1.7264905 0.39853802 -1.0752807 -1.0281444 -1.3950038 0.46184975 0.32564324
-0.3780192 -0.5289268 -0.87514585 -0.6130126 0.2585549 -1.2420673 0.429467 2.8036504
-1.7406646 -1.8490893 -0.23696771 -0.6039714 -0.63878417 -1.1170534 0.19585976 -0.6326845
-0.84397966 -0.38965988 0.05804211 -0.6909449 0.0335418 0.45392126 -0.64397043 -1.4770734
-0.3522925 -0.5575588 -0.6955464 -1.3583148 0.45708364 -0.13139623 -1.1243622 -1.9457139
-1.3953061 -4.0327835 0.15410806 -0.48686394 -0.77845955 -1.0077758 -0.064860284 -0.92369324
-0.75594145 -1.3623884 -0.60073626 -0.87560475 1.1806346 -0.4368891 0.26711643 -0.60002285
0.729662 1.6189884 -0.55874336 -1.5650961 0.20102453 -0.38328463 0.2870438 0.5407762
-0.77643156 -1.5957959 -0.63143677 -1.697851 -0.08109486 0.44041735 0.26465142 -0.22786802
-0.18316561 -1.426916 -0.8456598 -1.5877494 -0.29402637 -1.298016 -0.9882619 -0.07618024
0.104157746 -0.21995166 -0.16584863 -0.2065567 -0.29994255 -1.6117495 0.20647916 -0.00429126
-0.067489386 -0.3194029 -0.5116348 -0.51201373 0.010473538 -1.211309 0.028221548 0.14503723
0.18692297 -0.04000479 -0.73684657 -1.244584 -0.50580335 -1.6664253 -1.2299302 -4.1002526
-0.33320108 0.2786312 -0.706016 -1.958386 0.1925704 -0.48655182 0.119624965 0.076600015
-0.5013207 -2.1407204 -0.83910114 -1.4101291 -0.14387731 -1.5308838 -0.8421536 -0.83896637

linear.bias f4 [512]
00000000: 38ee b5bd 975e 7d3e ba0c e73e 15ba 083f
00000010: acd7 8d3e 5bad a13e e7da c33e 76a9 593f
00000020: 8635 693e 8d22 483f 5b9a f6be 4303 fb3e
00000030: 511b 86be 6f1a 12bf 9fec c33e 6272 fe3e
00000040: 21c7 b5be 8221 9cbe f87e 0d3f 6e14 0b3f
00000050: 6923 08bf 3543 863e 6525 553e 8f4d 373f
00000060: 9da5 283f a1b8 c6be 4297 573d 73c9 833e
00000070: 1761 33bf 4fc7 823e 5675 3e3f bbd9 5f3f
00000080: ebfa e93e 24ff fc3e a0fb 9c3e 7579 f13e
00000090: 7182 d23e c838 243f 3b19 383f 4c41 023f
000000a0: 656c 30bf eada b2be 53a9 cc3e d833 d6be
000000b0: 751e 943e 819c bdbe d484 1b3e 16ad 5c3f
000000c0: 1f44 b13e 62c5 c03e ad17 d5be b73d a8be
000000d0: 7203 dbbe 3961 11bf 6718 5fbe 15c7 0e3f
000000e0: e7e8 063f c183 cf3e 402b 4d3f 2593 513f
000000f0: aca9 263f f7be e13e 7b91 b4be 5e2d 2f3f
00000100: 15ef 063f 6856 2bbf 4196 363f e00e 14bf
00000110: c972 133f 146f 493f 945e 093f 7099 1fbf
00000120: e49c d63e f320 e43e 2422 023f f175 333e
00000130: 7a72 a1be de3b a5be 6146 ae3e 3b2e ec3e
00000140: 75b9 693f 90fc 36be 126a 6bbe 8aa3 b33e
00000150: 5703 1ebf 3ae0 073f 6b9a b4be ab03 6bbe
00000160: 22cb dbbe 5786 543f bc36 5e3f dce3 0d3f
00000170: 592c ce3e dd5c 4f3f b36d 9e3e c8ac 8ebe
00000180: d759 233e 5946 5a3f 03f8 0dbf 46e0 2ebf
00000190: e866 fb3e 1178 463f e359 18bf 6489 e9be
000001a0: 7376 fa3d ed3a e83e f2e6 2c3f 00c3 9fbd
000001b0: 3591 afbe 2184 bc3e 472a 3d3f 1bcf d23e
000001c0: 0877 fabd 3aec 863e 5a2e 653f fc3a fbbe
000001d0: d1e6 10bf b327 5b3f e24c 933e e40e c2be
000001e0: bd02 2ebf 5b9e c83e 3b01 cd3e 8a71 a23e
000001f0: 963c 973e e2d6 2d3f e118 6a3f a5bb de3e
00000200: cb37 96be efd8 a93e 2eeb 12bf fbd1 873e
00000210: f5eb 313f 2e12 183f 73a8 09bf 2b69 3f3f
00000220: c431 813e 5e29 ba3e 0b4c 313f fbe5 f83e
00000230: 6e2f b1be 6555 2abf 84bf 03bf ed57 533f
00000240: 049d babe 7ce9 083f 3c18 7dbe 3797 453f
00000250: 86b7 373f fecc 073f 1d71 85be 5651 0f3f
00000260: 62b8 263f b3da 123d 3a9e 26be ece0 2d3f
00000270: f9ae 5b3f 6d71 6c3c 833a f03e 4931 303f
00000280: 4269 3e3f f52b c03e e30b 583f a7c7 1fbf
00000290: 61b5 2bbf a6c2 d03e 0088 7c3e 5759 0a3f
000002a0: 996f f23e 3f7c c13e 39a9 d2be 9098 aabd
000002b0: 3a20 d03e a59b ec3e ce7b 8b3e a9e2 203f
000002c0: c03c ba3e 3acb 693f c8b8 af3e a96b 5b3f
000002d0: 62c7 e03e 867c 0ebf e669 933e 8abc 2b3f
000002e0: 98de 0d3f 9036 363f 59cf b33e ecde c73e
000002f0: 6057 c03e fe99 87be a8c0 69be 39b7 693f
00000300: 9df4 c0be 48bb c9bd 02e3 5e3f 1610 c8be
00000310: 53b4 b6be f3c4 1dbf 43aa 623f 12b2 a2be
00000320: f01b 413f 78f3 27be fe33 ea3e f007 a63e
00000330: 9f6f 1fbf 8473 18bf c43c 06bf 0198 eb3e
00000340: b0ff 11bf bdf1 463f b69c f6be 1b62 063f
00000350: 2d20 933e bb30 423f ef68 e4be 8ac7 143f
00000360: 2dee ea3e 3edd babe fb77 ba3e d3bf 0f3f
00000370: 07db b53e dca4 01bf 9f5b 533f a623 8a3e
00000380: 67a1 aa3e 7986 543f 7381 e13e ea7b 8abe
00000390: 4e46 0abf 7b37 5c3f 1579 0e3f 8bf8 53bc
000003a0: 0054 db3e 9e2c 2c3f 46bf a03e 2b5c e13e
000003b0: 61b0 0dbf a043 2dbf 7ca4 d83e 8a60 01bf
000003c0: 96ad 24bf 914f 933e c2ed 8dbc 061a 203f
000003d0: 1355 14bf 1086 7c3e 74e0 a4be 77a4 de3e
000003e0: 78da 153f 7f86 233f 0c74 e33e 4e02 2dbf
000003f0: a4fe a73c af82 913e 8a57 a03e e4d6 b53d
-0.08883327 0.24743114 0.45126897 0.5340894 0.27703607 0.31577572 0.38252947 0.850242
0.22774324 0.7817772 -0.4816464 0.49025926 -0.26192716 -0.57071584 0.38266465 0.49696642
-0.35503486 -0.30494314 0.55271864 0.5432805 -0.5317903 0.2622315 0.20815046 0.7160272
0.65877706 -0.38812736 0.052634485 0.2573963 -0.7007002 0.25542685 0.7439779 0.87441605
0.45699248 0.49413407 0.30660725 0.47162977 0.41115144 0.6414914 0.719135 0.50880885
-0.68915397 -0.34932643 0.39972934 -0.4183643 0.28929487 -0.37033466 0.15187389 0.8620161
0.34622285 0.3765059 -0.41619626 -0.32859585 -0.42776066 -0.56788975 -0.21786653 0.55772525
0.5269913 0.40530208 0.8014412 0.8186515 0.6510265 0.44091007 -0.35267243 0.684286
0.5270856 -0.6692872 0.7132302 -0.578352 0.57597023 0.78685117 0.5365994 -0.623435
0.41916573 0.44556388 0.50833344 0.1752546 -0.3153265 -0.32272238 0.3403807 0.4612902
0.9129861 -0.17869782 -0.22989681 0.35085708 -0.61723846 0.5307652 -0.35274062 -0.22950618
-0.42928416 0.83017486 0.8680227 0.5542581 0.4026821 0.81001073 0.3094307 -0.27866197
0.1595224 0.8526359 -0.5545656 -0.68310964 0.4910195 0.77526957 -0.59512156 -0.45612633
0.12229624 0.45357457 0.67539895 -0.07800865 -0.34290472 0.36819556 0.73892635 0.41173634
-0.12229735 0.26352102 0.8952385 -0.4906844 -0.566022 0.8560745 0.28769594 -0.37901986
-0.6797293 0.39183316 0.4004 0.31727248 0.2953841 0.6790601 0.9144421 0.43502536
-0.29339442 0.3317332 -0.57390106 0.2652739 0.69500667 0.5940274 -0.5377266 0.7476985
0.2523328 0.36359686 0.6925666 0.4861296 -0.34606498 -0.6653655 -0.51464105 0.8255604
-0.36447918 0.5348127 -0.24716276 0.7718386 0.7176441 0.5304717 -0.2606286 0.55983484
0.65125096 0.0358531 -0.16271296 0.6792133 0.8581386 0.01443134 0.4691964 0.68825203
0.7437936 0.37533537 0.8439314 -0.6241402 -0.6707364 0.40773505 0.24661255 0.5404257
0.47350767 0.37790105 -0.41144732 -0.0832988 0.40649587 0.46212497 0.27242893 0.62845856
0.36374474 0.91325724 0.34320664 0.8571115 0.43902117 -0.5565876 0.28791732 0.6708456
0.55417776 0.71177006 0.3511913 0.39037263 0.37566662 -0.26484674 -0.22827399 0.912952
-0.37686625 -0.09850174 0.87065136 -0.39074773 -0.3568445 -0.61628646 0.8854105 -0.31776482
0.75433254 -0.1640147 0.45742792 0.3242793 -0.62279695 -0.5955126 -0.5243647 0.46014407
-0.57030773 0.77712613 -0.48166436 0.5249345 0.28735486 0.75855607 -0.44611308 0.5811697
0.4588484 -0.3649692 0.36419663 0.56152076 0.35518667 -0.5064218 0.8256168 0.26980323
0.33326265 0.8301769 0.44044074 -0.27047664 -0.54013526 0.86022156 0.55653507 -0.012937675
0.42837524 0.6725558 0.3139593 0.4401563 -0.5534726 -0.6768131 0.42312992 -0.5053793
-0.6432737 0.28771642 -0.017325286 0.6253971 -0.5794231 0.24660516 -0.32202494 0.43484852
0.5853648 0.638771 0.44424474 -0.6758164 0.020507164 0.28420016 0.31316787 0.08878878

linear3.weight f4 [3, 512]
00000000: d650 e43c 74eb cfbe 7a14 88be d33e 81be
00000010: a40e c3be 4250 babe 4fed 81be 66b8 52be
00000020: 5230 b6be 20f0 39be 94ad 723f 47e8 81be
00000030: e38f 113d 333c 1d3d bcb6 a7be 6870 8dbe
00000040: 0fc1 9abc b076 c43b 49a3 9bbe 2507 5bbe
00000050: 8024 363c a90c b4be 809a 773f 5413 61be
00000060: 640c 78be ee7e 34bd 8724 bc3f 5e81 bbbe
00000070: 7b83 c5bc 4b38 8abe e2d6 7cbe 50e5 2ebe
00000080: 192c e1be 5640 88be 80d6 85be 9dca 83be
00000090: 6cee 94be 5193 59be 0b59 50be e197 89be
000000a0: 4296 e4bc 9f83 193f 1b61 b9be 7395 1b3d
000000b0: c4db 82be 8f0c 333d af6c 71be 14fb 66be
000000c0: 4eac 77be 5a80 8abe 49f3 b8bc bf11 233f
000000d0: f00a 6dbb de94 06bd 13f3 ca3e 748d 31bf
000000e0: 05c2 60be 2569 9abe d13b 53be 2940 3bbe
000000f0: 82a2 9ebe 758d 6cbe b1eb 21bd 6816 5abe
00000100: a398 97be 846f 03bc cb54 73be a64f f33c
00000110: 30f2 84be a807 8ebe aa1d 80be dfb5 0e3d
00000120: b754 4bbe e489 84be a807 dcbe 590c 7c3f
00000130: 1f76 5e3f 5068 663b 1cc1 89be 9233 c4be
00000140: 143d 41be 2826 9a3b 336d 1c3d 1fea 71be
00000150: b329 073d 41ec 4fbe 15ea 303d 8816 db3e
00000160: c601 7f3f fe7b 8dbe 9329 4dbe abde 85be
00000170: 8e4c 72be 1ffd 71be c5ea b3be 68a6 683c
00000180: 6a5e ae3f 189d 3ebe 1553 0f3d 8fb4 0a3d
00000190: 8517 84be 5d01 66be 0f94 243d 52d3 d93c
000001a0: 3251 a1be a8db 9dbe 571e 58be 0c30 a23e
000001b0: e575 2e3d f3f0 83be d349 86be 5f3f cbbe
000001c0: f19f 1ebd 3f04 92be 8335 76be 4891 3f3c
000001d0: 8a1c f2bc 39be 61be 5cca a0be 986b 9d3f
000001e0: 8733 06bd 500e 9fbe be7e dcbe 4604 cdbe
000001f0: da3e 9abe 53e0 33be 0344 63be 263c 8abe
00000200: 8c62 213c 022f c0be 50ac 413b f10a 023f
00000210: 4fcb 5ebe b761 4fbe 3af1 be3c ed5e 67be
00000220: cfc0 cabe 5282 7ebe 69ee 42be 3920 5dbe
00000230: a081 a5ba 80cc 62ba f8b6 fe3b bfaa 67be
00000240: 9879 a8bb f509 66be 4a2e e83c dc85 98be
00000250: 3964 54be 1d75 54be 0ad3 c73c dfd6 acbe
00000260: 0fc8 2cbe 0f20 8a3f d111 543f f6f2 9cbe
00000270: 3fe1 22be c0f0 013e ef84 8ebe 0e5d 44be
00000280: f256 70be eb53 b5be 798f 80be c1fe 0d3d
00000290: 60f6 643c 45ea 9ebe c054 8ebe 2c27 58be
000002a0: 3200 c7be da70 bdbe 066f bd3c 82eb 14bd
000002b0: f055 ebbe 9005 8bbe 8a19 7fbe fcc8 49be
000002c0: a6e2 7fbe ab9f 89be 4c04 c7be 59bc 73be
000002d0: 9365 f2be 9c04 2cbd cad6 bdbe a17a 73be
000002e0: 424f 84be 6f6f 63be 3126 8cbe 6b5d 80be
000002f0: 430f a8be 5c7f 44bc c8a8 16bc 509a 6abe
00000300: 9039 2dbb 1ab3 f9bc 551b 68be 94db 4ebc
00000310: 469a 063f 0b10 1e3d 785f 5ebe 45e3 023d
00000320: b0be 49be 2e0f c73c 1801 8abe c25c b6be
00000330: 7466 14bd e03b 403b 141c 1dbc 6862 66be
00000340: 1f77 0b3d 26c5 71be fbec 2d3d 8ff9 bbbe
00000350: 7500 babe 6eb0 6ebe 03c7 e2bc 0679 82be
00000360: 6515 e1be 892e 0b3d 721e bdbe c35c 72be
00000370: fc86 99be 31e3 073d 981f 66be 4747 c8be
00000380: abdc 3bbe b132 47be b5e6 7dbe d8fe 253c
00000390: 1e83 10bd 7b11 48be 6fb7 80be e958 0d3e
000003a0: 2acd a4be d51f 7abe fc1c 9bbe 8976 8abe
000003b0: e8db 3e3c bd26 01bd 1d21 8dbe 5744 0d3d
000003c0: 00e1 33bc 930c c5be f5b3 fb3d b6c3 9ebe
000003d0: 4233 823c c529 1cbd 800f 753f c509 8cbe
000003e0: 1757 7cbe 1699 84be 787b a6be 22a0 12bd
000003f0: cc14 013e 49ca aabe 2a51 8cbe 9feb 5d3f
0.027870577 -0.40609324 -0.26578122 -0.25243244 -0.38097107 -0.36389357 -0.25376365 -0.20578155
-0.3558374 -0.18158007 0.9479611 -0.25372526 0.03553761 0.03838749 -0.32756603 -0.27624822
-0.018890886 0.005995594 -0.30398014 -0.21389444 0.011117101 -0.3516591 0.96720123 -0.2198003
-0.24223477 -0.044066362 1.4698647 -0.36622137 -0.024110546 -0.26996073 -0.24691346 -0.17079663
-0.43978956 -0.26611584 -0.26140213 -0.2574052 -0.2908815 -0.21247603 -0.20346467 -0.26873687
-0.02790368 0.5996646 -0.36206898 0.037984323 -0.25558293 0.04371315 -0.23576616 -0.22556716
-0.24186823 -0.2705105 -0.022576945 0.63698953 -0.003616985 -0.032856815 0.39638576 -0.69356465
-0.21949013 -0.30158344 -0.20628287 -0.18286194 -0.3098336 -0.23100837 -0.039531413 -0.2129761
-0.2960864 -0.008022193 -0.23762815 0.029701065 -0.25966024 -0.27740216 -0.25022632 0.034841415
-0.19856535 -0.25886452 -0.4297459 0.9845634 0.8689899 0.003515739 -0.26905143 -0.38320595
-0.18870956 0.0047042556 0.038190078 -0.23624466 0.03299875 -0.20304967 0.043191988 0.42790627
0.9961208 -0.2763366 -0.2003539 -0.26146445 -0.23662016 -0.23631714 -0.35140052 0.014199831
1.3622563 -0.18614614 0.034991343 0.0338636 -0.25799194 -0.22461458 0.040180262 0.026590023
-0.3150726 -0.30831647 -0.21105324 0.31677282 0.0425929 -0.25769767 -0.26228198 -0.39696786
-0.03872675 -0.28518865 -0.2404385 0.011692353 -0.029554624 -0.2204522 -0.31404388 1.229846
-0.032763984 -0.31065607 -0.43065447 -0.40042323 -0.30126077 -0.17566042 -0.22193913 -0.26999015
0.009850156 -0.37535864 0.002955217 0.50797945 -0.21757244 -0.20252119 0.023308385 -0.22594805
-0.39600226 -0.24854401 -0.19036259 -0.21594323 -0.0012627132 -0.00086516887 0.0077732764 -0.22623728
-0.005141448 -0.22464736 0.028342385 -0.29789627 -0.20741357 -0.207478 0.024392623 -0.33757684
-0.16873191 1.0791034 0.82839686 -0.30654114 -0.15906237 0.12689495 -0.27835795 -0.19176123
-0.23470667 -0.35415587 -0.2510946 0.03466678 0.013974756 -0.31038108 -0.27799034 -0.21108693
-0.38867337 -0.3700016 0.02312423 -0.03635741 -0.45964003 -0.2715268 -0.24912086 -0.19705576
-0.24988803 -0.2687963 -0.38870466 -0.23802318 -0.4734312 -0.041996583 -0.37077934 -0.23777248
-0.2584172 -0.22210477 -0.27372888 -0.25071272 -0.32824144 -0.0119932555 -0.009195514 -0.22910428
-0.0026432015 -0.03048091 -0.22666676 -0.012625594 0.5257915 0.03858952 -0.21716106 0.031955022
-0.19701648 0.02429923 -0.2695396 -0.35617644 -0.03623052 0.0029332563 -0.009589214 -0.22498477
0.03404915 -0.23610362 0.04246233 -0.36713836 -0.36328474 -0.2330949 -0.027682787 -0.2548296
-0.43961635 0.033979926 -0.3693729 -0.23668198 -0.29985797 0.03317565 -0.2247299 -0.3911688
-0.18345897 -0.19452931 -0.24795039 0.01013156 -0.035281293 -0.19537918 -0.2513995 0.13803448
-0.32187778 -0.24426205 -0.3029555 -0.2704356 0.011649109 -0.031531084 -0.27564326 0.034489002
-0.010978937 -0.38486156 0.122901835 -0.3100869 0.015893582 -0.038125772 0.95726776 -0.27351204
-0.24642597 -0.25898045 -0.32516074 -0.035797246 0.1260559 -0.33357456 -0.27405673 0.86687654

linear3.bias f4 [3]
00000000: 788d 4abe 1379 cfbd 9825 40be
-0.19780529 -0.10130515 -0.18764341
