env2 DQN/log/dqn/ckpt/405000.pth (torch, 14216 bytes, 4 tensors)

linear.weight f4 [512, 2]
000000 a0 18 26 3e d0 4f 2c be 4f 6f 81 bd d9 ec df c0
       0.16220331 -0.16827321 -0.063200586 -6.997662
000010 25 52 36 3c 66 6e d0 bf 5a 59 d4 be 3e 3a 0b c1
       0.011127983 -1.6283691 -0.4147442 -8.701719
000020 57 98 32 be d8 30 08 c1 32 cb 70 be c1 95 ec c0
       -0.17440926 -8.511925 -0.23515013 -7.3932805
000030 6c 84 a4 be ec 89 e4 c0 4e 87 32 be ff 16 7f bf
       -0.3213228 -7.141836 -0.17434427 -0.99644464
000040 61 1a ab bd b9 f7 e4 c0 0b 53 08 bf 5e 85 3f bf
       -0.08354641 -7.1552396 -0.53251714 -0.7481288
000050 6f ee ce bf 51 51 7e c1 e7 77 9f be 3b d4 a0 bf
       -1.6166514 -15.894853 -0.31146166 -1.2564768
000060 e8 ac 89 bd 98 a9 3e 3e 90 08 0b bd ee b8 ca be
       -0.067224324 0.18619382 -0.033943713 -0.39594215
000070 2f f2 e8 be d3 2c 0c c1 30 2b 2d bf 8b a8 10 c1
       -0.4549727 -8.760943 -0.67644024 -9.041148
000080 2c 69 2a 3e 3a 46 ee 3e c0 ad 0e 3d 6f f4 a5 be
       0.16641682 0.46537954 0.03483367 -0.3241305
000090 16 b3 3a 3d 92 14 e7 bf 00 f0 e0 be e1 17 0d c1
       0.045580946 -1.8053153 -0.43933105 -8.81833
0000a0 b2 5c 63 be 83 bb 27 bf b4 cb 26 3e 2b 8c 69 bf
       -0.22203329 -0.65520495 0.16288644 -0.91229504
0000b0 71 e2 39 bf bb 6b 32 41 00 27 cb 3d a0 f4 e4 bf
       -0.7261115 11.151301 0.09919548 -1.7887154
0000c0 dc af 35 be 02 db ce bf da 2e c1 3e c2 32 f3 3e
       -0.17742866 -1.6160586 0.37731057 0.47499663
0000d0 7a b3 cd bf c8 d6 9c 40 f8 72 9a be 0c 07 03 c1
       -1.6070397 4.9012184 -0.3016584 -8.18922
0000e0 14 26 13 be 06 9c d2 3e ee a1 33 be cf 21 d8 c0
       -0.14369994 0.4113466 -0.1754224 -6.754127
0000f0 c1 cb 10 3e 60 85 1e c0 ab 42 1e bd c9 a1 1d bf
       0.14140226 -2.4768906 -0.0386378 -0.6157499
000100 73 2a a0 3e 99 e0 ba bf c6 f7 51 bd 75 7a 24 c0
       0.31282386 -1.4599792 -0.051261686 -2.5699742
000110 31 46 b7 be 79 95 00 c1 c2 43 8d bf 33 a2 b3 c0
       -0.3579574 -8.036492 -1.1036303 -5.6135497
000120 e9 0b 13 bf 93 24 fd c0 38 2b 9a be 10 af ca bf
       -0.5744005 -7.9107146 -0.30111098 -1.5834675
000130 c7 8d 5d be 41 52 14 c0 c8 49 d5 be 7e 91 08 c1
       -0.21636115 -2.3175204 -0.41657853 -8.535521
000140 f3 e4 19 3f a8 c2 b1 bd da 05 9f bf 66 00 8a c1
       0.60114974 -0.08679706 -1.2423661 -17.250195
000150 c8 4a f5 3c c0 9d f2 bf 30 d9 87 bd 56 83 9c 3e
       0.029942885 -1.8954391 -0.06633222 0.3056895
000160 f8 05 90 be fd 28 eb c0 b8 b2 8b bd 3d 3e fe be
       -0.28129554 -7.3487535 -0.06821197 -0.4965686
000170 ff c3 23 40 69 ce 6b 40 81 26 22 3e bd b4 2f bf
       2.5588377 3.6844733 0.15835 -0.6863516
000180 83 77 d8 be 5b 5e 0c c1 7a 93 e7 be 63 18 13 c1
       -0.4227868 -8.773036 -0.45229703 -9.193454
000190 3a 4c 84 be 88 57 e9 bd e3 3b 7f bf cc 9e 8d c1
       -0.25839406 -0.113936484 -0.99700755 -17.702538
0001a0 0e 63 cd 3e f0 7b 65 3e 5e 0f e6 3e bb fc 07 3f
       0.40114635 0.2241056 0.449336 0.5312001
0001b0 bf 50 a6 bf 5f 4e 64 c1 6f 55 55 40 4a f2 d2 be
       -1.2993392 -14.269134 3.3333395 -0.41200477
0001c0 dc 84 05 bf 61 74 04 c1 85 03 f4 be c0 cf 0a c1
       -0.5215585 -8.278413 -0.47658935 -8.67572
0001d0 42 03 b5 be 49 99 84 bf a5 12 96 be aa ec be bf
       -0.35354048 -1.0359279 -0.293111 -1.4915974
0001e0 83 30 86 3e 30 0b 7e bf 21 7d 2c bf ef 48 f6 c0
       0.26208887 -0.9923582 -0.6737843 -7.696403
0001f0 0e bf ee 3e 09 c4 01 bf fe d3 e9 be c8 c1 ac bf
       0.46630138 -0.5068975 -0.4566955 -1.3496637
000200 c4 8a 7f bf 1d 6e fb c0 ee 5f f5 be 34 9f 61 3e
       -0.99821115 -7.8571916 -0.4792475 0.22033387
000210 74 14 0f bf 0c b6 1b c0 4c 56 8c 3e a6 20 b7 3e
       -0.55890584 -2.4329863 0.2740959 0.35767096
000220 02 42 a6 bb d2 58 1b c0 5e 0b fa 3e e3 c7 e0 bf
       -0.0050737867 -2.4272962 0.48836797 -1.7561
000230 72 1e 95 bf 5c 63 db c0 92 77 ec 3e b6 ba a6 3e
       -1.1649916 -6.855879 0.46184975 0.32564324
000240 d3 b6 97 be 22 df f0 c0 9d 38 7f bf 68 cf be c0
       -0.2963167 -7.527238 -0.9969576 -5.962818
000250 a3 1d b7 3e 13 36 f7 bf 5b d8 96 bf a8 10 6c c1
       0.357648 -1.9313377 -1.1784776 -14.754066
000260 6f 8c f5 bf 9c 7f 5a c1 aa a7 72 be df 9d 1a bf
       -1.9183482 -13.656155 -0.23696771 -0.6039714
000270 3e ec c9 be 61 6f 02 c1 cd 53 94 3e c1 d2 a0 bf
       -0.3943805 -8.152192 0.28970185 -1.2564317
000280 54 93 3f bf c1 a0 76 bf 90 bd 6d 3d c4 e1 30 bf
       -0.7483418 -0.9633904 0.05804211 -0.6909449
000290 20 63 09 3d 5e 68 e8 3e 0b c9 d4 be 5a 69 09 c1
       0.0335418 0.45392126 -0.41559634 -8.588221
0002a0 af 5f b4 be 2c bc 0e bf 50 f2 07 bf 87 bd 07 c1
       -0.3522925 -0.5575588 -0.53104115 -8.483771
0002b0 de 06 ea 3e bc 8c 06 be cc fd 9a bf f7 63 70 c1
       0.45708364 -0.13139623 -1.2108703 -15.0244055
0002c0 35 60 6f bf 99 20 92 c1 4b e5 81 3e 49 81 8a bf
       -0.93506175 -18.265917 0.2537025 -1.0820705
0002d0 be e2 2f bf 89 36 ce bf 72 e0 c0 3c d2 14 d0 bf
       -0.68705356 -1.6110393 0.023544524 -1.6256354
0002e0 e5 00 f7 be 7a 73 06 c1 91 e9 03 bf c1 7a c7 bf
       -0.4824287 -8.4031925 -0.5152827 -1.5584337
0002f0 dd 34 e7 3f 69 1e d2 3f 7c c3 88 3e 19 9b 19 bf
       1.8063008 1.641553 0.26711643 -0.60002285
000300 e3 6b 86 be df b8 2a 41 41 fb f7 be db 9e 0e c0
       -0.26254186 10.670135 -0.4843388 -2.2284458
000310 60 d9 4d 3e e2 3d c4 be 68 f7 92 3e 4f 70 0a 3f
       0.20102453 -0.38328463 0.2870438 0.5407762
000320 c9 e0 13 bf 47 c8 09 c1 3e 64 0c bf 2d b2 19 c0
       -0.5776487 -8.611396 -0.5484046 -2.4015
000330 10 15 a6 bd 62 7e e1 3e 64 80 87 3e 3c 56 69 be
       -0.08109486 0.44041735 0.26465142 -0.22786802
000340 5d 0b 8b bd ac 8f ff c0 02 79 1e bf 5b 99 08 c1
       -0.06789277 -7.986288 -0.61903393 -8.53744
000350 5a 38 53 be 38 51 fa bf 0b 8c ea bf 6e 15 d1 c0
       -0.20626965 -1.9556036 -1.8323988 -6.533866
000360 a8 50 d5 3d 02 3b 61 be 55 f1 5d bd 70 77 67 bf
       0.104157746 -0.21995166 -0.05418523 -0.9041662
000370 15 49 5c be 75 9f 14 c0 e8 be ab 3e 0a 14 0d bf
       -0.21512254 -2.3222325 0.33544087 -0.551087
000380 e0 37 8a bd c7 88 a3 be a3 a1 85 be 04 27 f0 c0
       -0.067489386 -0.3194029 -0.26099882 -7.5047626
000390 c6 1c d5 3d 52 c5 eb bf e0 30 e7 3c a4 84 14 3e
       0.10405879 -1.8419592 0.028221548 0.14503723
0003a0 bc 68 3f 3e 10 dc 23 bd f8 6e 29 bf f0 6f f4 bf
       0.18692297 -0.04000479 -0.6618495 -1.9096661
0003b0 cc 21 b2 be 06 96 09 c1 f5 69 39 3e 3d b0 95 c1
       -0.3479141 -8.599127 0.18106826 -18.711054
0003c0 55 99 aa be c0 a8 8e 3e 0d 56 f2 be b9 d1 10 c1
       -0.33320108 0.2786312 -0.47331277 -9.051202
0003d0 74 3a 9b 3e 7b 9a 92 bf 97 5f 8a 3e 19 49 f0 be
       0.30318034 -1.1453394 0.27026054 -0.4693077
0003e0 f5 d8 b9 be 6c 19 11 c1 2a 89 8b bf 31 d9 e4 c0
       -0.36298338 -9.0687065 -1.0901234 -7.1515126
0003f0 91 83 46 bd 69 1e 0c c0 d9 22 60 bf 4d f8 d7 c0
       -0.048465315 -2.189356 -0.87553173 -6.74906

linear.bias f4 [512]
000000 38 ee b5 bd 7f 50 8e 3e 11 bb 04 3f 4f 55 9c 3e
       -0.08883327 0.2779579 0.5184794 0.30533835
000010 8a 90 9e 3e 22 e5 7c 3e c9 63 83 3e 41 0f 66 3f
       0.3096965 0.24696782 0.25662068 0.89867026
000020 d6 64 91 3e 80 be 55 3f b9 c7 cc 3e 94 9c 0a 3f
       0.28397244 0.83493805 0.39996126 0.5414517
000030 51 1b 86 be 6f 1a 12 bf 4c e2 9e 3e d1 c8 bb 3e
       -0.26192716 -0.57071584 0.31032026 0.36676648
000040 21 c7 b5 be 82 21 9c be ef b4 1c 3f 12 22 9e 3e
       -0.35503486 -0.30494314 0.6121358 0.3088537
000050 69 23 08 bf f5 47 c1 3e 40 44 92 bf ea 3f 45 3f
       -0.5317903 0.3775021 -1.1427078 0.7705065
000060 e0 d8 37 3f a1 b8 c6 be 76 29 20 3f c9 dc 8f 3e
       0.718153 -0.38812736 0.62563264 0.28098133
000070 17 61 33 bf 79 63 6c 3e df c2 4c 3f d0 1d 6e 3f
       -0.7007002 0.23084821 0.7998485 0.9301424
000080 9c 9b 08 3f 9b bf 0e 3f 8b 93 8f 3e 3a 4d ec 3e
       0.5336244 0.55761117 0.28042254 0.4615267
000090 d6 01 9a 3e 29 d7 32 3f a6 6a 47 3f fb cf 98 3e
       0.30079526 0.6985956 0.7789711 0.29846177
0000a0 65 6c 30 bf 6f 2a b9 3e 5a 8f ee 3e d8 33 d6 be
       -0.68915397 0.36165187 0.46593744 -0.4183643
0000b0 ce 4a 8c 3e 81 9c bd be c8 b8 86 3e f0 8f 6c 3f
       0.2740082 -0.37033466 0.26312852 0.9240713
0000c0 41 23 9d 3e e1 58 a3 3e ad 17 d5 be dd 9a 6c 3e
       0.3069096 0.31903747 -0.41619626 0.2310595
0000d0 72 03 db be 39 61 11 bf 8a cd ab 3e 99 95 12 be
       -0.42776066 -0.56788975 0.3355525 -0.1431488
0000e0 82 58 9a 3e f9 f1 a2 3e 26 f1 58 3f a5 bc 5e 3f
       0.3014565 0.31825235 0.84742963 0.870066
0000f0 a7 e1 36 3f 41 29 6e 3e 7b 91 b4 be 83 9b 3a 3f
       0.7143807 0.23257925 -0.35267243 0.7289354
000100 11 a3 de 3e 68 56 2b bf 09 4e 46 3f e0 0e 14 bf
       0.43483785 -0.6692872 0.7746282 -0.578352
000110 77 84 23 3f 74 cc 58 3f f0 f0 fa 3e 70 99 1f bf
       0.63874 0.8468697 0.49011946 -0.623435
000120 29 46 88 3e fb e9 d5 3e ca d1 15 3f 22 26 30 bf
       0.26616028 0.41780075 0.5852324 -0.68808186
000130 6b 7d ea 3e de 3b a5 be a9 d2 92 3e 35 2e 0b 3f
       0.4579881 -0.32272238 0.28676346 0.5436738
000140 66 7a 76 3f 90 fc 36 be 12 6a 6b be 8a 8b 99 3e
       0.96280515 -0.17869782 -0.22989681 0.29989272
000150 57 03 1e bf 15 41 9e 3e 6b 9a b4 be 00 55 a6 3e
       -0.61723846 0.3090903 -0.35274062 0.32486725
000160 f9 5c 75 3e 5f 34 63 3f 0d 9b 6d 3f a6 2c 1d 3f
       0.23961248 0.88751787 0.92814714 0.61396253
000170 fa 57 a0 3e 04 99 5b 3f 80 1f 66 3f c8 ac 8e be
       0.3131712 0.8578036 0.89891815 -0.27866197
000180 ad dc d5 be 05 28 68 3f 03 f8 0d bf 46 e0 2e bf
       -0.41769925 0.90686065 -0.5545656 -0.68310964
000190 00 36 a1 3e ac 28 54 3f e3 59 18 bf 64 89 e9 be
       0.3148651 0.8287456 -0.59512156 -0.45612633
0001a0 2a 00 a3 3e 8b 12 a8 3e ab 0c 3d 3f 7b 31 c7 3e
       0.31836063 0.32826647 0.73847455 0.38904938
0001b0 35 91 af be 3d e0 de 3e cb 71 4a 3f 20 03 00 3f
       -0.34290472 0.43530455 0.79079884 0.5000477
0001c0 08 77 fa bd d5 1e 89 3e 20 10 74 3f fc 3a fb be
       -0.12229735 0.26781335 0.95337105 -0.4906844
0001d0 d1 e6 10 bf 28 f7 68 3f 02 59 95 3e 9b 67 02 3f
       -0.566022 0.9100213 0.2916947 0.5093934
0001e0 bd 02 2e bf f0 a1 a4 3e e0 51 f7 3e 05 d3 ce 3e
       -0.6797293 0.32154799 0.48304653 0.4039537
0001f0 ec 9e 9c 3e d4 33 ee 3e cb 5d 77 3f bd 5e 2d 3e
       0.30589998 0.46523917 0.9662749 0.16930671
000200 cb 37 96 be 0c 59 01 3d 2e eb 12 bf 14 b6 99 bf
       -0.29339442 0.031579062 -0.57390106 -1.2008691
000210 2a dd 16 3f 6c 25 5e 3e 73 a8 09 bf 88 ff 4e 3f
       0.5893122 0.21693963 -0.5377266 0.8085866
000220 a7 87 8f 3e 52 f9 94 3e 2d 28 3f 3f 4c ed 84 3e
       0.28033182 0.29096466 0.7467068 0.25962293
000230 6e 2f b1 be 65 55 2a bf 84 bf 03 bf 4a 85 61 3f
       -0.34606498 -0.6653655 -0.51464105 0.8809401
000240 04 9d ba be 3d 9a 4b 3e 3c 18 7d be 21 0f 56 3f
       -0.36447918 0.19883056 -0.24716276 0.83616835
000250 41 5a 49 3f 24 f6 93 3e 1d 71 85 be 19 78 1f 3f
       0.7865334 0.28898728 -0.2606286 0.6229263
000260 bb 78 35 3f a9 ae b4 be 3e 73 c3 3e 13 af 3c 3f
       0.70887345 -0.35289505 0.3817386 0.7370464
000270 cb 7c 6c 3f d9 d2 d6 3e d5 9a aa 3e 05 50 40 3f
       0.9237792 0.4195774 0.33321252 0.751221
000280 1f 97 4d 3f f6 4c e1 3e de 38 66 3f a7 c7 1f bf
       0.8030872 0.4400403 0.8993052 -0.6241402
000290 61 b5 2b bf 5f 7e a2 3e f3 f7 b2 3e 34 15 f4 3e
       -0.6707364 0.31737038 0.34954795 0.47672427
0002a0 ac e0 0b 3f ba b5 e8 3e 39 a9 d2 be 90 98 aa bd
       0.546397 0.45451146 -0.41144732 -0.0832988
0002b0 5a f1 f4 3e 18 0c ac 3e c5 10 87 3e b8 16 c8 3e
       0.47840387 0.33602977 0.26379982 0.39079833
0002c0 41 85 91 3e 60 a4 77 3f f9 4b 8a 3e 79 b0 6b 3f
       0.28421977 0.9673519 0.27011088 0.9206615
0002d0 9c 9d 17 bc 86 7c 0e bf 55 1a 72 3e b3 1b 3a 3f
       -0.009253886 -0.5565876 0.23642857 0.72698516
0002e0 72 51 d1 3e 63 ae 45 3f 1a 2c a3 3f 69 31 91 3e
       0.4088245 0.7721922 1.2747834 0.2835801
0002f0 01 7c a1 3e fe 99 87 be a8 c0 69 be b7 33 76 3f
       0.3153992 -0.26484674 -0.22827399 0.9617266
000300 9d f4 c0 be 48 bb c9 bd 99 36 6c 3f 16 10 c8 be
       -0.37686625 -0.09850174 0.9227081 -0.39074773
000310 80 3f f1 3e f3 c4 1d bf 7d d8 70 3f 12 b2 a2 be
       0.4711876 -0.61628646 0.94080335 -0.31776482
000320 b0 94 4e 3f 78 f3 27 be 27 08 33 3e 59 d0 a2 3e
       0.8069563 -0.1640147 0.17483579 0.31799582
000330 9f 6f 1f bf 84 73 18 bf c4 3c 06 bf c4 a8 95 3e
       -0.62279695 -0.5955126 -0.5243647 0.2923032
000340 b0 ff 11 bf 96 08 56 3f b6 9c f6 be a0 70 18 3f
       -0.57030773 0.8360685 -0.48166436 0.5954685
000350 24 09 a4 3e 6a 38 50 3f ef 68 e4 be d2 a6 04 3f
       0.32038224 0.8133608 -0.44611308 0.5181705
000360 f6 a9 06 3f 3e dd ba be 8e 67 92 3e e5 cb 93 3e
       0.5260309 -0.3649692 0.2859463 0.28866497
000370 fa 21 9a 3e dc a4 01 bf 10 b9 61 3f d2 61 c1 3e
       0.30104047 -0.5064218 0.8817301 0.37769943
000380 94 68 99 3e 24 9f 5f 3f 18 8f 95 3e ea 7b 8a be
       0.299626 0.87352204 0.29210734 -0.27047664
000390 4e 46 0a bf af 59 69 3f 36 20 1d 3f 58 21 9c 3e
       -0.54013526 0.9115247 0.61377275 0.3049419
0003a0 fb 65 fb 3e 70 ae 3a 3f 6f 98 8e 3e 3d 3e 48 3e
       0.49101242 0.7292242 0.27850673 0.19554992
0003b0 61 b0 0d bf a0 43 2d bf f9 8c a5 3e 8a 60 01 bf
       -0.5534726 -0.6768131 0.32334116 -0.5053793
0003c0 96 ad 24 bf c4 79 bf 3e 41 75 8c 3e 64 a6 31 3f
       -0.6432737 0.37397587 0.27433208 0.69394517
0003d0 13 55 14 bf ae 67 4e 3e dc 73 ab 3f a0 66 a8 3e
       -0.5794231 0.20156738 1.3394732 0.32890797
0003e0 98 2c a6 3e a4 30 56 3e 80 e4 02 3f 4e 02 2d bf
       0.32455897 0.20916992 0.51129913 -0.6758164
0003f0 06 5d 2e 3f 51 b4 96 3e 89 b9 84 3e ed ae 8d be
       0.6811069 0.29434446 0.25922802 -0.2767252

linear3.weight f4 [3, 512]
000000 d6 50 e4 3c 07 e2 b8 bf 6b b4 e4 be 27 fa 86 bf
       0.027870577 -1.4443978 -0.44668898 -1.054509
000010 84 b8 b4 bf 11 80 a2 bf d0 68 75 bf fb 37 7b be
       -1.411881 -1.2695333 -0.95863056 -0.24533074
000020 1b c6 b6 bf 55 6a 44 be 61 de 1a 40 db dd a4 be
       -1.4279207 -0.19181187 2.419823 -0.32200512
000030 e3 8f 11 3d 33 3c 1d 3d 3a f3 8f bf b7 b9 67 bf
       0.03553761 0.03838749 -1.1246102 -0.90517753
000040 0f c1 9a bc b0 76 c4 3b 15 fe e2 be 7d c8 7d bf
       -0.018890886 0.005995594 -0.44334474 -0.99134046
000050 80 24 36 3c a0 3d 33 bf e5 fd 10 41 6c 98 af be
       0.011117101 -0.7001591 9.061986 -0.34295976
000060 62 55 a7 be ee 7e 34 bd b3 a8 00 40 d4 01 a5 bf
       -0.3268233 -0.044066362 2.0102966 -1.2891183
000070 7b 83 c5 bc 2c 45 92 bf ae 79 cb be 99 5b 61 be
       -0.024110546 -1.142736 -0.39741272 -0.22007598
000080 de 7b 2e bf e0 3e f2 be ce 0e 8c bf a0 3e 28 bf
       -0.68157756 -0.47313595 -1.0942018 -0.6572056
000090 83 0f 66 bf ff 55 91 be 73 7a 9b be c9 b9 86 bf
       -0.8986742 -0.28385922 -0.3036686 -1.0525447
0000a0 42 96 e4 bc fb a1 52 40 54 41 13 bf 73 95 1b 3d
       -0.02790368 3.2911365 -0.5752156 0.037984323
0000b0 ed 16 88 bf 8f 0c 33 3d 20 3f bb bf 61 64 98 be
       -1.0631996 0.04371315 -1.4628639 -0.29764083
0000c0 3e c0 8b bf f8 8d 8e bf 49 f3 b8 bc b2 1f 74 40
       -1.0918043 -1.1137075 -0.022576945 3.8144345
0000d0 f0 0a 6d bb de 94 06 bd be 70 f4 3f 2d e4 0e c0
       -0.003616985 -0.032856815 1.9096906 -2.2326767
0000e0 66 71 5f bf dd a0 86 bf 69 92 71 be f6 3a 73 be
       -0.8728241 -1.0517842 -0.23591007 -0.2375296
0000f0 e8 24 dd be 99 1f 41 bf b1 eb 21 bd 14 8f 80 be
       -0.4319222 -0.7543884 -0.039531413 -0.2510916
000100 d2 82 4d bf 84 6f 03 bc 7c 00 a1 be a6 4f f3 3c
       -0.8027774 -0.008022193 -0.31445682 0.029701065
000110 c8 03 dd be c0 ff e9 be 3b 23 34 bf df b5 0e 3d
       -0.43166947 -0.45702934 -0.7036626 0.034841415
000120 d5 5a 7e bf 2b ee 2f bf e2 b5 30 bf 62 9f 09 41
       -0.9935735 -0.6872279 -0.6902753 8.601412
000130 a4 25 fe 3f 50 68 66 3b 33 85 88 bf 0f 30 1e bf
       1.9855237 0.003515739 -1.0665649 -0.6179208
000140 aa d2 41 be 28 26 9a 3b 33 6d 1c 3d 15 ea 87 bf
       -0.18928018 0.0047042556 0.038190078 -1.0618311
000150 b3 29 07 3d 05 e4 5d bf 15 ea 30 3d 8f 69 12 40
       0.03299875 -0.86676055 0.043191988 2.2876928
000160 ec 6a 89 40 e3 98 c0 be 7c 6f 67 be 9f 04 cd be
       4.294302 -0.37616643 -0.22601122 -0.40042588
000170 d8 80 73 bf 98 96 8a be 90 46 8e bf 68 a6 68 3c
       -0.95118475 -0.2706802 -1.1115284 0.014199831
000180 46 4c e1 40 44 da 7b be 15 53 0f 3d 8f b4 0a 3d
       7.0405607 -0.2459498 0.034991343 0.0338636
000190 f3 7b 6a bf b6 fe 93 be 0f 94 24 3d 52 d3 d9 3c
       -0.9159538 -0.28905267 0.040180262 0.026590023
0001a0 9b 66 b9 bf 35 2a 70 bf 81 82 9c be 40 aa 8e 3f
       -1.4484438 -0.938144 -0.30568317 1.1145706
0001b0 e5 75 2e 3d a7 68 c4 be 4d 31 b6 be 33 17 18 bf
       0.0425929 -0.38361093 -0.3558449 -0.594104
0001c0 f1 9f 1e bd 3b c3 91 bf 7f 73 ac be 48 91 3f 3c
       -0.03872675 -1.1387705 -0.33681867 0.011692353
0001d0 8a 1c f2 bc 80 15 84 be bf 49 9c bf 7c b5 b1 40
       -0.029554624 -0.25797653 -1.2210006 5.553404
0001e0 87 33 06 bd 96 5d 90 bf ad a0 2f bf 22 57 17 bf
       -0.032763984 -1.127856 -0.68604547 -0.5911733
0001f0 36 63 9e bf af 42 20 bf dc c8 9c be ae 41 38 bf
       -1.2374027 -0.6260175 -0.30621994 -0.7197522
000200 8c 62 21 3c 4b 67 ce bf 50 ac 41 3b 3d 49 01 41
       0.009850156 -1.6125273 0.002955217 8.08038
000210 30 57 0f bf 1f 7d 33 bf 3a f1 be 3c 6a 2b 9e be
       -0.5599241 -0.70112795 0.023308385 -0.30892497
000220 89 89 a9 bf b6 61 70 bf 20 29 95 be 07 8a 51 bf
       -1.3245097 -0.93899095 -0.29132938 -0.8185124
000230 a0 81 a5 ba 80 cc 62 ba f8 b6 fe 3b 4b 17 a0 be
       -0.0012627132 -0.00086516887 0.0077732764 -0.3126777
000240 98 79 a8 bb 86 1e 35 bf 4a 2e e8 3c 83 64 fc be
       -0.005141448 -0.707497 0.028342385 -0.49295434
000250 51 39 9d be e6 b0 6b bf 0a d3 c7 3c c6 eb 03 bf
       -0.3070779 -0.920668 0.024392623 -0.51531637
000260 61 c8 5d be 4d fd ad 40 a0 fd e7 3f 2f 0c ee be
       -0.2165847 5.4371705 1.8124275 -0.4649367
000270 c1 e5 3c be 12 fe 15 3f e0 7c 77 bf f3 16 8c be
       -0.18447019 0.58590806 -0.9667492 -0.2736126
000280 65 79 92 be 82 34 09 bf 77 0e ab be c1 fe 0d 3d
       -0.28608242 -0.53595746 -0.33409473 0.03466678
000290 60 f6 64 3c 42 5e 85 bf 1b 9d f8 be 06 3d 2f bf
       0.013974756 -1.041939 -0.48557362 -0.6845249
0002a0 6e b4 21 bf 73 c9 1e bf 06 6f bd 3c 82 eb 14 bd
       -0.6316594 -0.6202614 0.02312423 -0.03635741
0002b0 c4 35 39 bf 3f bc 63 bf 6e b0 88 bf 77 19 26 bf
       -0.72347665 -0.88959116 -1.0678842 -0.64882606
0002c0 36 3d 49 bf 95 ab c7 be 82 1c ae bf e4 81 c6 be
       -0.78609025 -0.38998094 -1.360245 -0.38770974
0002d0 c4 4c b2 bf 9c 04 2c bd c2 e5 a2 bf 8d 09 b4 be
       -1.3929677 -0.041996583 -1.2726367 -0.35163537
0002e0 65 32 3e bf e3 5f 96 be 46 7c f4 bf 25 55 62 bf
       -0.74295646 -0.2937003 -1.9100425 -0.8841117
0002f0 5e 96 94 bf 5c 7f 44 bc c8 a8 16 bc 24 21 73 be
       -1.1608388 -0.0119932555 -0.009195514 -0.23743111
000300 90 39 2d bb 1a b3 f9 bc 33 ff 88 be 94 db 4e bc
       -0.0026432015 -0.03048091 -0.26757202 -0.012625594
000310 16 40 ae 40 0b 10 1e 3d 46 cd 83 be 45 e3 02 3d
       5.445323 0.03858952 -0.2574255 0.031955022
000320 49 9e 68 be 2e 0f c7 3c ee 2f 39 bf 0a bf a2 bf
       -0.22716631 0.02429923 -0.7233876 -1.271455
000330 74 66 14 bd e0 3b 40 3b 14 1c 1d bc 21 d6 86 bf
       -0.03623052 0.0029332563 -0.009589214 -1.0534097
000340 1f 77 0b 3d 54 4a 84 be fb ec 2d 3d f7 9a 16 bf
       0.03404915 -0.25837958 0.04246233 -0.5883021
000350 27 c9 ad bf 5b 53 b0 be 03 c7 e2 bc 4c 80 1d bf
       -1.3577012 -0.34438595 -0.027682787 -0.6152389
000360 3e 56 28 bf 89 2e 0b 3d 0d 6e ae bf 17 35 47 bf
       -0.65756595 0.033979926 -1.3627335 -0.77815384
000370 b2 d8 8f bf 31 e3 07 3d bb 57 71 be b1 6f 3a bf
       -1.1238005 0.03317565 -0.23568623 -0.7282668
000380 38 f2 84 bf fb 27 66 be 3c 2f 8a bf d8 fe 25 3c
       -1.0386419 -0.22476189 -1.0795665 0.01013156
000390 1e 83 10 bd c0 d4 52 be 08 31 a9 be 0a 87 4a 3f
       -0.035281293 -0.2058897 -0.3304522 0.79112303
0003a0 b0 ea 02 bf d6 12 ab be 50 73 8f bf cc 3d 49 bf
       -0.51139355 -0.33412808 -1.1207066 -0.7860992
0003b0 e8 db 3e 3c bd 26 01 bd a7 80 7f bf 57 44 0d 3d
       0.011649109 -0.031531084 -0.9980568 0.034489002
0003c0 00 e1 33 bc 05 76 12 bf 36 d4 1f 3f 57 a8 e7 be
       -0.010978937 -0.57211334 0.62433183 -0.4524562
0003d0 42 33 82 3c f4 a2 1a 3e 84 f2 be 40 89 44 7d bf
       0.015893582 0.15101224 5.967104 -0.989327
0003e0 78 5f 6f bf cc a4 3d bf eb d9 db be 22 a0 12 bd
       -0.9350505 -0.74079585 -0.42939696 -0.035797246
0003f0 c0 71 1b 3f 60 74 a0 bf cb 41 71 bf 39 bf bd 40
       0.60720444 -1.2535515 -0.9424102 5.9295926

linear3.bias f4 [3]
000000 dd f8 56 be 0b 01 76 be 43 25 89 be
       -0.20993371 -0.24023835 -0.2678624
