env2 DQN/log/dqn/ckpt/416000.pth (torch, 14216 bytes, 4 tensors)

linear.weight f4 [512, 2]
0.16220331 -0.16827321 -0.057537917 -7.0322065 0.010865968 -1.5224742 -0.40073118 -8.742194
-0.14756812 -8.532065 -0.19251494 -7.436151 -0.3006252 -7.181068 -0.17389256 -0.8876691
-0.07666044 -7.1928616 -0.5344422 -0.63641375 -1.6114124 -15.914671 -0.31175873 -1.152659
-0.067224324 0.18619382 -0.033943713 -0.39594215 -0.4442502 -8.791409 -0.67502564 -9.09667
0.16641682 0.46537954 0.03483367 -0.3241305 0.047309943 -1.7012866 -0.42782265 -8.854383
-0.22203329 -0.65520495 0.16457596 -0.80379695 -0.7261115 11.151301 0.09924235 -1.6848423
-0.17830323 -1.5098224 0.37731057 0.47499663 -1.593449 4.808923 -0.2707732 -8.242117
-0.14369994 0.4113466 -0.14788714 -6.7698174 0.14150648 -2.374944 -0.039048366 -0.50370413
0.3157026 -1.3532996 -0.05197897 -2.4680493 -0.34324664 -8.070598 -1.123347 -5.600109
-0.56545615 -7.9780016 -0.30250794 -1.4775375 -0.21751891 -2.2119005 -0.4027491 -8.572981
0.60114974 -0.08679706 -1.2314043 -17.31656 0.031542365 -1.7912343 -0.06633222 0.3056895
-0.24768367 -7.413994 -0.06821197 -0.4965686 2.5684657 3.9056203 0.1600129 -0.5758375
-0.4091532 -8.814973 -0.4399861 -9.236552 -0.25839406 -0.113936484 -0.9995508 -17.72606
0.40114635 0.2241056 0.449336 0.5312001 -1.2940928 -14.2975 3.3781867 -0.33399928
-0.51522785 -8.31316 -0.4663287 -8.720247 -0.35483134 -0.9295126 -0.29553586 -1.3876395
0.26498318 -0.88630706 -0.67172575 -7.7189302 0.46630138 -0.5068975 -0.4582319 -1.2469828
-1.0110002 -7.8775754 -0.4792475 0.22033387 -0.5615015 -2.3302505 0.2740959 0.35767096
-0.0055532563 -2.3239784 0.49061045 -1.6522312 -1.1821609 -6.8336067 0.46184975 0.32564324
-0.27322707 -7.5638914 -1.0152662 -5.9620466 0.36019087 -1.8245137 -1.0135405 -15.2008295
-1.9048886 -13.739085 -0.23696771 -0.6039714 -0.37834314 -8.186936 0.29111177 -1.1463411
-0.7505733 -0.85326636 0.05804211 -0.6909449 0.0335418 0.45392126 -0.4024385 -8.628409
-0.3522925 -0.5575588 -0.5251453 -8.51948 0.45708364 -0.13139623 -1.2051144 -15.06228
-0.9260882 -18.312004 0.25557953 -0.97570336 -0.6893458 -1.5014427 0.023574177 -1.5212146
-0.47288457 -8.448019 -0.5171623 -1.4557745 1.8150612 1.3608003 0.26711643 -0.60002285
-0.29525056 10.531547 -0.48716962 -2.1261783 0.20102453 -0.38328463 0.2870438 0.5407762
-0.5704768 -8.655836 -0.5503464 -2.2994297 -0.08109486 0.44041735 0.26465142 -0.22786802
-0.05103045 -8.00972 -0.6094176 -8.614661 -0.20739268 -1.8481355 -1.8239249 -6.5621934
0.104157746 -0.21995166 -0.053014494 -0.794956 -0.2159739 -2.2212744 0.3398682 -0.44275278
-0.067489386 -0.3194029 -0.2208373 -7.562155 0.10463249 -1.7350485 0.028221548 0.14503723
0.18692297 -0.04000479 -0.6648582 -1.8077413 -0.32356468 -8.649196 0.18174247 -18.66505
-0.33320108 0.2786312 -0.46256998 -9.083702 0.30631086 -1.0372282 0.27647838 -0.3663534
-0.33495423 -9.127365 -1.1086168 -7.173591 -0.04814616 -2.084397 -0.879221 -6.749807
00000000: a018 263e d04f 2cbe e1ac 6bbd d607 e1c0
00000010: 2c07 323c 6fe0 c2bf a32c cdbe 07e0 0bc1
00000020: 191c 17be 5783 08c1 a322 45be f3f4 edc0
00000030: 8ceb 99be 4fcb e5c0 e410 32be 483e 63bf
00000040: 2600 9dbd ec2b e6c0 34d1 08bf 03ec 22bf
00000050: c342 cebf 7ea2 7ec1 d79e 9fbe 558a 93bf
00000060: e8ac 89bd 98a9 3e3e 9008 0bbd eeb8 cabe
00000070: c374 e3be 9ca9 0cc1 7bce 2cbf f68b 11c1
00000080: 2c69 2a3e 3a46 ee3e c0ad 0e3d 6ff4 a5be
00000090: 12c8 413d c2c3 d9bf 920b dbbe 8eab 0dc1
000000a0: b25c 63be 83bb 27bf 9a86 283e a3c5 4dbf
000000b0: 71e2 39bf bb6b 3241 933f cb3d eaa8 d7bf
000000c0: 1f95 36be dc41 c1bf da2e c13e c232 f33e
000000d0: 23f6 cbbf b2e2 9940 c9a2 8abe b6df 03c1
000000e0: 1426 13be 069c d23e ba6f 17be 58a2 d8c0
000000f0: 13e7 103e 15ff 17c0 2ef1 1fbd c1f2 00bf
00000100: c5a3 a13e ec38 adbf e7e7 54bd 85f4 1dc0
00000110: 06be afbe 2b21 01c1 d6c9 8fbf 1834 b3c0
00000120: bcc1 10bf ca4b ffc0 52e2 9abe f31f bdbf
00000130: 47bd 5ebe c78f 0dc0 2135 cebe ee2a 09c1
00000140: f3e4 193f a8c2 b1bd a89e 9dbf 5188 8ac1
00000150: 9132 013d 2a47 e5bf 30d9 87bd 5683 9c3e
00000160: caa0 7dbe 703f edc0 b8b2 8bbd 3d3e febe
00000170: be61 2440 aff5 7940 6cda 233e 166a 13bf
00000180: 877c d1be 210a 0dc1 dc45 e1be ebc8 13c1
00000190: 3a4c 84be 8857 e9bd 90e2 7fbf f9ce 8dc1
000001a0: 0e63 cd3e f07b 653e 5e0f e63e bbfc 073f
000001b0: d5a4 a5bf 8fc2 64c1 3634 5840 f401 abbe
000001c0: f9e5 03bf b402 05c1 a3c2 eebe 2286 0bc1
000001d0: 74ac b5be 8af4 6dbf 7a50 97be 2c9e b1bf
000001e0: e0ab 873e 05e5 62bf 38f6 2bbf 7a01 f7c0
000001f0: 0ebf ee3e 09c4 01bf 5f9d eabe 229d 9fbf
00000200: 7468 81bf 1915 fcc0 ee5f f5be 349f 613e
00000210: 90be 0fbf d322 15c0 4c56 8c3e a620 b73e
00000220: 17f8 b5bb 10bc 14c0 4b31 fb3e 507c d3bf
00000230: 0c51 97bf e8ac dac0 9277 ec3e b6ba a63e
00000240: 6be4 8bbe 660b f2c0 3ef4 81bf 16c9 bec0
00000250: f06a b83e aa89 e9bf b2bb 81bf 9936 73c1
00000260: 64d3 f3bf 4bd3 5bc1 aaa7 72be df9d 1abf
00000270: 31b6 c1be b1fd 02c1 9a0c 953e 4ebb 92bf
00000280: 9225 40bf aa6f 5abf 90bd 6d3d c4e1 30bf
00000290: 2063 093d 5e68 e83e 6b0c cebe f70d 0ac1
000002a0: af5f b4be 2cbc 0ebf ec6f 06bf ca4f 08c1
000002b0: de06 ea3e bc8c 06be 3041 9abf 19ff 70c1
000002c0: 1e14 6dbf fc7e 92c1 52db 823e b2c7 79bf
000002d0: f778 30bf 462f c0bf a21e c13c 29b7 c2bf
000002e0: ed1d f2be 162b 07c1 c064 04bf d256 babf
000002f0: ed53 e83f b42e ae3f 7cc3 883e 199b 19bf
00000300: 152b 97be 3781 2841 4c6e f9be 4e13 08c0
00000310: 60d9 4d3e e23d c4be 68f7 923e 4f70 0a3f
00000320: c40a 12bf 4e7e 0ac1 80e3 0cbf db29 13c0
00000330: 1015 a6bd 627e e13e 6480 873e 3c56 69be
00000340: 4e05 51bd d027 00c1 cb02 1cbf a7d5 09c1
00000350: bf5e 54be b48f ecbf 5f76 e9bf 7dfd d1c0
00000360: a850 d53d 023b 61be ba25 59bd 3d82 4bbf
00000370: 4328 5dbe 5c29 0ec0 3403 ae3e 7eb0 e2be
00000380: e037 8abd c788 a3be 2c23 62be 2cfd f1c0
00000390: 8f49 d63d 1216 debf e030 e73c a484 143e
000003a0: bc68 3f3e 10dc 23bd 2634 2abf 1164 e7bf
000003b0: 45aa a5be 1b63 0ac1 b31a 3a3e 0652 95c1
000003c0: 5599 aabe c0a8 8e3e f9d5 ecbe d856 11c1
000003d0: c7d4 9c3e e5c3 84bf 938e 8d3e ac92 bbbe
000003e0: 1f7f abbe b009 12c1 28e7 8dbf 0f8e e5c0
000003f0: e834 45bd c366 05c0 a114 61bf 6bfe d7c0

linear.bias f4 [512]
-0.08883327 0.2844174 0.5261251 0.30000466 0.32982713 0.26516145 0.2613964 0.9061533
0.2895379 0.8424841 0.3922567 0.5487902 -0.26192716 -0.57071584 0.30757043 0.33566567
-0.35503486 -0.30494314 0.6197246 0.30325896 -0.5317903 0.38560557 -1.1427078 0.77787983
0.72565603 -0.38812736 0.6338094 0.28416914 -0.7007002 0.2551481 0.8071726 0.9377717
0.5416964 0.56500745 0.27906385 0.4253062 0.27574566 0.70600283 0.7863929 0.29535905
-0.68915397 0.32525977 0.47365016 -0.4183643 0.27595603 -0.37033466 0.3579907 0.9318812
0.29994887 0.309205 -0.41619626 0.22795078 -0.42776066 -0.56788975 0.3215275 -0.18042155
0.2915843 0.30692333 0.8547328 0.87724626 0.7221859 0.22416109 -0.35267243 0.7360461
0.39776778 -0.6692872 0.78192055 -0.578352 0.64619297 0.854512 0.46040356 -0.623435
0.2719659 0.37776542 0.5932891 -0.6009168 0.43236595 -0.32272238 0.28786674 0.55184144
0.9702429 -0.17869782 -0.22989681 0.29354045 -0.61723846 0.297713 -0.35274062 0.30244282
0.24175133 0.89519066 0.9356884 0.62145776 0.301997 0.86497164 0.9214055 -0.27866197
-0.43395796 0.91397476 -0.5545656 -0.68310964 0.30067074 0.8359206 -0.59512156 -0.45612633
0.33333537 0.2981704 0.74603206 0.39440924 -0.34290472 0.4431582 0.79799545 0.5083993
-0.12229735 0.2765731 0.9609559 -0.4906844 -0.566022 0.91715807 0.2879001 0.50876594
-0.6797293 0.31750077 0.49126145 0.41211972 0.30166566 0.41551977 0.9736521 0.16357635
-0.29339442 0.03501509 -0.57390106 -1.2008691 0.57002074 0.22055195 -0.5377266 0.8162395
0.28352934 0.28257605 0.75385535 0.2539703 -0.34606498 -0.6653655 -0.51464105 0.88834786
-0.36447918 0.20463479 -0.24716276 0.8438331 0.7944098 0.2878658 -0.2606286 0.63059986
0.716182 -0.3074434 0.37860438 0.74452716 0.9310344 0.41858086 0.31862378 0.75895655
0.81062555 0.4477273 0.9068147 -0.6241402 -0.6707364 0.30677405 0.35794652 0.42599675
0.55430764 0.46248636 -0.41144732 -0.0832988 0.486294 0.29919246 0.27201685 0.35684237
0.2672901 0.9748976 0.29918173 0.92825323 0.037211265 -0.5565876 0.26269042 0.7342823
0.37549666 0.77934086 1.2953179 0.27352569 0.30942369 -0.26484674 -0.22827399 0.96906847
-0.37686625 -0.09850174 0.93016905 -0.39074773 0.46722427 -0.61628646 0.9485617 -0.31776482
0.81430495 -0.1640147 0.16576338 0.3113003 -0.62279695 -0.5955126 -0.5243647 0.28774193
-0.57030773 0.8436377 -0.48166436 0.60330963 0.3256123 0.82079154 -0.44611308 0.48698458
0.53380346 -0.3649692 0.311543 0.27953622 0.29343358 -0.5064218 0.8890454 0.38582224
0.30133867 0.88088125 0.28961742 -0.27047664 -0.54013526 0.9188871 0.62127894 0.29291224
0.49860922 0.73663324 0.2811139 0.20083857 -0.5534726 -0.6768131 0.31168488 -0.5053793
-0.6432737 0.38215247 0.25904444 0.7018654 -0.5794231 0.20324616 1.3266106 0.31751788
0.3141972 0.2140251 0.5192398 -0.6758164 0.6857517 0.29903606 0.25307402 -0.213869
00000000: 38ee b5bd 289f 913e 22b0 063f 369a 993e
00000010: 1adf a83e 3ec3 873e c0d5 853e aaf9 673f
00000020: 503e 943e 0aad 573f dfd5 c83e 847d 0c3f
00000030: 511b 86be 6f1a 12bf df79 9d3e 5fdc ab3e
00000040: 21c7 b5be 8221 9cbe 45a6 1e3f c244 9b3e
00000050: 6923 08bf 186e c53e 4044 92bf 2223 473f
00000060: 98c4 393f a1b8 c6be 5541 223f 9e7e 913e
00000070: 1761 33bf c6a2 823e dda2 4e3f ce11 703f
00000080: 9eac 0a3f 54a4 103f 75e1 8e3e bcc1 d93e
00000090: 892e 8d3e 9abc 343f 0c51 493f 4d39 973e
000000a0: 656c 30bf 7388 a63e 4682 f23e d833 d6be
000000b0: 1c4a 8d3e 819c bdbe 8f4a b73e c48f 6e3f
000000c0: e692 993e 1e50 9e3e ad17 d5be ee6b 693e
000000d0: 7203 dbbe 3961 11bf 419f a43e 6dc0 38be
000000e0: 8a4a 953e 0e25 9d3e c5cf 5a3f 3693 603f
000000f0: 2de1 383f 7c8a 653e 7b91 b4be 846d 3c3f
00000100: 38a8 cb3e 6856 2bbf f22b 483f e00e 14bf
00000110: e76c 253f 4cc1 5a3f 04ba eb3e 7099 1fbf
00000120: 1d3f 8b3e 786a c13e cbe1 173f afd5 19bf
00000130: 125f dd3e de3b a5be 4563 933e 7b45 0d3f
00000140: d761 783f 90fc 36be 126a 6bbe ef4a 963e
00000150: 5703 1ebf d76d 983e 6b9a b4be c9d9 9a3e
00000160: a98d 773e 372b 653f 4689 6f3f db17 1f3f
00000170: 5a9f 9a3e c86e 5d3f 3be1 6b3f c8ac 8ebe
00000180: bd2f debe 40fa 693f 03f8 0dbf 46e0 2ebf
00000190: 84f1 993e e4fe 553f e359 18bf 6489 e9be
000001a0: efaa aa3e caa9 983e f5fb 3e3f 02f0 c93e
000001b0: 3591 afbe a2e5 e23e 6e49 4c3f 7526 023f
000001c0: 0877 fabd fd9a 8d3e 3501 763f fc3a fbbe
000001d0: d1e6 10bf dfca 6a3f a467 933e 7c3e 023f
000001e0: bd02 2ebf 768f a23e 9f86 fb3e 5b01 d33e
000001f0: ec73 9a3e 02bf d43e 4441 793f 8f80 273e
00000200: cb37 96be fc6b 0f3d 2eeb 12bf 14b6 99bf
00000210: e1ec 113f 5fd8 613e 73a8 09bf 12f5 503f
00000220: c22a 913e cfad 903e aafc 403f 6508 823e
00000230: 6e2f b1be 6555 2abf 84bf 03bf c46a 633f
00000240: 049d babe c88b 513e 3c18 7dbe 7205 583f
00000250: 715e 4b3f 2563 933e 1d71 85be fe6e 213f
00000260: b457 373f 3969 9dbe 6fd8 c13e 5599 3e3f
00000270: 4558 6e3f 3b50 d63e a822 a33e fa4a 423f
00000280: 2885 4f3f 833c e53e 0225 683f a7c7 1fbf
00000290: 61b5 2bbf 7d11 9d3e c444 b73e 3f1c da3e
000002a0: 1be7 0d3f 03cb ec3e 39a9 d2be 9098 aabd
000002b0: 87fb f83e c12f 993e cb45 8b3e 0bb4 b63e
000002c0: 3fda 883e e492 793f 592e 993e 01a2 6d3f
000002d0: d76a 183d 867c 0ebf 5c7f 863e edf9 3b3f
000002e0: 1941 c03e e282 473f facc a53f 8f0b 8c3e
000002f0: c86c 9e3e fe99 87be a8c0 69be df14 783f
00000300: 9df4 c0be 48bb c9bd 8f1f 6e3f 1610 c8be
00000310: 0538 ef3e f3c4 1dbf f1d4 723f 12b2 a2be
00000320: 4a76 503f 78f3 27be e0bd 293e c162 9f3e
00000330: 9f6f 1fbf 8473 18bf c43c 06bf e952 933e
00000340: b0ff 11bf a4f8 573f b69c f6be 8072 1a3f
00000350: a8b6 a63e 651f 523f ef68 e4be 0b56 f93e
00000360: 58a7 083f 3edd babe 9082 9f3e 5f1f 8f3e
00000370: ed3c 963e dca4 01bf 7b98 633f 7e8a c53e
00000380: 1049 9a3e 6f81 613f bc48 943e ea7b 8abe
00000390: 4e46 0abf 2f3c 6b3f 230c 1f3f 98f8 953e
000003a0: b549 ff3e ff93 3c3f 29ee 8f3e a0a8 4d3e
000003b0: 61b0 0dbf a043 2dbf 2995 9f3e 8a60 01bf
000003c0: 96ad 24bf 7da9 c33e 79a1 843e 73ad 333f
000003d0: 1355 14bf c31f 503e 60ce a93f b491 a23e
000003e0: 75de a03e 6529 5b3e e6ec 043f 4e02 2dbf
000003f0: 6c8d 2f3f 411b 993e eb92 813e 7a00 5bbe

linear3.weight f4 [3, 512]
0.027870577 -1.4486188 -0.447021 -1.0610559 -1.4208176 -1.2768983 -0.9664991 -0.24787405
-1.4336083 -0.1920004 2.4252903 -0.320416 0.03553761 0.03838749 -1.1303908 -0.9068191
-0.018890886 0.005995594 -0.44441274 -0.9973946 0.011117101 -0.705664 9.061986 -0.34574306
-0.32704395 -0.044066362 2.008519 -1.2967963 -0.024110546 -1.1521804 -0.398995 -0.2246772
-0.6881511 -0.4701223 -1.1013913 -0.65910614 -0.90076727 -0.2830446 -0.30251312 -1.0588268
-0.02790368 3.2954543 -0.5740224 0.037984323 -1.0730608 0.04371315 -1.455673 -0.3041409
-1.0981703 -1.1196775 -0.022576945 3.8277817 -0.003616985 -0.032856815 1.9147022 -2.3334117
-0.87649155 -1.057229 -0.2368027 -0.23811214 -0.4391573 -0.7522592 -0.039531413 -0.24995494
-0.80322444 -0.008022193 -0.3111769 0.029701065 -0.43057188 -0.46523702 -0.705115 0.034841415
-1.0023016 -0.6886274 -0.69570345 8.512264 1.9911449 0.003515739 -1.0730996 -0.6249392
-0.18865727 0.0047042556 0.038190078 -1.0681373 0.03299875 -0.8705006 0.043191988 2.2924418
4.3087378 -0.38287228 -0.22455533 -0.40182644 -0.9563185 -0.26971444 -1.1311405 0.014199831
6.9163747 -0.24436472 0.034991343 0.0338636 -0.9187377 -0.28631276 0.040180262 0.026590023
-1.4517852 -0.9402808 -0.30506033 1.1132563 0.0425929 -0.38489985 -0.354777 -0.60614675
-0.03872675 -1.1482126 -0.34023765 0.011692353 -0.029554624 -0.2560776 -1.2283841 5.576608
-0.032763984 -1.1335711 -0.69410396 -0.60296476 -1.244318 -0.62708956 -0.307711 -0.7124035
0.009850156 -1.6393161 0.002955217 8.08038 -0.5606577 -0.6958024 0.023308385 -0.31192186
-1.3319978 -0.94430155 -0.29043144 -0.82355356 -0.0012627132 -0.00086516887 0.0077732764 -0.3144021
-0.005141448 -0.7025855 0.028342385 -0.4986265 -0.31240517 -0.9267637 0.024392623 -0.51840276
-0.21616995 5.2954626 1.817631 -0.46712184 -0.18268955 0.5803674 -0.9696549 -0.27725273
-0.2843116 -0.53564775 -0.3352361 0.03466678 0.013974756 -1.0472144 -0.4978952 -0.68560344
-0.63372576 -0.62084705 0.02312423 -0.03635741 -0.7247285 -0.891472 -1.0777433 -0.6493381
-0.7863231 -0.3979061 -1.3691555 -0.3927193 -1.4365901 -0.041996583 -1.2819711 -0.3512341
-0.7433953 -0.29020348 -1.9179581 -0.8870922 -1.1669366 -0.0119932555 -0.009195514 -0.23614405
-0.0026432015 -0.03048091 -0.26754856 -0.012625594 5.4416933 0.03858952 -0.26283595 0.031955022
-0.22606695 0.02429923 -0.71576065 -1.2778374 -0.03623052 0.0029332563 -0.009589214 -1.0607461
0.03404915 -0.2557066 0.04246233 -0.5926581 -1.3630391 -0.34777245 -0.027682787 -0.6170136
-0.66011685 0.033979926 -1.3714421 -0.776589 -1.1300099 0.03317565 -0.23337099 -0.73378634
-1.0456098 -0.22650103 -1.0864687 0.01013156 -0.035281293 -0.20542257 -0.33031672 0.7880101
-0.50930554 -0.3330645 -1.1279508 -0.7817505 0.011649109 -0.031531084 -1.0030221 0.034489002
-0.010978937 -0.58422625 0.618915 -0.4604892 0.015893582 0.15035424 5.944538 -0.99377215
-0.939544 -0.7353424 -0.43520835 -0.035797246 0.6096558 -1.2617718 -0.9486355 5.8017797
00000000: d650 e43c 576c b9bf f0df e4be aed0 87bf
00000010: 5add b5bf 6771 a3bf 7c6c 77bf b2d2 7dbe
00000020: 7a80 b7bf c19b 44be f537 1b40 910d a4be
00000030: e38f 113d 333c 1d3d a5b0 90bf 4c25 68bf
00000040: 0fc1 9abc b076 c43b 118a e3be 4155 7fbf
00000050: 8024 363c 65a6 34bf e5fd 1041 3c05 b1be
00000060: 4e72 a7be ee7e 34bd 938b 0040 6cfd a5bf
00000070: 7b83 c5bc a67a 93bf 1349 ccbe c811 66be
00000080: ac2a 30bf dfb3 f0be 64fa 8cbf 2ebb 28bf
00000090: af98 66bf 39eb 90be 00e3 9abe a387 87bf
000000a0: 4296 e4bc b9e8 5240 22f3 12bf 7395 1b3d
000000b0: 0e5a 89bf 8f0c 333d 7e53 babf 5bb8 9bbe
000000c0: d890 8cbf 9851 8fbf 49f3 b8bc 60fa 7440
000000d0: f00a 6dbb de94 06bd f614 f53f 9e56 15c0
000000e0: c061 60bf 4853 87bf 687c 72be abd3 73be
000000f0: 3ad9 e0be 0f94 40bf b1eb 21bd 30f4 7fbe
00000100: 1ea0 4dbf 846f 03bc 9452 9fbe a64f f33c
00000110: eb73 dcbe 8c33 eebe 6b82 34bf dfb5 0e3d
00000120: 6b4b 80bf e349 30bf 9f19 32bf 3c32 0841
00000130: d6dd fe3f 5068 663b 545b 89bf 04fc 1fbf
00000140: 5f2f 41be 2826 9a3b 336d 1c3d b9b8 88bf
00000150: b329 073d 21d9 5ebf 15ea 303d 5eb7 1240
00000160: 2ee1 8940 d607 c4be d5f1 65be 32bc cdbe
00000170: 4ad1 74bf 0318 8abe 36c9 90bf 68a6 683c
00000180: f152 dd40 bf3a 7abe 1553 0f3d 8fb4 0a3d
00000190: 6532 6bbf 9697 92be 0f94 243d 52d3 d93c
000001a0: 19d4 b9bf 3eb6 70bf de30 9cbe 2f7f 8e3f
000001b0: e575 2e3d 9811 c5be 55a5 b5be 6f2c 1bbf
000001c0: f19f 1ebd a1f8 92bf a133 aebe 4891 3f3c
000001d0: 8a1c f2bc 9a1c 83be b13b 9dbf 9373 b240
000001e0: 8733 06bd dc18 91bf ccb0 31bf e65b 1abf
000001f0: d045 9fbf f188 20bf 4c8c 9dbe 1360 36bf
00000200: 8c62 213c 1cd5 d1bf 50ac 413b 3d49 0141
00000210: 4387 0fbf 1b20 32bf 3af1 be3c 39b4 9fbe
00000220: e77e aabf bfbd 71bf 6eb3 94be 68d4 52bf
00000230: a081 a5ba 80cc 62ba f8b6 fe3b 50f9 a0be
00000240: 9879 a8bb a5dc 33bf 4a2e e83c f94b ffbe
00000250: 92f3 9fbe 6340 6dbf 0ad3 c73c 0bb6 04bf
00000260: a85b 5dbe 6e74 a940 22a8 e83f 982a efbe
00000270: f812 3bbe f592 143f 4e3b 78bf 12f4 8dbe
00000280: 4a91 91be 3620 09bf 11a4 abbe c1fe 0d3d
00000290: 60f6 643c 1f0b 86bf 1fec febe b583 2fbf
000002a0: da3b 22bf d5ef 1ebf 066f bd3c 82eb 14bd
000002b0: cf87 39bf 8237 64bf 7ef3 89bf 063b 26bf
000002c0: 784c 49bf 59ba cbbe 7d40 afbf 8112 c9be
000002d0: 2fe2 b7bf 9c04 2cbd a117 a4bf f5d4 b3be
000002e0: 284f 3ebf 8d95 94be a77f f5bf 7918 63bf
000002f0: 2e5e 95bf 5c7f 44bc c8a8 16bc bfcf 71be
00000300: 9039 2dbb 1ab3 f9bc 20fc 88be 94db 4ebc
00000310: 5a22 ae40 0b10 1e3d 6f92 86be 45e3 023d
00000320: 187e 67be 2e0f c73c 173c 37bf 2d90 a3bf
00000330: 7466 14bd e03b 403b 141c 1dbc 87c6 87bf
00000340: 1f77 0b3d faeb 82be fbec 2d3d 71b8 17bf
00000350: 1178 aebf 3b0f b2be 03c7 e2bc 9af4 1dbf
00000360: 6bfd 28bf 892e 0b3d 6a8b afbf 89ce 46bf
00000370: 2aa4 90bf 31e3 073d cef8 6ebe 6cd9 3bbf
00000380: 8bd6 85bf e3ef 67be 6811 8bbf d8fe 253c
00000390: 1e83 10bd 4b5a 52be 461f a9be 08bb 493f
000003a0: d961 02bf 6e87 aabe b160 90bf cd20 48bf
000003b0: e8db 3e3c bd26 01bd 0763 80bf 5744 0d3d
000003c0: 00e1 33bc da8f 15bf 3771 1e3f 3ec5 ebbe
000003d0: 4233 823c 76f6 193e a839 be40 da67 7ebf
000003e0: f585 70bf 663f 3cbf a1d3 debe 22a0 12bd
000003f0: 6712 1c3f bd81 a1bf c7d9 72bf 2ea8 b940

linear3.bias f4 [3]
-0.21622622 -0.24831748 -0.27193782
00000000: 686a 5dbe f046 7ebe 6f3b 8bbe
