env2 DQN/log/dqn/ckpt/417000.pth (torch, 14216 bytes, 4 tensors)

linear.weight f4 [512, 2]
00000000: a018 263e d04f 2cbe 9b67 6dbd 36dd e0c0
00000010: bb3f 183c da73 c1bf 7919 cdbe c8ec 0bc1
00000020: 26c3 1abe e469 08c1 d740 44be 20ed edc0
00000030: 7a88 99be eeec e5c0 7da0 33be 5c68 60bf
00000040: c311 a8bd b91c e6c0 622a 09bf c93b 20bf
00000050: 36f8 cdbf a3b5 7ec1 2b6c a0be cb1d 92bf
00000060: e8ac 89bd 98a9 3e3e 9008 0bbd eeb8 cabe
00000070: 334e e3be abbd 0cc1 60f1 2cbf 66a5 11c1
00000080: 2c69 2a3e 3a46 ee3e c0ad 0e3d 6ff4 a5be
00000090: 1b0b 3b3d a351 d8bf ff12 dbbe adb5 0dc1
000000a0: b25c 63be 83bb 27bf e8e1 263e 7feb 4abf
000000b0: 71e2 39bf bb6b 3241 48f9 c73d 3b3a d6bf
000000c0: 3c25 38be 90d9 bfbf da2e c13e c232 f33e
000000d0: b4ef cbbf 1678 9940 6ff8 8abe 57ce 03c1
000000e0: 1426 13be 069c d23e 1423 1abe afa1 d8c0
000000f0: 803c 0f3e 2347 17c0 b5e4 25bd 1659 fcbe
00000100: 49cd a03e 39cd abbf 5c71 5bbd 723e 1dc0
00000110: a0dd afbe 5f26 01c1 dc31 90bf 4ae3 b2c0
00000120: 8d20 11bf 8449 ffc0 26a6 9bbe 86bb bbbf
00000130: 5e4a 60be 79dc 0cc0 c915 cebe b438 09c1
00000140: f3e4 193f a8c2 b1bd 3e44 9dbf ad9a 8ac1
00000150: 46e4 f43c 09d5 e3bf 30d9 87bd 5683 9c3e
00000160: 2820 7dbe 9740 edc0 b8b2 8bbd 3d3e febe
00000170: 9cbc 2340 bfbd 7c40 7a45 223e 0097 10bf
00000180: 2a6b d1be c915 0dc1 2041 e1be ead4 13c1
00000190: 3a4c 84be 8857 e9bd 056a 7fbf d2d5 8dc1
000001a0: 0e63 cd3e f07b 653e 5e0f e63e bbfc 073f
000001b0: b35b a5bf a4d9 64c1 9cab 5840 c22a adbe
000001c0: 5d1b 04bf aa0a 05c1 e61b efbe 148b 0bc1
000001d0: ab6e b6be 3e2c 6bbf 130f 98be ab41 b0bf
000001e0: acd5 863e ca0a 60bf c47f 2cbf a1e0 f6c0
000001f0: 0ebf ee3e 09c4 01bf 0663 ebbe ee38 9ebf
00000200: 04bb 81bf f7ca fbc0 ee5f f5be 349f 613e
00000210: cd1e 10bf c474 14c0 4c56 8c3e a620 b73e
00000220: 9514 eabb a505 14c0 2256 fa3e ff0a d2bf
00000230: 94a9 97bf 1b4b dac0 9277 ec3e b6ba a63e
00000240: 1a16 8cbe ebff f1c0 a34d 82bf 726c bec0
00000250: 8994 b73e cb1c e8bf e795 80bf c37b 73c1
00000260: ca87 f3bf 2ef0 5bc1 aaa7 72be df9d 1abf
00000270: b188 c1be c40a 03c1 b53d 943e a250 91bf
00000280: dd7e 40bf 47c1 57bf 90bd 6d3d c4e1 30bf
00000290: 2063 093d 5e68 e83e bbf7 cdbe ee1a 0ac1
000002a0: af5f b4be 2cbc 0ebf c0a3 06bf 5559 08c1
000002b0: de06 ea3e bc8c 06be 3c13 9abf fb0a 71c1
000002c0: e6b7 6cbf 5f80 92c1 eb06 823e 99e8 76bf
000002d0: 8bd3 30bf d5d6 bebf 3c0b b43c 9248 c1bf
000002e0: a43c f2be f639 07c1 05c7 04bf dff4 b8bf
000002f0: dfab e93f 4bc6 a83f 7cc3 883e 199b 19bf
00000300: 5c41 95be 5640 2841 8d2b fabe c566 07c0
00000310: 60d9 4d3e e23d c4be 68f7 923e 4f70 0a3f
00000320: 1078 12bf 4d74 0ac1 ff45 0dbf fe78 12c0
00000330: 1015 a6bd 627e e13e 6480 873e 3c56 69be
00000340: 7b0f 4abd 3810 00c1 cb61 1cbf d3d5 09c1
00000350: fae6 55be 3a2a ebbf c01d e9bf 1754 d2c0
00000360: a850 d53d 023b 61be 2e88 5fbd c0a9 48bf
00000370: 90c7 5ebe ef73 0dc0 1936 ad3e 1b48 ddbe
00000380: e037 8abd c788 a3be 68b5 61be aaf6 f1c0
00000390: 070e d33d 01a8 dcbf e030 e73c a484 143e
000003a0: bc68 3f3e 10dc 23bd 6292 2abf a40c e6bf
000003b0: a870 a5be c566 0ac1 3a79 413e ec30 95c1
000003c0: 5599 aabe c0a8 8e3e 16c3 ecbe 0868 11c1
000003d0: ae01 9c3e 8f5c 83bf d5be 8c3e 0152 b6be
000003e0: c5b2 abbe 7eff 11c1 1741 8ebf 0957 e5c0
000003f0: 56b1 4bbd 72af 04c0 b15e 61bf 3915 d8c0
0.16220331 -0.16827321 -0.057960134 -7.0270033 0.009292538 -1.511348 -0.40058497 -8.745308
-0.15113506 -8.525852 -0.1916536 -7.435196 -0.29986936 -7.185172 -0.1754169 -0.8765924
-0.08206513 -7.191006 -0.53580296 -0.62591225 -1.6091373 -15.919345 -0.31332526 -1.1415342
-0.067224324 0.18619382 -0.033943713 -0.39594215 -0.443956 -8.796306 -0.6755581 -9.1028805
0.16641682 0.46537954 0.03483367 -0.3241305 0.045664888 -1.6899914 -0.4278793 -8.856854
-0.22203329 -0.65520495 0.16297114 -0.7926559 -0.7261115 11.151301 0.097643435 -1.673652
-0.17982954 -1.498827 0.37731057 0.47499663 -1.5932527 4.795909 -0.27142665 -8.237876
-0.14369994 0.4113466 -0.15052444 -6.769737 0.13987923 -2.3637168 -0.040501315 -0.49286717
0.3140662 -1.3422004 -0.053574905 -2.4569364 -0.34348774 -8.071868 -1.1265216 -5.5902452
-0.56690294 -7.977724 -0.304002 -1.4666603 -0.21903369 -2.2009566 -0.40250996 -8.576344
0.60114974 -0.08679706 -1.2286451 -17.325525 0.029894006 -1.7799388 -0.06633222 0.3056895
-0.24719298 -7.4141345 -0.06821197 -0.4965686 2.5583868 3.9490812 0.15846816 -0.5648041
-0.40902072 -8.817819 -0.43995 -9.239481 -0.25839406 -0.113936484 -0.9977115 -17.729404
0.40114635 0.2241056 0.449336 0.5312001 -1.2918609 -14.303135 3.3854742 -0.33821684
-0.51604253 -8.315104 -0.46700972 -8.721455 -0.35631308 -0.91864383 -0.29699 -1.377004
0.26334894 -0.8751646 -0.67382455 -7.7149205 0.46630138 -0.5068975 -0.45973986 -1.2361124
-1.0135198 -7.868526 -0.4792475 0.22033387 -0.56297 -2.3196268 0.2740959 0.35767096
-0.007143567 -2.3128445 0.4889384 -1.6409606 -1.1848626 -6.821668 0.46184975 0.32564324
-0.27360612 -7.56249 -1.0179943 -5.950738 0.3585551 -1.8133787 -1.0045747 -15.217715
-1.9025815 -13.746138 -0.23696771 -0.6039714 -0.377996 -8.190128 0.2895333 -1.1352732
-0.7519358 -0.8427929 0.05804211 -0.6909449 0.0335418 0.45392126 -0.40228066 -8.631575
-0.3522925 -0.5575588 -0.5259361 -8.52181 0.45708364 -0.13139623 -1.203712 -15.065181
-0.92468107 -18.312681 0.25395903 -0.96448666 -0.6907279 -1.4909312 0.021978013 -1.5100272
-0.4731189 -8.451651 -0.5186618 -1.4449729 1.8255576 1.3185514 0.26711643 -0.60002285
-0.29151428 10.515707 -0.48861352 -2.1156476 0.20102453 -0.38328463 0.2870438 0.5407762
-0.5721445 -8.653394 -0.5518493 -2.2886348 -0.08109486 0.44041735 0.26465142 -0.22786802
-0.04933117 -8.00396 -0.6108672 -8.614703 -0.20888892 -1.8372262 -1.8212204 -6.572765
0.104157746 -0.21995166 -0.05457323 -0.7838402 -0.21755815 -2.210201 0.33830336 -0.43219075
-0.067489386 -0.3194029 -0.22041857 -7.5613604 0.1030541 -1.7238771 0.028221548 0.14503723
0.18692297 -0.04000479 -0.6662961 -1.7972608 -0.32312512 -8.65009 0.188939 -18.648888
-0.33320108 0.2786312 -0.4624259 -9.087898 0.30470031 -1.0262622 0.27489343 -0.3560944
-0.33534828 -9.124876 -1.1113614 -7.1668744 -0.049729668 -2.0732083 -0.8803511 -6.7525907

linear.bias f4 [512]
00000000: 38ee b5bd d782 923e eaac 063f e2f7 983e
00000010: 26b1 a93e e16c 883e 875f 853e 2ff3 673f
00000020: 63f9 933e c4a8 573f 4699 c83e f879 0c3f
00000030: 511b 86be 6f1a 12bf d461 9c3e a4d8 a93e
00000040: 21c7 b5be 8221 9cbe 92a0 1e3f 45b7 9a3e
00000050: 6923 08bf ab63 c53e 4044 92bf da1e 473f
00000060: 53c1 393f a1b8 c6be 1bc8 213f b784 923e
00000070: 1761 33bf 5070 823e 1d9f 4e3f 7f0b 703f
00000080: d6a5 0a3f 4ea2 103f 529a 8e3e adea d93e
00000090: 099b 8c3e b8b9 343f fc4d 493f 9d95 963e
000000a0: 656c 30bf 6ce7 a43e b478 f23e d833 d6be
000000b0: e6ed 8d3e 819c bdbe a1db c13e e187 6e3f
000000c0: d606 993e d3a1 9d3e ad17 d5be 6740 6d3e
000000d0: 7203 dbbe 3961 11bf 6105 a43e e559 44be
000000e0: 0e74 943e 92a1 9c3e f9cb 5a3f ff90 603f
000000f0: 6ad9 383f 1bba 653e 7b91 b4be c96a 3c3f
00000100: bd1b cc3e 6856 2bbf 5e2b 483f e00e 14bf
00000110: 2d6a 253f b1ba 5a3f 3096 ec3e 7099 1fbf
00000120: aab8 8b3e 473a c23e 89db 173f 8048 16bf
00000130: 9990 dc3e de3b a5be fbea 923e 1640 0d3f
00000140: 1f5e 783f 90fc 36be 126a 6bbe b9a4 953e
00000150: 5703 1ebf 7275 973e 6b9a b4be d27d 9a3e
00000160: 1770 7d3e 5624 653f 6a86 6f3f 1714 1f3f
00000170: bdb3 993e bb6c 5d3f 5320 6b3f c8ac 8ebe
00000180: b028 debe 16f9 693f 03f8 0dbf 46e0 2ebf
00000190: 62df 993e 3cfd 553f e359 18bf 6489 e9be
000001a0: 24d7 ab3e b2f5 973e b3f8 3e3f 2d2f c93e
000001b0: 3591 afbe 01da e23e 0147 4c3f da1c 023f
000001c0: 0877 fabd 6339 8e3e c4fb 753f fc3a fbbe
000001d0: d1e6 10bf 2cca 6a3f 7b58 933e fef9 023f
000001e0: bd02 2ebf c799 a13e 1478 fb3e 50ea d23e
000001f0: f300 9b3e 4770 d43e 263c 793f 68da 243e
00000200: cb37 96be 68c5 e53c 2eeb 12bf 14b6 99bf
00000210: 849f 113f 8249 5f3e 73a8 09bf 2bf0 503f
00000220: ca38 923e 0024 903e b8fa 403f 897e 813e
00000230: 6e2f b1be 6555 2abf 84bf 03bf 1267 633f
00000240: 049d babe a619 4f3e 3c18 7dbe 3000 583f
00000250: fc57 4b3f 3310 923e 1d71 85be 8269 213f
00000260: c455 373f c795 9abe 9140 c33e b494 3e3f
00000270: 5d58 6e3f d18d d53e b1f2 a23e c844 423f
00000280: ea81 4f3f ff33 e53e d71f 683f a7c7 1fbf
00000290: 61b5 2bbf bf9b 9c3e ad2c b73e bfbf d93e
000002a0: bbe1 0d3f 08c2 ec3e 39a9 d2be 9098 aabd
000002b0: ddf0 f83e 2a29 983e 29cb 8b3e db20 b73e
000002c0: 2d9d 863e f38c 793f d121 993e c69d 6d3f
000002d0: fcf7 c33c 867c 0ebf 7d8a 863e 5ef7 3b3f
000002e0: 07c1 c03e 2383 473f 90db a53f 272e 8c3e
000002f0: a2f2 9d3e fe99 87be a8c0 69be 2112 783f
00000300: 9df4 c0be 48bb c9bd 2d1b 6e3f 1610 c8be
00000310: c463 ee3e f3c4 1dbf 8bcd 723f 12b2 a2be
00000320: 6f73 503f 78f3 27be 3cde 263e 2214 9f3e
00000330: 9f6f 1fbf 8473 18bf c43c 06bf e5cf 933e
00000340: b0ff 11bf a8f5 573f b69c f6be 836d 1a3f
00000350: e640 a73e c51a 523f ef68 e4be b32d f93e
00000360: 55a2 083f 3edd babe b040 a03e 39d1 8d3e
00000370: fa8e 953e dca4 01bf 6f97 633f d77e c53e
00000380: c9a6 993e 247b 613f b9fa 933e ea7b 8abe
00000390: 4e46 0abf 7239 6b3f 7d08 1f3f a39e 943e
000003a0: 7440 ff3e bc90 3c3f 9b64 8f3e cc97 4e3e
000003b0: 61b0 0dbf a043 2dbf 817b 9e3e 8a60 01bf
000003c0: 96ad 24bf c992 c33e 1955 833e c2a5 333f
000003d0: 1355 14bf f4ed 4f3e cf58 a93f 35d4 a13e
000003e0: eee2 9f3e a22e 583e b0e4 043f 4e02 2dbf
000003f0: f488 2f3f 1a69 993e 841e 813e 4767 57be
-0.08883327 0.28615448 0.52607596 0.2987662 0.33142966 0.26645568 0.26049444 0.90605444
0.28901204 0.8424189 0.39179438 0.5487361 -0.26192716 -0.57071584 0.30543387 0.33173096
-0.35503486 -0.30494314 0.6196376 0.3021795 -0.5317903 0.38552603 -1.1427078 0.7778145
0.72560614 -0.38812736 0.6319596 0.28616878 -0.7007002 0.25476313 0.8071154 0.9376754
0.54159296 0.5649766 0.27852112 0.42561856 0.27462032 0.70595884 0.7863462 0.2941102
-0.68915397 0.3220781 0.47357714 -0.4183643 0.27720565 -0.37033466 0.37862876 0.93176085
0.29888028 0.30787525 -0.41619626 0.23169099 -0.42776066 -0.56788975 0.32035354 -0.19174917
0.28994793 0.30592018 0.8546749 0.87721246 0.7220675 0.22434275 -0.35267243 0.7360044
0.39864913 -0.6692872 0.78191173 -0.578352 0.64615136 0.8544112 0.46208334 -0.623435
0.27289325 0.37935087 0.5931936 -0.58704376 0.4307907 -0.32272238 0.286949 0.5517591
0.9701862 -0.17869782 -0.22989681 0.29227236 -0.61723846 0.2958179 -0.35274062 0.30174118
0.2474979 0.8950857 0.93564475 0.6214003 0.30019942 0.86494035 0.918462 -0.27866197
-0.43390417 0.913957 -0.5545656 -0.68310964 0.3005324 0.8358953 -0.59512156 -0.45612633
0.33562577 0.29679638 0.74598235 0.39293805 -0.34290472 0.4430695 0.79795843 0.50825274
-0.12229735 0.27778158 0.9608729 -0.4906844 -0.566022 0.9171474 0.28778443 0.5116271
-0.6797293 0.31562635 0.4911505 0.4119439 0.30274162 0.4149191 0.97357404 0.1609894
-0.29339442 0.028048232 -0.57390106 -1.2008691 0.56884027 0.21805385 -0.5377266 0.8161647
0.28558952 0.28152466 0.75382566 0.2529185 -0.34606498 -0.6653655 -0.51464105 0.8882915
-0.36447918 0.20224628 -0.24716276 0.84375286 0.7943113 0.28527984 -0.2606286 0.6305162
0.7161524 -0.30192396 0.38135198 0.7444565 0.9310358 0.4170976 0.31825784 0.758862
0.8105761 0.44766232 0.90673584 -0.6241402 -0.6707364 0.30587575 0.35776272 0.42529103
0.5542256 0.46241784 -0.41144732 -0.0832988 0.48621264 0.29718906 0.27303436 0.35767254
0.2629179 0.97480696 0.29908612 0.9281887 0.02392196 -0.5565876 0.26277533 0.7342433
0.37647268 0.77934474 1.295763 0.2737896 0.30849177 -0.26484674 -0.22827399 0.9690266
-0.37686625 -0.09850174 0.93010217 -0.39074773 0.4656049 -0.61628646 0.94844884 -0.31776482
0.8142614 -0.1640147 0.16295713 0.31070048 -0.62279695 -0.5955126 -0.5243647 0.28869548
-0.57030773 0.84359217 -0.48166436 0.6032335 0.326667 0.820721 -0.44611308 0.48667678
0.533727 -0.3649692 0.31299353 0.27698687 0.29210645 -0.5064218 0.88902944 0.38573334
0.3001006 0.8807852 0.28902224 -0.27047664 -0.54013526 0.9188453 0.6212233 0.2902728
0.4985386 0.7365835 0.28006443 0.20175093 -0.5534726 -0.6768131 0.309536 -0.5053793
-0.6432737 0.38197926 0.25650862 0.701748 -0.5794231 0.20305616 1.3230227 0.31607214
0.3122782 0.21111539 0.5191145 -0.6758164 0.6856835 0.29963 0.25218594 -0.21035491

linear3.weight f4 [3, 512]
00000000: d650 e43c 5756 b9bf 5b61 e4be 01e0 87bf
00000010: dbe4 b5bf 2e80 a3bf 878d 77bf 8ba4 7dbe
00000020: 2076 b7bf 40ea 44be 6e37 1b40 7a09 a4be
00000030: e38f 113d 333c 1d3d 21bd 90bf e42c 68bf
00000040: 0fc1 9abc b076 c43b a903 e3be 6171 7fbf
00000050: 8024 363c ea3d 34bf e5fd 1041 e787 b0be
00000060: d341 a7be ee7e 34bd fa69 0040 340f a6bf
00000070: 7b83 c5bc f189 93bf 9ba3 cbbe 3dcf 65be
00000080: dc9d 2fbf 681f f0be fc0a 8dbf 0726 29bf
00000090: 99a4 66bf d4d5 90be 0ea2 9abe 3e96 87bf
000000a0: 4296 e4bc 30e5 5240 f19e 12bf 7395 1b3d
000000b0: 426d 89bf 8f0c 333d fac0 b9bf fb69 9bbe
000000c0: 03a0 8cbf 6760 8fbf 49f3 b8bc 0600 7540
000000d0: f00a 6dbb de94 06bd 1f14 f53f 62f8 15c0
000000e0: d970 60bf fd5d 87bf fb86 72be 04ad 73be
000000f0: cd40 e0be 9a99 40bf b1eb 21bd 8707 80be
00000100: adcb 4dbf 846f 03bc b44a 9fbe a64f f33c
00000110: 49e5 dbbe 3339 edbe ecdc 34bf dfb5 0e3d
00000120: cc5d 80bf 7f9f 30bf b27a 31bf 49fe 0741
00000130: 31d9 fe3f 5068 663b 156a 89bf 5183 1fbf
00000140: 7092 41be 2826 9a3b 336d 1c3d b6c7 88bf
00000150: b329 073d 59e8 5ebf 15ea 303d 27b5 1240
00000160: 35e5 8940 d98b c3be f429 66be 3849 cdbe
00000170: 67e4 74bf 2723 8abe efbc 90bf 68a6 683c
00000180: af5c dc40 ce1f 7abe 1553 0f3d 8fb4 0a3d
00000190: 1540 6bbf 708e 92be 0f94 243d 52d3 d93c
000001a0: 27b7 b9bf 3bc2 70bf 02fa 9bbe c948 8e3f
000001b0: e575 2e3d f0d2 c4be 3064 b5be 3cb6 1abf
000001c0: f19f 1ebd d20b 93bf dac7 adbe 4891 3f3c
000001d0: 8a1c f2bc 662e 83be c44c 9dbf cf88 b240
000001e0: 8733 06bd 0d25 91bf ed24 31bf e2e3 19bf
000001f0: bb56 9fbf 83d0 20bf dd36 9dbe c45e 36bf
00000200: 8c62 213c efaf d1bf 50ac 413b 3d49 0141
00000210: 18f9 0fbf de20 32bf 3af1 be3c ce6d 9fbe
00000220: 8e90 aabf 01d1 71bf 7975 94be ebe6 52bf
00000230: a081 a5ba 80cc 62ba f8b6 fe3b adad a0be
00000240: 9879 a8bb b2dd 33bf 4a2e e83c c446 febe
00000250: 2692 9fbe b15a 6dbf 0ad3 c73c ec53 04bf
00000260: ee75 5dbe 2a1a a940 bea0 e83f 5a75 eebe
00000270: b566 3bbe c7c5 133f 2849 78bf 4bb2 8dbe
00000280: 6d91 91be 2ce4 08bf 0755 abbe c1fe 0d3d
00000290: 60f6 643c 0c15 86bf 8d24 febe 61cb 2fbf
000002a0: 01bc 21bf 3d8e 1ebf 066f bd3c 82eb 14bd
000002b0: e905 39bf 4e43 64bf 2507 8abf f868 26bf
000002c0: 6c50 49bf 851a cbbe ac4f afbf 8c5b c8be
000002d0: 62f9 b7bf 9c04 2cbd 7026 a4bf 9b7f b3be
000002e0: dd7a 3ebf 9399 94be 95ff f5bf 7826 63bf
000002f0: 176c 95bf 5c7f 44bc c8a8 16bc d823 72be
00000300: 9039 2dbb 1ab3 f9bc 14f1 88be 94db 4ebc
00000310: 7a17 ae40 0b10 1e3d 1d76 86be 45e3 023d
00000320: 85ac 67be 2e0f c73c a43a 37bf e39f a3bf
00000330: 7466 14bd e03b 403b 141c 1dbc dcd7 87bf
00000340: 1f77 0b3d 7c18 83be fbec 2d3d bb3d 17bf
00000350: 606a aebf e59a b1be 03c7 e2bc f26a 1ebf
00000360: ac8c 28bf 892e 0b3d 3c9b afbf 88d2 46bf
00000370: 17b3 90bf 31e3 073d ff6a 6fbe 3b68 3bbf
00000380: 15e6 85bf a8e1 67be a321 8bbf d8fe 253c
00000390: 1e83 10bd 89a9 52be 3b00 a9be bc29 493f
000003a0: 9f1a 02bf b652 aabe ae70 90bf cb23 48bf
000003b0: e8db 3e3c bd26 01bd 7e6c 80bf 5744 0d3d
000003c0: 00e1 33bc d522 15bf f4bb 1d3f 7614 ebbe
000003d0: 4233 823c 662e 183e 093d be40 bc78 7ebf
000003e0: 0597 70bf 1140 3cbf 6871 debe 22a0 12bd
000003f0: c9c3 1b3f a293 a1bf 72f1 72bf d748 b940
0.027870577 -1.4479474 -0.44605526 -1.0615236 -1.4210466 -1.2773492 -0.9670033 -0.247698
-1.4332924 -0.19229984 2.4252582 -0.3203848 0.03553761 0.03838749 -1.1307718 -0.906935
-0.018890886 0.005995594 -0.4433873 -0.9978238 0.011117101 -0.70406973 9.061986 -0.34478685
-0.32667407 -0.044066362 2.0064683 -1.297339 -0.024110546 -1.1526471 -0.3977326 -0.22442336
-0.6860025 -0.4689896 -1.1018977 -0.6607365 -0.90094906 -0.28288138 -0.30201763 -1.0592725
-0.02790368 3.2952385 -0.57273775 0.037984323 -1.0736468 0.04371315 -1.4512017 -0.30354294
-1.0986332 -1.1201295 -0.022576945 3.8281264 -0.003616985 -0.032856815 1.9146765 -2.343285
-0.8767219 -1.0575558 -0.23684303 -0.23796469 -0.4379944 -0.7523438 -0.039531413 -0.25005743
-0.8038891 -0.008022193 -0.3111168 0.029701065 -0.42948368 -0.46332702 -0.706496 0.034841415
-1.0028625 -0.6899337 -0.69327843 8.499581 1.9910032 0.003515739 -1.0735499 -0.6230975
-0.18903518 0.0047042556 0.038190078 -1.0685947 0.03299875 -0.87073284 0.043191988 2.2923067
4.3092294 -0.38192633 -0.22476941 -0.40094924 -0.95661014 -0.26979944 -1.1307658 0.014199831
6.886314 -0.24426195 0.034991343 0.0338636 -0.91894656 -0.28624296 0.040180262 0.026590023
-1.4509019 -0.9404637 -0.30464178 1.1115962 0.0425929 -0.38442183 -0.35428 -0.6043432
-0.03872675 -1.1487982 -0.33941537 0.011692353 -0.029554624 -0.25621337 -1.2289052 5.5792003
-0.032763984 -1.1339432 -0.6919697 -0.60113347 -1.2448343 -0.62818164 -0.3070592 -0.7123835
0.009850156 -1.6381816 0.002955217 8.08038 -0.5623946 -0.695814 0.023308385 -0.31138462
-1.3325365 -0.9445954 -0.28995875 -0.823836 -0.0012627132 -0.00086516887 0.0077732764 -0.31382504
-0.005141448 -0.70260155 0.028342385 -0.49663365 -0.3116619 -0.9271651 0.024392623 -0.51690555
-0.21627018 5.284444 1.8174055 -0.46573907 -0.18300898 0.5772366 -0.9698663 -0.2767509
-0.28431264 -0.5347316 -0.33463308 0.03466678 0.013974756 -1.0475173 -0.4963726 -0.68669707
-0.63177496 -0.6193579 0.02312423 -0.03635741 -0.72274643 -0.891652 -1.078343 -0.6500392
-0.7863834 -0.3966867 -1.3696189 -0.39132345 -1.437298 -0.041996583 -1.282423 -0.35058293
-0.74406224 -0.29023418 -1.9218622 -0.88730574 -1.1673611 -0.0119932555 -0.009195514 -0.23646486
-0.0026432015 -0.03048091 -0.26746428 -0.012625594 5.440366 0.03858952 -0.26261988 0.031955022
-0.22624405 0.02429923 -0.71573853 -1.2783169 -0.03623052 0.0029332563 -0.009589214 -1.061275
0.03404915 -0.25604618 0.04246233 -0.5907857 -1.3626213 -0.34688488 -0.027682787 -0.61881936
-0.6583965 0.033979926 -1.3719249 -0.77664995 -1.1304654 0.03317565 -0.2338066 -0.7320592
-1.046084 -0.22644675 -1.086964 0.01013156 -0.035281293 -0.20572485 -0.33007988 0.78579307
-0.5082187 -0.33266228 -1.1284387 -0.78179616 0.011649109 -0.031531084 -1.0033109 0.034489002
-0.010978937 -0.58256274 0.6161492 -0.45914048 0.015893582 0.1486145 5.9449506 -0.99402976
-0.9398044 -0.7353526 -0.43445897 -0.035797246 0.6084562 -1.2623179 -0.94899666 5.7901416

linear3.bias f4 [3]
00000000: e140 5dbe e431 7ebe a95a 8bbe
-0.2160678 -0.2482372 -0.27217606
