env2 DQN/log/dqn/ckpt/44000.pth (torch, 14208 bytes, 4 tensors)

linear.weight f4 [512, 2]
0	0x3e2618a0	0.16220331
1	0xbe2c4fd0	-0.16827321
2	0x3b999d85	0.0046879672
3	0xbf83bee0	-1.0292625
4	0xbe0a04de	-0.13478419
5	0xbfa329c8	-1.2747126
6	0xbefda049	-0.4953635
7	0xc0017a7d	-2.023101
8	0xbe94f0e5	-0.29090038
9	0xc00ba088	-2.181673
10	0xbe95f85c	-0.29291046
11	0xbf87bc7d	-1.0604397
12	0xbf14e11f	-0.5815601
13	0xbf1aa4f7	-0.60407966
14	0xbea83964	-0.32856286
15	0xbf3d1edf	-0.7387523
16	0xbc8bbca2	-0.01705772
17	0xbf961b79	-1.1727134
18	0xbf2fd29d	-0.68680745
19	0xbefd39db	-0.49458203
20	0xbfe2ea93	-1.7727836
21	0xc0769899	-3.8530638
22	0xbeef88b5	-0.46783987
23	0xbf534030	-0.8251982
24	0xbd89ace8	-0.067224324
25	0x3e3ea998	0.18619382
26	0xbd0b0890	-0.033943713
27	0xbecab8ee	-0.39594215
28	0xbf3b9d09	-0.7328649
29	0xc000bd21	-2.0115435
30	0xbf724fae	-0.9465283
31	0xc018be4a	-2.3866143
32	0x3e2a692c	0.16641682
33	0x3eee463a	0.46537954
34	0x3d0eadc0	0.03483367
35	0xbea5f46f	-0.3241305
36	0xbde8e793	-0.11372294
37	0xbfafce91	-1.3734914
38	0xbf1471e4	-0.57986283
39	0xc0012081	-2.017609
40	0xbe635cb2	-0.22203329
41	0xbf27bb83	-0.65520495
42	0x3cac6714	0.021045245
43	0xbf23aa53	-0.6393177
44	0x3f1d24d5	0.61384326
45	0x402f7a86	2.7418532
46	0xbd34f451	-0.04417831
47	0xbfb8560e	-1.4401262
48	0xbea63e9d	-0.32469645
49	0xbfa26255	-1.2686259
50	0x3ec12eda	0.37731057
51	0x3ef332c2	0.47499663
52	0xbf86d39b	-1.0533327
53	0x40609aff	3.5094602
54	0xbefd68e0	-0.49494076
55	0xbfd48cb2	-1.6605437
56	0xbe132614	-0.14369994
57	0x3ed29c06	0.4113466
58	0xbeb3f0d2	-0.3514467
59	0xbeb54ec9	-0.3541167
60	0x3ab3f3aa	0.0013729234
61	0xc007b394	-2.1203356
62	0xbe3c4061	-0.18383934
63	0xbeee756f	-0.4657397
64	0x3e1a7802	0.15084842
65	0xbf88c83e	-1.0686109
66	0xbe420b13	-0.18949537
67	0xc00d3d71	-2.206875
68	0xbf1b5ed6	-0.60691583
69	0xbfab8c74	-1.3402238
70	0xbf76ebdb	-0.96453637
71	0xbf59fab0	-0.85148144
72	0xbf510332	-0.816455
73	0xbfb3dbb0	-1.4051418
74	0xbee5c950	-0.44880152
75	0xbf9db0c8	-1.2319574
76	0xbeb8e2bd	-0.36110488
77	0xbffc5af6	-1.9715259
78	0xbf0e21b9	-0.55520207
79	0xbfec9672	-1.8483412
80	0x3f19e4f3	0.60114974
81	0xbdb1c2a8	-0.08679706
82	0xbfa6057a	-1.2970421
83	0xc0981d8e	-4.7536077
84	0xbe03415a	-0.12817898
85	0xbfba3880	-1.4548492
86	0xbd87d930	-0.06633222
87	0x3e9c8356	0.3056895
88	0xbf1613d6	-0.5862402
89	0xbf7262c6	-0.94681966
90	0xbd8bb2b8	-0.06821197
91	0xbefe3e3d	-0.4965686
92	0x3f256770	0.6461096
93	0xbf602889	-0.8756185
94	0x3bb2606e	0.005443624
95	0xbf04e9e6	-0.519194
96	0xbf29c9a7	-0.6632332
97	0xc004d2f9	-2.0753767
98	0xbf35dffc	-0.710449
99	0xc01adab6	-2.419599
100	0xbe844c3a	-0.25839406
101	0xbde95788	-0.113936484
102	0xbf9b5b9e	-1.2137334
103	0xc098edc6	-4.779025
104	0x3ecd630e	0.40114635
105	0x3e657bf0	0.2241056
106	0x3ee60f5e	0.449336
107	0x3f07fcbb	0.5312001
108	0xbfa5884a	-1.2932217
109	0xc02d754e	-2.7102847
110	0x3fafff16	1.3749721
111	0xc0685594	-3.6302233
112	0xbf395157	-0.7238974
113	0xbfc71efc	-1.5556331
114	0xbf48af97	-0.7839293
115	0xbfeffe92	-1.8749564
116	0xbf004c53	-0.5011646
117	0xbf370d79	-0.7150493
118	0xbedc2f07	-0.4300463
119	0xbf982d94	-1.1888909
120	0x3dce4663	0.10072019
121	0xbf248861	-0.642706
122	0xbf60d660	-0.8782711
123	0xbfbc7b0b	-1.472505
124	0x3eeebf0e	0.46630138
125	0xbf01c409	-0.5068975
126	0xbf1ab65c	-0.6043451
127	0xbf76c67d	-0.9639662
128	0xbf82a30e	-1.020601
129	0xc008c8ed	-2.1372635
130	0xbef55fee	-0.4792475
131	0x3e619f34	0.22033387
132	0xbf31cf66	-0.6945709
133	0xc0065ea4	-2.0995264
134	0x3e8c564c	0.2740959
135	0x3eb720a6	0.35767096
136	0xbe15502a	-0.14581361
137	0xc00466a7	-2.0687654
138	0x3eaf130e	0.34194225
139	0xbfb24777	-1.3928059
140	0xbf877098	-1.0581236
141	0xbfddde70	-1.7333508
142	0x3eec7792	0.46184975
143	0x3ea6bab6	0.32564324
144	0xbee05a7b	-0.4381903
145	0xbf5bbde0	-0.858366
146	0xbf688d03	-0.90840167
147	0xbf6feca9	-0.9372049
148	0x3e4d8e23	0.20073752
149	0xbfc6efdb	-1.5541948
150	0x3efbf715	0.49211946
151	0x406c7596	3.6946769
152	0xbfeb343d	-1.8375317
153	0xc035fad4	-2.8434343
154	0xbe72a7aa	-0.23696771
155	0xbf1a9ddf	-0.6039714
156	0xbf2c11d5	-0.6721471
157	0xbfb9d7ce	-1.4518983
158	0x3e0bb253	0.13642244
159	0xbf72d2fe	-0.948532
160	0xbf664811	-0.89953715
161	0xbf3162aa	-0.69291174
162	0x3d6dbd90	0.05804211
163	0xbf30e1c4	-0.6909449
164	0x3d096320	0.0335418
165	0x3ee8685e	0.45392126
166	0xbf2d4202	-0.67678845
167	0xbfeab558	-1.8336592
168	0xbeb45faf	-0.3522925
169	0xbf0ebc2c	-0.5575588
170	0xbf422a1d	-0.7584551
171	0xbfdbf04b	-1.7182707
172	0x3eea06de	0.45708364
173	0xbe068cbc	-0.13139623
174	0xbf9a2cd5	-1.2044932
175	0xc04078d0	-3.0073738
176	0xbfaab54b	-1.3336576
177	0xc0a6cda1	-5.212601
178	0x3dd217be	0.10258435
179	0xbf459097	-0.7717375
180	0xbf561a80	-0.83634186
181	0xbfa9422e	-1.3223321
182	0xbdfc8c7b	-0.12331482
183	0xbfa05134	-1.2524781
184	0xbf4a2781	-0.7896653
185	0xbfd8bfec	-1.693357
186	0xbf2845d2	-0.6573154
187	0xbf9988ed	-1.1994911
188	0x3f90c3bf	1.1309737
189	0xbf9c48b1	-1.2209684
190	0x3e88c37c	0.26711643
191	0xbf199b19	-0.60002285
192	0x3f4c5f63	0.7983305
193	0x401de97c	2.4673758
194	0xbf1e861b	-0.6192338
195	0xbff448ed	-1.9084755
196	0x3e4dd960	0.20102453
197	0xbec43de2	-0.38328463
198	0x3e92f768	0.2870438
199	0x3f0a704f	0.5407762
200	0xbf56251b	-0.8365037
201	0xbff84424	-1.9395795
202	0xbf3086b6	-0.6895555
203	0xc001f9e7	-2.0308778
204	0xbda61510	-0.08109486
205	0x3ee17e62	0.44041735
206	0x3e878064	0.26465142
207	0xbe69563c	-0.22786802
208	0xbe5d2241	-0.21595098
209	0xbfe5656b	-1.7921575
210	0xbf608b97	-0.87713
211	0xbff7a16b	-1.9346136
212	0xbeb4fade	-0.35347646
213	0xbfd00341	-1.6250993
214	0xbf931108	-1.1489573
215	0xbf17e311	-0.5933085
216	0x3dd550a8	0.104157746
217	0xbe613b02	-0.21995166
218	0xbe6400e3	-0.22265963
219	0xbf02624f	-0.50931257
220	0xbeb69cbc	-0.35666454
221	0xbff856fd	-1.9401547
222	0x3e1f6240	0.15564823
223	0xbe84bf16	-0.25927037
224	0xbd8a37e0	-0.067489386
225	0xbea388c7	-0.3194029
226	0xbf0b72d8	-0.5447211
227	0xbf57c466	-0.84284055
228	0xbd35c675	-0.044378716
229	0xbfc21b6c	-1.5164618
230	0x3ce730e0	0.028221548
231	0x3e1484a4	0.14503723
232	0x3e3f68bc	0.18692297
233	0xbd23dc10	-0.04000479
234	0xbf4be8cf	-0.7965211
235	0xbfcabad7	-1.5838269
236	0xbf09ca84	-0.5382464
237	0xc00165e1	-2.0218432
238	0xbf93fbc6	-1.156121
239	0xc0a8ea28	-5.2785835
240	0xbeaa9955	-0.33320108
241	0x3e8ea8c0	0.2786312
242	0xbf3d839e	-0.74028957
243	0xc013d73d	-2.310012
244	0x3e0be494	0.13661414
245	0xbf47b999	-0.78017575
246	0x3d98daf9	0.07463641
247	0xbe14d9e1	-0.14536239
248	0xbf096a19	-0.5367752
249	0xc020fe49	-2.5155203
250	0xbf677fc6	-0.9042934
251	0xbfe2b28b	-1.7710737
252	0xbe4a758c	-0.19771403
253	0xbfeb06b7	-1.8361424
254	0xbf600a32	-0.87515557
255	0xbf964604	-1.1740117

linear.bias f4 [512]
0	0xbdb5ee38	-0.08883327
1	0x3e7468b7	0.2386807
2	0x3ee0f690	0.43938112
3	0x3f05b55c	0.5222986
4	0x3e8762f2	0.26442677
5	0x3e9d802c	0.3076185
6	0x3ebfc73b	0.37456688
7	0x3f57e543	0.843342
8	0x3e618cae	0.22026321
9	0x3f45f8d1	0.7733279
10	0xbe808ed9	-0.25108984
11	0x3ef626d0	0.48076487
12	0xbe861b51	-0.26192716
13	0xbf121a6f	-0.57071584
14	0x3eceadaf	0.40366885
15	0x3f0443e9	0.5166612
16	0xbeb5c721	-0.35503486
17	0xbe9c2182	-0.30494314
18	0x3f0b48e5	0.54408103
19	0x3f07c4cf	0.5303468
20	0xbf082369	-0.5317903
21	0x3e825448	0.25454926
22	0x3e2f8a47	0.17142592
23	0x3f345116	0.7043623
24	0x3f25f391	0.6482478
25	0xbec6b8a1	-0.38812736
26	0x3e6fca5e	0.2341704
27	0x3e8e07f1	0.27740434
28	0xbf336117	-0.7007002
29	0x3e7e452c	0.24831074
30	0x3f3b4f02	0.7316743
31	0x3f5dbfd5	0.8662084
32	0x3ee5b13d	0.44861785
33	0x3ef65521	0.48111823
34	0x3ea7a92d	0.32746258
35	0x3efca288	0.49342752
36	0x3edd718e	0.43250698
37	0x3f217c48	0.63080263
38	0x3f354067	0.70801395
39	0x3eff0111	0.498055
40	0xbf306c65	-0.68915397
41	0xbe3cb391	-0.18427874
42	0x3ec7dc6b	0.39035353
43	0xbed633d8	-0.4183643
44	0x3e9e07a1	0.30865195
45	0xbebd9c81	-0.37033466
46	0x3e3d6abf	0.18497752
47	0x3f5b287b	0.85608643
48	0x3ebcac24	0.36850083
49	0x3ecb6620	0.39726353
50	0xbed517ad	-0.41619626
51	0xbe3623a7	-0.17787038
52	0xbedb0372	-0.42776066
53	0xbf116139	-0.56788975
54	0xbc74cd06	-0.0149414595
55	0x3ef38958	0.47565722
56	0x3f03e4bc	0.51520896
57	0x3ed99cc3	0.42502412
58	0x3f4ab4d2	0.7918216
59	0x3f4e73b4	0.806453
60	0x3f24f793	0.6444027
61	0x3eecc033	0.46240386
62	0xbeb4917b	-0.35267243
63	0x3f2c838c	0.67388225
64	0x3f0cd4db	0.5501229
65	0xbf2b5668	-0.6692872
66	0x3f3395da	0.7015053
67	0xbf140ee0	-0.578352
68	0x3f104894	0.56360745
69	0x3f46b537	0.7762026
70	0x3f0f3761	0.55943877
71	0xbf1f9970	-0.623435
72	0x3ed12e3a	0.4085558
73	0x3eef2724	0.4670955
74	0x3eff776c	0.498958
75	0x3debf92f	0.115221374
76	0xbd30129e	-0.042986505
77	0xbea53bde	-0.32272238
78	0x3eb93b81	0.3617821
79	0x3ee71b05	0.45137802
80	0x3f67930f	0.9045877
81	0xbe36fc90	-0.17869782
82	0xbe6b6a12	-0.22989681
83	0x3ebe63f7	0.37185642
84	0xbf1e0357	-0.61723846
85	0x3f049354	0.51787305
86	0xbeb49a6b	-0.35274062
87	0xbd254928	-0.04035297
88	0xbe907d02	-0.28220373
89	0x3f5291d3	0.8225376
90	0x3f5bded4	0.85886884
91	0x3f0afd87	0.542931
92	0x3ed94153	0.4243265
93	0x3f4ca19b	0.7993409
94	0x3eaab761	0.33343032
95	0xbe8eacc8	-0.27866197
96	0x3daff92a	0.08592446
97	0x3f571d51	0.8402911
98	0xbf0df803	-0.5545656
99	0xbf2ee046	-0.68310964
100	0x3ef6033e	0.4804935
101	0x3f43aa88	0.76432085
102	0xbf1859e3	-0.59512156
103	0xbee98964	-0.45612633
104	0x3e11404b	0.14184682
105	0x3ef2d55f	0.47428414
106	0x3f2a2b8e	0.6647271
107	0x3df1c5c3	0.11805298
108	0xbeaf9135	-0.34290472
109	0x3eb81c3c	0.3595904
110	0x3f3a4848	0.7276654
111	0x3ed0740f	0.40713546
112	0xbdfa7708	-0.12229735
113	0x3e91efb6	0.28503197
114	0x3f62d134	0.8860047
115	0xbefb3afc	-0.4906844
116	0xbf10e6d1	-0.566022
117	0x3f5821b0	0.84426403
118	0x3e9d13a4	0.30679047
119	0xbe80a6af	-0.2512717
120	0xbf2e02bd	-0.6797293
121	0x3ed36448	0.41287446
122	0x3ec906fa	0.39263135
123	0x3ea175bd	0.3153514
124	0x3ea0e5fb	0.3142546
125	0x3f2a7009	0.665772
126	0x3f67b882	0.9051591
127	0x3ee991a8	0.4561894
128	0xbe9637cb	-0.29339442
129	0x3ea48cfa	0.32138807
130	0xbf12eb2e	-0.57390106
131	0x3e78917b	0.24274246
132	0x3f2fa445	0.6861003
133	0x3f14f263	0.5818235
134	0xbf09a873	-0.5377266
135	0x3f3cfaaf	0.7382001
136	0x3e8bcdb7	0.27305385
137	0x3ec4dc9c	0.38449562
138	0x3f2dfc70	0.67963314
139	0x3ef50cbe	0.47861284
140	0xbeb12f6e	-0.34606498
141	0xbf2a5565	-0.6653655
142	0xbf03bf84	-0.51464105
143	0x3f508e7f	0.8146743
144	0xbeba9d04	-0.36447918
145	0x3f05da36	0.5228609
146	0xbe7d183c	-0.24716276
147	0x3f429ab1	0.7601729
148	0x3f357d2d	0.7089413
149	0x3f04ab28	0.51823664
150	0xbe85711d	-0.2606286
151	0x3f0cd01c	0.5500505
152	0x3f23a493	0.63922995
153	0xbd1b6a10	-0.037942946
154	0x3d6f622d	0.058443237
155	0x3f2b24d6	0.6685308
156	0x3f587662	0.8455564
157	0x3e188e9d	0.14898153
158	0x3efa56e4	0.48894417
159	0x3f2def3c	0.6794317
160	0x3f3c2215	0.73489505
161	0x3ebb2bb2	0.36556774
162	0x3f55e3a3	0.8355047
163	0xbf1fc7a7	-0.6241402
164	0xbf2bb561	-0.6707364
165	0x3edbc0e5	0.42920604
166	0x3e7ad97f	0.2449703
167	0x3f0fb7eb	0.5614001
168	0x3eed6aa1	0.46370414
169	0x3ebc56f6	0.36785096
170	0xbed2a939	-0.41144732
171	0xbdaa9890	-0.0832988
172	0x3ecb688c	0.397282
173	0x3ef7463a	0.48295766
174	0x3e95f503	0.29288492
175	0x3f1e0b06	0.6173557
176	0x3ec44d3d	0.38340178
177	0x3f6746b6	0.9034227
178	0x3eaa85fb	0.33305344
179	0x3f584b6f	0.844901
180	0x3edb96d2	0.42888504
181	0xbf0e7c86	-0.5565876
182	0x3e8f99a2	0.280469
183	0x3f28ac05	0.6588748
184	0x3f0b116b	0.5432345
185	0x3f32fef6	0.6992029
186	0x3ea50600	0.3223114
187	0x3ed27262	0.41102892
188	0x3ecb4372	0.39699894
189	0xbe8799fe	-0.26484674
190	0xbe69c0a8	-0.22827399
191	0x3f676b7c	0.90398383
192	0xbec0f49d	-0.37686625
193	0xbdc9bb48	-0.09850174
194	0x3f5cc535	0.86238414
195	0xbec81016	-0.39074773
196	0xbe5ca219	-0.2154621
197	0xbf1dc4f3	-0.61628646
198	0x3f612e43	0.87961215
199	0xbea2b212	-0.31776482
200	0x3f3e9a48	0.74454165
201	0xbe27f378	-0.1640147
202	0x3ef56585	0.47929016
203	0x3eb091e8	0.34486318
204	0xbf1f6f9f	-0.62279695
205	0xbf187384	-0.5955126
206	0xbf063cc4	-0.5243647
207	0x3ee569c2	0.4480725
208	0xbf11ffb0	-0.57030773
209	0x3f44eb78	0.76921797
210	0xbef69cb6	-0.48166436
211	0x3f03a88d	0.51429063
212	0x3e8d762b	0.27629218
213	0x3f3f64a4	0.7476294
214	0xbee468ef	-0.44611308
215	0x3f124e68	0.5715089
216	0x3ee613d4	0.44937003
217	0xbebadd3e	-0.3649692
218	0x3eb42763	0.351863
219	0x3f0cb0c2	0.5495721
220	0x3ec05778	0.37566733
221	0xbf01a4dc	-0.5064218
222	0x3f50b22b	0.8152186
223	0x3e867029	0.26257446
224	0x3eb48e22	0.3526469
225	0x3f52b99e	0.8231448
226	0x3edb5b6f	0.42843196
227	0xbe8a7bea	-0.27047664
228	0xbf0a464e	-0.54013526
229	0x3f59b28b	0.8503806
230	0x3f0bf235	0.54666454
231	0x3e094383	0.1340466
232	0x3ed6842f	0.41897723
233	0x3f2992ea	0.662398
234	0x3ea853b7	0.3287637
235	0x3eecaf2f	0.46227404
236	0xbf0db061	-0.5534726
237	0xbf2d43a0	-0.6768131
238	0x3ee39ea0	0.4445696
239	0xbf01608a	-0.5053793
240	0xbf24ad96	-0.6432737
241	0x3e9215d9	0.28532293
242	0x3e1d61ef	0.1536939
243	0x3f1e3e6d	0.61814004
244	0xbf145513	-0.5794231
245	0x3e89cc11	0.26913503
246	0xbe4d217a	-0.20032302
247	0x3eea38ae	0.45746368
248	0x3f13106e	0.57446945
249	0x3f2068bc	0.6265981
250	0x3ee0a146	0.43873042
251	0xbf2d024e	-0.6758164
252	0x3e0f75b5	0.14009745
253	0x3e9c7ed1	0.30565503
254	0x3eaa9927	0.3331997
255	0x3c642968	0.013925888

linear3.weight f4 [3, 512]
0	0x3ce450d6	0.027870577
1	0xbed48db4	-0.4151436
2	0xbe8e324b	-0.27772745
3	0xbe8f0950	-0.27936792
4	0xbed7ada2	-0.4212466
5	0xbec63be4	-0.38717568
6	0xbe9168cd	-0.2840027
7	0xbe5c94dc	-0.2154116
8	0xbebc5338	-0.3678224
9	0xbe4aebf6	-0.19816574
10	0x3f851457	1.0396832
11	0xbe8c4511	-0.27396443
12	0x3d118fe3	0.03553761
13	0x3d1d3c33	0.03838749
14	0xbec1bc1c	-0.3783883
15	0xbea6c9a6	-0.3257572
16	0xbc9ac10f	-0.018890886
17	0x3bc476b0	0.005995594
18	0xbea0fb71	-0.31441835
19	0xbe799de7	-0.24376641
20	0x3c362480	0.011117101
21	0xbeb6b297	-0.35683128
22	0x3f822f33	1.0170654
23	0xbe6927ad	-0.22769041
24	0xbe82ebb5	-0.25570455
25	0xbd347eee	-0.044066362
26	0x3fc2afd7	1.5209912
27	0xbed71fc4	-0.42016423
28	0xbcc5837b	-0.024110546
29	0xbe96a73a	-0.2942446
30	0xbe830e80	-0.25597
31	0xbe3598c2	-0.17734054
32	0xbee3279c	-0.44366157
33	0xbe9161bd	-0.2839488
34	0xbe9da1c5	-0.30787483
35	0xbe97fc89	-0.29684857
36	0xbeabd721	-0.33562568
37	0xbe6adc0c	-0.22935504
38	0xbe60c740	-0.21951008
39	0xbe98f3b9	-0.29873446
40	0xbce49642	-0.02790368
41	0x3f550730	0.8321409
42	0xbec093e7	-0.3761284
43	0x3d1b9573	0.037984323
44	0xbe996ab8	-0.29964232
45	0x3d330c8f	0.04371315
46	0xbe8691bc	-0.26283062
47	0xbe6b73f2	-0.22993448
48	0xbe96eb58	-0.29476428
49	0xbea66265	-0.32496944
50	0xbcb8f349	-0.022576945
51	0x3f6441d8	0.8916297
52	0xbb6d0af0	-0.003616985
53	0xbd0694de	-0.032856815
54	0x3f124dde	0.57150066
55	0xbf3f418b	-0.74709386
56	0xbe81aaca	-0.25325614
57	0xbeb353fa	-0.35025007
58	0xbe60a686	-0.21938524
59	0xbe48a041	-0.19592382
60	0xbea06382	-0.31325918
61	0xbe8cf5c7	-0.27531263
62	0xbd21ebb1	-0.039531413
63	0xbe6d742f	-0.23188852
64	0xbeafcbc9	-0.34335163
65	0xbc036f84	-0.008022193
66	0xbe86f59d	-0.26359263
67	0x3cf34fa6	0.029701065
68	0xbe8c058a	-0.27347976
69	0xbe8f5a9f	-0.27998826
70	0xbe96c54f	-0.2944741
71	0x3d0eb5df	0.034841415
72	0xbe625e06	-0.2210618
73	0xbe994510	-0.29935503
74	0xbede775f	-0.43450448
75	0x3f8b75c5	1.0895315
76	0x3f7ebe44	0.9950907
77	0x3b666850	0.003515739
78	0xbea1fa79	-0.31636408
79	0xbec60d30	-0.38681936
80	0xbe54ff8f	-0.20800613
81	0x3b9a2628	0.0047042556
82	0x3d1c6d33	0.038190078
83	0xbe92bb57	-0.28658554
84	0x3d0729b3	0.03299875
85	0xbe74ee81	-0.23919107
86	0x3d30ea15	0.043191988
87	0x3f1eeb3f	0.6207771
88	0x3f9cb680	1.2243195
89	0xbe8f7284	-0.28017056
90	0xbe62ffc7	-0.22167884
91	0xbe8b03b0	-0.2715125
92	0xbe917383	-0.2840844
93	0xbe82474a	-0.25445014
94	0xbec26180	-0.37965012
95	0x3c68a668	0.014199831
96	0x3fb5c59e	1.4200933
97	0xbe5203a1	-0.20509197
98	0x3d0f5315	0.034991343
99	0x3d0ab48f	0.0338636
100	0xbe9a8bba	-0.30184728
101	0xbe7dddf8	-0.24791706
102	0x3d24940f	0.040180262
103	0x3cd9d352	0.026590023
104	0xbec5416a	-0.3852647
105	0xbeb65360	-0.35610485
106	0xbe67cedb	-0.22637503
107	0x3ee6affe	0.45056146
108	0x3d2e75e5	0.0425929
109	0xbe8a33e0	-0.26992702
110	0xbe8e3b31	-0.27779534
111	0xbecb7278	-0.3973577
112	0xbd1e9ff1	-0.03872675
113	0xbea7f962	-0.3280745
114	0xbe7db65e	-0.24776599
115	0x3c3f9148	0.011692353
116	0xbcf21c8a	-0.029554624
117	0xbe7800f1	-0.24219109
118	0xbebd11ec	-0.36927736
119	0x3fc1b691	1.513384
120	0xbd063387	-0.032763984
121	0xbeba37e8	-0.36370778
122	0xbeddf49c	-0.43350685
123	0xbecd7ac5	-0.40132728
124	0xbeb95c47	-0.36203215
125	0xbe5518ac	-0.20810193
126	0xbe6db5a6	-0.23213825
127	0xbe9ff993	-0.31245098
128	0x3c21628c	0.009850156
129	0xbecc911b	-0.39954457
130	0x3b41ac50	0.002955217
131	0x3f058f7a	0.5217205
132	0xbe8061f1	-0.25074723
133	0xbe7a937a	-0.2447032
134	0x3cbef13a	0.023308385
135	0xbe6fdb32	-0.2342346
136	0xbee6df47	-0.45092222
137	0xbe966d1e	-0.29380125
138	0xbe52983c	-0.20565885
139	0xbe735e58	-0.23766458
140	0xbaa581a0	-0.0012627132
141	0xba62cc80	-0.00086516887
142	0x3bfeb6f8	0.0077732764
143	0xbe71d5fe	-0.23616788
144	0xbba87998	-0.005141448
145	0xbe86b783	-0.26311883
146	0x3ce82e4a	0.028342385
147	0xbe9ad62a	-0.3024152
148	0xbe59f7b9	-0.21285905
149	0xbe6f9023	-0.23394828
150	0x3cc7d30a	0.024392623
151	0xbeb08003	-0.34472665
152	0xbe3e5b9f	-0.18589638
153	0x3f922260	1.141674
154	0x3f776e08	0.9665227
155	0xbea12526	-0.31473655
156	0xbe3ad0fb	-0.18243782
157	0x3e4adfa5	0.19811876
158	0xbea830ae	-0.3284964
159	0xbe4c32e0	-0.19941282
160	0xbe82e314	-0.25563872
161	0xbebc3cfc	-0.36765277
162	0xbe862e1f	-0.26207063
163	0x3d0dfec1	0.03466678
164	0x3c64f660	0.013974756
165	0xbeb7a93b	-0.358713
166	0xbe8f184d	-0.27948228
167	0xbe832c1e	-0.25619596
168	0xbecb2a9b	-0.39680943
169	0xbec3154b	-0.38102183
170	0x3cbd6f06	0.02312423
171	0xbd14eb82	-0.03635741
172	0xbeeffcc8	-0.46872544
173	0xbea33a49	-0.31880406
174	0xbe948b9f	-0.29012772
175	0xbe675e21	-0.22594501
176	0xbe94f663	-0.29094228
177	0xbe8b045c	-0.27151763
178	0xbed1021a	-0.40821916
179	0xbe791bbf	-0.2432699
180	0xbef63cb4	-0.48093188
181	0xbd2c049c	-0.041996583
182	0xbec72a35	-0.3889939
183	0xbe80b5fb	-0.2513884
184	0xbe99aca8	-0.3001454
185	0xbe7fe67e	-0.2499027
186	0xbe99ad97	-0.3001525
187	0xbe966309	-0.29372433
188	0xbec340cb	-0.3813537
189	0xbc447f5c	-0.0119932555
190	0xbc16a8c8	-0.009195514
191	0xbe800e09	-0.25010708
192	0xbb2d3990	-0.0026432015
193	0xbcf9b31a	-0.03048091
194	0xbe776e3b	-0.24163143
195	0xbc4edb94	-0.012625594
196	0x3f4c2662	0.7974607
197	0x3d1e100b	0.03858952
198	0xbe6432dc	-0.22285026
199	0x3d02e345	0.031955022
200	0xbe5dd503	-0.21663289
201	0x3cc70f2e	0.02429923
202	0xbea04371	-0.31301454
203	0xbed55a74	-0.41670573
204	0xbd146674	-0.03623052
205	0x3b403be0	0.0029332563
206	0xbc1d1c14	-0.009589214
207	0xbe8124f8	-0.25223517
208	0x3d0b771f	0.03404915
209	0xbe872122	-0.26392466
210	0x3d2decfb	0.04246233
211	0xbebee62a	-0.37284976
212	0xbec83fcb	-0.3911117
213	0xbe7612df	-0.24030636
214	0xbce2c703	-0.027682787
215	0xbe9537e1	-0.29144195
216	0xbee4fd10	-0.4472432
217	0x3d0b2e89	0.033979926
218	0xbec7d2a0	-0.39027882
219	0xbe906489	-0.28201702
220	0xbeb33c2b	-0.35006842
221	0x3d07e331	0.03317565
222	0xbe80ae69	-0.25133064
223	0xbecaeab2	-0.39632183
224	0xbe711ce8	-0.23546183
225	0xbe52c96a	-0.20584646
226	0xbe8fb1a7	-0.28065225
227	0x3c25fed8	0.01013156
228	0xbd10831e	-0.035281293
229	0xbe5aabf7	-0.21354662
230	0xbe8861a1	-0.26636985
231	0x3e80b0a8	0.25134778
232	0xbead30a0	-0.3382616
233	0xbe856231	-0.26051477
234	0xbeb2215f	-0.34791085
235	0xbea15890	-0.3151288
236	0x3c3edbe8	0.011649109
237	0xbd0126bd	-0.031531084
238	0xbea60090	-0.32422304
239	0x3d0d4457	0.034489002
240	0xbc33e100	-0.010978937
241	0xbec553e4	-0.38540566
242	0x3e4e29f6	0.20133194
243	0xbea02f4a	-0.3128608
244	0x3c823342	0.015893582
245	0xbd7f62c4	-0.06235005
246	0x3fb2d570	1.3971386
247	0xbea55916	-0.3229453
248	0xbe8e75d4	-0.2782427
249	0xbe970a81	-0.295002
250	0xbea91edf	-0.33031365
251	0xbd12a022	-0.035797246
252	0x3e44d3ad	0.19221373
253	0xbec75907	-0.3893511
254	0xbea01f75	-0.31274
255	0x3f6e036e	0.92973983

linear3.bias f4 [3]
0	0xbe4eac27	-0.20182858
1	0xbdd28085	-0.102784194
2	0xbe295a25	-0.16538294
