env2 DQN/log/dqn/ckpt/47000.pth (torch, 14208 bytes, 4 tensors)

linear.weight f4 [512, 2]
0	0x3e2618a0	0.16220331
1	0xbe2c4fd0	-0.16827321
2	0xbd1f6535	-0.038914878
3	0xbfac47e5	-1.345944
4	0xbe366a9d	-0.17814107
5	0xbfced6ec	-1.6159339
6	0xbf09efba	-0.5388142
7	0xc017b665	-2.3705075
8	0xbeab5efd	-0.33470908
9	0xc022cbcf	-2.5436895
10	0xbeac2b52	-0.336268
11	0xbfaff3a6	-1.3746231
12	0xbf20142b	-0.62530774
13	0xbf6b0b54	-0.9181416
14	0xbebd591a	-0.36982042
15	0xbf817b86	-1.0115821
16	0xbd799790	-0.060935557
17	0xbfbdb53d	-1.4820935
18	0xbf3af19f	-0.73024935
19	0xbf4c5d4c	-0.7982986
20	0xbfecdb8a	-1.8504498
21	0xc08b3a66	-4.3508787
22	0xbf02c328	-0.51079035
23	0xbf92588c	-1.1433272
24	0xbd89ace8	-0.067224324
25	0x3e3ea998	0.18619382
26	0xbd0b0890	-0.033943713
27	0xbecab8ee	-0.39594215
28	0xbf3d23cd	-0.7388275
29	0xc016dc90	-2.357212
30	0xbf73d673	-0.952491
31	0xc02f43a2	-2.738503
32	0x3e2a692c	0.16641682
33	0x3eee463a	0.46537954
34	0x3d0eadc0	0.03483367
35	0xbea5f46f	-0.3241305
36	0xbe1ff42f	-0.15620492
37	0xbfd6f396	-1.6793087
38	0xbf1f913e	-0.62330997
39	0xc017fd2e	-2.3748279
40	0xbe635cb2	-0.22203329
41	0xbf27bb83	-0.65520495
42	0xbcb5e7b5	-0.022205213
43	0xbf70a72a	-0.9400507
44	0x3f1deb55	0.61687213
45	0x4058a687	3.385164
46	0xbdb02377	-0.086005144
47	0xbfe224ac	-1.7667441
48	0xbebc562d	-0.36784497
49	0xbfcc1975	-1.5945269
50	0x3ec12eda	0.37731057
51	0x3ef332c2	0.47499663
52	0xbf994bab	-1.1976217
53	0x40697308	3.647646
54	0xbeffcc80	-0.4996071
55	0xc0004004	-2.0039072
56	0xbe132614	-0.14369994
57	0x3ed29c06	0.4113466
58	0xbeca61a5	-0.39527622
59	0xbf28af1d	-0.658922
60	0xbd244042	-0.040100344
61	0xc01d0c4e	-2.453876
62	0xbe677aac	-0.2260539
63	0xbf405669	-0.7513185
64	0x3ddc9c78	0.107720315
65	0xbfb000ac	-1.3750205
66	0xbe6dc38b	-0.23219125
67	0xc023c2db	-2.558768
68	0xbf1d2e12	-0.6139842
69	0xbfd86c55	-1.690806
70	0xbf7a56b8	-0.9778857
71	0xbf9714bf	-1.1803206
72	0xbf538beb	-0.8263537
73	0xbfdf3536	-1.7438114
74	0xbefc0742	-0.49224287
75	0xbfc7e463	-1.5616573
76	0xbecf2824	-0.40460312
77	0xc013a3e5	-2.3068783
78	0xbf1933cd	-0.59844667
79	0xc00bf9bd	-2.1871178
80	0x3f19e4f3	0.60114974
81	0xbdb1c2a8	-0.08679706
82	0xbfa990e8	-1.3247347
83	0xc0aa7ffa	-5.328122
84	0xbe2fabe7	-0.1715542
85	0xbfe367ce	-1.7766054
86	0xbd87d930	-0.06633222
87	0x3e9c8356	0.3056895
88	0xbf19f580	-0.6014023
89	0xbf9aee48	-1.2103968
90	0xbd8bb2b8	-0.06821197
91	0xbefe3e3d	-0.4965686
92	0x3f19cffa	0.6008297
93	0xbfb323f7	-1.3995351
94	0xbd108222	-0.035280354
95	0xbf46fb41	-0.77727133
96	0xbf2b65a8	-0.6695199
97	0xc01b0afa	-2.422545
98	0xbf3697d9	-0.7132545
99	0xc031dc7a	-2.7790818
100	0xbe844c3a	-0.25839406
101	0xbde95788	-0.113936484
102	0xbf9cc5a2	-1.2247813
103	0xc0abef43	-5.3729568
104	0x3ecd630e	0.40114635
105	0x3e657bf0	0.2241056
106	0x3ee60f5e	0.449336
107	0x3f07fcbb	0.5312001
108	0xbfb42c16	-1.4075954
109	0xc046a77d	-3.1039727
110	0x3fada7cd	1.3566834
111	0xc08496a2	-4.143388
112	0xbf44a9ae	-0.7682141
113	0xbff42664	-1.9074216
114	0xbf4a4693	-0.7901394
115	0xc00e39f9	-2.2222884
116	0xbf0b282e	-0.54358184
117	0xbf8304b9	-1.0235816
118	0xbef1f563	-0.47257528
119	0xbfc2ff07	-1.5234078
120	0x3d735135	0.059403617
121	0xbf6a83df	-0.9160747
122	0xbf62c449	-0.8858076
123	0xbfe97bcf	-1.8240908
124	0x3eeebf0e	0.46630138
125	0xbf01c409	-0.5068975
126	0xbf259453	-0.6467945
127	0xbfa47977	-1.2849568
128	0xbf841171	-1.0317823
129	0xc01e89e6	-2.4771667
130	0xbef55fee	-0.4792475
131	0x3e619f34	0.22033387
132	0xbf3cf57a	-0.7381207
133	0xc01c7474	-2.4446077
134	0x3e8c564c	0.2740959
135	0x3eb720a6	0.35767096
136	0xbe411118	-0.18854177
137	0xc01a6a64	-2.4127436
138	0x3e99a38f	0.30007598
139	0xbfdacf2b	-1.7094473
140	0xbf88d117	-1.0688809
141	0xc004eaa0	-2.0768204
142	0x3eec7792	0.46184975
143	0x3ea6bab6	0.32564324
144	0xbef70b63	-0.48250875
145	0xbf98f25d	-1.1948963
146	0xbf6c109f	-0.9221286
147	0xbfa16171	-1.2607862
148	0x3e2119fd	0.1573257
149	0xbfefa992	-1.8723624
150	0x3f0042cf	0.5010194
151	0x408b705e	4.3574667
152	0xbff9dae9	-1.9519931
153	0xc04d35af	-3.2064016
154	0xbe72a7aa	-0.23696771
155	0xbf1a9ddf	-0.6039714
156	0xbf2e742c	-0.68146014
157	0xbfe47cf3	-1.7850631
158	0x3dbe05da	0.0927846
159	0xbfa2a5d3	-1.2706856
160	0xbf716502	-0.9429475
161	0xbf7f8d8c	-0.9982536
162	0x3d6dbd90	0.05804211
163	0xbf30e1c4	-0.6909449
164	0x3d096320	0.0335418
165	0x3ee8685e	0.45392126
166	0xbf2e9157	-0.6819052
167	0xc00be5a0	-2.1858902
168	0xbeb45faf	-0.3522925
169	0xbf0ebc2c	-0.5575588
170	0xbf4d4d40	-0.80196
171	0xc004e605	-2.0765393
172	0x3eea06de	0.45708364
173	0xbe068cbc	-0.13139623
174	0xbfa613e3	-1.2974819
175	0xc05f03ec	-3.4846144
176	0xbfa5b859	-1.2946883
177	0xc0bafa2c	-5.8430386
178	0x3d7b2664	0.06131591
179	0xbf86c4b1	-1.0528775
180	0xbf6160e2	-0.88038456
181	0xbfd22a7e	-1.6419218
182	0xbe29e242	-0.16590217
183	0xbfca9afc	-1.5828547
184	0xbf4cdb1c	-0.80021834
185	0xc0018307	-2.0236223
186	0xbf331f14	-0.69969296
187	0xbfc2ec7e	-1.5228422
188	0x3f8b4b0d	1.0882279
189	0xbfe23c32	-1.767462
190	0x3e88c37c	0.26711643
191	0xbf199b19	-0.60002285
192	0x3f5e01ae	0.86721313
193	0x4043de95	3.0604603
194	0xbf2984c6	-0.6621822
195	0xc01012af	-2.2511404
196	0x3e4dd960	0.20102453
197	0xbec43de2	-0.38328463
198	0x3e92f768	0.2870438
199	0x3f0a704f	0.5407762
200	0xbf5c7fa9	-0.86132294
201	0xc011dbe7	-2.2790468
202	0xbf3b8c79	-0.7326122
203	0xc017625a	-2.365378
204	0xbda61510	-0.08109486
205	0x3ee17e62	0.44041735
206	0x3e878064	0.26465142
207	0xbe69563c	-0.22786802
208	0xbe5a8cec	-0.2134282
209	0xc00a36eb	-2.159602
210	0xbf627763	-0.8846342
211	0xc011b98c	-2.27695
212	0xbecb64b4	-0.39725268
213	0xbffa780b	-1.9567884
214	0xbfa78f00	-1.3090515
215	0xbf1dea10	-0.61685276
216	0x3dd550a8	0.104157746
217	0xbe613b02	-0.21995166
218	0xbe885551	-0.2662759
219	0xbf51b233	-0.81912535
220	0xbecc08a1	-0.39850333
221	0xc0112949	-2.2681448
222	0x3debcfc5	0.11514238
223	0xbf03b2da	-0.5144478
224	0xbd8a37e0	-0.067489386
225	0xbea388c7	-0.3194029
226	0xbf0def5e	-0.5544337
227	0xbf96464c	-1.1740203
228	0xbdb18dfa	-0.08669658
229	0xbfe92fe5	-1.8217741
230	0x3ce730e0	0.028221548
231	0x3e1484a4	0.14503723
232	0x3e3f68bc	0.18692297
233	0xbd23dc10	-0.04000479
234	0xbf56e755	-0.83946735
235	0xbff613b9	-1.9224769
236	0xbf0a5d44	-0.5404856
237	0xc0181e76	-2.3768592
238	0xbf8b0c9c	-1.0863223
239	0xc0bdb666	-5.9285154
240	0xbeaa9955	-0.33320108
241	0x3e8ea8c0	0.2786312
242	0xbf3f4a77	-0.74723
243	0xc02a0103	-2.6563118
244	0x3dbf8dba	0.09353204
245	0xbf8a3d91	-1.0800039
246	0x3d18d6cf	0.037314232
247	0xbeb85e4a	-0.36009437
248	0xbf0928b4	-0.53577733
249	0xc0382ee3	-2.8778617
250	0xbf72c91b	-0.9483811
251	0xc0087104	-2.131898
252	0xbe756a97	-0.23966442
253	0xc00909bf	-2.1412199
254	0xbf630c18	-0.8869033
255	0xbfc0f059	-1.5073348

linear.bias f4 [512]
0	0xbdb5ee38	-0.08883327
1	0x3e6427a8	0.22280753
2	0x3ed7c61a	0.42143327
3	0x3f0106d1	0.50401026
4	0x3e7b1e6e	0.24523327
5	0x3e9573e6	0.29189986
6	0x3eb7d06b	0.35901198
7	0x3f548f8b	0.8303153
8	0x3e5227bd	0.20522971
9	0x3f422699	0.75840145
10	0xbd658fcd	-0.056045342
11	0x3eedd764	0.46453393
12	0xbe861b51	-0.26192716
13	0xbf121a6f	-0.57071584
14	0x3ed7b044	0.42126667
15	0x3f0882e9	0.53324753
16	0xbeb5c721	-0.35503486
17	0xbe9c2182	-0.30494314
18	0x3f0757b9	0.5286823
19	0x3f02e817	0.5113539
20	0xbf082369	-0.5317903
21	0x3e75c38e	0.2400038
22	0x3e37f25d	0.17963548
23	0x3f2fe52b	0.6870906
24	0x3f21a312	0.6313945
25	0xbec6b8a1	-0.38812736
26	0x3e69ecb2	0.22844198
27	0x3e97c6bd	0.29643813
28	0xbf336117	-0.7007002
29	0x3e6f5890	0.23373628
30	0x3f36c0f9	0.713882
31	0x3f5a2eb3	0.8522751
32	0x3eddef65	0.43346706
33	0x3eecb4f8	0.46231818
34	0x3eafe613	0.3435522
35	0x3f016c9b	0.50556344
36	0x3ee4ed4b	0.4471229
37	0x3f1d1d71	0.6137305
38	0x3f30c585	0.6905139
39	0x3ef5f504	0.48038495
40	0xbf306c65	-0.68915397
41	0xbdc691d6	-0.09695785
42	0x3ebf797d	0.37397376
43	0xbed633d8	-0.4183643
44	0x3ea4a599	0.3215759
45	0xbebd9c81	-0.37033466
46	0x3e342f1b	0.17596094
47	0x3f5826ef	0.8443441
48	0x3ec5a93e	0.38605684
49	0x3ed50fef	0.4161372
50	0xbed517ad	-0.41619626
51	0xbde16550	-0.11005652
52	0xbedb0372	-0.42776066
53	0xbf116139	-0.56788975
54	0x3d3e0da8	0.046399742
55	0x3ee24175	0.44190565
56	0x3efe5dd5	0.49680963
57	0x3ee2620a	0.44215423
58	0x3f46aeb1	0.7761031
59	0x3f49eb18	0.7887435
60	0x3f21a877	0.6314768
61	0x3ef4b55f	0.47794625
62	0xbeb4917b	-0.35267243
63	0x3f2841f8	0.6572566
64	0x3f105956	0.56386316
65	0xbf2b5668	-0.6692872
66	0x3f2ef2a5	0.68338996
67	0xbf140ee0	-0.578352
68	0x3f0b9baf	0.5453443
69	0x3f427c14	0.7597058
70	0x3f12b629	0.57309204
71	0xbf1f9970	-0.623435
72	0x3ec84f9c	0.39123237
73	0x3ef56033	0.47924957
74	0x3ef73d26	0.4828884
75	0x3e04e10e	0.12976477
76	0x3d9d4046	0.07678275
77	0xbea53bde	-0.32272238
78	0x3ec163d3	0.37771472
79	0x3edebdeb	0.4350427
80	0x3f63b7b4	0.88952184
81	0xbe36fc90	-0.17869782
82	0xbe6b6a12	-0.22989681
83	0x3ec7a199	0.38990477
84	0xbf1e0357	-0.61723846
85	0x3eff6a94	0.49886
86	0xbeb49a6b	-0.35274062
87	0x3b974076	0.0046158386
88	0xbe5f51b1	-0.21808507
89	0x3f4f0e05	0.8088077
90	0x3f57c393	0.842828
91	0x3f068dc2	0.52560055
92	0x3ee0f732	0.43938595
93	0x3f4853ee	0.78253067
94	0x3ea7f243	0.3280202
95	0xbe8eacc8	-0.27866197
96	0x3d7e32d7	0.062060203
97	0x3f5277de	0.8221415
98	0xbf0df803	-0.5545656
99	0xbf2ee046	-0.68310964
100	0x3ef5b68a	0.4799083
101	0x3f3f3202	0.7468568
102	0xbf1859e3	-0.59512156
103	0xbee98964	-0.45612633
104	0x3e2908de	0.16507289
105	0x3efb1b3a	0.4904421
106	0x3f25c7b1	0.6475783
107	0x3e1bbaa6	0.1520792
108	0xbeaf9135	-0.34290472
109	0x3eb04345	0.34426323
110	0x3f35dca7	0.71039814
111	0x3ecae286	0.3962595
112	0xbdfa7708	-0.12229735
113	0x3e99e4e0	0.3005743
114	0x3f5ed9db	0.8705117
115	0xbefb3afc	-0.4906844
116	0xbf10e6d1	-0.566022
117	0x3f539270	0.8264532
118	0x3ea7156d	0.32633534
119	0xbe624179	-0.22095288
120	0xbf2e02bd	-0.6797293
121	0x3edc0b67	0.4297745
122	0x3ec19887	0.37811682
123	0x3e9d8429	0.30764893
124	0x3eac07c8	0.33599687
125	0x3f258975	0.6466287
126	0x3f63bb88	0.88958025
127	0x3ef0749a	0.4696396
128	0xbe9637cb	-0.29339442
129	0x3e9c0c33	0.30478057
130	0xbf12eb2e	-0.57390106
131	0x3e85c9f2	0.26130635
132	0x3f2b7708	0.669785
133	0x3f10ba9f	0.5653476
134	0xbf09a873	-0.5377266
135	0x3f38f31f	0.72245973
136	0x3e9584c5	0.29202858
137	0x3ecbdcf4	0.3981701
138	0x3f2946b7	0.6612353
139	0x3eed7b4b	0.46383128
140	0xbeb12f6e	-0.34606498
141	0xbf2a5565	-0.6653655
142	0xbf03bf84	-0.51464105
143	0x3f4c3eac	0.7978313
144	0xbeba9d04	-0.36447918
145	0x3f011a94	0.5043118
146	0xbe7d183c	-0.24716276
147	0x3f3e225e	0.7427119
148	0x3f31b09a	0.694101
149	0x3effe99d	0.4998292
150	0xbe85711d	-0.2606286
151	0x3f08a85a	0.53381884
152	0x3f1f13fd	0.62139875
153	0xbd884720	-0.06654191
154	0x3e0066ec	0.12539262
155	0x3f26d92f	0.65175146
156	0x3f53c1de	0.8271769
157	0x3e46dbe1	0.19419815
158	0x3f016a9c	0.505533
159	0x3f2a186e	0.66443527
160	0x3f380b80	0.7189255
161	0x3eb2b59d	0.34904185
162	0x3f5209c5	0.8204616
163	0xbf1fc7a7	-0.6241402
164	0xbf2bb561	-0.6707364
165	0x3ee4467c	0.44585025
166	0x3e73b044	0.23797709
167	0x3f13902e	0.57641876
168	0x3ee4f5be	0.44718736
169	0x3eb3becb	0.351065
170	0xbed2a939	-0.41144732
171	0xbdaa9890	-0.0832988
172	0x3ec328a6	0.3811695
173	0x3eff69f9	0.49885538
174	0x3e9dbc4b	0.3080772
175	0x3f197d49	0.59956795
176	0x3ecaca11	0.3960729
177	0x3f634b23	0.88786525
178	0x3ea1b590	0.31583834
179	0x3f53c0b0	0.8271589
180	0x3ed2fd29	0.4120877
181	0xbf0e7c86	-0.5565876
182	0x3e8801c8	0.2656386
183	0x3f241dd8	0.6410804
184	0x3f08e9ab	0.5348155
185	0x3f2e3c08	0.6806035
186	0x3e9d9baa	0.30782825
187	0x3ed9cde2	0.4253989
188	0x3ed3b8d5	0.41351953
189	0xbe8799fe	-0.26484674
190	0xbe69c0a8	-0.22827399
191	0x3f636766	0.8882965
192	0xbec0f49d	-0.37686625
193	0xbdc9bb48	-0.09850174
194	0x3f58f000	0.8474121
195	0xbec81016	-0.39074773
196	0xbe3f7cca	-0.18699947
197	0xbf1dc4f3	-0.61628646
198	0x3f5e3f6c	0.86815524
199	0xbea2b212	-0.31776482
200	0x3f3a6962	0.7281705
201	0xbe27f378	-0.1640147
202	0x3efc9e4b	0.49339518
203	0x3ebb3911	0.36566976
204	0xbf1f6f9f	-0.62279695
205	0xbf187384	-0.5955126
206	0xbf063cc4	-0.5243647
207	0x3edbebb1	0.42953256
208	0xbf11ffb0	-0.57030773
209	0x3f40fa57	0.7538199
210	0xbef69cb6	-0.48166436
211	0x3efea2ae	0.4973349
212	0x3e843050	0.2581811
213	0x3f3b1d1c	0.7309129
214	0xbee468ef	-0.44611308
215	0x3f10996a	0.5648409
216	0x3eddd017	0.43322822
217	0xbebadd3e	-0.3649692
218	0x3eaaa37f	0.33327863
219	0x3f0cdd68	0.5502534
220	0x3ec998a4	0.39374268
221	0xbf01a4dc	-0.5064218
222	0x3f4c56d6	0.7982
223	0x3e7e5f01	0.24840929
224	0x3ebdfe55	0.37108102
225	0x3f4f5b45	0.8099864
226	0x3ed1e3c8	0.40994096
227	0xbe8a7bea	-0.27047664
228	0xbf0a464e	-0.54013526
229	0x3f558cdf	0.8341808
230	0x3f07c07c	0.5302808
231	0x3e28e68b	0.16494195
232	0x3ece145e	0.40249914
233	0x3f2549a9	0.6456552
234	0x3eb05804	0.3444215
235	0x3ef3cb82	0.47616202
236	0xbf0db061	-0.5534726
237	0xbf2d43a0	-0.6768131
238	0x3eebdc4d	0.46066514
239	0xbf01608a	-0.5053793
240	0xbf24ad96	-0.6432737
241	0x3e8decc4	0.277197
242	0x3e495ee7	0.19665109
243	0x3f1ac0d8	0.60450506
244	0xbf145513	-0.5794231
245	0x3e92ebca	0.28695518
246	0xbe48757c	-0.19576067
247	0x3ef20218	0.47267222
248	0x3f0e7f88	0.5566335
249	0x3f1bad4e	0.60811317
250	0x3eda8e02	0.42686468
251	0xbf2d024e	-0.6758164
252	0x3e418335	0.18897708
253	0x3ea5ed94	0.3240782
254	0x3eb1958e	0.34684414
255	0x3a2e7b38	0.0006655934

linear3.weight f4 [3, 512]
0	0x3ce450d6	0.027870577
1	0xbed994f3	-0.42496452
2	0xbe93ae1b	-0.2884377
3	0xbe989b97	-0.29806206
4	0xbee5ceb5	-0.44884267
5	0xbecfb6ae	-0.4056906
6	0xbe9bca4e	-0.30427784
7	0xbe650825	-0.22366388
8	0xbec2a051	-0.38012937
9	0xbe58323c	-0.21112913
10	0x3f923cc6	1.1424797
11	0xbe944d79	-0.28965357
12	0x3d118fe3	0.03553761
13	0x3d1d3c33	0.03838749
14	0xbecea500	-0.4036026
15	0xbeb3682e	-0.3504042
16	0xbc9ac10f	-0.018890886
17	0x3bc476b0	0.005995594
18	0xbea585ad	-0.3232855
19	0xbe870359	-0.26369742
20	0x3c362480	0.011117101
21	0xbeba2082	-0.36352926
22	0x3f8d25a2	1.102711
23	0xbe7000f1	-0.23437859
24	0xbe889868	-0.26678777
25	0xbd347eee	-0.044066362
26	0x3fc4353c	1.5328746
27	0xbee49d75	-0.4465138
28	0xbcc5837b	-0.024110546
29	0xbea0af0f	-0.3138356
30	0xbe86af3a	-0.26305562
31	0xbe3bdbb7	-0.18345533
32	0xbee50670	-0.44731474
33	0xbe988ac3	-0.29793367
34	0xbeaa3adf	-0.3324804
35	0xbea32c13	-0.31869563
36	0xbeb7e2a7	-0.3591511
37	0xbe7876e2	-0.242641
38	0xbe6d5f47	-0.23180877
39	0xbea32b84	-0.31869137
40	0xbce49642	-0.02790368
41	0x3f7e771c	0.99400496
42	0xbec6c83c	-0.38824642
43	0x3d1b9573	0.037984323
44	0xbea5535f	-0.3229017
45	0x3d330c8f	0.04371315
46	0xbe8e06de	-0.27739614
47	0xbe6fb003	-0.23406987
48	0xbea40565	-0.32035366
49	0xbeb39765	-0.35076442
50	0xbcb8f349	-0.022576945
51	0x3f887404	1.0660405
52	0xbb6d0af0	-0.003616985
53	0xbd0694de	-0.032856815
54	0x3f29cb2b	0.66325635
55	0xbf461a8f	-0.77384275
56	0xbe8c8088	-0.27441812
57	0xbebfe87f	-0.37482068
58	0xbe6bbd85	-0.23021515
59	0xbe538855	-0.20657475
60	0xbea2204f	-0.31665275
61	0xbe98e8a7	-0.29865
62	0xbd21ebb1	-0.039531413
63	0xbe7c1b2e	-0.24619743
64	0xbebc129e	-0.36732954
65	0xbc036f84	-0.008022193
66	0xbe8fee0e	-0.2811131
67	0x3cf34fa6	0.029701065
68	0xbe91a962	-0.2844954
69	0xbe9050da	-0.28186685
70	0xbea2a618	-0.31767344
71	0x3d0eb5df	0.034841415
72	0xbe742f57	-0.23846184
73	0xbea4976f	-0.32146785
74	0xbee06ca3	-0.43832883
75	0x3f9cb0cf	1.2241458
76	0x3f893219	1.0718414
77	0x3b666850	0.003515739
78	0xbeae7041	-0.34070018
79	0xbec7f0cc	-0.390509
80	0xbe636855	-0.22207768
81	0x3b9a2628	0.0047042556
82	0x3d1c6d33	0.038190078
83	0xbe9fa4aa	-0.31180316
84	0x3d0729b3	0.03299875
85	0xbe85b8d1	-0.26117566
86	0x3d30ea15	0.043191988
87	0x3f3a353e	0.7273749
88	0x3fb515a9	1.4147235
89	0xbe913f7c	-0.28368747
90	0xbe726849	-0.23672594
91	0xbe8f8c45	-0.28036705
92	0xbe9dce0b	-0.3082126
93	0xbe893cb0	-0.26804113
94	0xbec6a76a	-0.38799602
95	0x3c68a668	0.014199831
96	0x3fc0ee42	1.507271
97	0xbe6034a1	-0.21895076
98	0x3d0f5315	0.034991343
99	0x3d0ab48f	0.0338636
100	0xbea6f2c5	-0.32607093
101	0xbe872ddb	-0.26402172
102	0x3d24940f	0.040180262
103	0x3cd9d352	0.026590023
104	0xbed62fcd	-0.41833344
105	0xbec2c368	-0.38039708
106	0xbe742e34	-0.2384575
107	0x3eff7f58	0.49901843
108	0x3d2e75e5	0.0425929
109	0xbe905735	-0.28191534
110	0xbe9451f7	-0.28968784
111	0xbecc26eb	-0.39873442
112	0xbd1e9ff1	-0.03872675
113	0xbeb4049a	-0.3515976
114	0xbe81ee52	-0.25377136
115	0x3c3f9148	0.011692353
116	0xbcf21c8a	-0.029554624
117	0xbe83d75c	-0.25750244
118	0xbecacedd	-0.3961095
119	0x3fde3bf1	1.7362043
120	0xbd063387	-0.032763984
121	0xbec754b1	-0.38931802
122	0xbedf9aa5	-0.43672672
123	0xbeceb0a2	-0.40369135
124	0xbec79ae4	-0.3898536
125	0xbe69b958	-0.2282461
126	0xbe75f265	-0.24018247
127	0xbeaba03b	-0.33520684
128	0x3c21628c	0.009850156
129	0xbecea33d	-0.40358916
130	0x3b41ac50	0.002955217
131	0x3f128b4f	0.5724382
132	0xbe8a98af	-0.27069613
133	0xbe8953c9	-0.26821736
134	0x3cbef13a	0.023308385
135	0xbe77558b	-0.24153726
136	0xbef4764c	-0.47746503
137	0xbea2745c	-0.317294
138	0xbe5ee59f	-0.21767281
139	0xbe8206ba	-0.25395757
140	0xbaa581a0	-0.0012627132
141	0xba62cc80	-0.00086516887
142	0x3bfeb6f8	0.0077732764
143	0xbe7a3580	-0.24434471
144	0xbba87998	-0.005141448
145	0xbe923b34	-0.28560793
146	0x3ce82e4a	0.028342385
147	0xbe9c7b51	-0.30562833
148	0xbe5f3c6f	-0.21800397
149	0xbe813f1a	-0.25243455
150	0x3cc7d30a	0.024392623
151	0xbeb3a66b	-0.35087904
152	0xbe4c594f	-0.19955944
153	0x3f9bb925	1.2165877
154	0x3f839936	1.0281131
155	0xbea47f7a	-0.32128507
156	0xbe4b5a03	-0.19858555
157	0x3e6200eb	0.22070663
158	0xbeb4d9bb	-0.35322365
159	0xbe536bd7	-0.20646606
160	0xbe8a94c0	-0.27066612
161	0xbec2928a	-0.38002425
162	0xbe8aa391	-0.27077916
163	0x3d0dfec1	0.03466678
164	0x3c64f660	0.013974756
165	0xbec434f5	-0.38321653
166	0xbe910b28	-0.28328824
167	0xbe8f2b4b	-0.27962717
168	0xbeceaf81	-0.40368274
169	0xbec846d6	-0.39116544
170	0x3cbd6f06	0.02312423
171	0xbd14eb82	-0.03635741
172	0xbef4163d	-0.47673216
173	0xbeaf80db	-0.34277996
174	0xbea041e1	-0.31300262
175	0xbe7ab8f3	-0.24484615
176	0xbea07268	-0.31337285
177	0xbe8c3839	-0.27386644
178	0xbed952e2	-0.42446047
179	0xbe7d4943	-0.24734978
180	0xbef95fb1	-0.4870582
181	0xbd2c049c	-0.041996583
182	0xbecf8357	-0.40529892
183	0xbe864818	-0.26226878
184	0xbea5a1dd	-0.32350054
185	0xbe8954cb	-0.26822504
186	0xbe9cc09b	-0.30615696
187	0xbea24135	-0.31690374
188	0xbed06409	-0.4070132
189	0xbc447f5c	-0.0119932555
190	0xbc16a8c8	-0.009195514
191	0xbe87a671	-0.26494172
192	0xbb2d3990	-0.0026432015
193	0xbcf9b31a	-0.03048091
194	0xbe81a2dd	-0.25319567
195	0xbc4edb94	-0.012625594
196	0x3f81d5be	1.0143354
197	0x3d1e100b	0.03858952
198	0xbe69cd80	-0.22832298
199	0x3d02e345	0.031955022
200	0xbe6cade1	-0.23113205
201	0x3cc70f2e	0.02429923
202	0xbeac0dbd	-0.3360423
203	0xbee37ffc	-0.44433582
204	0xbd146674	-0.03623052
205	0x3b403be0	0.0029332563
206	0xbc1d1c14	-0.009589214
207	0xbe8b0e09	-0.27159145
208	0x3d0b771f	0.03404915
209	0xbe9046cb	-0.2817901
210	0x3d2decfb	0.04246233
211	0xbec16d98	-0.37778926
212	0xbed372c8	-0.4129851
213	0xbe7c6490	-0.24647737
214	0xbce2c703	-0.027682787
215	0xbea02bfd	-0.3128356
216	0xbee87ace	-0.45406193
217	0x3d0b2e89	0.033979926
218	0xbed07429	-0.40713623
219	0xbe9ce1b8	-0.3064096
220	0xbec03195	-0.37537828
221	0x3d07e331	0.03317565
222	0xbe899847	-0.2687399
223	0xbece3a4a	-0.40278846
224	0xbe85b926	-0.2611782
225	0xbe5c7cca	-0.21531978
226	0xbe9abe30	-0.30223227
227	0x3c25fed8	0.01013156
228	0xbd10831e	-0.035281293
229	0xbe68a48d	-0.22719021
230	0xbe8ec6c5	-0.27886024
231	0x3e93d948	0.2887671
232	0xbeb414b3	-0.35172042
233	0xbe8bd55f	-0.27311227
234	0xbebe8ce4	-0.37216866
235	0xbead501b	-0.33850178
236	0x3c3edbe8	0.011649109
237	0xbd0126bd	-0.031531084
238	0xbeb27d5b	-0.34861264
239	0x3d0d4457	0.034489002
240	0xbc33e100	-0.010978937
241	0xbec6ade2	-0.38804537
242	0x3e699a12	0.2281268
243	0xbea1a243	-0.31569108
244	0x3c823342	0.015893582
245	0xbd9a1fb6	-0.0752558
246	0x3fd9377e	1.697006
247	0xbeb1f403	-0.3475648
248	0xbe98d478	-0.298496
249	0xbea2047e	-0.31644052
250	0xbeac2fb8	-0.33630157
251	0xbd12a022	-0.035797246
252	0x3e591d3a	0.21202555
253	0xbed50655	-0.41606393
254	0xbeab74c9	-0.33487538
255	0x3f80ed86	1.0072486

linear3.bias f4 [3]
0	0xbe51f407	-0.20503245
1	0xbdc7eba9	-0.097617455
2	0xbe13b0ea	-0.14422956
