env2 DQN/log/dqn/ckpt/63000.pth (torch, 14208 bytes, 4 tensors)

linear.weight f4 [512, 2]
0.16220331 -0.16827321 -0.08756722 -2.8395212 -0.20462792 -3.1092956 -0.64000666 -3.944627
-0.32676828 -4.024741 -0.37671342 -2.8851645 -0.6180868 -2.430694 -0.39656723 -2.3249497
-0.13054737 -2.9547687 -0.75654584 -2.1887329 -2.0625565 -7.1947803 -0.53744626 -2.6020465
-0.067224324 0.18619382 -0.033943713 -0.39594215 -0.71663994 -3.9194636 -0.9391366 -4.3188243
0.16641682 0.46537954 0.03483367 -0.3241305 -0.18257535 -3.1249392 -0.70667315 -3.9560647
-0.22203329 -0.65520495 -0.04573121 -2.4010565 0.2659658 6.9006596 -0.11292419 -3.2144773
-0.3946869 -3.0548787 0.37731057 0.47499663 -1.4354405 4.59881 -0.475196 -3.542789
-0.14369994 0.4113466 -0.37640414 -2.137754 -0.06692046 -3.9121964 -0.2532514 -2.0606747
0.08179818 -2.8167226 -0.2589974 -4.0600457 -0.58437216 -3.2537348 -0.96013165 -2.7251136
-0.80490047 -3.3078926 -0.5190344 -3.0293312 -0.43150726 -3.7876878 -0.67198247 -3.7494702
0.60114974 -0.08679706 -1.2216008 -8.852035 -0.19792558 -3.2623034 -0.06633222 0.3056895
-0.5721944 -2.6478646 -0.06821197 -0.4965686 1.0311795 -3.5072312 -0.06154697 -2.0285141
-0.6446873 -3.97074 -0.691324 -4.3377585 -0.25839406 -0.113936484 -0.97861004 -9.0463915
0.40114635 0.2241056 0.449336 0.5312001 -1.7048143 -5.6804237 1.8570153 -6.1109824
-0.8017643 -3.4685981 -0.76761717 -3.7911162 -0.57090175 -2.4267027 -0.49954936 -2.9750097
0.03320091 -2.2583125 -0.86627233 -3.401146 0.46630138 -0.5068975 -0.6738528 -2.7256272
-1.0202065 -4.0497165 -0.4792475 0.22033387 -0.7652976 -3.931726 0.2740959 0.35767096
-0.21532051 -3.9036999 0.2725847 -3.1386776 -1.058823 -3.655113 0.46184975 0.32564324
-0.54054433 -2.7526364 -0.9000837 -2.793602 0.13097584 -3.3340015 -0.027871357 7.9305162
-2.3328207 -5.262013 -0.23696771 -0.6039714 -0.65254074 -3.3325267 0.06673304 -2.7270215
-0.9697355 -2.395411 0.05804211 -0.6909449 0.0335418 0.45392126 -0.6572676 -3.7541142
-0.3522925 -0.5575588 -0.8229607 -3.6334276 0.45708364 -0.13139623 -1.4480155 -6.5707626
-0.9946312 -9.530805 0.033749714 -2.393103 -0.90706664 -3.083482 -0.19258612 -3.05241
-0.77622753 -3.5708406 -0.7269942 -2.9617467 1.3900326 -4.007532 0.26711643 -0.60002285
0.5742673 6.5735354 -0.68919086 -3.724123 0.20102453 -0.38328463 0.2870438 0.5407762
-0.84513503 -3.8472767 -0.7598314 -3.8376272 -0.08109486 0.44041735 0.26465142 -0.22786802
-0.2009525 -3.6364894 -0.86910933 -3.8493288 -0.42396718 -3.4318352 -1.7849089 -1.5594765
0.104157746 -0.21995166 -0.29133284 -2.2716596 -0.42556193 -3.7219627 0.09309611 -1.8097925
-0.067489386 -0.3194029 -0.51980025 -2.7063172 -0.11394968 -3.2330525 0.028221548 0.14503723
0.18692297 -0.04000479 -0.8666179 -3.3870137 -0.520513 -3.9232135 -0.67405653 -9.686255
-0.33320108 0.2786312 -0.72516286 -4.213889 0.068514004 -2.504879 0.01901595 -1.5708736
-0.51774 -4.416116 -1.0337151 -3.7262225 -0.266838 -3.5555553 -0.8659201 -3.0634081
00000000: a018 263e d04f 2cbe 7156 b3bd b7ba 35c0
00000010: fb89 51be b3fe 46c0 7ad7 23bf c574 7cc0
00000020: 2c4e a7be aeca 80c0 95e0 c0be 89a6 38c0
00000030: f03a 1ebf 7e90 1bc0 dc0a cbbe facb 14c0
00000040: 36ae 05be ee1a 3dc0 fdac 41bf 3314 0cc0
00000050: ed00 04c0 a43b e6c0 1496 09bf ee87 26c0
00000060: e8ac 89bd 98a9 3e3e 9008 0bbd eeb8 cabe
00000070: b775 37bf 7ed8 7ac0 426b 70bf cf33 8ac0
00000080: 2c69 2a3e 3a46 ee3e c0ad 0e3d 6ff4 a5be
00000090: 08f5 3abe 01ff 47c0 88e8 34bf 2a30 7dc0
000000a0: b25c 63be 83bb 27bf a650 3bbd e9aa 19c0
000000b0: ab2c 883e 34d2 dc40 cc44 e7bd ffb9 4dc0
000000c0: 6714 cabe 2283 43c0 da2e c13e c232 f33e
000000d0: 84bc b7bf 7429 9340 e44c f3be 0ebd 62c0
000000e0: 1426 13be 069c d23e 0bb8 c0be f6d0 08c0
000000f0: 980d 89bd 6d61 7ac0 2baa 81be 18e2 03c0
00000100: ce85 a73d 2f45 34c0 4f9b 84be e5eb 81c0
00000110: 6a99 15bf 313d 50c0 30cb 75bf 4368 2ec0
00000120: f50d 4ebf 83b4 53c0 70df 04bf 90e0 41c0
00000130: 85ee dcbe 7a69 72c0 0b07 2cbf 52f7 6fc0
00000140: f3e4 193f a8c2 b1bd 6a5d 9cbf efa1 0dc1
00000150: 01ad 4abe 94c9 50c0 30d9 87bd 5683 9c3e
00000160: 557b 12bf 9d76 29c0 b8b2 8bbd 3d3e febe
00000170: b1fd 833f 7a76 60c0 ad18 7cbd 2dd3 01c0
00000180: 3a0a 25bf 9b20 7ec0 9cfa 30bf ebce 8ac0
00000190: 3a4c 84be 8857 e9bd 3086 7abf 05be 10c1
000001a0: 0e63 cd3e f07b 653e 5e0f e63e bbfc 073f
000001b0: 5b37 dabf 08c6 b5c0 adb2 ed3f 2b8d c3c0
000001c0: 6d40 4dbf 83fd 5dc0 8f82 44bf a6a1 72c0
000001d0: 9e26 12bf 194f 1bc0 efc4 ffbe 8f66 3ec0
000001e0: adfd 073d 3188 10c0 06c4 5dbf 60ac 59c0
000001f0: 0ebf ee3e 09c4 01bf 9e81 2cbf ad70 2ec0
00000200: 2096 82bf 4797 81c0 ee5f f5be 349f 613e
00000210: 8bea 43bf 66a1 7bc0 4c56 8c3e a620 b73e
00000220: fb7c 5cbe 38d6 79c0 3990 8b3e 18e0 48c0
00000230: 8387 87bf 5fed 69c0 9277 ec3e b6ba a63e
00000240: 1d61 0abf 322b 30c0 e36b 66bf 60ca 32c0
00000250: 881e 063e 4860 55c0 7952 e4bc cac6 fd40
00000260: ef4c 15c0 6962 a8c0 aaa7 72be df9d 1abf
00000270: e90c 27bf 1e48 55c0 55ab 883d 8587 2ec0
00000280: 9640 78bf 6a4e 19c0 90bd 6d3d c4e1 30bf
00000290: 2063 093d 5e68 e83e b042 28bf 6843 70c0
000002a0: af5f b4be 2cbc 0ebf 8dad 52bf 148a 68c0
000002b0: de06 ea3e bc8c 06be 9258 b9bf b043 d2c0
000002c0: 26a0 7ebf 2d7e 18c1 243d 0a3d 9928 19c0
000002d0: 8535 68bf c557 45c0 4c35 45be af5a 43c0
000002e0: d9b6 46bf a788 64c0 4b1c 3abf 428d 3dc0
000002f0: 97ec b13f b43d 80c0 7cc3 883e 199b 19bf
00000300: 2f03 133f 675a d240 d06e 30bf 0858 6ec0
00000310: 60d9 4d3e e23d c4be 68f7 923e 4f70 0a3f
00000320: c55a 58bf c839 76c0 5084 42bf af9b 75c0
00000330: 1015 a6bd 627e e13e 6480 873e 3c56 69be
00000340: 7ec6 4dbe 3ebc 68c0 f37d 5ebf 675b 76c0
00000350: 3a12 d9be 30a3 5bc0 e577 e4bf ed9c c7bf
00000360: a850 d53d 023b 61be 9429 95be df62 11c0
00000370: 41e3 d9be a334 6ec0 2ca9 be3d 48a7 e7bf
00000380: e037 8abd c788 a3be a111 05bf 4d34 2dc0
00000390: 735e e9bd 55ea 4ec0 e030 e73c a484 143e
000003a0: bc68 3f3e 10dc 23bd acda 5dbf d5c4 58c0
000003b0: 5740 05bf ee15 7bc0 f88e 2cbf e7fa 1ac1
000003c0: 5599 aabe c0a8 8e3e 46a4 39bf 2ed8 86c0
000003d0: 1251 8c3d f04f 20c0 56c7 9b3c 6312 c9bf
000003e0: 9c8a 04bf d350 8dc0 c750 84bf 6e7a 6ec0
000003f0: fe9e 88be 388e 63c0 f1ac 5dbf e10e 44c0

linear.bias f4 [512]
-0.08883327 0.14112625 0.33056137 0.3599237 0.24108338 0.22471464 0.3189076 0.76435053
0.14958778 0.684201 0.07490642 0.37914014 -0.26192716 -0.57071584 0.392875 0.4919119
-0.35503486 -0.30494314 0.44671604 0.3882435 -0.5317903 0.16076952 -0.023305275 0.5998266
0.5456199 -0.38812736 0.38799334 0.27999663 -0.7007002 0.20930262 0.6235621 0.78689986
0.35431516 0.3672046 0.32182264 0.46809575 0.4147596 0.5268959 0.60157305 0.37022358
-0.68915397 -0.022195203 0.28695068 -0.4183643 0.3063157 -0.37033466 0.1020713 0.78701913
0.3627928 0.38919723 -0.41619626 -0.014742697 -0.42776066 -0.56788975 0.08155015 0.25375652
0.41577223 0.41103867 0.6971326 0.7009114 0.5641247 0.4404811 -0.35267243 0.5719176
0.5207969 -0.6692872 0.59167415 -0.578352 0.4527199 0.67643875 0.5269126 -0.623435
0.29386258 0.44684342 0.3999857 -0.022907387 0.16880436 -0.32272238 0.35501716 0.35265544
0.813872 -0.17869782 -0.22989681 0.3637742 -0.61723846 0.42752114 -0.35274062 -0.00016124865
-0.0151546905 0.7392559 0.76153475 0.43721783 0.41043946 0.69688934 0.19030291 -0.27866197
0.003871673 0.7313282 -0.5545656 -0.68310964 0.44321525 0.6572208 -0.59512156 -0.45612633
0.19089735 0.4525672 0.56059843 0.1915519 -0.34290472 0.26385787 0.6215475 0.3378424
-0.12229735 0.28405944 0.7917509 -0.4906844 -0.566022 0.73691696 0.3061432 0.0033629704
-0.6797293 0.40211457 0.3022518 0.26022583 0.3193163 0.5154888 0.8092172 0.43567896
-0.29339442 0.17610347 -0.57390106 -0.00096264866 0.57174873 0.51455915 -0.5377266 0.64336854
0.27738583 0.37544724 0.56884253 0.3433305 -0.34606498 -0.6653655 -0.51464105 0.7128086
-0.36447918 0.45757663 -0.24716276 0.6545933 0.62102044 0.37658447 -0.2606286 0.44938618
0.53344387 -0.10456027 0.15898101 0.56506884 0.737921 0.2807058 0.46798885 0.5899344
0.6359537 0.26214948 0.74177665 -0.6241402 -0.6707364 0.41434097 0.19487996 0.5284888
0.36145574 0.26427087 -0.41144732 -0.0832988 0.2961145 0.46107736 0.2908452 0.46596444
0.37320837 0.81016326 0.21630363 0.73882407 0.32498354 -0.5565876 0.19754231 0.55064625
0.49052918 0.58723044 0.16693456 0.39487305 0.3879991 -0.26484674 -0.22827399 0.807953
-0.37686625 -0.09850174 0.76983076 -0.39074773 0.008000357 -0.61628646 0.8137525 -0.31776482
0.645039 -0.1640147 0.4562232 0.34587947 -0.62279695 -0.5955126 -0.5243647 0.3231919
-0.57030773 0.6728896 -0.48166436 0.41071895 0.21812198 0.6464123 -0.44611308 0.5198389
0.348514 -0.3649692 0.22720507 0.50637937 0.36669672 -0.5064218 0.71223176 0.17070425
0.34753197 0.7429884 0.3327032 -0.27047664 -0.54013526 0.7534588 0.44580495 0.204421
0.31464043 0.5590658 0.32399634 0.44109428 -0.5534726 -0.6768131 0.4287847 -0.5053793
-0.6432737 0.22875488 0.26013452 0.5343455 -0.5794231 0.37096682 0.028919006 0.44203356
0.43494803 0.50226396 0.3631301 -0.6758164 0.2904272 0.30654612 0.3253758 -0.08124609
00000000: 38ee b5bd 6683 103e 573f a93e eb47 b83e
00000010: 90de 763e 981b 663e db47 a33e 7aac 433f
00000020: 8a2d 193e cc27 2f3f 8a68 993d a81e c23e
00000030: 511b 86be 6f1a 12bf e926 c93e e0db fb3e
00000040: 21c7 b5be 8221 9cbe f7b7 e43e dac7 c63e
00000050: 6923 08bf c4a0 243e b4ea bebc 3c8e 193f
00000060: bfad 0b3f a1b8 c6be 10a7 c63e b85b 8f3e
00000070: 1761 33bf 6d53 563e c4a1 1f3f 4572 493f
00000080: cc68 b53e 3e02 bc3e f0c5 a43e 3faa ef3e
00000090: 5f5b d43e a6e2 063f b100 1a3f f28d bd3e
000000a0: 656c 30bf b7d2 b5bc 33eb 923e d833 d6be
000000b0: 69d5 9c3e 819c bdbe c20a d13d 167a 493f
000000c0: fabf b93e dc44 c73e ad17 d5be 5a8b 71bc
000000d0: 7203 dbbe 3961 11bf c403 a73d 60ec 813e
000000e0: 19e0 d43e a973 d23e 4877 323f ee6e 333f
000000f0: 7a6a 103f bd86 e13e 7b91 b4be 3169 123f
00000100: f252 053f 6856 2bbf f577 173f e00e 14bf
00000110: e7ca e73e 172b 2d3f bfe3 063f 7099 1fbf
00000120: 2875 963e a9c8 e43e edca cc3e 46a8 bbbc
00000130: 0ddb 2c3e de3b a5be cfc4 b53e 418f b43e
00000140: ea59 503f 90fc 36be 126a 6bbe 9d40 ba3e
00000150: 5703 1ebf 0de4 da3e 6b9a b4be db14 29b9
00000160: 614b 78bc e03f 3d3f f1f3 423f 04db df3e
00000170: 1f25 d23e 5767 323f c4de 423e c8ac 8ebe
00000180: e5bb 7d3b 5338 3b3f 03f8 0dbf 46e0 2ebf
00000190: 1ced e23e 9f3f 283f e359 18bf 6489 e9be
000001a0: 987a 433e e3b6 e73e 6183 0f3f 2e26 443e
000001b0: 3591 afbe 6118 873e bd1d 1f3f aef9 ac3e
000001c0: 0877 fabd 3d70 913e 30b0 4a3f fc3a fbbe
000001d0: d1e6 10bf 97a6 3c3f cdbe 9c3e 4865 5c3b
000001e0: bd02 2ebf f6e1 cd3e bfc0 9a3e 523c 853e
000001f0: 6d7d a33e 13f7 033f dc28 4f3f 5011 df3e
00000200: cb37 96be 7854 343e 2eeb 12bf 425a 7cba
00000210: 205e 123f 26ba 033f 73a8 09bf cdb3 243f
00000220: 8405 8e3e 9f3a c03e aa9f 113f 04c9 af3e
00000230: 6e2f b1be 6555 2abf 84bf 03bf a07a 363f
00000240: 049d babe 7c47 ea3e 3c18 7dbe 6d93 273f
00000250: 32fb 1e3f aecf c03e 1d71 85be f215 e63e
00000260: c78f 083f b223 d6bd ebcb 223e 5aa8 103f
00000270: 64e8 3c3f acb8 8f3e 3c9c ef3e f105 173f
00000280: ddcd 223f 7538 863e 13e5 3d3f a7c7 1fbf
00000290: 61b5 2bbf 8024 d43e 9d8e 473e 0b4b 073f
000002a0: ba10 b93e 834e 873e 39a9 d2be 9098 aabd
000002b0: 529c 973e 5512 ec3e a9e9 943e e492 ee3e
000002c0: 2b15 bf3e dc66 4f3f b37e 5d3e 9323 3d3f
000002d0: 3e64 a63e 867c 0ebf 8848 4a3e 27f7 0c3f
000002e0: a426 fb3e bc54 163f e5f0 2a3e cd2c ca3e
000002f0: d1a7 c63e fe99 87be a8c0 69be 02d6 4e3f
00000300: 9df4 c0be 48bb c9bd a113 453f 1610 c8be
00000310: ee13 033c f3c4 1dbf 1552 503f 12b2 a2be
00000320: 4721 253f 78f3 27be 1696 e93e 1d17 b13e
00000330: 9f6f 1fbf 8473 18bf c43c 06bf 6979 a53e
00000340: b0ff 11bf 7e42 2c3f b69c f6be c149 d23e
00000350: 5e5b 5f3e 477b 253f ef68 e4be 2a14 053f
00000360: 6d70 b23e 3edd babe 72a8 683e 14a2 013f
00000370: acbf bb3e dca4 01bf d254 363f 18cd 2e3e
00000380: b6ef b13e 7d34 3e3f 1358 aa3e ea7b 8abe
00000390: 4e46 0abf ade2 403f 8c40 e43e bd53 513e
000003a0: 8d18 a13e f01e 0f3f d9e2 a53e 1cd7 e13e
000003b0: 61b0 0dbf a043 2dbf ab89 db3e 8a60 01bf
000003c0: 96ad 24bf b83e 6a3e 5a30 853e deca 083f
000003d0: 1355 14bf 5def bd3e 8de7 ec3c 3952 e23e
000003e0: 82b1 de3e 5f94 003f 30ec b93e 4e02 2dbf
000003f0: e0b2 943e 9df3 9c3e a897 a63e 5a64 a6bd

linear3.weight f4 [3, 512]
0.027870577 -0.6434213 -0.3979436 -0.4170252 -0.6766894 -0.5450141 -0.3813308 -0.2540852
-0.6280866 -0.2410962 1.6276765 -0.35943356 0.03553761 0.03838749 -0.5248558 -0.45800543
-0.018890886 0.005995594 -0.40768054 -0.37967786 0.011117101 -0.5185022 2.501978 -0.29823047
-0.3315853 -0.044066362 1.6983424 -0.59871566 -0.024110546 -0.41244262 -0.34434584 -0.20648687
-0.5399779 -0.4391955 -0.4480315 -0.38055274 -0.4500137 -0.30783135 -0.31128207 -0.43399572
-0.02790368 1.8452613 -0.52314603 0.037984323 -0.41874835 0.04371315 -0.6792822 -0.25667003
-0.45506984 -0.49012676 -0.022576945 2.0859911 -0.003616985 -0.032856815 1.1106628 -1.1403236
-0.36868924 -0.48489994 -0.2651184 -0.2540251 -0.356679 -0.38653243 -0.039531413 -0.296911
-0.46163473 -0.008022193 -0.36223647 0.029701065 -0.39585033 -0.33420095 -0.3988025 0.034841415
-0.33306515 -0.3892402 -0.5419116 2.991655 1.449352 0.003515739 -0.4500003 -0.47837988
-0.25080124 0.0047042556 0.038190078 -0.43560618 0.03299875 -0.35881674 0.043191988 1.2673427
2.5233426 -0.31541702 -0.28224778 -0.36230507 -0.41132787 -0.31521052 -0.6709891 0.014199831
2.5590165 -0.28136557 0.034991343 0.0338636 -0.42957205 -0.33580425 0.040180262 0.026590023
-0.70726484 -0.48170745 -0.3128605 0.76633126 0.0425929 -0.36539128 -0.36506912 -0.44877365
-0.03872675 -0.4541201 -0.30169082 0.011692353 -0.029554624 -0.31090906 -0.553924 3.2196534
-0.032763984 -0.5196019 -0.52890825 -0.4590998 -0.56871796 -0.30928347 -0.2944048 -0.4133627
0.009850156 -0.67494416 0.002955217 1.3271013 -0.3260365 -0.3650342 0.023308385 -0.2881675
-0.6352579 -0.41191474 -0.2957244 -0.31792805 -0.0012627132 -0.00086516887 0.0077732764 -0.29872823
-0.005141448 -0.37146097 0.028342385 -0.3777233 -0.25892353 -0.34406295 0.024392623 -0.43717933
-0.25100428 2.0553052 1.353845 -0.40288374 -0.24500327 0.39720002 -0.46520716 -0.2500547
-0.33122468 -0.49695313 -0.32736364 0.03466678 0.013974756 -0.490555 -0.34948826 -0.36668518
-0.5245372 -0.5312609 0.02312423 -0.03635741 -0.6140935 -0.4422967 -0.40351984 -0.32027748
-0.3892809 -0.30578157 -0.6085041 -0.30632684 -0.6303522 -0.041996583 -0.53059375 -0.34304988
-0.41255537 -0.3476679 -0.5869102 -0.4038034 -0.5393568 -0.0119932555 -0.009195514 -0.3007912
-0.0026432015 -0.03048091 -0.29820764 -0.012625594 2.5427568 0.03858952 -0.24368338 0.031955022
-0.2774475 0.02429923 -0.41809464 -0.6167903 -0.03623052 0.0029332563 -0.009589214 -0.39547294
0.03404915 -0.3319466 0.04246233 -0.47348243 -0.6200724 -0.3015617 -0.027682787 -0.36857823
-0.5624631 0.033979926 -0.6134657 -0.40920007 -0.5002784 0.03317565 -0.31078646 -0.55216444
-0.39207938 -0.246271 -0.43135712 0.01013156 -0.035281293 -0.25997615 -0.3447252 0.5123527
-0.4814029 -0.34789428 -0.4811329 -0.42665717 0.011649109 -0.031531084 -0.456531 0.034489002
-0.010978937 -0.44249818 0.41473266 -0.35948104 0.015893582 0.0015593711 4.1686583 -0.45802644
-0.40346748 -0.4090571 -0.3824686 -0.035797246 0.38187557 -0.5708504 -0.40912315 1.8648342
00000000: d650 e43c 42b7 24bf 43bf cbbe 5484 d5be
00000010: 843b 2dbf 0b86 0bbf ca3d c3be 7517 82be
00000020: 49ca 20bf ece1 76be b457 d03f ad07 b8be
00000030: e38f 113d 333c 1d3d f35c 06bf b07f eabe
00000040: 0fc1 9abc b076 c43b 81bb d0be 2365 c2be
00000050: 8024 363c 8fbc 04bf 6820 2040 aab1 98be
00000060: 8cc5 a9be ee7e 34bd 4963 d93f 6e45 19bf
00000070: 7b83 c5bc ae2b d3be 194e b0be 4b71 53be
00000080: fe3b 0abf 3cde e0be 6364 e5be cfd7 c2be
00000090: 3268 e6be 129c 9dbe 5d60 9fbe b034 debe
000000a0: 4296 e4bc 8631 ec3f e6ec 05bf 7395 1b3d
000000b0: 2f66 d6be 8f0c 333d 70e5 2dbf 416a 83be
000000c0: eafe e8be e5f1 fabe 49f3 b8bc e180 0540
000000d0: f00a 6dbb de94 06bd 332a 8e3f 20f6 91bf
000000e0: d6c4 bcbe ce44 f8be 99bd 87be 940f 82be
000000f0: a19e b6be 94e7 c5be b1eb 21bd b804 98be
00000100: 635b ecbe 846f 03bc 0f77 b9be a64f f33c
00000110: e5ac cabe 631c abbe d72f ccbe dfb5 0e3d
00000120: 8487 aabe 7e4a c7be b8ba 0abf 4777 3f40
00000130: 5e84 b93f 5068 663b 7066 e6be 35ee f4be
00000140: 0569 80be 2826 9a3b 336d 1c3d c607 dfbe
00000150: b329 073d d4b6 b7be 15ea 303d 4938 a23f
00000160: 727e 2140 577e a1be c882 90be 0d80 b9be
00000170: 9199 d2be 4663 a1be f1c5 2bbf 68a6 683c
00000180: edc6 2340 260f 90be 1553 0f3d 8fb4 0a3d
00000190: def0 dbbe 89ee abbe 0f94 243d 52d3 d93c
000001a0: 4f0f 35bf 5ca2 f6be 402f a0be 492e 443f
000001b0: e575 2e3d 9114 bbbe 57ea babe a9c5 e5be
000001c0: f19f 1ebd 6e82 e8be 3877 9abe 4891 3f3c
000001d0: 8a1c f2bc 792f 9fbe f7cd 0dbf cd0e 4e40
000001e0: 8733 06bd a104 05bf 8866 07bf 210f ebbe
000001f0: 8097 11bf 675a 9ebe 3abc 96be 47a4 d3be
00000200: 8c62 213c 24c9 2cbf 50ac 413b 75de a93f
00000210: 42ee a6be c3e5 babe 3af1 be3c b18a 93be
00000220: 43a0 22bf 7de6 d2be 3069 97be 77c7 a2be
00000230: a081 a5ba 80cc 62ba f8b6 fe3b e8f2 98be
00000240: 9879 a8bb 2230 bebe 4a2e e83c f364 c1be
00000250: a091 84be 0529 b0be 0ad3 c73c f8d5 dfbe
00000260: a283 80be 1f8a 0340 cb4a ad3f c746 cebe
00000270: 23e2 7abe cd5d cb3e a22f eebe 2b07 80be
00000280: 4896 a9be a470 febe 359c a7be c1fe 0d3d
00000290: 60f6 643c 062a fbbe 20f0 b2be 29be bbbe
000002a0: 1248 06bf b700 08bf 066f bd3c 82eb 14bd
000002b0: 3b35 1dbf b774 e2be 279a cebe 69fb a3be
000002c0: d34f c7be 678f 9cbe edc6 1bbf dfd6 9cbe
000002d0: c35e 21bf 9c04 2cbd fed4 07bf 3ca4 afbe
000002e0: 753a d3be 8701 b2be bf3f 16bf 52bf cebe
000002f0: 4a13 0abf 5c7f 44bc c8a8 16bc 4e01 9abe
00000300: 9039 2dbb 1ab3 f9bc acae 98be 94db 4ebc
00000310: 87bc 2240 0b10 1e3d 2388 79be 45e3 023d
00000320: 990d 8ebe 2e0f c73c 8010 d6be f8e5 1dbf
00000330: 7466 14bd e03b 403b 141c 1dbc 6e7b cabe
00000340: 1f77 0b3d e8f4 a9be fbec 2d3d 4a6c f2be
00000350: 11bd 1ebf 4c66 9abe 03c7 e2bc 49b6 bcbe
00000360: 95fd 0fbf 892e 0b3d 170c 1dbf ac82 d1be
00000370: 3f12 00bf 31e3 073d 671f 9fbe a65a 0dbf
00000380: a1be c8be 772e 7cbe d7da dcbe d8fe 253c
00000390: 1e83 10bd 981b 85be d27f b0be 8c29 033f
000003a0: 717a f6be 331f b2be 0d57 f6be cf72 dabe
000003b0: e8db 3e3c bd26 01bd 6ebe e9be 5744 0d3d
000003c0: 00e1 33bc 1f8f e2be d757 d43e e60d b8be
000003d0: 4233 823c d063 cc3a a665 8540 7182 eabe
000003e0: 4a93 cebe ef6f d1be edd2 c3be 22a0 12bd
000003f0: 3285 c33e 4023 12bf 9778 d1be e3b2 ee3f

linear3.bias f4 [3]
-0.19526039 -0.06901359 -0.04611517
00000000: 57f2 47be ff56 8dbd 43e3 3cbd
